state_dicts/fourierPERFECT.pt (torch, 132567 bytes, 6 tensors)

layerone.weight f4 [120, 240]
00000000: 299e a931 e884 5d3d 3de3 55bd 259d 23bc
00000010: 6406 7c3d ad06 85bd f295 0f3d 44f5 b83d
00000020: 69d7 013e 6605 e9bd 7120 593b 58d9 1f3d
00000030: 9c3f 0abd c2ea 8b3e 7672 913d 77d7 4abd
00000040: 70c8 1d3d 19fc 883d 79ed 49bd 8272 43bb
00000050: 20a2 26be 461a 28bd 6cbf 8b3b 9ab4 cd3c
00000060: 6b72 4a3d 78bd 043e b907 e63d ff11 963c
00000070: 4c11 273e 4d5a c1bc 348a fabc be2d 2c3d
00000080: eee5 dcbc 9438 ac3d deb5 82bb 843c a63c
00000090: da0d d4bd 1199 6cbd d82b fbbc 3a95 0bbd
000000a0: c03b 9fbd 79b5 0a3e 22da 173d db93 19bc
000000b0: fec9 43bd ea9e e73d 8600 b33c b7df 233c
000000c0: d68b 5a3d 82f6 813e 0a3f 663c 3280 973c
000000d0: 5078 243d f82a c5bd cd97 133d 8e94 00bd
000000e0: 14c8 63bd 1faa 2fbd 8461 c3bd e7d6 b33d
000000f0: b8b5 1ebe 893b e4bd 9035 08be 2ce7 253c
00000100: cd06 66bc a810 d63d 424f e83d 2b58 f0bc
00000110: b2ad b93d 6154 12bd 688d f9bb 254e 6e3c
00000120: c421 683d 8a66 8e3d a958 183d 0ca5 df3d
00000130: 863d 57bd 019e fa3b bccd 473c ff55 a6bd
00000140: e076 6bbd 2080 013d 6e88 8e3b ead3 03be
00000150: 9ed7 e9bc 548f 1abd c989 adbd 9064 3fb9
00000160: 9f9c 0abd fa2a 7fbd 2c74 4cbd a256 c9bd
00000170: 4ac5 8b3c d31b 263d 78f2 95bd 9481 3fbe
00000180: 1574 7dbd c8ec a53c 2d6f f5bc 4b93 d3bb
00000190: 3aca 5e3d 9f8b 45bb 418a d33c 9189 39bd
000001a0: 31ce 30bd 5d38 2dbd db21 69bd aca2 563e
000001b0: 088f b83d da07 14bd cf29 cabd 74a7 a83c
000001c0: bba5 cebc db59 f4bc b5c5 1bbc 95c0 73bd
000001d0: 1297 a5bc 84f2 7b39 112f babd d879 e03b
000001e0: 7066 80bd 0e5c 87bd 2006 e53d bb9e 153d
000001f0: 9355 0e3e 5060 0f3d 31fb 54bd 25c3 e3bc
00000200: 7545 efbd b008 b0bd d758 2abd cbb1 a0bc
00000210: 73e2 7d3d 0c5c 89b9 8ff0 253d e5e6 a3bd
00000220: ed60 ffbd c0f8 f9bd b15a dabc 9468 a43d
00000230: 8c46 b23d 0087 6a3c f54b a83d 019c bbbd
00000240: 68dc 21be a1ce af3d 1a44 ad3d 960c 0b3e
00000250: e61a 01be 5156 473d 4929 023d 31e5 19bd
00000260: ae6f fabd 00fa ccbd 4cf8 e1bb 367e 7ebc
00000270: bbc3 0bbc f423 81bc 5205 e5bb 4c38 17be
00000280: 453a e8bc a3c6 793d 22a7 43bd b0bb fabd
00000290: 1e23 10bd 2a50 39bc 4b58 0a3d 1d91 8ebc
000002a0: 9c16 30bb afe0 0b3e f8ea 57bd cb1a b63d
000002b0: c36b 483d d71d a8bd bd88 463e f356 33bd
000002c0: 7b99 063d ab8a 053d 36b2 9abd ad4a 38be
000002d0: db1d 843d 2a84 ce3d a2a1 60bd bdee 1bbe
000002e0: e0f2 03bc 123a afbc b98b 55bd 8493 1d3d
000002f0: e55f 36bd 6649 e7bd 0741 9f3d d066 ba3d
00000300: 79b9 823c b274 603d cc0d 7d3b 2322 013b
00000310: 5bde 05be 0f6a 543d 8bc4 e03d 4d75 74bd
00000320: 5229 393d e4c5 ba3d c9b4 3dbd 64ac 3e3e
00000330: 6cf8 2bbd 0f6f b4bd 6e96 b33d 19b3 d0bd
00000340: b703 2c3d ce29 d03d 57e9 dc3c 87e9 873d
00000350: 8cde d93c c31a 173e 1481 f33d e7de 70bc
00000360: 50fc c4bd 187b 3bbd 0058 9f3d 1bd4 503d
00000370: 859f d7bd dd6f eb3d a215 cdbd c915 f33b
00000380: 38a1 493d f254 743c e160 b33d 32cb 3c3c
00000390: 9f6a 473d 64c7 4f3c f61c b03d 8aaf e5b9
000003a0: d808 3a3d 7e79 11bd 80f4 dfbc d859 19bd
000003b0: a42b 5e3d ab7f 253b 6902 b23c 4fe5 1abd
000003c0: 317e 2e32 3c76 babd 0bdc 83bc f718 ef3c
000003d0: c511 6bbd 4fb9 08bd 7d0a 313d 2ff6 f33a
000003e0: 7c83 bfbc 6a8d 4fbd cc4f 70bd 836f 84bb
000003f0: 1bf6 b73c d101 a13c c9f8 33bd ec42 b0bc
4.936528e-09 0.054081827 -0.052218664 -0.009986197 0.061529532 -0.06495414 0.03505511 0.09031156
0.12679829 -0.11377983 0.003313091 0.039025635 -0.03375207 0.27327543 0.0710191 -0.04952189
0.03852123 0.06688709 -0.049298737 -0.002982289 -0.16272783 -0.04104068 0.0042647626 0.025110532
0.049425524 0.12962902 0.11231942 0.018319128 0.16315192 -0.02360263 -0.030583479 0.04203581
-0.026965108 0.08409229 -0.0039889654 0.020292528 -0.103542045 -0.057763163 -0.030660555 -0.03407786
-0.07775068 0.13545789 0.037073262 -0.00937363 -0.047800057 0.11309607 0.021850836 0.010002068
0.053356014 0.25383383 0.014053116 0.018493745 0.0401538 -0.09627336 0.03603344 -0.031391673
-0.05561073 -0.04288685 -0.09540084 0.08781224 -0.15499008 -0.11144168 -0.13301682 0.010125916
-0.014039707 0.10452396 0.11343242 -0.029338917 0.09066333 -0.035725 -0.007615734 0.014544998
0.056672826 0.069531515 0.037193928 0.10920152 -0.052548908 0.00764823 0.012195047 -0.08121871
-0.057486415 0.03161633 0.00434976 -0.12873808 -0.028545197 -0.037734345 -0.08473546 -0.00018252642
-0.03384077 -0.062296845 -0.049915478 -0.09830977 0.017061848 0.04055388 -0.07321638 -0.18701774
-0.061878283 0.020254508 -0.02996024 -0.0064567677 0.054392077 -0.0030143035 0.02582276 -0.04529721
-0.04316539 -0.04229008 -0.056917053 0.20960492 0.09011656 -0.0361403 -0.098712556 0.02058766
-0.02522551 -0.029828003 -0.009507586 -0.059509832 -0.020213638 0.0002402757 -0.090910085 0.0068504624
-0.062695384 -0.06609355 0.11182809 0.03652833 0.13899831 0.03500396 -0.051997367 -0.027803013
-0.1168317 -0.08595407 -0.04158863 -0.019616028 0.061983537 -0.00026199257 0.040512618 -0.08003024
-0.12469659 -0.122056484 -0.026654573 0.08027759 0.08704862 0.014314413 0.08217613 -0.09160615
-0.15806735 0.08584333 0.08460255 0.1357902 -0.12607917 0.048666302 0.031777654 -0.03757209
-0.122283325 -0.10008621 -0.0068960544 -0.015533021 -0.0085305525 -0.015764214 -0.0069891596 -0.1476757
-0.028348098 0.06098045 -0.047766812 -0.1224283 -0.03518974 -0.0113106165 0.03377561 -0.01740318
-0.0026868945 0.13659929 -0.052714318 0.08891829 0.048930895 -0.082088165 0.19388099 -0.043784093
0.032861214 0.032602947 -0.07553522 -0.17997237 0.06451007 0.10083802 -0.054841645 -0.1522779
-0.008053511 -0.021389995 -0.052135203 0.03847076 -0.044525046 -0.112932965 0.07776075 0.09101641
0.01595758 0.05479879 0.003861296 0.0019704185 -0.13073103 0.051858958 0.109749876 -0.05968218
0.04520542 0.09119776 -0.04631499 0.1862045 -0.04198496 -0.08810245 0.087689266 -0.1019041
0.04199573 0.101642236 0.026966734 0.06636339 0.026595376 0.14756303 0.11889854 -0.014701582
-0.09618437 -0.04577169 0.077804565 0.05098353 -0.10528473 0.114959456 -0.10013892 0.0074183685
0.049226016 0.014912831 0.087587126 0.011523055 0.048685666 0.012681816 0.08599274 -0.0004380907
0.04541859 -0.035516255 -0.027338266 -0.037439197 0.054240838 0.0025253098 0.021729665 -0.037816342
1.0156826e-08 -0.09104583 -0.016096136 0.029186709 -0.057389993 -0.03337985 0.043222893 0.0018612797
-0.023378126 -0.050671972 -0.05866985 -0.0040416135 0.02245622 0.019654186 -0.043938432 -0.021516286

layerone.bias f4 [120]
00000000: 960b 06bd 0c30 acbd d72e ca3e fd30 663c
00000010: 74d2 8dbe 5ca0 f63e 17f4 97bd a834 a83d
00000020: 7b19 adbe df0c e33e 70aa 9ebe 1f2f 8a3e
00000030: 0ecd 8abe d0ed 9bbd 7fc4 05be 7c96 04bd
00000040: e06c 823e 5e1f 77bb 0d2d 9d3c 6306 a8be
00000050: f024 b63e e608 12be 057b 0b3e 8706 f13e
00000060: c5f0 7c3e da73 ed3d a0b3 aebd 0e2e 47bd
00000070: 0836 ad3e ff89 afbe a246 adbe 6332 b6be
00000080: f863 273e 9917 86bd 76fd b8be 80dc f2be
00000090: 241c 7a3e 75a7 9ebe 3946 0e3f 3ff1 50be
000000a0: 41a8 c7be 8dc6 5f3e db5d b0bd 03cb 943d
000000b0: 7389 ecbd bd57 bd3e 4a76 853e 91e3 af3d
000000c0: 371c ae3e d1fb 253f d471 27be d35c c43d
000000d0: 1f8f aabe ab8d 2dbb 2e0d fa3d 5bf3 d43d
000000e0: 6b59 bc3e ff17 2e3e f7ad 043f 4430 b8bd
000000f0: 8079 a4be d12f d9be b9af c53d 3d64 e73e
00000100: 9430 3f3e a1ba 143d 6860 debd 6919 7d3d
00000110: 1572 a5be a86b d83e 8908 d73e 879a a63d
00000120: 964c 33bd c3f6 97be 79e9 aabd 9709 0a3f
00000130: 6eba dfbd cdd2 c83e 4f56 e7be 152a 09be
00000140: 5ad7 023e 5afb b2bd 5f0d 3a3e 6800 1c3f
00000150: 7927 d6be 65a4 b8be 34b6 d1be 8afe 1ebd
00000160: 1967 0f3e f541 123e dd97 d6be b181 ccbe
00000170: 688e e13e 17b7 64be ea67 37be 8dc7 c9bd
00000180: 2d24 c43e fe91 6b3e 77c9 cfbe ef31 5dbe
00000190: 084e ecbe 60e5 babe 3dce 68be fc53 81be
000001a0: 717f b23e 8e04 983e 0997 ea3a bb1d a83e
000001b0: fe02 533d 89e4 92be bc4b ff3e f2b7 333f
000001c0: 1cfb 5ebe 4ede a63d 7a7f 86be 6f0a 3e3e
000001d0: 8126 323f a15d de3d 4ace 633e a3a0 8ebe
-0.032725893 -0.08407602 0.3948886 0.014049766 -0.27699625 0.4816922 -0.07419603 0.082131684
-0.33808503 0.44345757 -0.30989408 0.26989076 -0.2710957 -0.076137185 -0.13063239 -0.032370076
0.2547369 -0.0037707905 0.019186521 -0.32817373 0.35575056 -0.14261207 0.13621147 0.47075292
0.24701221 0.115943626 -0.085303545 -0.048627906 0.33830285 -0.3428497 -0.3384295 -0.35585317
0.16346729 -0.0654747 -0.36130875 -0.47433853 0.24424797 -0.30987135 0.555759 -0.20404528
-0.38995555 0.21853085 -0.086116515 0.07265284 -0.11549654 0.36981001 0.2606681 0.08588327
0.340059 0.64837366 -0.16352016 0.09588017 -0.33312318 -0.0026482146 0.12209545 0.10397979
0.3678697 0.17001341 0.5182795 -0.08993581 -0.32123947 -0.42419294 0.09652657 0.45193663
0.18670875 0.036310796 -0.10858232 0.06179181 -0.323136 0.42269635 0.419987 0.081349425
-0.04377421 -0.29680452 -0.083453126 0.5392088 -0.109242305 0.39223328 -0.45183036 -0.1339496
0.12777463 -0.08739348 0.18169163 0.6093812 -0.4182699 -0.36062923 -0.40959322 -0.038816966
0.14004172 0.14282973 -0.41912737 -0.39942697 0.4405396 -0.22335468 -0.17910734 -0.098525144
0.3830885 0.2300491 -0.40583393 -0.2160108 -0.46153283 -0.36503124 -0.22734924 -0.25259387
0.34862855 0.29690975 0.0017897795 0.32835183 0.051516525 -0.28689983 0.49862468 0.70202553
-0.21775478 0.0814787 -0.26269132 0.18558668 0.6959 0.10857702 0.22246662 -0.2785693

layertwo.weight f4 [30, 120]
00000000: 54e7 bcbe 81ed 563d b21e d63e a30b 95be
00000010: 764b 24be ba3d 9f3e 99f0 4f3e db74 e2be
00000020: 1852 1dbd 7c89 9e3e 0767 b43c ba1c 57bb
00000030: a3e0 fabd dfc8 5abe 275b 873d 62f1 15bd
00000040: 9518 d73e 9642 d33e 57dd 35be b4af 25be
00000050: 4d45 8c3d 9fe5 a43d fb52 3fbe 12e3 963e
00000060: 1461 a33e 9d85 173d 8a53 73be cd32 8dbe
00000070: b834 16be 5ebd 40be cb8f 7e3e 7ebd 993e
00000080: d8e7 75be 824b 62bc 59e9 ac3d bb76 08be
00000090: e3dd 10bc 0614 acbd 84e5 86be f1cc 09bd
000000a0: ebf1 52be ef81 2fbd 6009 efbc affd b4be
000000b0: 31cd 9d3e bb66 be3e 73a9 6cbd c796 e53d
000000c0: 6a0c e2be 25d3 3ebe 5676 853d 764f 69be
000000d0: dc60 8c3d e217 ecbd 0888 09bf 3aa8 2bbe
000000e0: df82 8cbe b029 e7bd 2600 ca3e 3f17 2d3e
000000f0: 50f4 f33e 3fa9 69bd b7b1 a8be d9cb ca3e
00000100: 5714 103e 126a 53be 6b42 b6be 4816 0ebf
00000110: f6ff c23c 0133 a33e 6286 83be da40 2dbc
00000120: 5c92 b0bd d36c febd 3eec 5f3e 77f8 753e
00000130: 4d9d 7cbd 338b e43d d4fc c93e bde7 64bd
00000140: 9ebe 12bf 38a8 f0bb 08f4 9bbe 6491 35be
00000150: 8e53 b23d d1ca 3d3e e13d e9bd 5ce8 1fbe
00000160: b0af 15be 06a0 cabe 074a ce3c 2dec 143d
00000170: 5ee6 353e 6804 6bbd a29b d0bd e491 2d3e
00000180: 9a43 3b3e 53ec 26bf 6846 94bd 8dc7 9c3d
00000190: f1ce 79bc 6dde 153d 76f2 a23d 46b5 04bd
000001a0: 88a4 81bc 4523 063e 0864 b7be f2aa a93e
000001b0: 4e85 94be 23f2 293c 4eec a03e 8c99 80be
000001c0: a5ef bebd 25ac 97be b914 893e 7ad9 183e
000001d0: 16d5 a6be 94e3 bcbe 81c4 943e e4f3 83bd
000001e0: 535a 86be 0b8b 873d ed23 e03e 39a0 a1be
000001f0: 11e3 37bc 796f 673e 13f5 f03d dd43 82be
00000200: ff67 dabd 90e5 823e d0ea 3bba 8729 fabd
00000210: 72b0 2dbe 5356 69be 6fe6 6f3d f2d5 33bc
00000220: d179 b83e 5e12 a53e a1ec 0abe 0be9 35be
00000230: bbfc ee3d 7bca d63d c609 40be ff8f ac3e
00000240: 561c 163e 3d24 d03c 56fb 40be 1092 2cbe
00000250: cc96 fcbd 41c3 0fbe 3a72 823e 629c a43e
00000260: 4951 53be 1b60 89bc e9b0 f63d d6b1 74be
00000270: ad45 c1bb f825 88bd 34bd 01be f404 60bd
00000280: 037e 3bbe 9688 f4bd c00b 483a a129 b1be
00000290: b5ef 7b3e 9b0f 913e 318b b1bd e7b0 283d
000002a0: c8ff 8ebe 3ce9 ccbd 02ab 853d 8a94 33be
000002b0: ea79 803c c99d a6bd fefa ffbe ba07 6ebe
000002c0: f6cd 42be 73a2 86bd cb85 b23e b53b 3f3e
000002d0: b104 9f3e 083a 2b3d d85f 47be 1467 c83e
000002e0: adfe fa3d 17f8 62be 7f42 97be 78a3 05bf
000002f0: be1e 5d3d d362 af3e 9c3b a5be 3fcd a73c
00000300: 061c babd 4e1e 61bd 5f7c a93e 199c 873e
00000310: b0fd a7bd ea84 51bd d129 be3e 2e63 883d
00000320: 5cec 0fbf 07b6 8b3d 8b17 b3be e527 babd
00000330: 5d49 01bb 76e8 bf3d 3b2e 3bbd 0c21 50be
00000340: 20a1 09be 33c6 96be 3b06 f4bc 94dc 273d
00000350: 3090 613c 08a4 d6bc ed57 31bd 328a 413e
00000360: 3823 033e a980 1abf fa2e ab3c eaa0 913d
00000370: ed9e 74bc 4f3b 76bd 97ae 7bbc 2411 9dbd
00000380: d1d4 00be a61d 173e b523 4abe b33c a33e
00000390: 6f59 6bbe 7a39 ff3c 2d82 8c3e 08d4 41be
000003a0: 6c27 fbbd d3e9 b6be c6bc 703e aef8 5a3e
000003b0: 347b 19be 328a e0be 638c 633e 461b 01be
000003c0: b89d bb3e 2508 21bd ea82 9dbd 9bcb b43e
000003d0: a9f9 6abc f1ee e53d 7af5 53be 8a31 363e
000003e0: b7f7 713d 4100 d53c 2f74 003d 4563 423d
000003f0: a124 d73d 0a16 2e3e 9bcb febd 480c 32be
-0.3689524 0.052472595 0.41820294 -0.2911044 -0.16044411 0.3110178 0.20306624 -0.4422978
-0.03840837 0.30964267 0.022021784 -0.003282352 -0.12249877 -0.21365689 0.06609183 -0.036607154
0.42010942 0.4126174 -0.17760216 -0.16180307 0.068491556 0.08051609 -0.18683998 0.29470116
0.31910002 0.036992658 -0.23762336 -0.2757782 -0.14668548 -0.18822238 0.2485954 0.30027384
-0.24014223 -0.013811948 0.08442945 -0.13326542 -0.008841964 -0.08402257 -0.26346982 -0.033642713
-0.20600097 -0.042848524 -0.029179275 -0.35349795 0.3082061 0.37187752 -0.057778787 0.11210399
-0.44150096 -0.18635233 0.065167114 -0.22784218 0.06854412 -0.11527993 -0.5372319 -0.16763392
-0.27443597 -0.11287248 0.39453238 0.16903399 0.47647333 -0.05704617 -0.32948086 0.39608648
0.14070259 -0.20645931 -0.35597548 -0.5550275 0.023803692 0.3187485 -0.25688463 -0.010574544
-0.08621666 -0.124231 0.21867463 0.24020563 -0.06167345 0.11159363 0.39450705 -0.055885065
-0.5732211 -0.007344272 -0.3045962 -0.17731243 0.08707343 0.185344 -0.113887556 -0.15615982
-0.146178 -0.39575213 0.025181783 0.036358047 0.1776366 -0.05737725 -0.101859346 0.16950184
0.18287507 -0.6520435 -0.072399914 0.07655249 -0.015247093 0.036589075 0.07956402 -0.03239944
-0.015825525 0.13099392 -0.35818505 0.33138233 -0.29007953 0.010372671 0.31430286 -0.25117147
-0.09323052 -0.29623523 0.26773623 0.1492671 -0.32584447 -0.36892378 0.2905617 -0.06443003
-0.26240787 0.06618317 0.4377741 -0.31567553 -0.01122357 0.22601117 0.11765494 -0.254424
-0.10664367 0.25565767 -0.00071684737 -0.12214952 -0.1696184 -0.22786836 0.058569368 -0.0109763015
0.3603044 0.32240576 -0.1356683 -0.1776468 0.11669298 0.10487839 -0.18753728 0.3370361
0.14659247 0.025407905 -0.18845877 -0.16852593 -0.1233345 -0.14039327 0.25477773 0.3215056
-0.20636477 -0.01676946 0.12045462 -0.23895964 -0.0058981986 -0.06647867 -0.12669832 -0.054692224
-0.18309788 -0.11940114 0.00076311454 -0.34602073 0.2460316 0.2833222 -0.08669127 0.041184332
-0.2792952 -0.100054234 0.06526758 -0.17537132 0.015683133 -0.08135564 -0.4999618 -0.23245135
-0.1902388 -0.065739535 0.348677 0.1867512 0.31058267 0.04180339 -0.19470155 0.39141142
0.12255607 -0.22164951 -0.2954292 -0.5220256 0.053984396 0.34255084 -0.3227204 0.020483611
-0.09087376 -0.05496054 0.331027 0.2648628 -0.08202684 -0.051152147 0.37141278 0.06659542
-0.5622003 0.06821828 -0.349789 -0.090896405 -0.0019727566 0.0937051 -0.045698386 -0.20325106
-0.1344037 -0.2944809 -0.029788127 0.040981844 0.013767287 -0.026201263 -0.043296743 0.18900374
0.12806404 -0.6035257 0.020896424 0.0711077 -0.014930469 -0.060115155 -0.01536145 -0.07669285
-0.12581183 0.14757404 -0.19740184 0.31882247 -0.22983335 0.031155337 0.27443066 -0.1892854
-0.122633785 -0.3572527 0.23509511 0.21383926 -0.14988405 -0.43855435 0.22221522 -0.1260806
0.36643767 -0.039314408 -0.076909855 0.3531159 -0.01434175 0.11227215 -0.2069911 0.17792335
0.05907413 0.026001098 0.0313608 0.047457952 0.10505033 0.17000595 -0.124411784 -0.17387497

layertwo.bias f4 [30]
00000000: 86b8 76bc 4f82 18bd 2015 0eba 216e 2ebc
00000010: 1a90 8abd 8839 f73c f4d2 25be 225e 8bbd
00000020: 8e86 9abc 66b6 c1bd 1497 3c3d e0fa 43be
00000030: 2741 553d a334 5a3d abdc c1bd 5d36 c6bd
00000040: 70cb 9d3d 353c 7f3c f353 f3ba 94ef c93b
00000050: 76ec 9cbd f2b0 a93d 8cd5 9e3d 87b6 8abd
00000060: b718 babd 3651 93bd 71c6 263d 5f34 9ebc
00000070: 9797 75bd 1d8f ee3d
-0.015058642 -0.037233647 -0.0005420018 -0.010646374 -0.067657664 0.0301788 -0.16193753 -0.06805064
-0.018862989 -0.09458618 0.046042517 -0.1913867 0.052064087 0.053272855 -0.09465917 -0.09678338
0.07704818 0.015578319 -0.0018564448 0.006162593 -0.07662289 0.08285703 0.077555746 -0.067730956
-0.09086745 -0.07193224 0.040716592 -0.019312082 -0.05995902 0.116483904

layerthree.weight f4 [3, 30]
00000000: 7745 f2be 1bf5 eabe 2d5c cabe 71e6 ce3e
00000010: 6055 fd3e 5169 803e bcdf d93e 7bee 95be
00000020: 6c9a f8be a6b7 f83e 427c 17bf 41e8 013f
00000030: 9ccf 933e f3f7 ed3e f1c6 b1be 8ec9 073f
00000040: a42d a83e 19ac c53e e786 ffbe d7c6 17bf
00000050: 5b87 d8be 671e 05bf 7533 0fbf 93bb f7be
00000060: 373c 41be e0ea 413e 860a d9be cd14 b03e
00000070: d73f 013f 0673 d73e 4042 04bf 63b3 e1be
00000080: d838 0b3f a5d3 0cbf f294 f1be 0c0c 9b3e
00000090: 78cd b2be dd05 dfbe f451 d43e d940 d7be
000000a0: b398 733e 3c9c d0be d76f cb3e 95f4 21bf
000000b0: 7058 103f b6f2 00bf faea fc3e 1766 ffbe
000000c0: 42bd b6be c0ad bf3e 8ae8 59be ab5f 973e
000000d0: 245e 143e 617f 063f b9a9 9cbe b9bc e43e
000000e0: 8b80 ab3e 4911 d73e 3463 03bf 044b df3e
000000f0: 9512 b33e 1e11 f53e 6d61 acbe dc9d bc3e
00000100: f696 0dbe 75aa f6be 0fee 9ebe 5b8b 0f3f
00000110: 45c4 d8be bb9a a0be 66e1 6d3e 91d5 e2bd
00000120: 753b 0dbf a8e8 a83e 5afe 02bf 3f47 71bc
00000130: b6c4 e5be 866f 38be 115f e53e 3444 793e
00000140: 3825 053f b37b 973e 1939 9c3e 2335 38be
00000150: 0ee6 193f 1831 fdbe 3123 e53e cef6 00bf
00000160: bd93 9fbe cb22 b5be
-0.47318622 -0.45890126 -0.3952345 0.40410188 0.49479198 0.2508035 0.42553508 -0.2928351
-0.48555315 0.48577613 -0.5917398 0.50745016 0.2886933 0.46478233 -0.34722093 0.53041923
0.3284732 0.38607863 -0.4990761 -0.5928778 -0.42290768 -0.51999515 -0.5593789 -0.48385295
-0.18870626 0.18937254 -0.4239084 0.3439087 0.50488037 0.42079943 -0.5166359 -0.44082174
0.5438361 -0.55010444 -0.4718395 0.3028263 -0.34922385 -0.4355916 0.41468775 -0.42041662
0.23788719 -0.40744197 0.39733765 -0.6326383 0.56384945 -0.5037035 0.49398023 -0.49882576
-0.35691267 0.37437248 -0.21280113 0.29565176 0.14489037 0.52538115 -0.30598238 0.44675234
0.33496508 0.42005375 -0.51323247 0.4361192 0.34975114 0.47864622 -0.3366808 0.36839187
-0.13827118 -0.48176923 -0.31041 0.56072015 -0.42337242 -0.3136805 0.23230514 -0.11075891
-0.5516885 0.32990003 -0.5116936 -0.014726459 -0.4487664 -0.18011293 0.44799092 0.24342424
0.52009916 0.29586563 0.30512312 -0.1798902 0.6011666 -0.49451518 0.4475341 -0.50376594
-0.31167403 -0.35378107

layerthree.bias f4 [3]
00000000: 52ff f63d 180f 1ebd d2b6 653e
0.12060417 -0.038588613 0.22433022
