state_dicts/model20240104-204253.pt (torch, 24023 bytes, 6 tensors)

layerone.weight f4 [49, 98]
00000000: 0948 41bd cce3 843d 7a94 d93d ae35 03be
00000010: 9934 c93b 6068 f33d 9068 003d 4ee1 4b3d
00000020: 9c73 7dbd 9e7b 0fbd 61d6 05bc 7bcb 6a3d
00000030: a0ec 91bd 744e ca3d 9d4c fdbd 9638 5f3b
00000040: 0a4a fe3c 5744 ea3c fe41 b03d 07fa 1f3d
00000050: b201 c6bd a794 37bc 424d 09bd 7eb0 a4bd
00000060: 015f 0c3e 27b9 b6bb c77d 863d db48 83bc
00000070: 7b97 a73c 63cd 18be c7cd 98bd e7f5 ddbd
00000080: 2eb9 7c3c f771 8dbc b565 ae3c e493 223c
00000090: 4258 b93d c3a4 503d 7d64 56bd fe62 f1bc
000000a0: f622 6a3d 3513 ddbd f4b4 1f3e 2ebc aebd
000000b0: d461 bf3d 5c14 99bd 8b41 92bd fac8 7b3e
000000c0: 6ac7 47bd fbd5 a23b 0341 0d3e 59af 343d
000000d0: 6ba7 2a3e 13e9 2dbe 24fe 97bd e04d 2cbc
000000e0: 81a3 2e3d e9bc 9b3d 9989 8abd 5f9a 9c3d
000000f0: 15f6 263c 010b c5bc d922 b73c 42c4 333e
00000100: bd64 dc3d 313b 493d 8bc5 38bd 554c dcba
00000110: 9c18 473e 986b 7dbc 374e 5abd 03ae d0bc
00000120: b5fc b3bd b79f 993c a83e b7bd aab5 0b3d
00000130: c26b af3d ba85 07be cf11 b63d e8e6 163e
00000140: bb95 a639 d3ce 30bd b3da b73c f2cc ecbd
00000150: 0f35 35bd 9826 85bd bac3 10be 0e9e 073c
00000160: 1c24 d13d 3ddd 34bd 8c09 ccbd b6af 3cbd
00000170: a582 c93d 19a8 73bc db7c 1bbe 2e46 0f3e
00000180: 1fee 19be 6b9b 293d 605e 91bd 489e 063b
00000190: 37b9 a43d 17c5 f5bc 77c2 c4bd 88ca abbc
000001a0: 7194 b03c e0a7 363c 4990 35bd efe1 213d
000001b0: 7f2d 8dbd 60c3 91bd ddae ecbd f601 c6bc
000001c0: dea1 afbc 0036 9abd 1d62 c33b afec fbbd
000001d0: 75ca f03c 9e00 a5bc b7f5 82bc 17be db3c
000001e0: 25b8 cc3d 3cbb 1f3d 02c5 643c 9e33 d23d
000001f0: 1015 79bb 2eed 52bd 36d2 5d3d 48ee 3d3d
00000200: 92d7 44bc 6a9a d3bb f41d e2bc 90a4 393b
00000210: 0c57 923d f6bd 923c fb2e 573b 2a72 1e3d
00000220: 20e7 383c 7f57 3e3d a74e 0bbd d390 eabd
00000230: 5d02 25bc 943a 983c d478 debd f83c b5bd
00000240: 4726 953d 5682 35bd 24dd 6cbd b370 c6bc
00000250: b358 903d 37c5 95bc e6d8 cabc 7aa9 7abd
00000260: 25b1 f3bc 2eb0 debc 1f82 45bd 45bb 8b3a
00000270: 9e51 87bd e8d7 733d 43d7 9dbd e5a0 d1bd
00000280: 497d 01be 3456 8cbd 16f7 6a3d 93b9 643c
00000290: ba60 9cbd 9d39 823d 4535 20bc 4cda 543c
000002a0: 7e43 f1bd de1a 34bd a9de a03d c3a6 393d
000002b0: 813a 94bc 5cda 2abc dd6e a83c 25ba 02be
000002c0: a026 dabd a5f3 93bd 6403 dcbb d83b 19bd
000002d0: e80f 8dbd 6885 1cbd f8c8 56bd ca1e 363d
000002e0: 6c36 5abd a046 87bd 33a1 0fbc 3723 84bc
000002f0: 5bf2 e3bd 792d 803d 479b b43c 7ca2 04be
00000300: 610a e73c 819d b13c bf13 c63c 5a88 583d
00000310: 7ef7 b73d 5295 1f3d 318d 743c ecbf c7bc
00000320: b785 123d e9a8 7d3d 34c7 ad3c 7f7e 633d
00000330: dfad 3bbc 2204 93ba a81c 0bbd 86d9 33bc
00000340: fe7e 9f3c a158 283c bd68 c6bc 10fa 36bc
00000350: 9f09 f8b9 576c 963c 5e22 2b3b 5b27 27bc
00000360: f06f b0bc 5bad aebc 5a2a 9abc dedc ebbc
00000370: c65d cb38 edcb c33c e711 df3c c4bf 86bc
00000380: a4b7 bd3b dfc8 73bc 5c99 96bc 93d7 e43c
00000390: 1c80 8f3c 8874 1bbc f75e 103d 3042 0f3d
000003a0: 04a4 51bc b9b3 393d 3568 dfbc 9808 323d
000003b0: a470 683c 7706 cc3c 3735 15bd caed c43c
000003c0: 924d 67bc b9dc 9d3c 0071 0c3c abad 9a39
000003d0: 1fb7 ed3b 914a 223d 76c9 ae3c 5edf 5cbc
000003e0: a43e 5b3c 55a0 00bc b394 9cbc a720 453d
000003f0: ab1e 3b3d f2cb ac3b a8a1 3b3d af22 c83c
-0.04718784 0.06488761 0.10624023 -0.12813446 0.0061403033 0.11885142 0.03134972 0.049775414
-0.06187783 -0.03503 -0.008168788 0.05732296 -0.07125211 0.09878245 -0.123681284 0.0034060827
0.031041164 0.02859704 0.08606337 0.039056804 -0.09668292 -0.011204875 -0.033520944 -0.08041476
0.13708116 -0.005576271 0.06566959 -0.016025951 0.020457974 -0.14922099 -0.07461124 -0.10837918
0.01542501 -0.017266257 0.021288732 0.009922955 0.09050037 0.05093838 -0.052341927 -0.029466148
0.057162248 -0.10794679 0.15596372 -0.08531986 0.09344831 -0.07474586 -0.071414076 0.24588385
-0.04877416 0.004969356 0.13794331 0.044112537 0.16665427 -0.16983442 -0.0742152 -0.010516614
0.0426364 0.07604391 -0.06764526 0.076466314 0.0101905065 -0.024053099 0.022355484 0.17555335
0.10761402 0.049128715 -0.045110267 -0.0016807417 0.19442981 -0.015467547 -0.053297248 -0.0254736
-0.087884344 0.018752916 -0.089474976 0.034108795 0.08565475 -0.13234606 0.088901155 0.14736521
0.00031773545 -0.043165993 0.022443151 -0.11562528 -0.044240054 -0.06501502 -0.14137164 0.008277429
0.102119654 -0.0441563 -0.099627584 -0.04606601 0.098393716 -0.014871621 -0.15184347 0.13991615
-0.15032242 0.041407984 -0.07098079 0.002054112 0.080431394 -0.030001206 -0.09607404 -0.020970598
0.021555157 0.011148423 -0.044327054 0.039522108 -0.06893443 -0.07117343 -0.1155679 -0.024170857
-0.021439489 -0.07529831 0.0059626237 -0.12301003 0.029393414 -0.020141896 -0.015986307 0.02682404
0.0999606 0.03899692 0.013962986 0.102637514 -0.003800694 -0.051495723 0.05415555 0.04636982
-0.012014287 -0.0064576166 -0.027602173 0.0028326847 0.07145509 0.017912846 0.00328344 0.038683094
0.011285573 0.04647016 -0.034010556 -0.11453404 -0.010071364 0.01858262 -0.1086289 -0.088495195
0.072826914 -0.04431375 -0.057828084 -0.024223661 0.07048168 -0.018282516 -0.024761628 -0.06119678
-0.029747555 -0.027183618 -0.048219796 0.0010660669 -0.06607364 0.059532076 -0.077070735 -0.10235766
-0.12645449 -0.068523794 0.057364546 0.01396026 -0.07635637 0.06358645 -0.009778325 0.012991499
-0.11780451 -0.043970935 0.07854969 0.045325052 -0.018094303 -0.0104280375 0.020560676 -0.12766321
-0.106518984 -0.07224206 -0.0067142714 -0.037410587 -0.068877995 -0.038213164 -0.052437752 0.044462956
-0.053274557 -0.066052675 -0.00876646 -0.016130073 -0.1113021 0.06258673 0.022046698 -0.12952608
0.028203191 0.021681549 0.024179338 0.05286441 0.08982752 0.038960762 0.014926241 -0.024383508
0.03577205 0.061928663 0.021213152 0.055540558 -0.011455028 -0.0011216442 -0.033962876 -0.010977155
0.019469734 0.010275037 -0.024219865 -0.011168018 -0.00047309414 0.018362207 0.0026113014 -0.010202254
-0.021537751 -0.021322897 -0.018819023 -0.028791841 9.697261e-05 0.02390095 0.027230216 -0.016448863
0.005789714 -0.014879434 -0.018383674 0.027934825 0.017517142 -0.009488232 0.035246816 0.03497523
-0.012795452 0.045337413 -0.02727137 0.043465227 0.014187012 0.024905426 -0.036427703 0.024039168
-0.014117615 0.019270288 0.008571863 0.00029502562 0.0072544958 0.039621893 0.021336298 -0.013480989
0.013381634 -0.007850726 -0.019113874 0.048126843 0.045683544 0.0052733356 0.045808464 0.0244306

layerone.bias f4 [49]
00000000: 1a61 f13e 03e9 573e 139b 8b3c e9fe a53e
00000010: df04 e43e 1d7d 013f 4330 e7be 9c5b 2a3d
00000020: 1026 f33d 779a eebe 26bb 303d 2b68 ea3e
00000030: 9216 7a3d 4c92 dcbe 0ca2 153f 409e 08bd
00000040: a8dd ecbe 59ad ac3d 8822 e43c 9510 133e
00000050: 23e6 f53e 60a0 e63d c24c a63e 6cf6 c8be
00000060: f0ca 693d d194 de3d 45d4 d73e 8329 01bf
00000070: be98 f23e 168c de3e 8573 233d 2551 c83d
00000080: e7fe 0a3f a2a5 f63e 0382 04bf 2a53 673d
00000090: c19b bfbe 174d da3e d41c debe 8394 ae3d
000000a0: d0e9 1238 e1bb b53d d591 d63e 817e de3e
000000b0: f31e d33d 692c 023f 4cbf cb3e 2f2b 96be
000000c0: a1b8 1d3d
0.47144395 0.2108498 0.017041719 0.32421044 0.44534966 0.5058153 -0.45154008 0.04159127
0.11872494 -0.46602222 0.04314723 0.457826 0.06105668 -0.43080366 0.5845039 -0.033354044
-0.4626286 0.08431501 0.027848497 0.14361794 0.48027143 0.11261058 0.32480437 -0.39250505
0.057078302 0.10868228 0.42154136 -0.50453967 0.47382158 0.43466252 0.03990509 0.09781102
0.542952 0.48173243 -0.5176088 0.056475796 -0.37423518 0.4263694 -0.4338137 0.0852442
3.5026867e-05 0.08873726 0.41908136 0.4345589 0.103086375 0.50849015 0.39794385 -0.2932982
0.038506154

layertwo.weight f4 [12, 49]
00000000: 1e55 fa3e ec0f 693e 540c b03c 16b6 1c3e
00000010: cec1 943e 4b6d a23e d0f9 9bbe 4d5f f3bd
00000020: f357 1cbd 7e28 44be a494 43bd 1bc2 563e
00000030: 7c5e 783d dbec 38be 166d d83e 7fb1 ccbb
00000040: 6a5c 99bd ec2a d33c eee1 61bd 7063 3e3d
00000050: 60f4 8e3e f727 6fbc 6dde 993e 44ac 87be
00000060: bbe6 be3d 098e 573c d19c b73e 7707 dcbe
00000070: 8a11 d13e 5a7d 643e 6aae be3c 7fd9 493c
00000080: cea5 a83e d1ac d83e 2ca6 2fbe 04bc b0bd
00000090: 0129 9cbd 3cfb a63e 29d9 8ebd a80a 6cbc
000000a0: b5da 92bd 3928 a73d 9fda 863e e09a be3e
000000b0: 27de 0fbe 306b 073f 6900 6e3e 67e9 bebd
000000c0: 11c7 54bd fb18 a83e e3fd aa3d 34d5 ad3d
000000d0: 5226 063e de2a ad3e ab37 be3e bf23 bbbe
000000e0: 492f d03c 9e2c 773c f1db 0abd 2686 473d
000000f0: 3394 2e3e f193 06be 0ef8 98be 5444 d23e
00000100: c1ec e53c 8387 97bd 14e2 15bd e64a ab3c
00000110: e339 473e e650 c43e 2618 d43c ba2e e73e
00000120: 1d26 bbbe 2df9 85bd c31e 8d3d fd07 cd3e
00000130: 7fea d6be ebcf 943e 32ad 9e3e a8ec febd
00000140: b03e 863d 18f8 023f d89f f03e ea53 23be
00000150: 9425 d03b 980e a7bd 74fd 823e 6ab0 36be
00000160: 33a2 bfbd 1a5f 7e3d ce17 02bd 09d7 a43e
00000170: f3fd db3e 48d1 9a3d 6167 0d3f 2c25 f13e
00000180: e0c5 0abc 9cae 20be bc4d 81be e9e7 1bbe
00000190: 91cd 77bd b872 80be be3e 9bbe 5215 16bf
000001a0: 1d45 b43e 0002 6ebd c5ec d13d 896b 793e
000001b0: 3750 9fbd d55b 45be 2bf3 cfbd bdb4 5f3e
000001c0: 92ce dfbe fa5b d6bd f955 2abd de67 6ebc
000001d0: ea3c 9d3d 4f2d c6bd 03de bebe 678d 503c
000001e0: 30c7 e4be 7a41 af3e 8486 fa3d d21c d93d
000001f0: d26b 05bf 343d ea3e 2607 d6be 5984 b6be
00000200: e84a 57bd a16a 11be 77c7 9ebe e80d f0be
00000210: 330b da3d 3ced c9bd 7149 8dbd 64a6 15be
00000220: ea8a 29bd a8d2 62bc 680c 68bc 3b8c cc3d
00000230: c765 6fbe fffa 33be f8cd 95bd 2fa5 c4be
00000240: 58d4 b8be a151 da3d 1884 2fbc ca56 823e
00000250: e64b 963e 4d0f a33c 5ede 563e 1faa 013f
00000260: 070d a03e e515 79be 78f7 d9bd f86a cd3d
00000270: 7a2e 83be 74f4 cdbc 0548 543e 424b 933d
00000280: 56ea c9be 9633 dd3e db80 b1bd ecf0 3fbe
00000290: aba4 51bd 5651 5c3d 4b37 db3d 7a20 d53e
000002a0: 800f aa3c c4d5 f03e 01a3 5ebe 3d1b 1c3d
000002b0: 70ab 3dbd e0d2 113f 9bba 85be 7279 a83e
000002c0: a4a0 393e 8fbe b43c 7d85 1a3d 0a25 b93e
000002d0: caff 8b3e 0700 c3bd e64b c6ba e14d a7bd
000002e0: c887 743e 95ee 46bd 2ebe 08bc a4cf 7e3c
000002f0: f4bc bebd c480 c13e 17d6 c13e 39f8 cf3c
00000300: 1258 103f 0efb f63e a39e 443d bb4a 5c3d
00000310: f991 6ebe b68d 89bd 9973 303c d4df 67be
00000320: fd39 f2be ca2c ecbe ad96 5a3e 4737 2dbd
00000330: 7da9 8cbd 2d07 073e fb54 2a3c 3854 bbbe
00000340: df3b 9fbd 4b06 d93e d4a0 9abe 7fb9 91bd
00000350: 21de bc3b 6bff 533d 41e3 c8bd a293 3ebd
00000360: cde7 ffbe d198 bd3d f734 b2be 9bec b43e
00000370: f6d1 ce3d 550e 873d 3b05 19bf e771 723e
00000380: 5b1c f0be 3db1 dcbe 04fc 9fbd 8c20 d1bd
00000390: 69d9 dbbe 02b8 a2be f46e c5bc bf6c e63a
000003a0: ffa3 dabd 529a 7bbe 1035 943d f72c af3d
000003b0: 0f89 9f3d 4409 fc3d dca3 aabe 7dc2 7abe
000003c0: 8037 c53d 0d8f d0be 77e5 e7be b310 083d
000003d0: 3602 1cbc 8bf8 b7be 2751 69be d36a 76bd
000003e0: 7462 2ebe 00e1 a7be 5856 d6be fc88 613e
000003f0: 8b6c 8b3d 0499 1fbd 7a4c 843e a421 6e3b
0.48893064 0.2275998 0.021490254 0.15303835 0.2905411 0.3172401 -0.3046403 -0.118834116
-0.038169812 -0.19156072 -0.047749177 0.20972483 0.060636982 -0.18059103 0.42270726 -0.006246745
-0.0748833 0.025777303 -0.055147104 0.04648155 0.27920818 -0.014596931 0.3005251 -0.26498616
0.09321352 0.013156422 0.3586183 -0.42974445 0.40833694 0.22313443 0.023276526 0.0123199215
0.32939 0.42319348 -0.17153233 -0.08629611 -0.076250084 0.32613552 -0.06975014 -0.0144068375
-0.07170621 0.08161969 0.2633867 0.37227535 -0.14049588 0.5289793 0.23242344 -0.09321862
-0.051947657 0.3283156 0.08349206 0.08487931 0.13100556 0.33821768 0.37151846 -0.3655071
0.025413172 0.015086321 -0.03390116 0.04871192 0.17048721 -0.13142373 -0.2987675 0.41067755
0.028066995 -0.07398894 -0.036592558 0.020909738 0.19455676 0.3834297 0.025890421 0.45152837
-0.36552516 -0.06541667 0.06890633 0.40045157 -0.4197578 0.2906488 0.30991513 -0.12447482
0.065549254 0.5115981 0.4699695 -0.1594998 0.006352136 -0.081570804 0.25583994 -0.17840734
-0.09357109 0.062102415 -0.031760983 0.3219531 0.42967185 0.075594485 0.5523587 0.47098672
-0.008470029 -0.15691608 -0.2525462 -0.15225185 -0.060498778 -0.25087523 -0.30321306 -0.5862628
0.3520898 -0.058107376 0.10250238 0.24357428 -0.07778972 -0.19273312 -0.101538025 0.2184629
-0.43712288 -0.10466762 -0.041585896 -0.014551131 0.07677634 -0.09676611 -0.37278756 0.012729025
-0.44683218 0.34229642 0.12232688 0.106012 -0.52117646 0.4574982 -0.4180233 -0.35647848
-0.05256167 -0.14200832 -0.31011555 -0.4688561 0.10646667 -0.09859702 -0.068987735 -0.14614254
-0.041392244 -0.01384417 -0.014163114 0.09987684 -0.23378669 -0.17576216 -0.07314676 -0.38407275
-0.36099505 0.10660101 -0.010712646 0.2545684 0.2935478 0.019904757 0.20983264 0.5065021
0.3125994 -0.24324758 -0.10642904 0.10030168 -0.25621396 -0.025140978 0.20730598 0.07192089
-0.39436597 0.4320342 -0.08667155 -0.18744248 -0.05118243 0.053788505 0.10703906 0.4162634
0.020759344 0.4703809 -0.21741869 0.038111914 -0.046306074 0.56962395 -0.2611893 0.32905155
0.18127686 0.022063522 0.03772496 0.3616107 0.2734359 -0.095214896 -0.0015128821 -0.08169151
0.23879921 -0.048567373 -0.008346124 0.015552435 -0.09313384 0.37793553 0.3785865 0.025386916
0.56384385 0.48238415 0.04800285 0.053782206 -0.23297872 -0.06716482 0.010769748 -0.22643977
-0.47309867 -0.4612792 0.21346541 -0.042289045 -0.06868265 0.13186331 0.0103962375 -0.3658769
-0.077750914 0.42387614 -0.30200827 -0.07115459 0.0057637845 0.051757257 -0.0980897 -0.046527512
-0.49981537 0.09257663 -0.34806034 0.35336766 0.100986406 0.065945305 -0.59773606 0.23676263
-0.46896634 -0.43103972 -0.0781174 -0.10211286 -0.42939308 -0.31781012 -0.024100758 0.0017580016
-0.10675811 -0.24570587 0.07236683 0.08553498 0.07789814 0.12306455 -0.3332814 -0.24488254
0.096297264 -0.4073414 -0.45292255 0.03321905 -0.0095220115 -0.3593181 -0.22784863 -0.06016047
-0.17029744 -0.3278885 -0.4186275 0.22024912 0.06807812 -0.038964286 0.25839597 0.003633597

layertwo.bias f4 [12]
00000000: 9114 ca3d 3765 ddbc dd66 5dbc 6bcc 44bd
00000010: ccfa f7bd 1638 0e3d 456a 643d eedd 00be
00000020: b9e9 263d 8196 d03d 3f11 3fbd 22d8 2ebe
0.09867204 -0.027025802 -0.013513294 -0.04804651 -0.121083826 0.034721456 0.05576541 -0.1258466
0.04075024 0.10184956 -0.046647307 -0.17074636

layerthree.weight f4 [2, 12]
00000000: c0ed 0e3f bb5e b03e d646 f0be 801c 143f
00000010: e720 bbbe 727e e4be 2638 0bbf a411 d2be
00000020: 2b02 003f 6e52 103f c343 e2be 7d4e dfbe
00000030: 9eb3 ffbe baaf 0abf 688c 973e 468e 89be
00000040: 70b0 703e 5bf0 973e 4641 063f 3178 7a3e
00000050: 29dd 52be ee91 4cbe 2fc1 c53e 8aee 3f3e
0.5583153 0.34447274 -0.46929044 0.5785599 -0.3654854 -0.4462772 -0.5438255 -0.41029084
0.5000331 0.5637578 -0.44192323 -0.4361457 -0.49941725 -0.5417439 0.2959931 -0.2686636
0.23504806 0.29675564 0.5244335 0.24459912 -0.20592178 -0.19977543 0.3862395 0.18743339

layerthree.bias f4 [2]
00000000: 3f8d 913c c88c f23d
0.017767547 0.11843258
