state_dicts/model20240104-212214.pt (torch, 39383 bytes, 6 tensors)

layerone.weight f4 [64, 128]
000000 31 b0 f7 37 ae 94 c6 3c ff 2b f0 bd 1b 67 e2 3d
       2.952674e-05 0.024240818 -0.117271416 0.11054822
000010 22 52 62 bd b2 6c 54 bd 16 9e 65 bd ea dc 8d bd
       -0.05525411 -0.051861472 -0.056058966 -0.06926902
000020 51 a5 56 3b ac a1 af bd 56 46 5d 3d fb f8 88 3d
       0.0032752345 -0.08575758 0.054022156 0.06688114
000030 e8 dd 01 bc d9 f1 ff bc ce 5a b9 bd c1 38 28 bd
       -0.007926442 -0.031243252 -0.09050523 -0.04106975
000040 e2 6f 9f 3d d8 c6 80 bd 9f 2b 7a bd 86 af e0 3b
       0.07785012 -0.062879264 -0.061076757 0.0068568615
000050 22 b3 bc 3d 42 85 28 3c f7 e3 bd bd 77 d7 41 be
       0.09213854 0.010285677 -0.092719965 -0.1892985
000060 c9 de 14 be e0 2e 0e 3e 1c d5 fa 3d 85 75 18 3d
       -0.14538111 0.13885069 0.12247679 0.03722145
000070 d1 e6 b8 3d 35 4b 05 bd 84 f2 c2 ba 9b 8d e8 bc
       0.090284 -0.032542426 -0.0014873301 -0.028387835
000080 51 68 31 bd c4 33 2f 3e da aa d8 3d ca d2 9e 3d
       -0.043312375 0.17109591 0.10579462 0.077550486
000090 87 6a e8 bd c8 01 d2 bc ec e7 d0 38 5a d1 8f bd
       -0.113484435 -0.025635615 9.961412e-05 -0.070223525
0000a0 f7 91 e4 3c 8f c8 aa bd bb 12 11 3c 07 26 dd 3d
       0.027901633 -0.08339035 0.008854563 0.10798269
0000b0 45 63 15 3e c9 b2 ea bc 52 02 37 bd 7e b3 e6 3c
       0.1458865 -0.028649705 -0.044679947 0.02816176
0000c0 0f ec 30 bc 5c 21 b4 bc f3 88 8a 3d e9 d0 43 bd
       -0.010798468 -0.021988563 0.06764402 -0.047806654
0000d0 c9 9e 67 3d a6 21 78 ba 47 5a 79 bd 51 c3 1b 3c
       0.056547914 -0.0009465463 -0.06087711 0.009507016
0000e0 7a 27 9f bd 2d d0 51 bd 81 70 20 bd 18 5f 40 bd
       -0.077712014 -0.051223923 -0.039169792 -0.04696569
0000f0 e7 82 0f 3e 34 a3 4d bc 65 5b 8e bc 05 d1 35 3d
       0.14014779 -0.012551118 -0.017377565 0.04438879
000100 3f e3 15 bd 23 85 85 bd fb e5 b0 bd eb f5 89 3a
       -0.036593672 -0.065195344 -0.08637615 0.001052556
000110 f9 be cb 3d d2 1e e9 bb 35 33 71 bd 2b 86 70 3b
       0.099485345 -0.00711427 -0.058886725 0.0036701064
000120 72 9e 12 3d df 76 93 3d 3a 75 57 3d ed f9 87 3d
       0.035795636 0.07200407 0.05260203 0.066394664
000130 a6 12 c3 bc 16 c7 bf 3b 86 d7 0f 3d 73 c7 a6 bd
       -0.023812603 0.0058525903 0.03511765 -0.08143511
000140 68 7f 08 bd c5 33 ec 3c f2 5f 84 bd a2 1b f5 bc
       -0.03332463 0.02883328 -0.064636126 -0.029920403
000150 c4 1b ae 3d e4 68 72 3c bf a8 98 bd 34 de 48 3e
       0.085013896 0.014795516 -0.07454061 0.19616014
000160 36 7f 45 bd 94 45 fc 3c 80 34 df bd 01 89 89 3d
       -0.04821702 0.030794896 -0.108986855 0.067155845
000170 a5 ce 20 3e 58 ca 70 b8 71 18 fc 3c 18 f2 50 3c
       0.15703829 -5.7408906e-05 0.030773373 0.012753032
000180 f1 d3 d1 3c 82 94 b5 bd 7e af 1a 3b ed f1 b9 bd
       0.025613757 -0.08866216 0.0023603137 -0.09079347
000190 d7 e5 b3 3d cc fe 6b 3d 8e 0d 24 3e 4e 60 fd 3c
       0.08784073 0.05761604 0.16020796 0.03092971
0001a0 c7 1e a7 3d 42 f2 d7 3a 57 5a ab 3d d3 38 5f bc
       0.08160167 0.0016475397 0.0836684 -0.013624388
0001b0 e2 f4 b6 3d 86 59 04 3c 57 b3 b1 bb 0e 86 af bd
       0.089334264 0.008077985 -0.0054229903 -0.08570491
0001c0 49 1a 8a bc 25 d1 e8 bd ee 62 e3 3c ee 12 a7 3c
       -0.016858237 -0.11368016 0.027757134 0.020394769
0001d0 6b 2a 2b 3e 4b d8 68 3d f4 36 04 3e d0 f9 fc 3c
       0.167154 0.056846898 0.12911588 0.030880839
0001e0 82 1b 2d bd 7a fb 06 3d 17 06 4f 3c cc 9c f8 3d
       -0.04226256 0.03295467 0.012635729 0.12139282
0001f0 54 22 de 3b 01 52 88 3d 78 8f 4d be 2e 61 27 bc
       0.0067789946 0.06656266 -0.2007426 -0.010216041
000200 13 fe 84 b6 cd c6 9b 3c a7 be 0e 3b 83 f5 a9 3d
       -3.9634847e-06 0.019015694 0.0021781118 0.08298781
000210 bb e9 10 be 76 1f b5 ba c4 e0 07 be e8 ac 6c 3e
       -0.14151661 -0.001381858 -0.13269335 0.23112833
000220 c5 62 39 3d fe 49 c5 3d f4 b3 3e bd 01 b8 48 3d
       0.04526021 0.096332535 -0.046558335 0.049003605
000230 36 d2 a8 3c 89 2a a4 3d bb f0 ae bd 69 8e 8f 3c
       0.020608049 0.080159254 -0.085420094 0.017523961
000240 0e ac f0 bb 32 55 4e bc 46 89 57 bd 90 59 89 bd
       -0.0073447293 -0.012593554 -0.05262115 -0.06706536
000250 48 c7 0f 3d 66 af 72 bd 7c a3 f2 bc cb d4 7b 3c
       0.03510216 -0.059249304 -0.029618971 0.015370558
000260 97 fd 2f bd f0 3e a8 3d e8 45 1f bd 2f 87 70 bd
       -0.04296645 0.082151294 -0.038885027 -0.05872267
000270 ed c8 63 bc 0c 8e 06 3e 03 04 88 3c 91 09 33 be
       -0.013902885 0.13140124 0.016603475 -0.17484118
000280 3c c7 ca bd 3d 2a 1c bd 7a 72 a5 3d 23 a0 84 3c
       -0.09901282 -0.03812622 0.08078475 0.01618964
000290 e7 8b af 3c 26 e8 b0 bd ad 8e 92 bd 15 39 a9 bc
       0.021429015 -0.08638029 -0.071561195 -0.020657102
0002a0 b8 0b 26 be 04 d2 e7 bd 2c fa 91 3d 10 39 9c 3d
       -0.16215408 -0.11319354 0.071277946 0.07628071
0002b0 bc 37 ea b9 7e e2 0d be 7e 60 99 3d b2 3c 29 bd
       -0.00044673483 -0.13855931 0.074891075 -0.04131765
0002c0 f2 5d aa 3d 32 d7 19 3d 16 b5 3d 3d 95 94 3d be
       0.083187 0.037558742 0.046315275 -0.18513711
0002d0 08 1b cc 3d 49 11 7a 3d 0f 9c 18 3d 32 c4 9c ba
       0.09966093 0.06105164 0.037258204 -0.0011960326
0002e0 9b b5 02 3d 18 12 27 3e b1 64 41 bd de 29 2e bb
       0.031911474 0.16315496 -0.047215167 -0.0026575248
0002f0 d8 f8 8a bd 3b 30 1e 3e a5 92 43 bd ad 85 43 bc
       -0.067857444 0.15448086 -0.047747273 -0.011933726
000300 26 dd a3 3c 3b 17 07 bd f0 56 6b bd b8 5e bf 3d
       0.020002913 -0.03298114 -0.057455957 0.09344238
000310 f9 e6 66 bd 03 be 32 3c 25 e6 35 3d 70 b3 25 3b
       -0.056372616 0.01090956 0.044408936 0.0025283955
000320 7b b3 a2 bd 41 a8 8a bd eb d6 ab 3c bc 09 05 3e
       -0.079443894 -0.06770373 0.020976504 0.12991995
000330 a0 51 3b be 1d 28 12 be 32 e5 fd 3d 48 a5 12 bc
       -0.18292856 -0.14273115 0.12397231 -0.008950539
000340 e9 fc c4 bc d0 0c 60 be bd 04 71 bd 10 4f 48 3b
       -0.024046378 -0.21879888 -0.05884241 0.0030564703
000350 4e f3 fb bc f9 a2 b5 bd f5 24 a2 bd 2f 90 10 3e
       -0.030755665 -0.08868975 -0.07917205 0.14117502
000360 62 83 7e bc 93 d4 73 bd 83 29 ea bd e2 81 8d 3d
       -0.015534254 -0.0595289 -0.11433699 0.06909539
000370 8c 32 5c 3d c0 00 55 bd a2 80 b8 bb 9c 6f 81 3d
       0.053759143 -0.05200267 -0.0056305686 0.06320116
000380 7c c7 31 3d 1b 90 ea 3d 41 01 74 3c b7 2b c0 bd
       0.043403134 0.11453267 0.014892877 -0.09383338
000390 ef e1 34 3c cb 90 b7 3b 92 aa ed b9 b0 a7 0d be
       0.011040195 0.0056019775 -0.00045331247 -0.13833499
0003a0 c7 b7 8c 3d e1 3b bd 3d af ac c4 bd 23 45 a4 bd
       0.0687099 0.092399366 -0.09603249 -0.08020999
0003b0 cc 9e 33 bb 48 a2 7d 3c 95 f2 84 bd c2 4a 52 3d
       -0.0027407883 0.015480585 -0.06491581 0.051340826
0003c0 a6 b8 07 be ac 95 58 be 9c 7e 84 ba a4 9e b8 3d
       -0.13254032 -0.21150845 -0.0010108533 0.09014633
0003d0 ff 98 06 be b4 73 23 be 36 5a f0 bc 73 31 ec 3d
       -0.13144301 -0.15962106 -0.02933989 0.11532869
0003e0 36 9b 1e be 6e 6f ee bc ae 24 5b bd 70 56 03 bc
       -0.15488896 -0.029105868 -0.053501777 -0.008016214
0003f0 59 ba 2e bd 61 ca ea 3c db ec 9d 3b 91 c6 a2 3b
       -0.042658184 0.028660955 0.004819495 0.0049675186

layerone.bias f4 [64]
000000 56 77 aa 3e 54 49 cc 3e 0a 4d 08 3f 38 ce 9a 3e
       0.3329417 0.39899695 0.5324255 0.30235457
000010 72 83 01 3e a6 1f b6 be 5a c6 0e bf 95 85 04 3f
       0.12647799 -0.3557102 -0.5577141 0.5176633
000020 c6 3e 2d be 87 d6 02 3f 2d 4f b1 be 4b 81 9f 3e
       -0.16918477 0.5110859 -0.3463072 0.3115333
000030 ed 80 e0 be d5 65 c0 be e9 12 dd be a4 58 48 be
       -0.43848363 -0.37577692 -0.4317849 -0.19565064
000040 b4 77 a1 be fe 6c e8 be f1 95 a1 bd 38 a7 23 3e
       -0.3153664 -0.45395654 -0.07889927 0.15981758
000050 f7 c0 6a be a6 c0 01 3e d7 c1 03 bf 5e 1c c5 3e
       -0.22925173 0.12671146 -0.5146765 0.38498205
000060 ca 46 c9 3e a8 b0 08 bf 35 ea f1 be 01 ec 6f be
       0.3931182 -0.53394556 -0.47248998 -0.23429872
000070 1f 62 02 bf 9d 92 b0 3e db 61 ab be 38 f9 10 3f
       -0.5093097 0.34486857 -0.33473095 0.5663028
000080 3e c4 27 3d b1 c6 69 bd d4 1b 9c bb f7 ee 46 bd
       0.040958636 -0.057074253 -0.0047640596 -0.04856774
000090 05 11 b9 bd e4 1d ef 3e 0b 65 fd 3e 61 9c d5 3e
       -0.09036449 0.46702492 0.49491152 0.4172087
0000a0 f4 ad 8b bd fc 17 df 3e d8 87 07 3c 7e 73 be bd
       -0.06820288 0.43572986 0.008272134 -0.09299372
0000b0 e9 f7 d2 3e b4 57 d5 3e f1 a9 25 be cf 71 d4 be
       0.41204765 0.41668475 -0.16178109 -0.4149308
0000c0 40 65 11 bf 2c e0 7e 3e fc 0e 04 be 2f 00 9e be
       -0.5679512 0.24890202 -0.12896341 -0.30859515
0000d0 df 44 01 3c 28 89 df 3e 9b 75 04 3f 57 20 f2 be
       0.007889955 0.4365933 0.5174195 -0.47290298
0000e0 cb e4 02 3d 35 38 5b be 5c a6 a7 3c fb df aa 3e
       0.031956475 -0.2140816 0.020465069 0.3337401
0000f0 09 32 00 bf 5b ac 7b be f5 2d e1 3e 7c f5 09 3f
       -0.5007635 -0.24577467 0.43980375 0.53890204

layertwo.weight f4 [16, 64]
000000 33 92 b9 3e c4 b2 8b 3e 31 00 ca 3e 39 5e af 3e
       0.36244354 0.27284825 0.3945327 0.34251574
000010 96 8e a9 bc e7 53 1e be d7 18 8f be 5a 6d 80 3e
       -0.020697873 -0.15461694 -0.2794864 0.2508343
000020 e0 83 ba bd ae dc 8b 3e 94 85 1e be b7 c1 e3 3d
       -0.091071844 0.27316803 -0.15480644 0.111209325
000030 89 e0 2a be 1f 70 82 bd cf 41 18 be ea 3f 86 3d
       -0.16687216 -0.06369042 -0.14868854 0.065551594
000040 06 b3 8f be 8e bd a0 be 43 d8 92 3c 4d 92 69 be
       -0.28066272 -0.3139462 0.017925387 -0.22809716
000050 33 d8 54 3e ea 30 53 be 25 00 ae be c7 c1 f3 3e
       0.20785598 -0.20624128 -0.33984485 0.47608778
000060 72 fc a0 3e 8c 39 61 be c9 6b 52 bc bf 4d 96 bc
       0.314426 -0.21994609 -0.012843081 -0.01834762
000070 7d 83 91 be a9 96 b3 3e 2e 75 99 be 6e 49 8c 3e
       -0.2842063 0.35075882 -0.29972214 0.27399772
000080 60 6d 57 3e be 9d a2 be cc 48 7d 3e 66 cd a1 bd
       0.21037817 -0.31760973 0.24734801 -0.07900505
000090 a8 54 b1 3b c6 c4 45 3e 1d b3 4d 3e 1c cd e0 3e
       0.005411703 0.19313344 0.20087858 0.43906486
0000a0 67 13 9d 3e 50 f4 b2 3e ea bf 0e 3d a8 1f ac 3b
       0.30678865 0.3495202 0.034850992 0.005252797
0000b0 63 ad 65 3e 0f 49 5b 3e e6 c9 eb 3d d2 2c 88 bd
       0.22429423 0.21414588 0.115131184 -0.06649174
0000c0 e8 7e 1f be cc d3 85 3e de bc 25 bd 16 01 7c 3d
       -0.15575755 0.2613815 -0.04046332 0.061524473
0000d0 50 72 8e bd 99 46 84 3d b0 bd 8a 3e 3a fe 32 bd
       -0.06955397 0.06458778 0.27097845 -0.04369948
0000e0 83 67 12 3e a4 12 f9 bd 80 d1 83 3c 54 85 cd 3e
       0.14297299 -0.121617585 0.016091108 0.40140784
0000f0 6d 06 83 be 96 3f a6 3d 46 08 94 3e 68 ea e6 3e
       -0.2559084 0.08117597 0.28912562 0.45100713
000100 ad 07 72 3e 2c f1 52 bc 85 4d 24 be 5e cd a0 3e
       0.2363574 -0.012874883 -0.16045196 0.31406683
000110 db 84 fa 3e 19 7b 1c bd 11 d9 ba 3d 45 18 1e be
       0.48929486 -0.038203333 0.091234334 -0.15438946
000120 47 b8 26 be 2b 0d 03 be c4 41 ee 3d 3f ac 5a 3e
       -0.16281234 -0.12797992 0.116336375 0.21354769
000130 70 3e 89 3e 44 4e 70 be a0 90 d6 bd 1f e1 b6 bd
       0.2680545 -0.23467356 -0.10476804 -0.08929657
000140 a0 20 4a 3e ed 20 97 3e fc 57 7b 3d a8 f6 55 3e
       0.19739008 0.29517308 0.061363205 0.20894873
000150 d4 e1 81 bd 51 da b4 3e bd 62 b1 3e 0e ca 97 3d
       -0.063419014 0.35322812 0.34645644 0.07411586
000160 f4 5a a6 3e a8 ef ab 3d 58 a9 05 3e c6 17 2a 3d
       0.32491267 0.0839532 0.13052881 0.04152658
000170 c1 e9 0a 3e f6 87 8f 3c 58 a0 52 3e 21 93 93 be
       0.13565733 0.017520886 0.20568979 -0.28823188
000180 de bd 7d be eb c0 2a 3e e8 c6 2b be ce 56 6b bd
       -0.2477946 0.16675155 -0.16775095 -0.05745583
000190 58 3e c3 bb 42 b4 dd 3e 4b 3c 6e 3e 2e 16 ae 3e
       -0.0059583597 0.43301588 0.23265187 0.34001297
0001a0 19 4a ad be ae d9 80 be 12 d0 2e bc f8 0d 81 bd
       -0.33845595 -0.25166076 -0.010669725 -0.063014925
0001b0 b5 df 97 3e de 7c 9c 3e 04 34 26 be a6 ae 7e 3e
       0.29662862 0.30564016 -0.1623078 0.2487131
0001c0 8a a9 91 3e 6f e9 8a 3e 2d 76 09 3e e0 d2 45 bd
       0.2844966 0.2713122 0.13423987 -0.04829681
0001d0 7a 26 77 3d cd d9 8b 3d ef cc c3 bd a6 eb ea bd
       0.06033943 0.068286516 -0.09560572 -0.114707276
0001e0 87 d9 7a be 43 72 9e 3e 36 c5 8a 3c 01 90 a1 3e
       -0.24497043 0.3094655 0.01693974 0.3155518
0001f0 7c a4 8a 3e fb 7b 37 be 5e 90 c3 be 1b f7 ac 3d
       0.27078617 -0.17918389 -0.3819608 0.08445569
000200 1d 00 d9 3e 86 40 09 3f c8 58 c1 3e 9f 29 b6 3e
       0.423829 0.5361408 0.37763047 0.3557863
000210 05 c4 04 3e ca 58 81 be 47 d8 58 be a1 81 7f bd
       0.129654 -0.25263053 -0.21176253 -0.062379483
000220 29 db 9a be 61 cd 4c 3d 46 2e 8c be 3b 64 b9 3e
       -0.3024533 0.050000552 -0.27379054 0.36209282
000230 09 c1 2d bd 5d ca c0 be f8 78 c0 be 57 77 14 be
       -0.04242042 -0.3765439 -0.37592292 -0.1449865
000240 d3 ea 9f bb 4e ae c2 bd 5b 8a 13 be 8b c9 70 3e
       -0.004880288 -0.09505902 -0.14408247 0.23514383
000250 3f a6 98 be 8e 0b 2e 3e 48 8f 88 be 29 06 d9 3e
       -0.29814336 0.16996595 -0.26671815 0.42387512
000260 f0 91 e9 3e 58 60 c4 be 26 16 37 be 53 b9 7d bd
       0.45619154 -0.38354754 -0.17879543 -0.061944317
000270 b7 e0 3b be ae 0f b4 3e b8 62 d5 3d b2 20 a0 3d
       -0.1834744 0.35168213 0.1041922 0.07818736
000280 5e f8 bb bd 85 21 4d 3e 75 57 65 be cf f9 25 bc
       -0.09178232 0.20032318 -0.22396643 -0.01013036
000290 71 bb 5c bd 65 d2 76 3e 8a 29 d6 3e b4 9d f5 3e
       -0.053889696 0.24103697 0.41828567 0.4797188
0002a0 11 62 63 be 34 81 0c 3d 57 9b 74 bd 01 97 27 bd
       -0.22205378 0.034302905 -0.059718456 -0.040915493
0002b0 d8 a3 b6 3e e1 db 27 3e 18 2f 3c be 8d c8 29 be
       0.35671878 0.16392471 -0.1837734 -0.1658041
0002c0 be d6 a0 bd e4 e9 8e 3e 47 62 4f bd 83 93 45 be
       -0.07853459 0.2791282 -0.050630834 -0.19294553
0002d0 55 a6 41 3c f1 1d 9d 3e d8 a0 e0 bc a4 ca 8a be
       0.011819442 0.30686906 -0.027420446 -0.27107728
0002e0 0f 73 ba be 44 f4 a1 3d 0f bf de 3b 2e e7 cc 3e
       -0.36415908 0.07907918 0.0067976783 0.40020126
0002f0 ef 02 91 be 3d d1 50 be 73 8f c2 bc 9f 5b c5 3e
       -0.2832255 -0.20392318 -0.023750043 0.38546464
000300 f2 d5 b4 3d 81 03 7c 3d bf d0 1c 3e d7 e9 81 be
       0.08829869 0.06152678 0.15314005 -0.25373718
000310 c8 18 aa be cf 07 b6 3d 92 6b 77 be 9a 1e a9 3e
       -0.33222032 0.08888208 -0.24162129 0.3303116
000320 7c e9 cc 3d 1b 7d 42 3e 38 c1 6b 3d 28 8c 69 3d
       0.10005471 0.18993036 0.057557315 0.05701843
000330 96 33 52 be d0 e6 40 3d 85 53 81 3d d1 31 2b 3d
       -0.20527491 0.04709512 0.06314758 0.041795556
000340 f9 4a 93 be 26 8d 18 be d8 42 10 be 46 47 1b be
       -0.28768137 -0.14897594 -0.14087999 -0.15163907
000350 95 8a 64 3e 23 2a 65 be bf 52 1b be 77 f7 a9 3e
       0.2231849 -0.22379355 -0.15168284 0.33196613
000360 0f fe 33 be dc 98 a9 bd 43 f5 22 be 16 26 49 be
       -0.17577384 -0.08281109 -0.15913872 -0.19643435
000370 e8 bd 84 be c3 9f 1a 3e 91 33 17 be 7e 0c 9c 3e
       -0.25926137 0.15100007 -0.14765765 0.3047828
000380 a8 12 b0 3e 09 62 0a be 3d 08 7e 3e ce c6 25 3c
       0.34389234 -0.1351396 0.2480783 0.0101181995
000390 12 f1 10 3d e5 ac a2 bd 5f 82 43 3e e4 4f d9 3d
       0.035386153 -0.07943133 0.19092701 0.10610941
0003a0 ee ac 3c 3e e6 3c ca 3e 40 3d 03 be 0b dc 39 3b
       0.18425342 0.39499587 -0.12816334 0.0028359916
0003b0 32 c0 3d bd a8 76 45 be 48 ef 65 3e 4c 9e a0 be
       -0.04632587 -0.19283545 0.2245456 -0.3137077
0003c0 ed b4 58 be 1a 6e 91 3d 94 db d1 3c 53 b9 b4 3c
       -0.21162768 0.07101078 0.025617398 0.022061026
0003d0 53 77 a6 3c 95 5e e7 3d de 4e 17 3e 05 9b 7e bd
       0.02032057 0.11297337 0.14776179 -0.062159557
0003e0 f4 e9 0e 3e 48 20 88 be 20 74 25 3d e8 f2 d6 3b
       0.13956434 -0.2658713 0.04039395 0.0065597184
0003f0 98 80 a5 be 16 24 1d 3d 0b e9 56 3e 86 5f 8a 3d
       -0.32324672 0.038364492 0.20987336 0.06756501

layertwo.bias f4 [16]
000000 59 c8 8a bd ea 09 ef 3d 05 12 8a 3b c3 87 23 be
       -0.067764945 0.11671813 0.004213574 -0.15969758
000010 55 f5 bc 3c ac 19 5d 3d 3a 41 74 3c c6 60 2d 3d
       0.023066202 0.05397956 0.014908129 0.04232862
000020 dd fd c3 3d 3b 82 ea ba 51 15 99 3d 45 ab e5 bd
       0.09569905 -0.0017891595 0.07474769 -0.11214308
000030 08 a5 be 3d 3c 0b 0e be a4 65 ae bd 6b 8b 76 bd
       0.09308821 -0.13871473 -0.0851548 -0.060191553

layerthree.weight f4 [4, 16]
000000 d9 f7 a1 3e d9 29 b8 3d 5b 2e 22 3f ea e6 19 bd
       0.31634405 0.08992357 0.6335198 -0.037573732
000010 87 78 08 bf 0d 58 4d 3e 68 b9 4c 3e 97 72 56 3e
       -0.5330891 0.2005312 0.19992602 0.2094215
000020 cb 03 24 bf cf e0 ed 3e 72 91 54 3c f3 04 ea be
       -0.6406829 0.46460578 0.01297413 -0.457069
000030 f3 f8 ae 3e b1 7d e9 be 50 e3 b5 3e 98 e6 c9 3e
       0.34174308 -0.45603707 0.35524988 0.39433742
000040 02 4b 04 3f 64 9f 06 bf ef 5c b6 be 66 90 03 3f
       0.5167695 -0.5258696 -0.35617778 0.5139221
000050 24 46 fe be 10 4e bc be 8f 82 85 3e 37 57 08 bf
       -0.49662888 -0.36778307 0.2607617 -0.5325808
000060 a5 da df 3e b5 b7 e1 be c1 39 23 3e 7d f3 de 3e
       0.437215 -0.4408547 0.1594 0.43545142
000070 4c 7d 05 3e 7e 78 08 3f 6e d3 cf be cd 59 e9 be
       0.13036078 0.53308856 -0.40590996 -0.45576325
000080 b9 7a 93 be 62 92 c5 3e 49 83 b6 bc c2 60 0c be
       -0.28804567 0.38588244 -0.022279399 -0.13708785
000090 23 73 4c 3e e4 a5 d6 3e 0d 00 3e 3d 0f f8 9a 3e
       0.19965796 0.4192344 0.046386767 0.3026738
0000a0 bb e4 ab bc 8f c8 24 3e 7c bf 0a bf 7e 7e 4a be
       -0.02098309 0.16092132 -0.5419843 -0.19774815
0000b0 3c a7 77 be dd 75 0f bf 82 03 aa be bc 4b b8 3e
       -0.24184889 -0.5603922 -0.332058 0.3599528
0000c0 5b 56 11 bf 07 3b c8 3e 95 e2 b2 be 97 0e 06 bf
       -0.56772393 0.39107534 -0.34938493 -0.5236601
0000d0 58 ca f3 3e 65 40 05 3f c1 cd ff be 12 8b e5 3e
       0.47615314 0.52051383 -0.49961665 0.44832665
0000e0 6a 58 f7 3e af d1 fe be 4d 1d f4 be 07 31 b0 be
       0.48309642 -0.4976935 -0.47678605 -0.34412405
0000f0 71 68 05 bf 7d c2 62 be 9c ac f4 be 7d 3e 19 bf
       -0.5211249 -0.22144504 -0.4778794 -0.59860975

layerthree.bias f4 [4]
000000 de db 13 bf 7a 3c 3f be 44 80 53 3e dc 58 b4 3e
       -0.57757366 -0.18675414 0.20654398 0.35224044
