state_dicts/model8580.pt (torch, 39255 bytes, 6 tensors)

layerone.weight f4 [64, 128]
00000000: 343a da3c a1c1 833d 7ccc b8bd 9be9 513d
00000010: c68b e03c 7100 343d 218f 193d deee 1cbd
00000020: 0c3d aebd 963b 38bd 3895 8c3d 7478 f03b
00000030: 9e81 4ebd 3c36 663d 71e6 423d 6895 80bd
00000040: d1f6 e8bc e52d e33c 08f2 853d 8713 78bd
00000050: c7ef 67bd 7dde bdbd 783d 5e3d 1d24 323d
00000060: 174f ba3c 6dad 91bd d211 7b3c eeec 6e3d
00000070: 860e 63bc 5f6a 7abd 0896 73bd 582f 87bd
00000080: 70b1 a7bb 76bf cabb 0994 0fbd 956f 16bd
00000090: 780f 893d 332e abbc 6d9d 74bd 10af 1dbd
000000a0: 8b5a a1bd 2a1f f33c edb5 933d ac4c 8dbd
000000b0: ac2c 14bc c54b 88bd d86c 49bd 4b71 6dbc
000000c0: cf21 d2bc 3145 77bd d049 bbbd a275 c03b
000000d0: 18bb 22bc d2e0 a8bd fffe 8f3d 1cce 82bd
000000e0: 9e0c 4bbd 2c63 8f3d 2faa 2abd 48ec a7bd
000000f0: 638e 71bc cb7a c2bd e649 2dbd 8214 2e3c
00000100: 0de7 abbd f62b 723b 556f 973d be43 c4bd
00000110: b100 94bd 5c8f df3a 47b3 1fbd 0275 993d
00000120: 7cd8 0cbd 6807 0cbb c06c 6a38 1297 09bd
00000130: 2bc3 3c3c fe71 ccbc 6e80 04bd 26c3 943b
00000140: f4ee 2e3d 2487 8ebd 0d02 9b3d 5e49 7dbd
00000150: b491 1dbd 447a 1d3d 8296 243c f131 c7bc
00000160: 0fa5 f0bc 5b50 d0bc 6e7b 6c3d 4caa a8bd
00000170: 630c 98bc 925f b1ba cad1 233d e36f b5bd
00000180: dd56 1abd 5d09 133d fed6 87bd f068 873d
00000190: 32ac 53bd e3b1 753d cd2b b0bb 7eb8 ecbb
000001a0: e664 5bbd 11fe 5dbd ce31 e1bc b1fe 73bc
000001b0: 364c 253c 4e61 6fbc 1219 203d a524 093c
000001c0: b29d 85bd 6f63 72bd 265e 8b3b c7d8 9bbd
000001d0: 16c4 083d a370 023d 7117 9abd 4ec0 d73c
000001e0: 8008 4a3d de71 b73a dbb4 2a3d f86c 37bd
000001f0: 3e91 57bd 4e19 95bc e8bc b7bd aa5f 733c
00000200: beef adbd bd50 22bd 93b0 e8bc c1f5 7cbd
00000210: d9f2 93bd a907 453c 334a 85bd c7d2 073d
00000220: b588 ee3c 8056 993c 2c2c 3fbd 3252 673d
00000230: 1d64 8ebd e069 7d3d cefe 4a3d 7c07 a0bd
00000240: 8874 9fbd 14f4 7f3a d938 92bc ca2b 4b3d
00000250: ce62 b6bd a32c 713d 2ac5 603d 1c58 313d
00000260: d493 cfbd 7286 803c d13b c83b 0430 003d
00000270: d915 10bd 394f 95bd c82b efbb a8a8 a7bb
00000280: 17c2 6c3d 9af3 0d3d 14da cdbd e16a afbd
00000290: e742 c2bc 70cb 6ebd ca53 91bd 3555 26bd
000002a0: 68fe 0e3c 5a18 31bd 6e4b 70bd 8568 27bd
000002b0: 7357 3c3d 0292 2cbc 6c80 2b3d 79e0 053d
000002c0: 0cef 3eba 9cf1 bcbd 386b 8ebd b9ba 9abb
000002d0: 4918 8cbc afae 753d d158 aabd f4ae e4bb
000002e0: a2eb fbbc c7eb 2dbd 25f8 8abd c6a2 26bd
000002f0: c090 3d3d b32a a6bc 8c7a febc 34d4 70bd
00000300: efb9 213d c140 823c 75f6 323d 889a a2bd
00000310: 5a73 c4bc 0295 fc3c ce7f d63c dd83 cabd
00000320: 5cf5 6bbd e666 453d 22ca 833c 06a6 34bd
00000330: 5df9 afbd 18f2 41bd 9c26 c6bd be5d 5dbd
00000340: f3dd 7b3c 09d7 413d 506f 85ba 8700 43bd
00000350: 950e 943c 6565 5a3d 14ad 3d3d df02 1abd
00000360: a850 92bd 360e 89bb 681d 03bd 47d6 833d
00000370: 5331 43bd 5b55 bcbd 346b 903b 8119 24bd
00000380: 0016 ff3b da65 41bd 6282 cbbd 6a0d 843d
00000390: d3af 8cbd 6e66 3c3d 3d82 5cbb 99de dcbc
000003a0: 0b58 94bb f607 933d 916e 8bbd 7656 863c
000003b0: 0a14 3f3d 9a84 9abd 022f 293d 6ce8 003d
000003c0: f1ed 4b3d 5405 17bd de08 093c 8ba2 2e3d
000003d0: 99e7 39bd 1867 0e3d fcac 0a3d e5a9 84bd
000003e0: 6e72 a8bd 9568 273d 2629 dbba c103 793d
000003f0: 7fbb 523d a15d 98bc 5257 a4bd 8271 743c
0.026639082 0.06433416 -0.09023377 0.051248174 0.0274104 0.043945733 0.037490014 -0.03831374
-0.085077375 -0.0449787 0.06864399 0.007338578 -0.05041658 0.056204066 0.047583047 -0.06278497
-0.028438004 0.027731845 0.065403044 -0.060565498 -0.056625154 -0.09270952 0.05425784 0.04349147
0.022742791 -0.071131565 0.015324073 0.058331423 -0.013858443 -0.0611366 -0.059469253 -0.06600827
-0.0051175877 -0.0061873747 -0.035053287 -0.036727507 0.066924036 -0.020896053 -0.059720445 -0.03849703
-0.07878598 0.029677946 0.07212434 -0.068993896 -0.009043854 -0.06655077 -0.049176067 -0.014492343
-0.025650887 -0.06036872 -0.09144938 0.005873398 -0.009932302 -0.08246006 0.070310585 -0.063869685
-0.04957258 0.070013374 -0.041666206 -0.08199364 -0.01474342 -0.09496077 -0.042306803 0.010625007
-0.08393679 0.0036952472 0.07394282 -0.09583233 -0.072266944 0.0017056274 -0.03898933 0.074930206
-0.034386143 -0.002136672 5.589123e-05 -0.033591338 0.011521141 -0.0249567 -0.032349043 0.004539865
0.042708352 -0.0695937 0.075687505 -0.061837547 -0.03846903 0.03844668 0.0100456495 -0.024315806
-0.029375581 -0.025428941 0.0577349 -0.082356066 -0.018560594 -0.001353251 0.039994992 -0.08859231
-0.037680496 0.0358976 -0.066328034 0.06611812 -0.05167789 0.0599841 -0.005376315 -0.0072241416
-0.05356302 -0.054197375 -0.027489569 -0.014892266 0.010088971 -0.014610602 0.03908641 0.008370553
-0.065242186 -0.05917686 0.0042531667 -0.07609706 0.033390127 0.0318457 -0.07524002 0.026336815
0.049324512 0.0013995727 0.041676383 -0.044781655 -0.052628748 -0.018200543 -0.08971578 0.014854351
-0.08492993 -0.03962778 -0.02840451 -0.061757807 -0.07224054 0.012025752 -0.06508293 0.033159997
0.029117921 0.018718004 -0.046672985 0.056474872 -0.06952689 0.06186855 0.049559407 -0.078139275
-0.077858984 0.00097638485 -0.017849373 0.049602307 -0.08905564 0.05888046 0.05487553 0.04329692
-0.10135618 0.015689109 0.0061106463 0.03129579 -0.035177086 -0.07290501 -0.0072989203 -0.005116541
0.057802286 0.034656145 -0.10051361 -0.085653074 -0.023713542 -0.058299482 -0.070960596 -0.040608604
0.008727647 -0.043236114 -0.058665685 -0.040871162 0.045981836 -0.010532858 0.04187052 0.032684777
-0.00072835456 -0.09225771 -0.06954044 -0.004721966 -0.017101424 0.059981044 -0.08317722 -0.006978864
-0.030752007 -0.042461183 -0.06785611 -0.040682577 0.046280622 -0.020284032 -0.031064294 -0.058796123
0.03948396 0.015900018 0.04369207 -0.07939631 -0.023980785 0.030832771 0.026183989 -0.09888432
-0.05760704 0.048193835 0.016087595 -0.044103645 -0.08592484 -0.04735002 -0.09675333 -0.054044478
0.015372741 0.047324214 -0.0010180268 -0.047607925 0.01807336 0.053319354 0.04630764 -0.037600394
-0.0714429 -0.0041826023 -0.032010466 0.064373545 -0.04765446 -0.09195968 0.004407311 -0.040063385
0.007784605 -0.047216274 -0.09936978 0.06447871 -0.06869473 0.045996122 -0.0033646964 -0.026961612
-0.004527097 0.07179253 -0.06808198 0.01639865 0.04664997 -0.07544823 0.041304596 0.031471655
0.049787465 -0.036870316 0.0083639305 0.04263548 -0.045386884 0.034766287 0.033856377 -0.06477717
-0.08224951 0.04087122 -0.0016720637 0.060794596 0.05144834 -0.018599333 -0.080244675 0.0149196405

layerone.bias f4 [64]
00000000: cc82 aebd 09dd aebd 3791 09bd 8ae5 0cbd
00000010: 6673 03bd 1ce3 35bd 973b b03d e5dd c13d
00000020: 701f 48bd 1e5e 4d3d 85be 1dbd 43d3 bfbd
00000030: 8476 083d 0f86 293d bccf 73bd d63d 3d3d
00000040: ff4f 44bd 89ce 96bd b5e8 8bbc 6da7 1ebd
00000050: 2764 373d abd0 2b3d 465f 07bc 9127 9b3d
00000060: d7c0 a73d 406f a33d 9961 4d3c bdfc b83c
00000070: c375 6fbd f064 a53d 1408 823c 742e eb3c
00000080: a8fb d03c 8d09 3cbd de8a 613d 729b 91bd
00000090: 11d5 893d e5bc 5ebd 0f6f 333d 5138 86bc
000000a0: 1a4c 85bd 1bab 593b 01e2 a03d 3d9f 943d
000000b0: a2a1 0ebd 8fe8 c9bd 2bad 2b3d e26d 323c
000000c0: 4cf6 aabd 4ed0 03bd a636 1c3c 9a0a 993d
000000d0: eb9f cabd ea3c 48bd 08e2 8a3b f29e ec3c
000000e0: a311 97bd f94a adbd 7d83 3f3d bcce 2c3d
000000f0: eb24 ab3d 7636 823d ced3 c3bc 65f7 0cbd
-0.08521041 -0.08538253 -0.033585753 -0.034398593 -0.032092474 -0.04440604 0.08605116 0.09466151
-0.048858106 0.050138585 -0.03851177 -0.09366467 0.03331615 0.041387614 -0.059524283 0.04620155
-0.047927853 -0.07363612 -0.017078737 -0.03873389 0.044773247 0.04194705 -0.008262461 0.07575906
0.08191078 0.07980204 0.012535476 0.022581453 -0.058461916 0.08075893 0.015872993 0.028708674
0.025510624 -0.045907546 0.055064075 -0.07109727 0.06730092 -0.054379363 0.043807086 -0.016384276
-0.06508656 0.003321356 0.07855607 0.07256935 -0.034822114 -0.0985881 0.041913193 0.010890456
-0.08347759 -0.032181077 0.009534514 0.07472725 -0.09893783 -0.048886217 0.004238371 0.028884385
-0.07376411 -0.084615655 0.046756256 0.042189345 0.08356651 0.06358044 -0.023904707 -0.03441562

layertwo.weight f4 [16, 64]
00000000: 1e15 1f3c 8809 3fbd c08a 923d 27c4 823d
00000010: e54a cb3d f5b4 0c3e ba26 e1bc 9ad4 c1bd
00000020: 63a0 48bd c220 41bc 0894 03be 843b 033c
00000030: f7f7 5fbd 6f25 f9bd 02df 8bbc 5f1b f03d
00000040: 6f12 8a3d 8f0b e43d f5f3 8cbc 26ef 8e3c
00000050: ff7d 7ebd 8d91 8b3d 605a 68bb 1efd 04be
00000060: e2fb 803d 1d36 f13d 60ab fbbc 03aa ac3d
00000070: d9e3 0fbe 74ec 323c 2925 fb3d c93b 61bd
00000080: 4451 bc3d be3c 3a3d ca68 d23d 20fb 07be
00000090: 184f d33d 862e 8e3c 6962 74bc 7316 b4bd
000000a0: 2a59 063e f0c3 e0bd 41a5 7d3c 7168 57bd
000000b0: 0a7f 86bc fb92 5bbd 56d7 573d 65fb f63c
000000c0: 5d80 acbd 869c 96bb f2e4 ecbb 5018 053e
000000d0: 345b 18bd e63d 283d 5ffa cdbd 921b bf3d
000000e0: a230 913c fdd7 e53d d538 85bd 50e7 ab3d
000000f0: 2d39 f23c 0485 32bd 9965 11be 5074 b339
00000100: c913 fabd 176b db3d fa53 bf3d 1642 be3b
00000110: 8560 2f3d 1fa0 523d 8932 47bd ac7a b3bb
00000120: b303 08be 4132 f0bd a73d 88bd f0be 8a3d
00000130: 65a1 f4bb ab84 f9bc 2212 c0bd 8fe9 1cbc
00000140: 00c2 fa3c 05a8 04be 0ccd 06be ae0c b0bd
00000150: 6d75 bb3c de93 03bd 80a8 533b 76d5 973b
00000160: 5574 1fbc fae5 b83d 564b 8ebd 6eed 3c3c
00000170: 601b 25bd 90f2 c13d 457e 953d f773 da3d
00000180: 61c5 8abd 5678 a4bd 1db5 923c 9449 863d
00000190: 3b7f d6bd d1cc f33d fa90 c13d f40b 04be
000001a0: c2de 823d 1c14 d2bd 76d2 72bd abcc de3d
000001b0: b0c6 babd 1c32 9f3d c4ac b2bc 4578 e93d
000001c0: 3446 58bd 46e1 c73c c2a1 a13d 3d13 713c
000001d0: d88c bbbd 39fd 843d e5bd c2bd a9a3 bb3d
000001e0: 907d 90bd 28d8 f8bd e9a7 95bd c1de 5cbd
000001f0: 8eca a43d 0ede 9cbd bc47 07bd f416 60bd
00000200: 6cde b13d 7d36 e93d 8910 febd bd7b ccbd
00000210: 13cd 073e 34f7 bfbd e805 483d 681e 79bd
00000220: ff8f 30bd 49b5 973d 4585 02be 18d9 cabd
00000230: 2474 363d 052c c2bd 2cf4 d1bd 535c b2bd
00000240: 3735 babd 1080 33bd d653 d03d deec 353d
00000250: 73f8 cfbd 09e1 bdbd 67ef b13d 93ca f3bc
00000260: a8f1 7cbc 6413 693d bfb5 403d aa1b ae3c
00000270: d9e8 5c3c a7b9 593d 02fd b9bd 609d 993d
00000280: 8156 443d 4482 b4bd 1da6 fabd 9bea 713d
00000290: 1006 103e 7037 dfbd d0bb 943d 0f21 853d
000002a0: 23c6 083e 82bf 97bd 72b3 0fbd e521 533d
000002b0: 6d44 86bb 02fb bd3d bf38 a6bd 65f2 cabd
000002c0: 58fa 9cbd dcb2 053b 3ed7 d5bd 1895 35bd
000002d0: 7f1f b2bc 508d ef3d 2ed5 6b3d f3bf a63c
000002e0: ff8a 67bd 84cd 603d 1f30 f83c be62 febd
000002f0: 9d6f f03c 0ed8 2bbd f00b e739 f5e5 97bd
00000300: 5f31 8b3d 3757 683d 6929 e7bd 07a7 9f3d
00000310: dabc d73c c8d0 84bc e78b a3bd b52d 0d3d
00000320: 80bd f73d 5810 e83d 36e5 dfbd ded5 c13d
00000330: a7f3 853d cd78 99bd 809a a8bd 895f ef3d
00000340: 59ee 523d 742a b63b 661e e63d f448 fcbd
00000350: 9565 db3c 9ed4 e0bd ae8a ebbd 5633 ab3c
00000360: 0b3f 783d 1b1b 89bd 0019 94bd 0a71 963d
00000370: 4824 5abc 975c c6bd 2dd3 a3bd 32c5 21bd
00000380: 59b1 07be 5356 dabd 0561 2b3d 6ec0 063d
00000390: 647e 54bd 996d 64bc f248 933d 6a19 c83d
000003a0: fb51 183d 47ef 74bd 833b ba3d 4eda e33d
000003b0: 5a9a 60bc f7a4 abbd 19ac bc3d d800 fbbd
000003c0: da80 363c 8974 2d3d 3cae aabd a73a ed3d
000003d0: 9b71 8c3d 6e89 7f3d 3488 c9bd d806 be3a
000003e0: f00a d53c ee6a 04bd 28bb 84bd d0a2 a73d
000003f0: 2150 cf3c 4b74 9ebd ac7b b83d 26b9 39bd
0.009709625 -0.04663995 0.07155371 0.06385069 0.099263944 0.13740905 -0.027484287 -0.09464379
-0.04898108 -0.011787595 -0.12849438 0.008009795 -0.054679837 -0.12165343 -0.017074112 0.117239706
0.06741797 0.11135017 -0.017206172 0.01744802 -0.062131878 0.06814871 -0.0035454258 -0.12987182
0.06298043 0.117778994 -0.030721366 0.08430865 -0.1405176 0.010920633 0.12262947 -0.054988656
0.09195188 0.045468085 0.10273893 -0.1327939 0.1031782 0.017356168 -0.014916041 -0.08793344
0.13119951 -0.10974872 0.015481294 -0.052589837 -0.016417999 -0.05360697 0.052695595 0.030149171
-0.08422921 -0.0045962958 -0.007229441 0.12997556 -0.037196353 0.041074656 -0.1005752 0.093314305
0.017723385 0.11222837 -0.065049805 0.08393729 0.02956828 -0.043583885 -0.14198913 0.000342282
-0.12210805 0.10713785 0.09342189 0.005806218 0.042816658 0.051422235 -0.04863218 -0.00547727
-0.13282661 -0.11728335 -0.06652384 0.067747 -0.007465529 -0.030458769 -0.093784586 -0.009577169
0.030610085 -0.1295472 -0.13164157 -0.085961685 0.022883141 -0.03212344 0.0032296479 0.004633601
-0.009732326 0.090282395 -0.06947963 0.011531217 -0.04030931 0.09470093 0.072994746 0.1066665
-0.06775928 -0.08030765 0.017908627 0.06557003 -0.10473486 0.119043 0.0945148 -0.12895185
0.06390144 -0.10257742 -0.059282742 0.10878881 -0.09119928 0.077732295 -0.021810897 0.11399893
-0.052801326 0.024399411 0.07892181 0.014714059 -0.09157723 0.06493611 -0.09508876 0.09162075
-0.07055199 -0.121506035 -0.07307417 -0.053923372 0.08046447 -0.07659541 -0.033027396 -0.05470939
0.08685002 0.11387346 -0.124054976 -0.09984539 0.13261823 -0.09373322 0.048833758 -0.060820013
-0.043106075 0.07407624 -0.12746151 -0.099046886 0.044544354 -0.09481052 -0.1025165 -0.08709016
-0.09092181 -0.0438233 0.101722404 0.044415347 -0.1015481 -0.09271438 0.086882405 -0.02975968
-0.015438475 0.056903258 0.047048327 0.021253426 0.01348325 0.053155567 -0.090814605 0.0750072
0.04793406 -0.08813909 -0.12238715 0.059061628 0.14064813 -0.10899246 0.07262385 0.06500446
0.13356833 -0.07409574 -0.03508324 0.051545996 -0.0040975125 0.092763916 -0.08116292 -0.09909514
-0.07664937 0.0020400798 -0.10441445 -0.04433164 -0.021743534 0.11696875 0.05757635 0.0203552
-0.05652904 0.054883495 0.030296383 -0.12421177 0.029350096 -0.041954093 0.00044068648 -0.07416908
0.06796526 0.0567238 -0.11287195 0.0779553 0.026335169 -0.016212836 -0.07985669 0.034467418
0.12096691 0.11331242 -0.109323904 0.0946462 0.065406136 -0.07493744 -0.082325935 0.11688144
0.051496837 0.00555926 0.11236267 -0.12318602 0.026781837 -0.109780535 -0.115010604 0.020898502
0.060606997 -0.06694623 -0.07231331 0.07345779 -0.013314314 -0.09685629 -0.07999263 -0.0394947
-0.13251247 -0.10660996 0.041840572 0.03289836 -0.051878348 -0.013942146 0.071916476 0.09770472
0.037187558 -0.059798505 0.09093382 0.11125623 -0.013708675 -0.08381074 0.092125125 -0.1225602
0.011139119 0.042347465 -0.08334014 0.11583453 0.06857606 0.062386923 -0.09840432 0.0014497889
0.026006192 -0.03232854 -0.0648101 0.08185351 0.025306763 -0.07737025 0.090079635 -0.045342587

layertwo.bias f4 [16]
00000000: e0f5 2a3c 532f f9bd de28 1abd 01cf 8bbd
00000010: ac7b 65bd dbec 09bd e265 8d3c 0d02 123d
00000020: f268 fe3c 5147 d23d 210e ccbc 0713 59bd
00000030: d51d ca3d ba12 e03d 7961 6ebd 0b60 9e3c
0.010434598 -0.121672295 -0.03763663 -0.06826592 -0.056026146 -0.03367315 0.017260496 0.035646487
0.031055901 0.10267509 -0.024909081 -0.05299666 0.09868971 0.10941072 -0.058198426 0.019332906

layerthree.weight f4 [2, 16]
00000000: cae8 103e 8465 16be 086c 103e e099 3f3e
00000010: 6283 7f3d b1d6 81be 1ebc 82bd 929a 093e
00000020: 4ee1 8dbd 4b0a 74bd 4298 213e 138f 75be
00000030: ba48 8ebd 04c6 b0bd 33e5 443d 17d2 5cbe
00000040: ca40 16be aad1 0dbe 1d53 923d 9261 0abe
00000050: b63a eabd 88bc a03d c39e 60be 1e16 f5bc
00000060: 4220 d23d 2b1c 243e ab2c f4bd 2572 02be
00000070: 1687 1ebe c380 163e 202e de3b 4385 fabd
0.14151302 -0.14687163 0.1410371 0.18711042 0.062381156 -0.2535911 -0.06383537 0.1343787
-0.06927739 -0.05958013 0.15780738 -0.2398036 -0.06947465 -0.086315185 0.048070144 -0.21564518
-0.14673153 -0.13849512 0.07144759 -0.13513783 -0.114369795 0.078484595 -0.21935563 -0.029917773
0.10260059 0.1602637 -0.11922582 -0.12738855 -0.15481219 0.14697556 0.006780401 -0.12232449

layerthree.bias f4 [2]
00000000: 22cb c8bd 325e f83d
-0.098043695 0.12127341
