state_dicts/model20240104-204451.pt (torch, 24023 bytes, 6 tensors)

layerone.weight f4 [49, 98]
00000000: cbf5 76bc 7938 913c 8a7e d43d 1c52 bcbc
00000010: 0cb9 063a 699a 9a3c 78ee 7fbd 04ac 9abd
00000020: b253 86bd 62ca 723c 5e2b 963d 5e1e 9abd
00000030: 2295 ffbd 2ce8 b93d a10f 9b3c e24d 15bd
00000040: bc44 b43d 21a3 b03c 92c0 8c3d 0bf6 9bbd
00000050: 620e 9dbd f515 5a3d 3d23 53bd 2396 433d
00000060: 575a 933c 4a8a ae3d 954a a53d 16bb afbd
00000070: aec7 333d 4cfa c4bb 85da 2ebd d8bb 2cbe
00000080: 79dd 163d a6e0 cb3d 9fb9 43bd d56b 23be
00000090: 81fa 2d3c 5a88 313e 2cd8 ed3b cad3 bfbd
000000a0: eb5f 8b3d a75e 07bd 7917 fa3d 3ffe 0cbe
000000b0: f611 693e fe9a efbd c494 eabd e790 ab3e
000000c0: 5a6f 1cbb 224a bebc 9880 173e dc3f 02bc
000000d0: a36a 4f3e f86d 14be b250 bfbd 77a2 943d
000000e0: f571 dabd af7f 8f3d 2c24 04be d55c 95bc
000000f0: d65c 0ebd ed8c ab3d f41c 00bd 81e2 523d
00000100: a219 e73d aba8 c7bd b902 bbbd c6ab 7b3d
00000110: 5779 243e 8b05 afbd e740 babd af66 9b3c
00000120: 1985 bd3c 8637 b73c 1b54 dd3c 7968 b7bd
00000130: 5801 47bd d139 7cbd 676d af3c 912f 003e
00000140: b620 273b 025a 6ebb 021f 8abd e58e 83bd
00000150: 2e99 973c aeee 5b3d 304f fcbd 6a01 7cbd
00000160: 7176 fc3d 7b27 69bd f556 15bd 8e25 a9bd
00000170: 2d7d 573d e525 db3b 7517 37bd 7ca9 213e
00000180: df35 b9bd 4908 e23b be4d ab3c ee65 133d
00000190: 1e90 58bd 9b98 ac3d 3007 9e3d e6f1 c6bc
000001a0: c789 23bd b07c 97bd efdb c03c 48ed c23b
000001b0: 735b cabc cc55 febd 2593 753d 051e df3c
000001c0: aa77 393d 4050 3a3d adab 25bd ed5b 873c
000001d0: 0873 49bd d347 1c3d 1213 dabd b6f1 7cbd
000001e0: c228 1d3d 804c 91bc 65dc db3b 9047 903c
000001f0: 76c7 d9bc 243e 383d e486 bb3c 2643 03bb
00000200: ca87 77bb 9a41 a43c cf3e 933d 5388 07bd
00000210: 19e1 12bd 1cd1 acbd f58c 9e3c 699d bebd
00000220: 347e b63a 267a 8fbd 1131 0dbc 06d5 24bd
00000230: 0cc4 19bd 6152 8fbd 34b3 813d 6403 7fbd
00000240: a14c 30bd bd49 29bd c421 57bd f8ab 873d
00000250: efcc 2abd a905 133d 3341 d13c a02f 91bc
00000260: 4133 3bbd 5409 eabc 4f50 b03d c3e5 3d3c
00000270: 118b a7bd 881e adbd fdd4 373c 7989 f5bc
00000280: 23f4 96bc 5330 6ebd 2b8c b4bc 7363 5ebd
00000290: c18c 93bc 6482 283d 390d 4dbd c6e6 70bd
000002a0: 5866 3c3c 3ce4 3ebd c6f5 74bd d09e 64bd
000002b0: 610e 913d be5a 343d 0421 e0bd ad4c a0bd
000002c0: d903 b0bd 3ed2 c7bc 26fd d0bd 71e1 79bc
000002d0: 909a acbc 5a80 b73c 7120 8c3d 410e 573d
000002e0: 16ac d7bc ac30 c53b a39e 603d 298f 87bc
000002f0: 23cd 3ebd 9df6 af3c f2d6 b0bc c67b 3bbd
00000300: fc8c b43c a1fe 403d d68c 7e3d a19c 293e
00000310: 590b 1c3d ce4a ae3d 6526 02be 8c8f 803c
00000320: 251c eebc 1b05 f1bd f69b 0a3e 0281 053e
00000330: e8b6 ccbb ce77 4dbd dbc9 ffbd 12f4 903d
00000340: 72fc ec3c b7c2 8a3d b624 3d3d 0dc7 213d
00000350: f0be 863d 0f9c 01be 1f03 cbbd a400 8fbd
00000360: fce8 8b3d b2b0 093e ac72 513d 3b47 213d
00000370: c1a1 c6bd 5f7d 273b d0fc ae3d 2d04 d03c
00000380: 6c5b f43c 2e21 02bd 00d5 1f3d 93c1 573c
00000390: 313c 923c cb52 99bd 112f 1fbd 3f51 6a3d
000003a0: e2e2 08be 26cd c5bd a00c c3bd f02e debc
000003b0: 098c e0bd d575 11bd 6d96 f9bd 23b1 c53d
000003c0: 9f3b 0fbe 3070 a9bc ec63 603d d47e 2abe
000003d0: 2813 553d de8f ba3d 162e 503c 9632 8c3d
000003e0: 2818 53bd 665c b43d 7dee 763d c6fe 9cbd
000003f0: 6202 233d 0b79 80bd dee0 77bc 995b 723c
-0.01507325 0.017727124 0.10375698 -0.022988372 0.00051392685 0.018872457 -0.06248328 -0.075523406
-0.06558932 0.01481876 0.073324904 -0.07525323 -0.12479617 0.090774864 0.01892835 -0.036451228
0.088021725 0.02156216 0.06872667 -0.07615288 -0.07668759 0.053243596 -0.051547278 0.047750603
0.017987413 0.0852247 0.08070866 -0.08580606 0.0438916 -0.006011283 -0.042688865 -0.16868532
0.036832307 0.09954958 -0.047784444 -0.15959103 0.010618807 0.1733717 0.0072584357 -0.093665674
0.06805404 -0.033049252 0.12211508 -0.13768862 0.22760758 -0.11699484 -0.11454156 0.3350899
-0.0023870082 -0.023228709 0.14795148 -0.007949796 0.20255522 -0.14495075 -0.09341563 0.0725755
-0.10666267 0.070067756 -0.12904423 -0.018232742 -0.034756504 0.08376489 -0.03127761 0.051485542
0.11284186 -0.09748968 -0.09131379 0.061443113 0.16061912 -0.08545979 -0.090944104 0.018969862
0.023134755 0.022365343 0.027017644 -0.089554735 -0.048585266 -0.061578576 0.021414472 0.12518145
0.0025501675 -0.0036369567 -0.067441955 -0.06423739 0.018505659 0.05369442 -0.12319791 -0.061524786
0.123272784 -0.056922417 -0.03645988 -0.08259116 0.05260961 0.006687867 -0.044700105 0.1578731
-0.09043478 0.0068979603 0.020911094 0.03598588 -0.052871816 0.08427545 0.07716215 -0.024285268
-0.039926317 -0.07396829 0.023542373 0.0059486963 -0.02470181 -0.12418708 0.05995478 0.027235994
0.045280136 0.04548669 -0.040446926 0.016523326 -0.049181968 0.038154434 -0.106481686 -0.06175395
0.038368948 -0.017736673 0.0067096227 0.017612249 -0.026584368 0.044981137 0.02289147 -0.0020029037
-0.0037770146 0.020050813 0.07189714 -0.033088993 -0.0358592 -0.08438322 0.019354323 -0.09307367
0.001392311 -0.0700572 -0.008617655 -0.040242217 -0.03754048 -0.069981344 0.063330084 -0.062259093
-0.04304183 -0.041330088 -0.052522436 0.06624597 -0.041699346 0.03589407 0.025543785 -0.017722905
-0.045703176 -0.028568901 0.08609068 0.011590424 -0.08180822 -0.08453089 0.011220214 -0.029972779
-0.01842696 -0.058151554 -0.022039494 -0.05429406 -0.018011453 0.041139975 -0.05006144 -0.058813833
0.01149901 -0.04660438 -0.0598047 -0.055815518 0.07082821 0.04403185 -0.10943797 -0.07827125
-0.08594484 -0.024392243 -0.10204534 -0.015251503 -0.021069795 0.02240007 0.06842125 0.052503828
-0.026327174 0.006017765 0.054838788 -0.016547756 -0.046582352 0.021479899 -0.021586869 -0.045772336
0.022039883 0.047117833 0.06214603 0.16563655 0.03809676 0.085103616 -0.12709959 0.015693448
-0.029066155 -0.11768552 0.13536057 0.13037494 -0.00624739 -0.050163083 -0.12489673 0.07077803
0.028928969 0.0677542 0.04617759 0.03949647 0.06579387 -0.12657188 -0.09912705 -0.06982544
0.068315476 0.1344631 0.05113475 0.03937457 -0.09698821 0.0025556905 0.08544314 0.025392616
0.02982875 -0.031769924 0.039021492 0.01316871 0.017850967 -0.07486495 -0.038863245 0.05720639
-0.13367799 -0.096582696 -0.095238924 -0.02712199 -0.109642096 -0.035512764 -0.121868946 0.09652927
-0.13987587 -0.020683378 0.054782793 -0.16649944 0.052020222 0.09109472 0.0127063 0.06845586
-0.05153671 0.08806686 0.060286034 -0.07665782 0.039797194 -0.06273087 -0.015129296 0.014792346

layerone.bias f4 [49]
00000000: 4ae0 ba3e 2ef7 24be 358f acbe b9d4 e43e
00000010: 56df fdbe 93f4 54be 58b8 893c 1c21 c73e
00000020: 49c7 183e 0c4e ca3e cb8c 333d e7bb e6be
00000030: adc8 c2be 900c 1d3e d8e2 d83e 22df dabe
00000040: 09c2 b03d f3cd d13e e2cd 87be ef3a de3e
00000050: 5141 983e b655 bcbe 3f81 d73d 50ed ffbe
00000060: e191 b43e 9663 363e 6ec3 693e 9372 d53e
00000070: 333c 9bbe 762e ecbe 59ba 9d3d 7e15 df3e
00000080: 44bb e1be 9422 a83d 84d1 353c 7e62 263c
00000090: d9e7 10bf 7836 a23e 0115 9c3d cd83 453e
000000a0: 7bac eabe 1fea e5be 902a ddbe 98ad b83e
000000b0: 08fc 2a3d 2257 843d 1bbc e63e 1139 013f
000000c0: 66a2 4a3d
0.36499244 -0.16109917 -0.33703008 0.44693545 -0.49584454 -0.20796423 0.016811535 0.38892448
0.14919771 0.3951267 0.043835443 -0.45065233 -0.38043728 0.15336823 0.42360568 -0.42748362
0.08630759 0.4097744 -0.26524264 0.43404338 0.29737332 -0.36784142 0.105226986 -0.49985743
0.35267547 0.17811427 0.22828457 0.41688976 -0.30319366 -0.46129197 0.077015586 0.43571085
-0.44088185 0.0820972 0.011097316 0.010155318 -0.5660377 0.3168218 0.07621194 0.1928856
-0.45834717 -0.44905183 -0.43196535 0.36069942 0.041744262 0.06461932 0.45065388 0.504777
0.04947128

layertwo.weight f4 [12, 49]
00000000: 5263 85be fc66 0ebe 1994 573e 4c24 91be
00000010: 8f08 db3e d331 56bc 2c33 fbbd 9cb4 8abe
00000020: 47f0 dabe 7ffa a1be eff7 93bc 48d1 323e
00000030: 7d65 a53e dbf4 edbd 4085 ccbe 95ba 8b3d
00000040: 2774 5a3c f045 f6be 3399 db3c 14a2 b9be
00000050: 26a0 76be ed93 d73e 042b 13be 4213 b93e
00000060: b86c 2ebe c631 dfbb 16b1 00bf c146 ddbe
00000070: 7f2d 9f3d 3412 073e f733 b5bd 365a afbe
00000080: a624 4d3d 16d4 8abd 3a9e 5cbd 1d68 763d
00000090: 7f5c d23e 3bea a5be 9a2c 2abe fc7e 5fbe
000000a0: 3098 013e de99 ac3d 3ae6 fd3d 342e eebe
000000b0: 81d9 78bd 777e 8fbd b4ba cbbe 7ea3 a5be
000000c0: 6f3f 83bd 5683 babe 107d 1abd c227 1f3e
000000d0: b286 aebe af21 9e3e be4f bfbc 75ac 583d
000000e0: 3d36 1abe bcbe d6be 924e 7ebe 9e35 9cbd
000000f0: 3c00 a83e 544c 893e a1d4 3bbd 946b ccbe
00000100: 3f0a 0fbd add3 fdbd 4345 02bf 3bad 6bbd
00000110: 890c bebe 1ba9 7bbe 0c80 463e bb62 b6ba
00000120: 09f1 8f3e 1f4c 76be 541b 0fbd ae1f b8be
00000130: a1ae a5be e29e 0b3e 9817 04bd 60c8 353d
00000140: 4748 06bf f0bd 343e 5563 acbc 9b08 cf3c
00000150: 813e 2a3d ac11 463e 13ab c4be e504 b7bd
00000160: 5ace 82be a660 3a3c 128b 3f3d a10f d93d
00000170: c8e1 b8be 0127 8ebd 6700 85bd 659b c5be
00000180: 42c3 dfbe 7d62 81bd 441d e23e 02c1 c93c
00000190: 7cfe 32be 2c5f f83e 8784 83be c4b9 d9bd
000001a0: 46f4 5dbd 05bb 2a3e 37b4 f23e a180 8a3e
000001b0: 863e 42bd f183 b2be 0245 90be edec 7d3e
000001c0: 28fc d83e 5136 adbd 15a2 453b 4767 f13e
000001d0: 3bd0 cb3d b322 c13e 90b0 7f3e 34b8 d9be
000001e0: d153 e33c 1216 99be 35b1 c33e 883a 8f3d
000001f0: 605b fe3e a744 c93e 3d40 68bd 87a7 d2bd
00000200: b612 00bd 4664 ee3e 3b33 47bd 979f f73d
00000210: ddc6 5abc 8ea2 223c f8fd 9dbe 1d6f c23e
00000220: 124b 14bd 848d d43d 11b1 c5bc 1c7a 0fbe
00000230: 466a 89be b07a e63e cd6a ad3d 24a5 ba3b
00000240: 60e4 0f3f 9222 a83e 9f0d bcbd 4b85 e83e
00000250: f5eb 123d c4e0 3bbe e639 0a3f bdaa bebe
00000260: 9715 4a3d c507 41bd 2567 8c3e 22a6 bb3e
00000270: 46ff 4e3e aff4 9a3d f0bc 99be 7baf 56be
00000280: 3466 973e 68a6 bd3e 5447 db3c e0a6 9dbd
00000290: 9fb6 1d3f 8e0e c8bd f734 e73e 2e4c ff3e
000002a0: 2b45 c9be d700 b3bd bfe3 c3be 76de 8d3e
000002b0: 6eba cbbc 2681 063f 981b c43e 9ace 053d
000002c0: fab8 6ebe f022 80bd cdb8 053f 31ac 75bd
000002d0: 2c7b 9b3d 9387 a0bc b9bb e13c 5c3a b4be
000002e0: f21b 143f d2be a2bd fdc7 363e fdfc 10be
000002f0: b560 85bd 0411 cfbd 05f6 af3e f897 2b3d
00000300: bf38 ad3d f46a 133f 1628 883e ed71 f3bd
00000310: 7bb1 d33e c86a 7c3c 7f20 d2bd e797 883e
00000320: 515a 8abe 76db 72bd 6bab 773d de20 6d3e
00000330: 6378 883e 204d 9d3e 3280 60bd 7dab a7be
00000340: 7944 6ebe e225 f03d 87e1 4f3e bf7b 933c
00000350: 8c80 63bd 3019 8a3e 556b c7bd 88fc 543e
00000360: e456 7b3e 9cb9 bfbe 7ddc a93c 266c 10be
00000370: c9c3 a73e 20c6 a43d aaa9 c03e 98cf 853e
00000380: 895f 8fbd 1be4 41be 3a9a e63d 02f3 cf3e
00000390: d6af 2abe cb64 c0bc 6808 87bc 1ad3 3c3e
000003a0: 023b a3be b19d de3e 5b47 c5bd 03c3 043e
000003b0: 6f9a 6abe 01a3 4abe 9117 52bd e4e0 e53e
000003c0: 645d 873d f688 113c a777 b73e de3f a23e
000003d0: 9fb0 ecbc 069c dcbe c208 83b9 8b6a 7b3d
000003e0: 5eb8 d6be c114 a43e d883 b7bc acde fbbc
000003f0: fa55 90be 57ea f9be 4b8b f3be 9213 11bd
-0.26052338 -0.13906473 0.21052589 -0.28348005 0.42779967 -0.013073402 -0.1226562 -0.2709092
-0.42761442 -0.31636426 -0.01806256 0.17462647 0.32303992 -0.11618968 -0.39945412 0.06822697
0.013333357 -0.48100233 0.02680645 -0.36256468 -0.2408453 0.42105046 -0.14371878 0.36147505
-0.1703366 -0.0068113534 -0.5027021 -0.43218043 0.077723496 0.13190538 -0.08847802 -0.34248513
0.05008378 -0.067787334 -0.053861834 0.060157884 0.41086194 -0.32405266 -0.16618577 -0.21825784
0.12655711 0.08427785 0.12397428 -0.46519625 -0.060754303 -0.07006543 -0.3979088 -0.32351297
-0.064085834 -0.36428326 -0.037716925 0.1554251 -0.3408714 0.30885074 -0.023353454 0.052898843
-0.15059753 -0.41942394 -0.2483466 -0.07627414 0.3281268 0.26816046 -0.045857076 -0.39925826
-0.03492188 -0.123938896 -0.50886935 -0.057538252 -0.3711894 -0.24576227 0.19384784 -0.0013914922
0.28113583 -0.24052475 -0.03493817 -0.3596167 -0.32359794 0.13634828 -0.032249063 0.044380546
-0.52454036 0.1765058 -0.021043459 0.025272658 0.041563515 0.19342679 -0.3841177 -0.089364804
-0.2554806 0.011375582 0.046763487 0.10598684 -0.36109757 -0.06941033 -0.06494217 -0.3859512
-0.43703657 -0.06317613 0.44162953 0.024628166 -0.1747989 0.4851011 -0.25687048 -0.10631135
-0.054188035 0.16672905 0.47403118 0.2705126 -0.04742291 -0.34866288 -0.2817765 0.24797411
0.4237988 -0.08457626 0.0030156423 0.47149107 0.09951826 0.37721786 0.24969697 -0.42523348
0.027749928 -0.2989965 0.38221136 0.06993586 0.4967909 0.3931019 -0.056701887 -0.102858596
-0.031267844 0.46560878 -0.04863284 0.12090986 -0.013353077 0.009926451 -0.30857825 0.37975398
-0.036204405 0.103785545 -0.024132283 -0.14011425 -0.26838893 0.45015478 0.08467636 0.005695956
0.5620785 0.32838875 -0.091822855 0.45414194 0.035869557 -0.1834746 0.53994596 -0.37239638
0.049336996 -0.04712655 0.27422443 0.36650187 0.20214567 0.07566201 -0.3002696 -0.20965378
0.29570162 0.3704102 0.02676741 -0.076978445 0.6160678 -0.09768401 0.45157596 0.49862808
-0.39310583 -0.087403946 -0.38259694 0.27708787 -0.02486917 0.52540815 0.38302302 0.032667734
-0.2331275 -0.06256664 0.5223511 -0.059978668 0.075918525 -0.019595897 0.027555333 -0.35200775
0.5785514 -0.07946552 0.17849727 -0.14159007 -0.06512586 -0.10110667 0.34367386 0.041892976
0.08458089 0.5758507 0.26593083 -0.11886964 0.41346344 0.015406318 -0.102601044 0.26678392
-0.2702203 -0.059291326 0.06046621 0.23157069 0.26654348 0.30722904 -0.054809757 -0.32748023
-0.23268308 0.117259756 0.20300876 0.018003343 -0.055542514 0.26972342 -0.09737269 0.20799458
0.24544865 -0.37446296 0.02073502 -0.14103755 0.3276656 0.08045602 0.37629443 0.26134944
-0.07000644 -0.18934672 0.11259885 0.40615088 -0.16668639 -0.023485562 -0.0164835 0.18439904
-0.31880957 0.43479684 -0.096327506 0.12965016 -0.22910474 -0.19788744 -0.051292006 0.4489814
0.0660961 0.008882752 0.35833475 0.31689352 -0.028892813 -0.43087786 -0.00024992792 0.061380904
-0.41937536 0.32047084 -0.022401735 -0.030745827 -0.28190595 -0.488116 -0.4756721 -0.035419054

layertwo.bias f4 [12]
00000000: 5d3c 0bbe dea7 cebd c695 f03d d67d ad3d
00000010: 3124 9e3d 6329 79be de21 223d ec75 f53c
00000020: a1ff 033d 2cf0 1ebe 3d5f e0bd 9b34 d8bd
-0.13597246 -0.10090612 0.11747317 0.08471267 0.07721747 -0.24332194 0.03958308 0.029963456
0.03222621 -0.15521306 -0.10955665 -0.10556909

layerthree.weight f4 [2, 12]
00000000: 104b 0fbf 7621 15bf 69f4 ef3d bb69 053f
00000010: fd7f 0d3f a389 c6be 5005 963e d0ab 0e3f
00000020: c3fe 083f 4342 c0be 6da4 15be 6dc0 083f
00000030: 80c9 f93e 7065 0f3f 9555 09bf 656b 33be
00000040: 49a1 14bf 3dfa ac3e f929 11bf 6b31 75be
00000050: 1283 b4be fb5d aa3e 1e5c 093f 8e1a fdbe
-0.5597391 -0.5825418 0.117165394 0.52114457 0.5527342 -0.38776883 0.29300928 0.55730915
0.53513736 -0.37550554 -0.14613505 0.5341862 0.48786545 0.56014156 -0.5364621 -0.17521437
-0.580586 0.33784667 -0.5670467 -0.23944633 -0.3525625 0.33274826 0.53656185 -0.49434322

layerthree.bias f4 [2]
00000000: fbe5 a7be b573 bc3e
-0.3279265 0.36807027
