state_dicts/model20231228-000154.pt (torch, 24855 bytes, 6 tensors)

layerone.weight f4 [50, 100]
000000 63 3a 0d be 84 97 ae bd b1 fe 83 bc 56 63 d0 bc
       -0.13791804 -0.08524993 -0.016112657 -0.025437992
000010 bd 02 78 bc 95 83 c2 bc db be e0 bc 1d e4 65 bc
       -0.015137372 -0.023744384 -0.027434757 -0.014031437
000020 86 00 ce bc 96 38 3d bd 13 24 63 bb 5e f3 8c bc
       -0.025146734 -0.046196543 -0.0034658953 -0.01720589
000030 e8 eb c0 3b 10 bf 00 bd 20 90 7d bd 4c 67 20 bb
       0.005887497 -0.03143221 -0.061905026 -0.0024475632
000040 32 07 25 bb de 05 d5 bb 82 58 56 bd 5a 38 21 bc
       -0.002518129 -0.0065009436 -0.0523305 -0.009840095
000050 94 68 ba bc c7 fa 39 bc 76 c6 4b bd 01 e2 d7 bb
       -0.022754945 -0.011351294 -0.049749814 -0.006588221
000060 d6 5e 8b bc d0 84 48 3b 42 72 f1 3b 48 29 65 3c
       -0.017012995 0.003059674 0.007368357 0.013986893
000070 12 a0 21 bd a5 01 17 3b 19 d3 88 bc 45 20 2b ba
       -0.039459296 0.0023041752 -0.016702222 -0.0006527941
000080 85 ec ef bb d8 f8 8b bc 9e c7 a3 bc 65 cb 55 bb
       -0.0073218965 -0.017086431 -0.019992646 -0.0032622453
000090 91 10 82 3a 5b 8b 0d bc 3f cb 39 3b a2 01 ac 3b
       0.000992315 -0.008639182 0.0028349904 0.005249218
0000a0 11 59 8b bc 61 9d ce bc 93 0d 0f bd 3a 9a 3c 3c
       -0.017010244 -0.025221528 -0.034925055 0.01151138
0000b0 38 aa 21 bc 04 4b 47 3c ce df d5 bc 51 5f 7d 3c
       -0.0098672435 0.012163881 -0.026107695 0.01546462
0000c0 f6 36 a8 37 f9 c2 84 bb 56 4c e9 bb f5 e4 bd b9
       2.0052754e-05 -0.004051563 -0.0071196957 -0.00036219475
0000d0 b1 84 24 3b 9c 04 18 3c 0c 49 2f bc 5e 59 8c bc
       0.0025103504 0.009278443 -0.010698568 -0.017132457
0000e0 9c f1 8d 3b a5 2c ad bc 0b 8c 18 3c 3d 32 47 bc
       0.0043317806 -0.021139452 0.009310733 -0.012157974
0000f0 b6 de a8 bc d0 1b 3d 3a 22 97 a3 bc 7d bf ef bb
       -0.02061401 0.0007213922 -0.019969527 -0.0073165284
000100 36 67 01 bc ae 49 ac 3b 44 8e 87 bb 53 8d 2b 3b
       -0.007898143 0.0052578067 -0.0041368324 0.0026176765
000110 e2 ff 5b bc 1c 91 b5 3c 5d de e0 ba 0c 53 2d bc
       -0.013427706 0.02216392 -0.0017156113 -0.010578882
000120 67 8a 96 3c 4b 2a ee bb c9 5f 97 bb 9e 7b f6 ba
       0.018376542 -0.0072682253 -0.004619573 -0.0018805151
000130 0d 59 9b 3a 52 d9 36 ba ef e9 6a 3b dc 40 8c 3b
       0.0011852101 -0.0006975132 0.0035845002 0.004280193
000140 8e bb de bb 58 0f ec bb a5 76 66 bc e2 45 d7 3c
       -0.0067972606 -0.0072039776 -0.014066373 0.02627844
000150 77 3b 22 bb 98 92 44 bb 20 a4 ef 3b 78 1f f0 3b
       -0.0024754682 -0.0029994603 0.0073132664 0.00732797
000160 1c f6 eb bb f1 3c ac ba ee 0c 63 bd d1 fd 97 38
       -0.0072009694 -0.001314072 -0.055432253 7.247518e-05
000170 a0 8d 30 bb 35 fd c3 ba 5e 9f 94 3c e2 a8 01 bc
       -0.0026939884 -0.0014952781 0.018142398 -0.0079138
000180 8e 3b 91 bc 05 44 8d 3a 02 54 20 bc 9a 07 ef bb
       -0.017728593 0.0010777718 -0.009785654 -0.0072946073
000190 9d 67 0c bd 04 2d d2 bc 57 79 99 bc a3 89 8a bc
       -0.0342785 -0.02565623 -0.018734617 -0.016911333
0001a0 59 c8 57 bc c0 75 28 bc ac 07 28 bb bf b3 83 bb
       -0.013170325 -0.01028198 -0.0025639338 -0.00401923
0001b0 d2 8a 02 bc 1f 4c 3f bc 24 63 f7 bb 83 b2 d6 3a
       -0.007967668 -0.0116758635 -0.0075496603 0.0016380105
0001c0 05 fc b5 bb 34 80 61 bb 7f 08 a8 bb 05 58 ef bb
       -0.0055537247 -0.003440869 -0.005127966 -0.007304194
0001d0 a6 71 0f bc 45 d9 68 bc b0 25 d7 bc 78 61 da bb
       -0.008755123 -0.014211957 -0.026263088 -0.006664451
0001e0 02 39 92 bb 12 06 80 bb 3c 23 b1 bb 06 7d b1 bb
       -0.0044623623 -0.0039069736 -0.0054058116 -0.0054165153
0001f0 fe 8c 01 bc ef 46 a7 bb 82 f0 4f bc 3b 8e 48 bc
       -0.00790715 -0.0051048915 -0.012691619 -0.012240942
000200 00 f7 ab bb 61 fa 9c bb b6 63 65 bc 84 ed 29 bc
       -0.0052479506 -0.0047905897 -0.014000824 -0.01037157
000210 1b cd b8 bb 28 9d c6 bb dc 87 12 bc 67 de 83 bc
       -0.005639685 -0.006061215 -0.008943524 -0.01609726
000220 8f cc 46 bc 4c 95 d7 bb 14 4a f6 bb b3 e4 84 bb
       -0.0121337315 -0.006579077 -0.007516155 -0.0040555834
000230 d7 e2 be bb 46 09 80 bb 0b a5 c5 bb 12 8c be bb
       -0.0058253813 -0.0039073555 -0.0060316375 -0.0058150375
000240 1d e3 b7 bc 65 03 44 bc 4e c2 0f bc a7 d2 8d bb
       -0.022447163 -0.0119637 -0.008774353 -0.00432809
000250 cb 8c 9d bb 0b 26 81 bb 17 67 a8 bb d5 f7 36 bb
       -0.0048080436 -0.0039413027 -0.0051392424 -0.0027918715
000260 fe 26 c6 bb e3 17 50 bc 14 c0 0c bc 90 54 9b bb
       -0.0060471287 -0.012701008 -0.008590717 -0.0047403052
000270 04 36 d1 bb 32 15 4d bb e0 de 9d bb b7 90 a6 bb
       -0.006384613 -0.003129315 -0.0048178285 -0.0050831693
000280 c8 d2 09 bc c3 0d 7e bc 46 df e2 bc 53 76 15 bc
       -0.008412071 -0.015506211 -0.027694356 -0.009122449
000290 d2 9c b8 bb 61 6b f0 bb 3b fd c3 bb 51 b6 17 bc
       -0.005633929 -0.0073370193 -0.005981115 -0.009259776
0002a0 e4 ce f8 bb 50 36 b0 bb 1b 0c 12 bc 25 c4 cb ba
       -0.0075930227 -0.0053775683 -0.008914019 -0.0015546127
0002b0 f2 35 0b bc 5a d2 f0 bb 24 ba 03 bc f4 6b e6 bb
       -0.008496748 -0.0073492946 -0.008039985 -0.007031912
0002c0 80 de 1e bc 50 cd 04 bc 89 94 e8 bb 94 21 6f bc
       -0.009696603 -0.008105591 -0.007097785 -0.014595408
0002d0 4c ee b1 bc 1b ca 2a bc fd d8 b1 bb 1e d1 8b bb
       -0.021720074 -0.010424162 -0.0054274783 -0.004266872
0002e0 e1 84 08 bb 13 08 a5 bb 63 c1 8b bb b1 d7 9c bb
       -0.0020831155 -0.005036363 -0.004264997 -0.0047864546
0002f0 06 1a 79 bc c5 72 36 bc 8c 81 3b bc 3c aa 2b bc
       -0.015203958 -0.011135762 -0.011444461 -0.010477599
000300 02 7f 08 bc 7a b3 92 bb 97 97 99 bb 0b 2c d6 bb
       -0.008331062 -0.0044769617 -0.0046872604 -0.006536012
000310 57 69 12 bc 44 91 81 bc c0 62 4e bc b6 51 10 bc
       -0.008936248 -0.015816338 -0.012596786 -0.008808544
000320 3c 5f c1 bd dc 08 14 3d c0 6b 39 3c 14 c9 e6 3c
       -0.09441993 0.03614126 0.0113171935 0.028172053
000330 3f 52 11 3d c2 d7 ce bb fb 15 8b 3b 6d 46 5a bc
       0.035478827 -0.0063123414 0.0042445636 -0.013322455
000340 99 c9 0a bc c3 18 68 bd 0d 62 a6 bd 4a b2 4f bd
       -0.008470916 -0.05666424 -0.081241705 -0.05070714
000350 b3 3b 98 3c 0d 5d 99 bc fe a1 96 3c 95 d6 26 bc
       0.018583154 -0.018721128 0.01838779 -0.010182996
000360 08 9d 91 3a 1e e8 b1 3c d4 db bd bc 86 41 95 38
       0.0011109421 0.021717127 -0.023176111 7.117078e-05
000370 8e 58 ab bd e1 4a c8 bc d5 9a 1f bd 91 fd 9d 3c
       -0.083665 -0.024449768 -0.03896602 0.019285949
000380 2a 4c 00 3d 0f 9d a6 bb cd b3 0e 3c 34 d6 5a bd
       0.031322636 -0.005084641 0.00870986 -0.053426936
000390 7a b3 5d bc 74 d6 3f bd 19 28 8f 3b 90 bc 5a bd
       -0.01353156 -0.046835378 0.0043687937 -0.053402483
0003a0 c2 6b dd bb d0 38 09 bb cd 5d d0 3c 23 6f f6 3c
       -0.0067572305 -0.0020938404 0.025435353 0.030082291
0003b0 32 66 17 bc 30 ac a2 bd 5e 40 0c bd eb 0d 61 bc
       -0.009240674 -0.079429984 -0.034241073 -0.013736228
0003c0 95 c3 aa bd 83 3e d7 bc f2 0e 52 bd 9c 34 c5 bc
       -0.083380856 -0.026274925 -0.051283784 -0.024072938
0003d0 02 43 bc 3b 04 01 cc bb 03 d1 d8 bc 53 85 f3 bc
       0.0057452926 -0.006225707 -0.026466852 -0.02972666
0003e0 52 7d 2c bb 6a b4 5b bd 87 e6 60 bc e1 60 3d bd
       -0.0026319814 -0.053638853 -0.013726837 -0.04623497
0003f0 ff 18 03 bd 42 66 41 bc aa 57 02 bd 0c c4 b9 bb
       -0.03200626 -0.011804165 -0.031821884 -0.0056691226

layerone.bias f4 [50]
000000 12 1c 7d 3b e0 83 78 bb bf ab 3a 3c 73 9c 0a bc
       0.0038621468 -0.00379204 0.0113934865 -0.008460152
000010 88 0e 31 ba cc c0 bd 3a 55 ab 15 bc c1 79 2d bf
       -0.00067541795 0.0014477014 -0.009135087 -0.67763907
000020 33 ef 31 3e 26 a6 e0 3d 9a c8 2a bc f7 5b 23 bc
       0.17376404 0.1096919 -0.010423804 -0.009970657
000030 6e 6f 2e bb da 31 e6 3b d0 74 4c 37 83 2e 7a 3c
       -0.002661671 0.0070249857 1.2186545e-05 0.015269878
000040 8c 59 52 ba 67 91 cf bb ac 10 87 39 7c 5c 62 3c
       -0.0008024208 -0.006334472 0.00025761628 0.013815995
000050 f0 a4 9a bb 3e c9 d4 3b fe 0a 1a 3c b8 b1 3e ba
       -0.004719369 0.0064937165 0.009402035 -0.0007274407
000060 70 0a a9 39 48 79 69 3b cc b7 c5 39 df 1f f8 3e
       0.00032241968 0.0035625268 0.00037711707 0.48461816
000070 b4 f9 89 3a 3e 15 3c bd c7 9f 8f ba 89 9b 05 bc
       0.0010526688 -0.045918696 -0.0010957652 -0.008154758
000080 7a fe 4f 3b be 8e 35 b9 c8 79 8e bb b1 4f 36 3f
       0.0031737373 -0.00017314681 -0.0043480136 0.7121535
000090 88 f5 1b 35 6f 9c 42 bd c4 0a a3 b9 53 73 9a bb
       5.8099295e-07 -0.047512468 -0.00031097804 -0.0047134547
0000a0 30 2a 80 3c 44 39 1c b9 65 15 9e bb 39 20 f2 bd
       0.015645117 -0.00014898652 -0.004824328 -0.11822552
0000b0 e2 b5 05 bd ae d8 fc ba 18 dc 3a 3b 67 77 f9 bb
       -0.03264416 -0.001929065 0.0028512534 -0.007613111
0000c0 eb c4 0b 3e aa 3c e7 3c
       0.13649337 0.028227169

layertwo.weight f4 [12, 50]
000000 87 17 3a 3c 9a 01 df bc 6a 6e 13 bd 2c e4 45 bd
       0.011358148 -0.027222443 -0.03599397 -0.048313305
000010 bb 82 4c bd 67 b8 e4 bb d6 db ea bc fd af 47 3f
       -0.04992936 -0.0069799903 -0.02866928 0.7800291
000020 1c 5d b0 be 7f 76 8e 3b 2c bc 16 bd 43 99 b6 bd
       -0.34446037 0.004347622 -0.03680055 -0.08915951
000030 8a 92 68 be 5b 49 c2 bc 1b f1 31 ba 97 b5 d4 bd
       -0.2271215 -0.02371662 -0.00067879417 -0.10386198
000040 51 1a a7 bc a3 0a 38 3c f9 98 a5 bc de cb 18 bd
       -0.02039829 0.011233005 -0.020214545 -0.037303798
000050 40 b7 fc bc 76 43 e6 bb 41 ed 31 bd a1 48 19 be
       -0.0308491 -0.007027085 -0.043439154 -0.14969112
000060 2b 5c 16 bd 00 12 1a bb 99 21 d5 bd 6b a3 89 bf
       -0.036708992 -0.0023509264 -0.10406799 -1.0752996
000070 2d 04 ea bc 4f aa 8a 3d 80 e6 b9 bd 1b ad 2f bd
       -0.028566444 0.06770765 -0.090771675 -0.042889696
000080 24 9c 9d bc 82 e8 0c be d4 bb 25 bd 43 ec 25 bf
       -0.019239493 -0.1376057 -0.04046233 -0.6481363
000090 61 a0 8d bc ae 45 b7 bc 7a 9a a1 bd 81 15 ec bd
       -0.017288389 -0.022372093 -0.07890792 -0.11527539
0000a0 31 b0 97 bd 6c 5f 84 bd be ed ed bd 69 d2 57 bd
       -0.07406653 -0.06463513 -0.11617611 -0.052690897
0000b0 af 86 ef bd e1 d9 9d bd 97 e0 20 bd 5e 22 35 bd
       -0.11695611 -0.07707573 -0.039276686 -0.04422223
0000c0 7c b9 d5 be 0d 70 86 bd 4e 21 7b bc 8b 4c 16 bd
       -0.41743076 -0.06564341 -0.015327765 -0.03669409
0000d0 eb c8 18 bd 73 ec 26 bd 1f 20 d4 bd 24 bd ca bb
       -0.037300985 -0.04075284 -0.10357689 -0.006187098
0000e0 6c e5 98 bc 4a 99 5a 3f 59 7c 93 be 15 f2 b2 bd
       -0.018664084 0.8539015 -0.28805807 -0.0873758
0000f0 40 b0 7c bc 14 3a 92 bc 8f 27 83 bd e7 50 9c bc
       -0.015422881 -0.01784996 -0.064040296 -0.019081546
000100 26 20 28 ba 99 ac 74 bc 17 08 37 bd 92 28 11 bc
       -0.0006413482 -0.014933729 -0.04468545 -0.00885977
000110 0d 60 a7 bc 10 56 fa bd 85 67 b8 bc d9 95 94 3a
       -0.020431543 -0.12223446 -0.0225103 0.0011336162
000120 8f 3c 1d bd 72 b0 f9 bd 14 b2 b3 bb 79 52 49 bc
       -0.03838783 -0.121918574 -0.005483875 -0.012287729
000130 45 34 48 be a0 c4 8f bf a6 7c 13 bd 64 94 a9 3d
       -0.19551189 -1.123188 -0.036007546 0.082802564
000140 b0 37 04 bd b3 49 2d bd 7f 66 20 bc be 7d 2a be
       -0.03227967 -0.042306613 -0.009790062 -0.1664953
000150 64 ff 40 bd 17 eb 0c bf 93 69 d9 b8 07 2f 7c bd
       -0.04711856 -0.5504622 -0.00010367031 -0.061568286
000160 e1 bd 9c bd 2d 5e 8b bd 34 00 20 bd 72 01 08 be
       -0.07653404 -0.06805072 -0.039062694 -0.13281801
000170 d5 c7 20 be 02 cb 24 bd b5 76 d5 bd e5 9a bf bd
       -0.1570123 -0.040232666 -0.10423032 -0.09355716
000180 8c b3 bd bc be fa 20 bd 68 07 dc be b2 87 20 bd
       -0.023156904 -0.039301626 -0.429744 -0.03919191
000190 49 97 25 bc aa 01 5a bd 1f 7e 48 bd bf 55 3f bd
       -0.01010687 -0.053224243 -0.048948403 -0.046712633
0001a0 a1 a1 bd bd bc 2e b3 bb bb 95 1d bd cc 7f 54 3f
       -0.09259344 -0.0054682177 -0.038472872 0.830075
0001b0 8a c5 a1 be 04 9e a6 bc 87 cf 1c bc 0e 4b 0b bd
       -0.31596023 -0.02033902 -0.009570963 -0.034007125
0001c0 c4 36 70 bd 18 7f 55 bc b1 08 43 ba 47 f7 43 bd
       -0.05864598 -0.01303079 -0.0007439955 -0.047843244
0001d0 d5 36 cc bc fe 64 2c bc 8a 42 07 bd 77 74 92 bd
       -0.02492849 -0.010522125 -0.03302244 -0.0715112
0001e0 28 ae 8d bc d2 1b a7 bb 29 11 2f bc 42 c2 14 be
       -0.017294958 -0.005099752 -0.010685244 -0.14527228
0001f0 e7 11 fb bd 26 fa b9 bb 25 b2 ed bd fa 72 88 bf
       -0.12259274 -0.005675572 -0.11606244 -1.0660088
000200 53 e5 47 bd a0 68 0e 3e c6 6d 04 be a2 4f 9f bc
       -0.048802685 0.13907099 -0.129325 -0.019447152
000210 c4 67 02 bc 26 7b ee bd 9e 93 8c bd 75 f9 2a bf
       -0.00795931 -0.116445825 -0.06864093 -0.6678689
000220 09 56 87 b9 89 d3 13 bd 6b b3 3e bd 25 e1 c4 bd
       -0.00025813308 -0.036090408 -0.046557825 -0.096132554
000230 a4 e5 79 bd 04 be ce bd 4c 7f 37 be db c5 db 3c
       -0.061010018 -0.10094836 -0.17919654 0.026827743
000240 7e 91 fc bd c1 cd b5 bd bb 54 50 bc 15 f8 48 bd
       -0.12332438 -0.08877135 -0.012715514 -0.049064714
000250 2c 5a d2 be 0f 3b 54 bd 3a da 46 bc 68 2c 28 bd
       -0.4108442 -0.051814135 -0.01213699 -0.041057974
000260 86 f4 dd bc bf 5a 35 bd b6 7d 09 be ab 16 d4 bb
       -0.027094137 -0.044275995 -0.13426861 -0.006472429
000270 6c 11 1c bd f2 ee 4e 3f 16 56 94 be 96 f7 6b bc
       -0.038102552 0.8083335 -0.28971928 -0.014402291
000280 d1 aa b5 bc b3 9c 82 bd 3b 1b a3 bd da f2 a1 bc
       -0.022176178 -0.06377544 -0.07964178 -0.019769121
000290 b8 5e 51 ba a5 27 f7 bc 44 ad 30 bd 41 ed 59 bc
       -0.00079868315 -0.030170271 -0.04313399 -0.013301195
0002a0 81 f6 c5 bc ef 4c 83 bd 76 4f a1 bc 4a bc 9d bc
       -0.024165394 -0.06411158 -0.01969121 -0.019254822
0002b0 2f 44 3d bd 52 c2 f0 bd c1 47 4c bd de 68 21 bc
       -0.046207603 -0.11755814 -0.049873117 -0.009851662
0002c0 1b 30 f6 bd e1 84 80 bf 4a 7e 68 bd 35 fa 0c 3e
       -0.12020894 -1.0040551 -0.056761064 0.13767321
0002d0 56 92 d7 bd 35 b9 01 bd 79 5f 04 bc ac 12 c9 bd
       -0.10525958 -0.031670768 -0.008079403 -0.098180145
0002e0 a1 8c b4 3c dc 4f 11 bf 7a ad f8 37 10 cc ce bc
       0.022039713 -0.5676248 2.9644685e-05 -0.025243789
0002f0 71 93 d5 bd 0e 38 10 be db ff af bd c0 a4 b0 bd
       -0.10428513 -0.14083883 -0.085937224 -0.086251736
000300 99 dd a8 bd da f9 26 3d 4f 27 09 be 24 9a 48 bd
       -0.082453914 0.04076562 -0.13393901 -0.048975125
000310 5d 6b 43 bc b4 74 60 bd 83 6b ca be 01 7c 4d bd
       -0.011927453 -0.054798797 -0.3953515 -0.050167087
000320 b4 01 aa 3c fe cd 02 ba fb 32 04 3d d3 80 9b bd
       0.020752765 -0.00049898017 0.03227518 -0.07592931
000330 b1 e3 84 bd ea ff 69 3c 0d da 52 bd 63 5e 43 bf
       -0.06488741 0.014282206 -0.05147748 -0.763159
000340 c3 e4 67 3f 28 2b 92 bd 23 a8 0c bd d6 c5 9b bd
       0.9058344 -0.07137138 -0.034340035 -0.076060936
000350 91 a9 e7 bd 5f 1a f1 3b 43 e3 97 3a 70 4e d5 3d
       -0.11311639 0.00735788 0.0011588115 0.104153514
000360 4e 84 bc 3d 45 d4 18 bc 20 28 88 bb 04 72 c4 bd
       0.092049226 -0.009327953 -0.004155174 -0.09592059
000370 3d 6a 6c bd c5 93 e2 3c b1 8f 81 3d 78 b3 c3 bd
       -0.057718504 0.027658353 0.06326235 -0.09555715
000380 06 1f fe bd e7 ce b8 3c c8 19 8f 3d 2f 95 14 3f
       -0.12408261 0.022559596 0.06987339 0.58040136
000390 88 bf 4c bc 4d e1 af be 69 70 29 bd a3 bc c9 bd
       -0.0124968365 -0.34351578 -0.04136697 -0.09850433
0003a0 6c c1 48 3c c0 1c 30 bd 91 91 6c bd 52 48 4d 3f
       0.012253147 -0.042996168 -0.05775601 0.8018848
0003b0 92 1e 62 3b 96 56 e8 bd 10 fa 96 bd d4 29 eb bd
       0.0034503085 -0.1134464 -0.073719144 -0.114825875
0003c0 06 be 9a bb c6 d8 b0 bd e7 eb 89 bd 93 97 04 be
       -0.0047223596 -0.08635096 -0.06734448 -0.12948446
0003d0 a9 98 f1 bd 78 88 00 be e1 d3 11 3b 2c 4a 4e bd
       -0.11796696 -0.12552059 0.0022251534 -0.050363705
0003e0 9b 03 80 3f 02 55 6c bc 18 15 cf 3c 34 bf 88 bc
       1.00011 -0.014424564 0.025278613 -0.016692735
0003f0 ac 43 38 3c 38 f4 2a bd a7 3e 84 bd bb 64 80 3c
       0.011246603 -0.04173681 -0.064572625 0.015673032

layertwo.bias f4 [12]
000000 b3 bb c6 bd a1 56 b5 bd fc 40 bc bd f2 6e 83 bd
       -0.097037695 -0.08854414 -0.09192082 -0.064176455
000010 50 88 2f bf 94 04 35 bf 3b c1 26 bf 5e 91 28 bf
       -0.6856737 -0.7071011 -0.65138596 -0.6584681
000020 2c 13 25 bf ca fb 22 bf f9 61 93 bd 70 2c 31 bf
       -0.6448238 -0.6366545 -0.07196421 -0.6920843

layerthree.weight f4 [2, 12]
000000 bd b7 cc be 9a 85 c8 be e0 b5 b6 be 7d 09 91 be
       -0.3998393 -0.3916443 -0.35685635 -0.2832755
000010 72 09 b3 3e a3 b8 f9 3e 94 71 f4 3e 8f f4 13 3f
       0.34968144 0.4877368 0.47742903 0.5779504
000020 d3 dc bf 3e 87 50 9a 3e bf a7 eb be e7 aa b6 3e
       0.37473163 0.30139562 -0.46026418 0.35677263
000030 89 01 c4 3e af 46 b5 3e 1a 4d d6 3e 88 8b e9 3e
       0.3828242 0.3540549 0.418557 0.45614266
000040 70 d1 07 bf a8 0e e5 be 10 00 d6 be 3f fc ba be
       -0.5305395 -0.44737744 -0.41796923 -0.36520573
000050 9d 8e f3 be e9 46 18 bf 47 f9 96 3e 2d 64 09 bf
       -0.47569743 -0.594832 0.2948706 -0.5366848

layerthree.bias f4 [2]
000000 77 df a4 be 9f a3 3d 3e
       -0.3220174 0.18519448
