state_dicts/model8424.pt (torch, 137559 bytes, 6 tensors)

layerone.weight f4 [64, 512]
00000000: ba7a 4fbd 2417 47bd 9b77 a6bd 7ebc 0fbd
00000010: 513a e9bc 5f61 00bd ae92 adbd 9267 9fbc
00000020: fd56 4abd 299d e1bc a335 06bd 306d 87bd
00000030: 9880 93bd 97d0 d3bd cf42 bebd 5580 adbd
00000040: 64b4 3dbd 6ba3 51bd 43ec c4bd 2d42 bcbd
00000050: 3388 a8bd 9de9 afbd b6c3 d2bd 8c02 6dbd
00000060: 3ea7 d3bd 2ad3 a9bd 12c5 cbbd 644a e3bd
00000070: 30ce 9dbd b196 33bd 667f acbd c208 5bbd
00000080: eb66 c8bc 291f 79bd cb36 d2bc cb60 c0bd
00000090: ecdf cfbd e5ea 3abd 9275 c7bd 547a 17bd
000000a0: 37ec 0bbd cf2d d9bd d36d 96bd 5e72 e4bc
000000b0: e313 dcbd e054 8ebd dfc5 5fbd 0bca a8bd
000000c0: 6fcf 50bd d2d1 c8bd 8268 cabd e4a5 38bd
000000d0: 2ed8 b1bd dc6f f3bd 8f31 cdbd 28e9 84bd
000000e0: 4cda d9bd 5320 b9bd 6758 cbbd fcf4 eabd
000000f0: 29ff 1bbd 533f bebd 55e2 e8bc 815b efbc
00000100: 7f55 66bd ee9f fbbc 29c0 bdbd a14b debd
00000110: c7bc 90bd b322 04bd 406b 96bd 7225 4cbd
00000120: a1fa 4bbd 244a 9abd f757 5bbd 1b25 debd
00000130: 808b 1fbd 0dfe e4bd 8fdb c4bd b5b8 5dbd
00000140: 952b fdbc 131c 0ebd 5f26 8abd 95c5 70bd
00000150: b09e 2abd 0534 abbd 43be 72bd a29e debd
00000160: 4acb 6dbd 2ee0 6abd 2f6a b8bd c9af dabd
00000170: b897 a0bd 1579 9dbd 1ed7 cfbd 6729 1abd
00000180: c5cd 91bd a17d cfbc 91aa c1bd 10a8 c5bd
00000190: 817b 21bd 1b03 8cbd 720f 99bd f791 32bd
000001a0: c65b dbbc f486 3abd a601 32bd f1c2 54bd
000001b0: cd6b 9fbd 9b40 b4bd 2e1b 98bd 1bcd bfbd
000001c0: 34d0 a5bd c3c4 60bd 17df d2bd 0e3b 74bd
000001d0: 3d22 70bd 0823 b7bd b36a 02bd d6f2 d7bd
000001e0: ee24 95bd f883 cebd 9e68 9abd 6912 dabd
000001f0: b24f 89bd 9022 73bd 3290 b9bd bd48 c2bd
00000200: 4ee4 22bd 87cb 80bd 5865 8cbd b00c a8bd
00000210: 3788 19bd 88c8 14bd fa47 98bd 1df6 83bd
00000220: e5a2 8fbd b794 e3bd c023 a1bd a16b 24bd
00000230: 9147 c0bd a686 f2bd 6796 b0bd 6c81 9dbd
00000240: 0645 b0bd ca14 2dbd a4f5 e7bc 9ad8 24bd
00000250: 3869 9dbd 98b1 32bd f9f4 e2bd 4a26 bebd
00000260: b055 82bd bfa1 2dbd d2a8 72bd d128 2ebd
00000270: 2c3e bebd c793 4dbd c856 64bd 77a1 17bd
00000280: 068d 01bd 88b9 98bd c38d 8cbd 9920 6cbd
00000290: a14a 91bd 7e9c d8bd cc6a b4bd c515 75bd
000002a0: c513 c3bd 9e39 73bd 1b2b 8bbd d04e c9bd
000002b0: 1575 e0bd 575f 69bd 7364 8ebd 0631 debd
000002c0: be39 acbd bebb 15bd 5e3d e3bd a9cd 46bd
000002d0: 4391 50bd 65e3 b6bd a13a 9cbd 7820 10bd
000002e0: 02e5 f3bc d2a7 97bd 285d d6bd 2681 e3bd
000002f0: 5ea0 edbd f872 99bd 28ec 40bd f5f5 c3bd
00000300: ef63 c8bd 2d85 54bd fc49 d7bd 013b 1ebd
00000310: c851 9cbd 5cfa 59bd 58fd 8fbd 1b93 42bd
00000320: 8484 7cbd aae1 0fbd 2f43 98bd c9c1 fbbc
00000330: 4782 68bd 67aa 61bd 34ac bebd fc93 a7bd
00000340: 48fa c8bd 3c3a e8bd 3d7f 36bd afda e8bd
00000350: 3825 6fbd 1ba2 aebd b9bb 8fbd 1c59 38bd
00000360: 175a 67bd 70af cabd 6852 0fbd 2cbd 26bd
00000370: 1e3a aabd fb08 a4bd 7aa8 74bd 781c 83bd
00000380: 7b33 41bd 45da 42bd 1032 e8bd cf5a 8bbd
00000390: 0ab2 58bd 996c d6bd b4ea 70bd 60bc dbbd
000003a0: a3aa bfbd e2df e0bd 9695 6dbd a56e dbbd
000003b0: 2d68 9bbd d062 c0bd a993 a2bd 3209 5ebd
000003c0: c3f5 36bd 0d44 59bd 312b 92bd 83af cebd
000003d0: 4605 20bd bc48 c1bd 04aa 9bbd f465 78bd
000003e0: 91c5 88bd 8755 cdbd ded5 c9bd 2bd4 edbc
000003f0: 0df2 26bd d88e a7bd be26 a9bd 877f 41bd
-0.05065415 -0.048606053 -0.08128282 -0.03509187 -0.02847019 -0.03134286 -0.084752426 -0.019458566
-0.049399365 -0.02754076 -0.032765996 -0.06612623 -0.07202262 -0.1034252 -0.092900865 -0.08471743
-0.046314612 -0.05118124 -0.09615376 -0.091923095 -0.08229103 -0.0858948 -0.10291235 -0.057863757
-0.10334633 -0.082922295 -0.099496976 -0.11098173 -0.07705343 -0.043844882 -0.08422737 -0.05347515
-0.024463138 -0.060820732 -0.025660893 -0.09393462 -0.101501316 -0.04563417 -0.09739222 -0.036981896
-0.03416082 -0.106044404 -0.07345166 -0.027886566 -0.107459806 -0.06949782 -0.054632064 -0.08241662
-0.050979074 -0.09805645 -0.098832145 -0.04508008 -0.08683811 -0.1188657 -0.10019218 -0.064897835
-0.1063734 -0.090393685 -0.09928971 -0.11472508 -0.038085137 -0.09289422 -0.028428236 -0.029218437
-0.05623388 -0.030715909 -0.09265167 -0.10854269 -0.070672564 -0.032259654 -0.07344675 -0.049840398
-0.049799565 -0.075336725 -0.053550687 -0.10846921 -0.038951397 -0.11181269 -0.0961219 -0.05413123
-0.03090457 -0.034694742 -0.067456 -0.05878218 -0.041655242 -0.08359531 -0.05926348 -0.108701006
-0.0580552 -0.0573427 -0.09004628 -0.106780596 -0.07841438 -0.0768911 -0.10148452 -0.03763714
-0.071193255 -0.02532846 -0.09456361 -0.09651196 -0.039424423 -0.0683653 -0.07473649 -0.043596234
-0.02677716 -0.045538858 -0.043458603 -0.051943723 -0.07784233 -0.08801385 -0.07427059 -0.09365293
-0.08096352 -0.054875147 -0.10296457 -0.05962663 -0.058626402 -0.089422286 -0.031840038 -0.10544364
-0.072824344 -0.10083765 -0.075394854 -0.10648043 -0.06704654 -0.059359133 -0.09060706 -0.0948653
-0.03976851 -0.0628882 -0.06855267 -0.08205545 -0.03748342 -0.036324054 -0.074356034 -0.06443427
-0.070134915 -0.111123495 -0.07868147 -0.040141705 -0.0938865 -0.118420884 -0.08622437 -0.07690701
-0.08606915 -0.042256154 -0.028315373 -0.04024563 -0.076860845 -0.043626398 -0.11081881 -0.09284647
-0.06364 -0.04239058 -0.05924303 -0.042519394 -0.09289202 -0.05018976 -0.055746824 -0.03701922
-0.03162863 -0.07457262 -0.068629764 -0.057648275 -0.070943125 -0.105767235 -0.088094324 -0.059835214
-0.09525255 -0.05938112 -0.06795331 -0.098294854 -0.109598316 -0.05697569 -0.06952753 -0.10849194
-0.08409451 -0.036555998 -0.11095689 -0.048535977 -0.050919782 -0.08930091 -0.0762837 -0.035187215
-0.029772285 -0.07405056 -0.10466987 -0.111086175 -0.11602853 -0.07492632 -0.047100216 -0.09568397
-0.09784686 -0.05188482 -0.10512158 -0.03863049 -0.07632786 -0.053217277 -0.07030743 -0.047503572
-0.061649814 -0.03512732 -0.07434689 -0.030732052 -0.056764867 -0.05509415 -0.09310189 -0.08182523
-0.09813362 -0.11339232 -0.044554938 -0.113698356 -0.058385104 -0.08527013 -0.07018227 -0.045006856
-0.0564824 -0.09896743 -0.034990698 -0.040707752 -0.08311866 -0.080095254 -0.059730984 -0.06401914
-0.047168236 -0.04757144 -0.11337674 -0.0680443 -0.052904166 -0.10469932 -0.05881758 -0.10729289
-0.09358718 -0.10980202 -0.058003984 -0.10714463 -0.07588229 -0.09393847 -0.0793832 -0.054207988
-0.04466797 -0.053043414 -0.07137144 -0.1009207 -0.03906753 -0.09437701 -0.07600787 -0.060644105
-0.06678308 -0.10026079 -0.09855245 -0.029031834 -0.04075818 -0.08181542 -0.082593426 -0.04724076

layerone.bias f4 [64]
00000000: e54c a0bd fa83 a7bd 99af fdbb 79a8 663d
00000010: 8ba3 dd3c 6fcb a43d e6dc 58bd 5dab 023d
00000020: a8d3 6b3f 93f1 c5bf 24b8 c5bd cb16 98bd
00000030: 458b a3bd aca3 8e3d 7856 bc3f 31f8 38bd
00000040: ca19 80bd ab6e e7bc 4e82 1dbd 540c be3c
00000050: b66e 1ebd a1ed c5bd bc29 043e fb1f 063d
00000060: e7ad ccbf 0c31 933d cc1f a63e 70ce 943d
00000070: da90 c33d 3ef6 fbbc 30b4 85bd 2fc1 dabd
00000080: 5a7b 3a3d 5c78 9a3d e9c5 fa3d aae5 0b3f
00000090: b55b a73c 9f90 ecbc a070 d1be 63ac a9bd
000000a0: 93bd 07bf 5ff5 cebd 57d1 2c3c 3e1e ad3d
000000b0: cedf 99bd 3790 95bd cef8 00bd 1e7f b53d
000000c0: 7c0a aa3f dd2e 373e 3922 043d b1c9 eebd
000000d0: a980 8fbd 085d e63c c01d 9fbd 61fd df3d
000000e0: 7408 6f3f 51af c3bc d308 863d 45dd bcbd
000000f0: d9f5 233c 1cbf 8ebf 4376 d5bc b45c 443d
-0.078271665 -0.081794694 -0.00774188 0.05631301 0.027055522 0.080466144 -0.05294504 0.031901706
0.92119837 -1.5464348 -0.09654263 -0.074262224 -0.07985548 0.06964812 1.4713888 -0.04515857
-0.06254919 -0.028251013 -0.038454346 0.023199238 -0.0386798 -0.09664465 0.12906545 0.032745343
-1.5990571 0.07187089 0.32446134 0.07265937 0.095491126 -0.030757066 -0.06528509 -0.10681378
0.045527793 0.07542488 0.122447796 0.54647315 0.020429472 -0.028877554 -0.4090624 -0.08284833
-0.5302364 -0.101053946 0.010547957 0.08453034 -0.075133905 -0.073028974 -0.03148728 0.08862136
1.328445 0.1788897 0.0322592 -0.11659563 -0.07006962 0.028120533 -0.07769346 0.10937
0.93372273 -0.023887308 0.06544652 -0.09221891 0.010007345 -1.1152072 -0.026057368 0.04793997

layertwo.weight f4 [16, 64]
00000000: 0592 febc 6f31 6c3d bf13 6abd a4a7 343e
00000010: 5b09 9e3b 81b3 293e b76d 16bd f535 1f3d
00000020: fb7a a23e 0b98 89bf ac3e b43d cbe4 5cbd
00000030: 596c af3d 0621 62bc 2fea 673f 9c56 9f3d
00000040: 309d 9c3e aef8 253e bca4 21b9 eaf9 e9bb
00000050: 148f c1bc 2753 1cbd efca c4bc 451f db3d
00000060: 05a9 c9bf 05a4 203e 9292 bb3e d120 b6bd
00000070: fc7b 9d3d 3303 fd3a b518 61bd 4f2e 7fbd
00000080: 0f49 e83d 57b2 df3e 0871 4c3d b155 d63e
00000090: a720 2abe 57da 15bd 3cfb 9dbe 09f3 263e
000000a0: c07c 83be 648f 823d 1069 ad3e efc3 8dbd
000000b0: bb37 eabd 268d 283e 5d81 833e 92fa 963c
000000c0: 978e 9e3e 6c0a 663e e31a 6a3d c44a 53bd
000000d0: 77e6 16bc 97c5 333e c18c 123e 993a 303e
000000e0: b172 5cbe 7018 2abd 2839 1f3e 15d2 8b3d
000000f0: ad68 893d 5047 4bbf 05c8 a03c 8605 793d
00000100: e551 4cbb 0790 d5bd 03ee ff3c 8ca5 493d
00000110: b067 27bc 0c93 8abd 9037 d53c 2e51 1dbe
00000120: e5bb 993d 06a2 a93f 51b3 173c c38d 33be
00000130: c728 28be 24ac 0ebd 6b4b 8abf 6982 833c
00000140: 779e 02bf 2bba 323c 6e02 5abd ba53 43be
00000150: 8c76 2ebe 4684 1b3e d15c 44be 8230 d83d
00000160: 6c77 e83f ebf4 bfbd b18c 75be 8f47 203c
00000170: 443c 15be eff4 2f3e dd54 3739 2bbb a03d
00000180: fac3 29be 2463 4bbf cd9b 4cbc 2b43 f5be
00000190: 6795 0d3d 00fb 55bd 754b 403e db29 853c
000001a0: b9fc 603e e3c0 31be 177c 29bf 0e21 0bbe
000001b0: 4baf 263e 33fe 3dbd e3b4 b2be 3082 16be
000001c0: 4151 94be e2f5 993c 935e d1bc 9715 9abd
000001d0: 48f0 64bd f9fa 27be 4909 fcbd 73ff b2bd
000001e0: 82e6 6a3f bb0d a3bc 281a a93b 8db6 343d
000001f0: ee81 a1be b09c 5b3f fd59 f43d 7c56 fabd
00000200: 8728 283e f6f7 1d3d 8f9a 5f3d 26cd 53bc
00000210: a932 3d3d 6353 a43c f397 c43d 8647 ee3d
00000220: aebc 803e 5c89 96bf eea0 a8bc ff19 b13d
00000230: 2d95 03bd 3677 e93b 0d2f 8d3f 4f35 0dbe
00000240: 3367 b63e 5988 b83d 334e 153d 09c3 833d
00000250: e4dd 183e 9e4c 573d 9a2a 613e d50d 8fbd
00000260: 279d cfbf 5da4 8abc 2986 ad3e 064c 103c
00000270: 146c b23c b2c9 e9bd 63b4 6fbd a1c7 23bd
00000280: 9a96 6c3d c5e7 eb3e 57c0 943a 789d 163f
00000290: c931 693d d112 3ebd 1010 85be b84e ac3d
000002a0: 1a64 f2be 668c 5ebc c0e5 cb3e 2dbd 3c3e
000002b0: f53d 1ebe f7a0 17bd 758e 073f f1e1 0e3e
000002c0: 9e70 ed3e cb4d 193e 522b 033d f75a 393d
000002d0: 7a46 95bc 05f2 303c 55a5 6dbd c457 c03d
000002e0: 5573 b7be 63d7 80bd 5828 eb3d e1eb 723d
000002f0: 597d 1f3e 5270 67bf ac05 69bd 2a86 2b3e
00000300: c6d9 14be 0564 95bd 3252 f23d d278 1fbe
00000310: 2ffd 22bd 4ac1 89bd 25a3 7dbd ea37 a5bd
00000320: 9544 c7bd 48ac 9e3f e3f4 8abd a3f3 c0bd
00000330: af53 f83a 8ff5 103e c309 79bf b465 943d
00000340: 7279 b3be 7f96 363d 0787 13be de19 32bd
00000350: d099 0fbd 3eff 9e3c 527c d2bd 1ba9 dbbd
00000360: cfc0 de3f 247d d2bd f973 07bf 54b9 01be
00000370: eda4 a3bd d4cb 233e 984d 043e cd82 853d
00000380: 7c6a c2bd 9b5a 01bf cb74 75bd 5bf0 e0be
00000390: bfcb 12bd dd9f 763d 16b0 d13e 1aac 24bc
000003a0: e704 bb3e e64f 7a3d e8db bcbe 3ef3 213d
000003b0: 91dd b53d 49b6 0fbc b77e 03bf 1489 95bc
000003c0: 8cd2 f3be 3559 f9bd f848 33be ca67 cebd
000003d0: 323c a13d 40ca cdbd 57a2 9dbd e819 5e3c
000003e0: 3526 0b3f cf96 90bc e445 c2bc 9d6f e0bd
000003f0: cd1d ecbd 65ec 593f 2a9c 11bd f2e7 4bbd
-0.031075487 0.05766433 -0.057147738 0.17642075 0.0048228926 0.16572382 -0.036725726 0.038869817
0.31734452 -1.0749525 0.08801016 -0.05392913 0.085655876 -0.013801819 0.9059171 0.07780191
0.30588675 0.16208145 -0.00015415525 -0.007140388 -0.023627795 -0.038165238 -0.024022548 0.106993236
-1.5754706 0.15687568 0.36635262 -0.08892978 0.07689664 0.0019303322 -0.054955203 -0.062300023
0.1134206 0.4369075 0.049912483 0.41862252 -0.16614018 -0.03658518 -0.3085574 0.16303648
-0.25681114 0.06375006 0.3386922 -0.06922137 -0.11436411 0.16460094 0.25684634 0.018430028
0.30968162 0.22464913 0.057154547 -0.051584974 -0.009210221 0.17555843 0.14311506 0.17209853
-0.21528126 -0.04152721 0.15549147 0.06827179 0.067094184 -0.7940569 0.019626627 0.060796283
-0.0031176743 -0.10427862 0.031241423 0.049230143 -0.010217592 -0.06766328 0.02602747 -0.15362999
0.07506541 1.3252571 0.009259061 -0.17534547 -0.16421805 -0.034832135 -1.0804266 0.016053395
-0.5102305 0.010908644 -0.053224973 -0.19074908 -0.1703741 0.15187177 -0.19176032 0.10556127
1.8161445 -0.09372886 -0.23979451 0.009782686 -0.14573771 0.17183279 0.00017483854 0.078481995
-0.16578665 -0.7944815 -0.012488318 -0.47902808 0.03456631 -0.052241325 0.18778785 0.01625531
0.21971406 -0.17358737 -0.6620497 -0.13586828 0.16277806 -0.046385 -0.3490363 -0.146981
-0.28968242 0.018794004 -0.025557792 -0.07523649 -0.055893213 -0.16404332 -0.123064585 -0.08740129
0.91757977 -0.019904008 0.005160589 0.044119406 -0.3154444 0.8578596 0.119312264 -0.12223527
0.1642171 0.038566552 0.054590758 -0.012927329 0.04619089 0.020059293 0.095992945 0.11634736
0.2514395 -1.1760669 -0.02058455 0.086475365 -0.032124687 0.0071248068 1.1029984 -0.13789867
0.3562561 0.09010381 0.03645153 0.064336844 0.14928395 0.052563302 0.21988907 -0.0698506
-1.6219834 -0.016924078 0.3389142 0.008807188 0.021780051 -0.114154235 -0.05852164 -0.039985303
0.057760812 0.46075264 0.0011348826 0.5883403 0.056932244 -0.046404663 -0.25988817 0.08413452
-0.47341996 -0.013583278 0.39823723 0.1843154 -0.15453322 -0.037018742 0.5295175 0.13953377
0.46374983 0.14971082 0.032023735 0.045252766 -0.018222082 0.010799889 -0.058019 0.0939174
-0.3583018 -0.06291082 0.11482304 0.059306983 0.1557516 -0.9040576 -0.056890175 0.16750398
-0.14536199 -0.07294468 0.11832084 -0.15573433 -0.039792236 -0.0672632 -0.061923165 -0.080673054
-0.09729878 1.2396326 -0.0678499 -0.0942147 0.0018945838 0.14156173 -0.9728052 0.07245961
-0.35053593 0.044577118 -0.14406978 -0.0434817 -0.035058796 0.019408818 -0.102776185 -0.10725614
1.740259 -0.10277775 -0.52911335 -0.12668353 -0.079904415 0.15995723 0.12920225 0.06519089
-0.094929665 -0.5052888 -0.059925836 -0.43933377 -0.03583884 0.06021105 0.40954655 -0.010050798
0.36527178 0.061111353 -0.36886525 0.039538614 0.08880151 -0.0087714875 -0.51365227 -0.01825384
-0.47621572 -0.12175218 -0.17508304 -0.1007839 0.078728095 -0.10048342 -0.076969795 0.013555981
0.54355174 -0.017650036 -0.023714967 -0.109587885 -0.115291215 0.85126334 -0.03554932 -0.049781747

layertwo.bias f4 [16]
00000000: 77d8 3cbd a3ac 2fbd ca3a 963d 0249 40bd
00000010: 86d7 213d 431e 973c 0ebb cebd 4dbb a9bc
00000020: 9c02 c53d ee29 48bd a01c 0cbd 1e03 9e3d
00000030: c0e6 7b3d f731 bfbd 2f5f 6abd c882 813c
-0.046104874 -0.04288925 0.07335432 -0.046944626 0.03951218 0.018447047 -0.100942716 -0.020719195
0.09619638 -0.048868112 -0.034206986 0.07715438 0.061499357 -0.09335702 -0.05721968 0.015809432

layerthree.weight f4 [2, 16]
00000000: dd5a 773f b1b7 41bf 720f 8b3f 9b96 5cbf
00000010: 32e5 5ebf 0840 dabe a797 11bf d453 8b3f
00000020: 8ff6 833f b147 60bf 73df 743f 0809 4e3f
00000030: 75d6 683f ec2f 6bbf 30b2 6dbf aa40 76bf
00000040: ebc5 74bf 278a 363f b2ca 4ebf 8017 693f
00000050: ccbf 393f f58f 523f 7f96 593f 51cf 48bf
00000060: 9ef7 34bf bd05 273f 4173 66bf f810 59bf
00000070: da31 4cbf 6d0a 5f3f 1aa4 563f 560c 2c3f
0.9662302 -0.75670916 1.0864089 -0.86167306 -0.87068474 -0.42626977 -0.5687203 1.0884957
1.0309619 -0.8760939 0.95653456 0.8048253 0.90952235 -0.9187 -0.9285002 -0.9619242
-0.956145 0.71304554 -0.8077804 0.91051483 0.72558284 0.8225091 0.84995264 -0.7844134
-0.70690334 0.6524313 -0.90019614 -0.8479152 -0.7976357 0.87125283 0.8384415 0.67206323

layerthree.bias f4 [2]
00000000: 312d 663e 0253 4dbd
0.22478177 -0.05012799
