state_dicts/model20240104-203322.pt (torch, 39255 bytes, 6 tensors)

layerone.weight f4 [64, 128]
0	0xbcca49b2	-0.024693344
1	0xbdbb14dd	-0.09134839
2	0x3d1554a1	0.03645766
3	0xbd1785bb	-0.03699277
4	0x3ddc3692	0.10752596
5	0xbd00fb2f	-0.031489547
6	0x3d53f5e2	0.051748164
7	0xbc9c80ff	-0.019104479
8	0x3ddc5bce	0.10759698
9	0xbcc2d056	-0.023780983
10	0x3cd97d7b	0.026549092
11	0x3da5783e	0.08079575
12	0xbd87122f	-0.06595265
13	0xbda4b52a	-0.08042367
14	0x3d221320	0.03956902
15	0xbbaf5faa	-0.00535198
16	0xbd74d1d7	-0.05977043
17	0xbd4094bd	-0.047016848
18	0xbbe812d9	-0.007082325
19	0xbd8366ab	-0.06416067
20	0xbdac2695	-0.084057964
21	0x3d59e0e0	0.053192973
22	0x3b22fee4	0.0024871165
23	0xbcea8a4e	-0.028630402
24	0x3c721c93	0.01477732
25	0xbdbb0dc6	-0.091334864
26	0xbdb5c89c	-0.08876154
27	0x3cf6b030	0.03011331
28	0xbd3c8120	-0.04602158
29	0x3e0253aa	0.12727228
30	0xbd4bc7ee	-0.049751215
31	0x3cfc7c14	0.030820884
32	0xbd884498	-0.06653708
33	0x3db522a4	0.08844498
34	0xbd82badc	-0.06383297
35	0xbd844348	-0.064581454
36	0xbd916322	-0.07098986
37	0x3dc5339d	0.09628985
38	0xbc1cba57	-0.009565911
39	0x3d0ca731	0.034339134
40	0xbcd08a5f	-0.025456605
41	0x3d10c96c	0.03534834
42	0xbd4ad5c1	-0.049520258
43	0x3dbe6593	0.092967175
44	0xbc94c98b	-0.01816251
45	0xbd83a5b0	-0.06428087
46	0x3c1fdf70	0.0097578615
47	0x3da2a7c4	0.07942155
48	0x3d1b53c0	0.037921667
49	0xbc7b3bcd	-0.015334082
50	0x3d4f954e	0.050679497
51	0xbdb3895a	-0.08766432
52	0xbe10b5c2	-0.14131835
53	0x3d4d3036	0.050094806
54	0x3dbacea6	0.09121446
55	0xbdc8c305	-0.09802822
56	0x3d0e4170	0.034730375
57	0xbcaa5394	-0.020791806
58	0xbd40c2dd	-0.047060836
59	0xbcb58627	-0.022158695
60	0xbdd0f586	-0.1020308
61	0xbd268c35	-0.040661056
62	0x3ce19837	0.027538402
63	0xbd45cac7	-0.048289087
64	0x3d9c0169	0.076174565
65	0xbd6dd792	-0.058066912
66	0x3d6f9d5b	0.058499675
67	0xbd9fe71e	-0.07807754
68	0x3d02f79d	0.031974424
69	0x3cbe6c95	0.023245135
70	0x3d071157	0.03297552
71	0x3d28497a	0.041085698
72	0x3cd9269d	0.02650767
73	0xbd80742a	-0.062721565
74	0xbd972738	-0.07380527
75	0xbc3b5f89	-0.011436352
76	0x3d3befd6	0.045883022
77	0x3d85016a	0.0649441
78	0x3d37f971	0.04491562
79	0xbd4b164b	-0.049581807
80	0xbce1dfe8	-0.027572587
81	0x3d8e93b2	0.069617644
82	0xbd8ed414	-0.069740444
83	0x3d59ac1e	0.05314266
84	0x3c7fb8e4	0.015608046
85	0xbd30dab4	-0.04317732
86	0xbd9f022b	-0.077640854
87	0x3d8f2901	0.06990243
88	0xbd7ca887	-0.061684158
89	0xbb9b84c2	-0.0047460506
90	0x3d086493	0.03329904
91	0xbbe280bd	-0.0069123195
92	0x3d917bd6	0.07103698
93	0x3d84c2f0	0.06482494
94	0x3cfa71e3	0.030571884
95	0xbc1e169b	-0.009648944
96	0x38c2ec60	9.294669e-05
97	0x3ca624ef	0.020281283
98	0xbd364c64	-0.044506446
99	0x3b189542	0.0023282324
100	0xbd6ddb7b	-0.05807064
101	0x3c3ab057	0.011394582
102	0x3cee4209	0.029084222
103	0x3d098ce4	0.03358163
104	0xbb0eea12	-0.0021806997
105	0xbd21e6ea	-0.039526857
106	0xbda51b40	-0.08061838
107	0xbd97d9ae	-0.07414566
108	0x3d1b0d62	0.03785456
109	0x3d920152	0.07129158
110	0x3c96f95c	0.01842945
111	0xbd443c91	-0.047909323
112	0xbd87f4b5	-0.06638471
113	0x3c84582e	0.016155329
114	0x3c674119	0.014114642
115	0xbc252242	-0.0100789685
116	0xbdcbf45b	-0.099587165
117	0xbda3b165	-0.0799282
118	0xbd3fd368	-0.046832472
119	0xbdaed625	-0.085369386
120	0x3d3d12f4	0.046160653
121	0xbcf9b060	-0.03047961
122	0x3db78eef	0.08962809
123	0x3ce5f0ae	0.028068867
124	0x3dc65f4c	0.09686145
125	0x3d3f850a	0.046757735
126	0x3d93977d	0.072066285
127	0x3d1ceae7	0.038309958
128	0x3d267e1c	0.04064761
129	0xbcbe989c	-0.02326613
130	0x3d266a6b	0.04062883
131	0x3cb7d1c8	0.022438899
132	0xbc2862bd	-0.010277447
133	0xbd2d9b01	-0.04238415
134	0x3d25e7e5	0.040504355
135	0x3d772cd6	0.060345493
136	0xbc853eb1	-0.016265245
137	0xbd9256fd	-0.07145498
138	0xbdb3500e	-0.087555036
139	0x3d7ebabc	0.062189803
140	0xbd1a0858	-0.037605613
141	0xbd44cdc4	-0.048047796
142	0x3ba34add	0.0049832896
143	0x3d8c66f2	0.06855573
144	0xbcccf751	-0.025020273
145	0xbdb72975	-0.08943454
146	0x3d8ef681	0.06980611
147	0xbcc45102	-0.023964409
148	0x3d9a3876	0.075303
149	0xbcb7df5a	-0.02244537
150	0xbd147681	-0.036245827
151	0xbd297a57	-0.041376438
152	0x3d1bb9ad	0.03801887
153	0xbe06757d	-0.13130756
154	0xbdc1c8c8	-0.09462124
155	0xbd9ad7c0	-0.07560682
156	0x3dc5e210	0.096622586
157	0x3d1bca34	0.038034633
158	0x3db9a601	0.09064866
159	0x3dad426a	0.08459933
160	0x3d1c1b52	0.038111992
161	0xbd8597a2	-0.06523062
162	0xbd87eaa6	-0.066365525
163	0x3ca6c7e2	0.020358983
164	0xbd8d4ffa	-0.0690002
165	0x3d93f03d	0.07223556
166	0x3c88a6bf	0.016681073
167	0xbd76be17	-0.060239878
168	0xbd177b4c	-0.03698282
169	0x3d6a49fc	0.057199463
170	0x3b6235a2	0.003451683
171	0x3be6fcfa	0.0070492
172	0x3c98a531	0.018633457
173	0x3c67982f	0.0141354045
174	0xbcf322cc	-0.029679678
175	0x3dad1e18	0.084530056
176	0xbd774f9c	-0.060378656
177	0x3d601fc0	0.05471778
178	0xbc487782	-0.012235524
179	0xbdba09ae	-0.090838775
180	0xbcf290aa	-0.029609997
181	0x3daef80c	0.08543405
182	0x3d223de4	0.039609805
183	0xbda85ab5	-0.08220426
184	0x3d899b5d	0.06719086
185	0xbdcf008a	-0.10107525
186	0xbd117baf	-0.035518344
187	0x3d0253a3	0.031818043
188	0xbcb82592	-0.022478852
189	0xbdc86621	-0.097851045
190	0x3db0c40c	0.08631143
191	0xbb8c0a71	-0.0042737057
192	0xbd9744c0	-0.0738616
193	0x3bf71277	0.007540043
194	0xbd9a4471	-0.075325854
195	0xbd5a5a74	-0.05330892
196	0xbd163219	-0.03666887
197	0xbcd375c2	-0.025812987
198	0xbd87d2db	-0.06632014
199	0xbb686389	-0.0035459718
200	0xbdeae849	-0.11470086
201	0x3d6fb81e	0.058525197
202	0xbcc91632	-0.024546716
203	0xbd2832a1	-0.04106391
204	0x3d63da90	0.05562836
205	0x3d95b5fd	0.07310102
206	0x3c42abd7	0.01188179
207	0xbd963411	-0.0733415
208	0xbca66c68	-0.020315364
209	0x3d8a58f6	0.06755249
210	0x3c9965b2	0.01872525
211	0xb957d5ec	-0.0002058369
212	0xbd975ac5	-0.0739036
213	0x3d5b5f40	0.053557634
214	0x3bc2ccc3	0.0059448197
215	0xbda6a774	-0.08137408
216	0xbd44833c	-0.047976717
217	0xbd815cad	-0.063165046
218	0x3d3c4478	0.045963734
219	0x3c8ba71c	0.017047457
220	0x3dcf72e7	0.10129338
221	0x3bcccae6	0.0062497733
222	0x3d0afc13	0.033931803
223	0x3d74ce41	0.05976701
224	0xbd804f1d	-0.0626509
225	0xb96f5280	-0.0002282355
226	0x3c77d725	0.015126978
227	0x3d86b3ba	0.06577249
228	0x3d041adb	0.032252174
229	0x3cf2dc9f	0.029646216
230	0xbc311b3d	-0.010809717
231	0x3d7997f6	0.060935937
232	0x3c067328	0.008206166
233	0xbd32aaf9	-0.043620083
234	0x3d636b28	0.055522114
235	0xbd65dafa	-0.056117035
236	0x3d27ec7a	0.040997006
237	0x3c6a794d	0.014311147
238	0xbd2dfdb2	-0.04247827
239	0x3d0a6444	0.033787027
240	0xbd0f2fc8	-0.034957677
241	0x3d0b963a	0.034078814
242	0x3da3aa69	0.079914875
243	0x3d34b1fb	0.044115048
244	0xbcab57c3	-0.020915871
245	0xbd7d866b	-0.06189577
246	0xbd826dc1	-0.0636859
247	0x3cc76769	0.024341302
248	0x3ccf592f	0.02531108
249	0x3ccb546b	0.024820527
250	0x3b961866	0.0045805452
251	0xbd960b37	-0.07326358
252	0xbcd23116	-0.025658172
253	0xbd9746fe	-0.073865876
254	0xbbc9847c	-0.0061498266
255	0xbcd41521	-0.025888981

layerone.bias f4 [64]
0	0xbe2c7f35	-0.168454
1	0xbdf8d833	-0.12150612
2	0x3d2c9ee8	0.042143732
3	0x3da0ffb0	0.078612685
4	0xbe60d36c	-0.21955651
5	0xbe182dbd	-0.14861198
6	0x3dd1e5b0	0.102488875
7	0x3daf9632	0.08573569
8	0x3e02b7bb	0.127654
9	0x3e1c3a5f	0.15256642
10	0xbe582913	-0.21109419
11	0xbdc43888	-0.09581095
12	0xbd931430	-0.07181585
13	0x3e2c3375	0.16816504
14	0x3dcffaae	0.10155235
15	0xbd3147f8	-0.043281525
16	0xbda764d7	-0.081735305
17	0x3e1c6eaf	0.15276597
18	0x3d48fa0c	0.04906659
19	0xbd10fa38	-0.035394877
20	0x3db3c2e1	0.087774046
21	0x3ddd10d1	0.10794223
22	0x3cd1f5dc	0.02562993
23	0x3dd37134	0.10324326
24	0x3dce96b0	0.10087335
25	0x3e36abd4	0.17838985
26	0x3c1ad3d8	0.009449922
27	0x3d92f530	0.07175672
28	0x3d2aea67	0.04172745
29	0x3e2ea502	0.17055133
30	0x3dac2c89	0.08406932
31	0xbe056de8	-0.13030207
32	0x3db47e9d	0.08813212
33	0x3d097c3e	0.033565752
34	0x3daecd88	0.08535296
35	0x3c811bea	0.01576038
36	0xbdd34bb4	-0.103171736
37	0x3d6a2560	0.05716455
38	0xbe0bb567	-0.13643418
39	0x3e4af31f	0.19819306
40	0x3d7a4e5c	0.061109886
41	0xbd8d5a0b	-0.0690194
42	0xbd8ac690	-0.06776154
43	0xbdbe60ca	-0.09295805
44	0x3dcbb2e1	0.09946228
45	0x3dce9335	0.10086671
46	0x3dba3f93	0.09094157
47	0xbe5caff0	-0.2155149
48	0xbdea33ea	-0.11435683
49	0xbca3a682	-0.019976858
50	0x3ddd5eb4	0.10809079
51	0x3d960483	0.07325079
52	0x3e189e22	0.14904073
53	0xbdda8a71	-0.10670937
54	0x3cdcaf06	0.026938926
55	0x3dda7306	0.1066647
56	0x3de76c9b	0.11300012
57	0x3df7c969	0.12098963
58	0xbe466bcc	-0.19377059
59	0x3d8d87a5	0.06910638
60	0x3e021871	0.12704636
61	0x3e1b9efd	0.15197368
62	0xbe42b754	-0.19015247
63	0x3d841b7a	0.06450553

layertwo.weight f4 [16, 64]
0	0xbe47063e	-0.19435975
1	0xbda61099	-0.081086345
2	0x3d5a8f35	0.05335923
3	0x3e25a7b6	0.16177258
4	0xbe48d150	-0.19611096
5	0xbba62326	-0.005070108
6	0xbdea5175	-0.11441318
7	0x3d7c360a	0.061574973
8	0x3c6e8e1b	0.014560248
9	0xbe06a299	-0.13147964
10	0xbd5e89ff	-0.054330822
11	0xbdc44162	-0.09582783
12	0xbd3ad620	-0.04561436
13	0x3e2ec614	0.17067748
14	0x3e15ef08	0.14641964
15	0xbd5c8451	-0.053837124
16	0xbdbcf95b	-0.09227248
17	0x3e643e03	0.2228928
18	0xbda6142e	-0.08109318
19	0xbda0a72d	-0.07844386
20	0x3d01fea4	0.031736985
21	0x3e0b7c58	0.13621652
22	0x3d413dc1	0.047178034
23	0x3de14f83	0.11001494
24	0x3d13ad24	0.03605379
25	0x3e2c61e7	0.16834222
26	0x3daca0b7	0.084290914
27	0x3c866670	0.016406268
28	0x3cee3a8a	0.029080648
29	0x3e5794f0	0.21052909
30	0x3d951b0d	0.0728055
31	0xbd8c8370	-0.06861007
32	0x3d0ec7ad	0.034858394
33	0x3d37273b	0.044715147
34	0x3e2f0bf0	0.17094398
35	0x3cc0eea2	0.023551289
36	0xbd6d2b30	-0.057902515
37	0x3e3ec673	0.1863039
38	0xbe36e678	-0.17861354
39	0x3e151af6	0.14561066
40	0x3df35f5a	0.11883421
41	0xbc0b3f7c	-0.008499023
42	0xbb84d422	-0.0040536085
43	0x3ca9619f	0.020676432
44	0x3e4da3aa	0.20081964
45	0x3e5fbfe8	0.2185055
46	0x3b67695a	0.0035310597
47	0xbcf2f400	-0.029657364
48	0xbd453b65	-0.048152346
49	0x3e4be895	0.19912942
50	0x3dbab60f	0.09116756
51	0x3d9b9762	0.07597233
52	0x3e4b7a3d	0.19870849
53	0xbdd5d0e8	-0.10440236
54	0x3d82214c	0.06354007
55	0x3e4e172d	0.20126028
56	0x3e17c624	0.14821678
57	0x3e11e107	0.14245997
58	0xbe136d18	-0.14397085
59	0x3b6b7ff4	0.003593442
60	0x3e4d2827	0.20034848
61	0x3e3511c6	0.17682561
62	0xbd5ad7b7	-0.053428378
63	0xbde84d5c	-0.1134288
64	0xbc234206	-0.009964472
65	0xbc5f1b81	-0.013617397
66	0x3d5f4bec	0.054515764
67	0x3e60633d	0.21912856
68	0xbc6b53bf	-0.014363228
69	0xbdd1cdaa	-0.102443054
70	0x3cfe7022	0.031059328
71	0x3e4f6a12	0.20255306
72	0x3dd5e42f	0.10443913
73	0x3d511c2c	0.051052257
74	0xbd81918c	-0.06326589
75	0xbe11e497	-0.14247356
76	0xbd92635f	-0.0714786
77	0x3df8c00f	0.12146007
78	0x3d92f4c3	0.07175591
79	0xbcc4bb4c	-0.024015091
80	0x3d159791	0.036521498
81	0xbc239f8b	-0.0099867685
82	0xbdb16a1a	-0.086628154
83	0xbd845291	-0.06461061
84	0x3d46dc18	0.04854974
85	0x3cca1cad	0.024671877
86	0xbd0f470d	-0.03497987
87	0x3d8facde	0.07015394
88	0xbd07fa8a	-0.033197917
89	0x3e69b5c8	0.2282325
90	0x3d793577	0.060842004
91	0x3e181b42	0.14854148
92	0x3ce9e42c	0.028551184
93	0x3d7bc88a	0.061470546
94	0xbcc36f24	-0.023856707
95	0xbe1d73d1	-0.15376212
96	0xbd704040	-0.058655024
97	0xbdd634db	-0.104593
98	0x3dadde4d	0.08489666
99	0x3e073723	0.13204627
100	0xbde22e60	-0.110440016
101	0x3e1cd858	0.15316904
102	0xbe425437	-0.18977438
103	0x3e1d61b3	0.153693
104	0x3e0600a6	0.13086185
105	0xbe0eabb4	-0.13932687
106	0xbe1bda1c	-0.15219921
107	0xbd97f383	-0.07419493
108	0x3e0d5687	0.13802539
109	0x3dd13007	0.102142386
110	0xbde2a13c	-0.11065909
111	0xbdf01607	-0.117229514
112	0xbe5ec69d	-0.21755452
113	0x3e2d2cf1	0.16911675
114	0x3e02a969	0.12759937
115	0x3e265f1e	0.16247222
116	0x3e36deb6	0.17858395
117	0xbe22a4c3	-0.15883164
118	0x3e2940af	0.16528581
119	0x3d8d004f	0.068848245
120	0x3e36f6ec	0.1786763
121	0x3e33cf85	0.17559631
122	0x3d7a262b	0.061071556
123	0x3dd15d03	0.10222819
124	0x3c916dc4	0.017752536
125	0x3e407991	0.18796374
126	0xbdd4461b	-0.10364934
127	0xbc7356f0	-0.0148522705
128	0xbe2ae472	-0.16688707
129	0xbc692836	-0.014230778
130	0x3df63bda	0.120231345
131	0x3e1255c1	0.14290525
132	0xbdb571a3	-0.08859565
133	0x3c9d9cb7	0.019239767
134	0x3d0b8692	0.034063883
135	0x3d3ec090	0.04657036
136	0x3d0c174d	0.03420191
137	0xbab4e2ad	-0.0013800465
138	0xbe271987	-0.16318332
139	0xbd2bef35	-0.041976172
140	0x3d0b35c7	0.033986833
141	0x3e2c35c6	0.16817388
142	0x3d662961	0.056191806
143	0xbda6963a	-0.08134122
144	0xbd012bda	-0.03153596
145	0x3e059e95	0.13048775
146	0xbd6edfb6	-0.058318816
147	0xbe22962e	-0.15877602
148	0x3d958302	0.073003784
149	0x3db7b28f	0.08969604
150	0x3dae7529	0.0851844
151	0x3e2197f0	0.15780616
152	0x3b8a114c	0.0042134877
153	0x3d80050d	0.06250963
154	0xbbb325ec	-0.005467167
155	0x3e36624c	0.17810935
156	0xbd1f3df6	-0.03887745
157	0x3e1fa064	0.15588528
158	0xbd00b19b	-0.031419378
159	0x3c4e7bb6	0.012602737
160	0x3d65aef7	0.056075063
161	0x3d95799e	0.07298587
162	0x3d857e5f	0.06518244
163	0x3b1c0efe	0.0023812647
164	0x3d26800e	0.040649466
165	0x3e4eb144	0.20184809
166	0xbe578119	-0.2104534
167	0x3e1f2f62	0.15545419
168	0x3e06764f	0.13131069
169	0xbdaf5eb8	-0.08562988
170	0xbe471b61	-0.19444038
171	0xbd426303	-0.047457706
172	0x3e4e4ccd	0.20146485
173	0x3e405161	0.18781044
174	0x3cab5fa9	0.020919638
175	0xbda756ac	-0.08170828
176	0xbe5aae5a	-0.21355572
177	0x3d052b6d	0.032512117
178	0x3de1cab9	0.110249944
179	0x3ca6cd42	0.020361546
180	0x3b26093a	0.002533509
181	0xbc8fdfeb	-0.017562827
182	0x3d429067	0.047500994
183	0x3d842734	0.0645279
184	0x3e310b51	0.17289473
185	0x3d64a963	0.055825602
186	0xbe03b678	-0.12862575
187	0xbdb7304d	-0.089447595
188	0x3de9ca5b	0.11415549
189	0x3e06f8a2	0.13180783
190	0xbe659278	-0.22419155
191	0x3de1c7af	0.11024415
192	0x3cc5c6ec	0.024142705
193	0x3dca1082	0.0986643
194	0xbdd6aa47	-0.104816966
195	0xbc5b1862	-0.0133725125
196	0x3e3895f1	0.18025948
197	0x3e0f9cf5	0.14024718
198	0x3d8c833e	0.0686097
199	0xbda41735	-0.08012239
200	0x3c3291f9	0.01089906
201	0xbcfd743c	-0.030939214
202	0x3db13bb4	0.086539656
203	0x3e11ee8b	0.14251153
204	0x3d3559cd	0.044275094
205	0xbe48d0e6	-0.19610938
206	0xbe1eecee	-0.15520069
207	0x3dbe749e	0.09299587
208	0x3db30702	0.08741571
209	0xbe2973bc	-0.16548055
210	0xbd9cc156	-0.076540634
211	0x3e141ce7	0.1446415
212	0xbe48ed43	-0.19621758
213	0xbdfaf249	-0.122532435
214	0xbdccbac6	-0.09996562
215	0xbe74b32f	-0.23896478
216	0xbdb988d1	-0.09059299
217	0xbd481905	-0.048851985
218	0xbdad61bf	-0.08465909
219	0xbe6d9ec1	-0.23205091
220	0x3ca3dd5a	0.02000301
221	0xbd5ba93b	-0.053628188
222	0x3d9118af	0.07084786
223	0x3e1a8893	0.15091161
224	0xbdde826c	-0.1086472
225	0x3b16df14	0.0023021149
226	0x3d14a3c7	0.036289003
227	0x3bfc7cd8	0.007705312
228	0x3e07c39e	0.13258216
229	0xbda2c8dd	-0.07948468
230	0xbc12fe24	-0.008971725
231	0xbe5b8de9	-0.21440853
232	0xbc498b4c	-0.012301277
233	0x3d113332	0.035449214
234	0x3dea687f	0.11445712
235	0x3df110d2	0.11770786
236	0xbd89a0e2	-0.06720139
237	0xbe51c215	-0.20484193
238	0xbdc922f6	-0.098211214
239	0x3dfdab5a	0.12386198
240	0x3c9232ac	0.017846428
241	0xbd0c6df1	-0.034284536
242	0xbdcae402	-0.0990677
243	0xbdca8e84	-0.09890464
244	0xbe2ad725	-0.16683634
245	0x3a996784	0.0011703824
246	0xbc884dc6	-0.016638648
247	0xbd00264c	-0.031286523
248	0xbe20907e	-0.1568012
249	0xbda734f0	-0.08164394
250	0xbc9511e7	-0.018197013
251	0xbc978add	-0.018498832
252	0xbda3d2cb	-0.0799919
253	0xbd79c088	-0.060974628
254	0x3e307e7e	0.17235753
255	0xbde3898a	-0.11110218

layertwo.bias f4 [16]
0	0x3cecb4f7	0.028894885
1	0x3da1930f	0.07889377
2	0xbd75dd1c	-0.06002532
3	0xbdbeb710	-0.0931226
4	0xbdcf2954	-0.101153046
5	0xbdda0fff	-0.10647582
6	0xbc29e71a	-0.01037004
7	0xbdd70629	-0.10499222
8	0xbd24c924	-0.040230885
9	0xbd4a97a6	-0.04946103
10	0x3dfddbbc	0.12395427
11	0xbbe5c1ee	-0.0070116436
12	0xbe0e567c	-0.13900179
13	0x3e1bb989	0.15207495
14	0x3c5fece8	0.013667323
15	0xbce33208	-0.027733818

layerthree.weight f4 [2, 16]
0	0x3e42083e	0.18948457
1	0x3e735868	0.23764193
2	0x3e0e2817	0.1388248
3	0xbe039f4c	-0.12853736
4	0x3c71a1ca	0.014748046
5	0xbe23865d	-0.15969224
6	0xbe416eb8	-0.18889892
7	0x3e71923b	0.23590939
8	0x3e57f22b	0.21088473
9	0x3e9fc3e1	0.3120413
10	0x3e0cad71	0.13738038
11	0xbe9040b1	-0.28174356
12	0xbe90b9ee	-0.28266853
13	0x3d9b8c6d	0.075951435
14	0xbe750739	-0.23928536
15	0xbe696993	-0.2279418
16	0xbcdf2fa4	-0.027244397
17	0xbe3fec62	-0.18742517
18	0xbe755492	-0.23958042
19	0x3e86495e	0.2622785
20	0x3e5216a6	0.20516452
21	0x3e756c3c	0.2396707
22	0x3e82509e	0.2545213
23	0xbb0d8571	-0.002159443
24	0x3d7d2e73	0.061811876
25	0xbe26ce12	-0.16289547
26	0xbe6c485f	-0.23074482
27	0xbd8dfcd5	-0.069329895
28	0x3e9330ce	0.28748173
29	0xbe8ce5bb	-0.2751902
30	0xbe5e35e8	-0.21700251
31	0xbd21e859	-0.039528225

layerthree.bias f4 [2]
0	0x3e434dd1	0.19072653
1	0x3e3c9839	0.18417443
