state_dicts/model6446.pt (torch, 685206 bytes, 69 tensors)

conv_kernel_16d f8 [3, 16]
0	0xbfd07c3590b0438b	-0.25758113031138724
1	0x3f8146821a65f8c1	0.008435264998066907
2	0x3fb35525a5bcdde0	0.07551799103099865
3	0xbfb9e810020c78b7	-0.1011972432138205
4	0xbfd01268079e9207	-0.2511234354408604
5	0xbfb6f08761d11149	-0.08960767877676291
6	0xbfe05ec0cad766c8	-0.5115665399309473
7	0xbfb0a917f6deb764	-0.06508016373729003
8	0x3f95a8f7e1577f23	0.021152375344058016
9	0x3fc4765b3f0809b1	0.159861951615381
10	0xbfb79e8ad1aa51e9	-0.09226291292936363
11	0x3fe473fffaedfc8a	0.6391601468057087
12	0xbfca57d9340114e5	-0.2058059219290619
13	0xbfb34341d691f87d	-0.07524501312761518
14	0xbfc7e4fda93131ab	-0.1866757465489973
15	0xbfaa99101be880ba	-0.05194902744938319
16	0x3fe9b4f333dd19b5	0.8033386242830632
17	0xbfd9d2e40665e03e	-0.40349674820709314
18	0xbfdaa24c341ff2d1	-0.41615586366951357
19	0x3fd520fb1e4565a9	0.33013799625549695
20	0xbfcd718ccab398a8	-0.23002777001892594
21	0x3fd5052edcd9c97f	0.3284413487191599
22	0x3f77699154f4cd63	0.005715911581592212
23	0x3fd163faf9341474	0.271727317202312
24	0x3fe037b2f5ccea68	0.5067992020406793
25	0x3fdf2ba9250e581e	0.48703983896973735
26	0x3fa366d04d7906ce	0.03789378114426044
27	0x3fdc6d50e710e4f0	0.4441721207145539
28	0xbfc24987f1d095c0	-0.14286898906099843
29	0xbf9e938cf46f588f	-0.02985973588860041
30	0xbfe18b56b441bc91	-0.548259117187529
31	0x3fb6d5f4cc8ee366	0.08920221323104513
32	0x3fdfe74f846cb4d4	0.4984930794915503
33	0x3fd7644b647bb114	0.3654964906006779
34	0x3fd6fa29534b07bf	0.35901864179697535
35	0xbfc1c69cef2fe78e	-0.13887368849810539
36	0xbfd2b8b57370d93c	-0.2925237300254542
37	0xbfca60f8ce79a7d4	-0.206084347551324
38	0xbfe43fb51bcd6c95	-0.6327767889992112
39	0xbfd342caf365e75e	-0.30095170754758793
40	0x3fb71700b9a3629c	0.09019474537070454
41	0x3fcd07f645c6f82e	0.22680548102465664
42	0xbfc5b4eaeebef826	-0.16958367021101245
43	0xbfc7111e070d413c	-0.18020987839055091
44	0x3f8a6cddb9d9bd7a	0.012902958139618493
45	0x3fde0b315fda83ba	0.4694331584997219
46	0xbfd30c6431e0c859	-0.2976313101854707
47	0x3fe9952c044f6c4a	0.79945946542592

conv_bias_16d f8 [3]
0	0x3fbf5a0d0abfd8a9	0.12246781837879674
1	0xbff2c3c9147ac1b4	-1.172799186704748
2	0x3fc251e77f0962f1	0.14312452033006864

conv_kernel_8d f8 [3, 8]
0	0x3fb5bc5f6153e891	0.0849055874458904
1	0x3fd16c5a6201a4dc	0.2722383458227122
2	0xbfe3867a5d60d0de	-0.610165769938728
3	0xbfd7ed38422d4a23	-0.3738537451037322
4	0x3fa6b130c44c0e7e	0.04432060619549548
5	0xbfe0e197371b4264	-0.5275379253672097
6	0x3fd6cd983a84de78	0.35629850115535744
7	0xbfcb7f6507ab96e1	-0.2148252761318679
8	0x3ff3cf2d3c03984e	1.2380802482889695
9	0x3fb4400d9af04c41	0.07910237343485084
10	0xbfd616471e472aa1	-0.34510972935519574
11	0x3fdc7784e8bb2f64	0.4447948715940042
12	0x3fd3166c1403838b	0.29824354128327774
13	0xbfded55bdf101f4e	-0.4817723921155349
14	0xbfd74dd2c63c3b0b	-0.3641249595538489
15	0x3fe462e87d120370	0.6370737498074117
16	0xbfe7fec4f945a557	-0.7498497837633903
17	0xbfe3b67eaf163ab4	-0.6160272044815742
18	0x3fe41bb4f31074a2	0.628382181868478
19	0x3f9077f6c2144db4	0.016082625957165766
20	0x3f9d5e62f01b645f	0.028680368332832603
21	0x3fdde2be5c29275a	0.4669643306739225
22	0xbfd443603c65f0e1	-0.3166122999025572
23	0xbff7c271425bce4d	-1.4849712936528647

conv_bias_8d f8 [3]
0	0x3fde6531998fca7f	0.4749263763070885
1	0x3fc5f85da29da7e2	0.17164202156283098
2	0xbfe776311121b147	-0.7331776938058646

widechannel_conv_kernel f8 [3, 3]
0	0x3fa6bdce4942c14b	0.04441685337349329
1	0x3f6fc38b395ec09e	0.003877422258447962
2	0x3ff8c75b542044e5	1.5486710821317555
3	0xbfa22a862add71f0	-0.035480683071657526
4	0xbfe89f2a927a5fc9	-0.7694294796847255
5	0xbfe4ebe8b801e673	-0.6537974923987363
6	0x3ff14f77d1b60837	1.0819013778532403
7	0x3fe29cec6637e786	0.5816556927158991
8	0xbfdc11a39f079675	-0.4385766079925369

widechannel_conv_bias f8 [3]
0	0xbfe1d115dd17690c	-0.5567731207077329
1	0x3ff0048ff06a6a05	1.0011138335454473
2	0x3fde63ed98e92441	0.4748491280811927

midchannel_conv_kernel f8 [3, 3]
0	0x3ff03e62aa20699c	1.015230812604023
1	0x3ff24c34f051a9ec	1.1436051738224888
2	0xbff417ef694f23ca	-1.255843554843738
3	0x3fe5eea8a01693f7	0.6853831412050785
4	0xbfd471e3b7409b4d	-0.3194512643407748
5	0x3fde700c587a35fd	0.4755888809239364
6	0xbfd6458cf08dacec	-0.3479950284151545
7	0xbfe98dfda56ab17a	-0.7985828619762707
8	0xbfb3de1565244d94	-0.07760747641832771

midchannel_conv_bias f8 [3]
0	0x3ff477f58b492be6	1.2792869034626562
1	0xbff62ee762bf1fdb	-1.3864511353767657
2	0x3fb7283e809d5b89	0.09045782699591433

narrowchannel_conv_kernel f8 [3, 3]
0	0x3fe3438bdf5065c4	0.6019954072573275
1	0xbfd39b8ecc0d62a5	-0.3063694946954832
2	0x3fd7d6909775a432	0.37247099677057627
3	0xbfe0d2fa70b4b59f	-0.5257541848456418
4	0xbfccacba94a6ce8a	-0.22402126558664676
5	0x3ff1236ce5129660	1.0711487720631325
6	0x3fdfb9429a147ecf	0.49568238303070883
7	0x3fe1b69d857ff075	0.5535419089715236
8	0xbfdc51aad2630f43	-0.4424845747528147

narrowchannel_conv_bias f8 [3]
0	0x3fe3d5c3c26261e0	0.6198443218773342
1	0xbfe430e0cc28daf1	-0.6309665668003089
2	0x3ff049fa015f0f69	1.0180606893126998

conv_kernels_64d.0 f8 [3, 64]
0	0xbfa4f381aea6905b	-0.04092030770269225
1	0xbfcf9736e4cdbcff	-0.24680219814351997
2	0x3fc3101a77099f99	0.14892893612272642
3	0xbfd45891f340b777	-0.3179058909907932
4	0x3fb9cb354fcec812	0.10075696180754815
5	0xbfbb4079337bfcd7	-0.10645253664914676
6	0x3fc74097578928ac	0.1816586663647447
7	0x3f9b98cbc38e1ea8	0.02695005780290552
8	0xbfb77bd66934d1cc	-0.09173336094392609
9	0xbfd7708dc5fbf3a7	-0.3662447389067957
10	0xbfdf37a342892fde	-0.4877708577885168
11	0xbfd58ed3cf63f934	-0.33684249165516467
12	0x3fc8857e2de24833	0.19157387962747094
13	0x3fb2ed4ec219cef5	0.07393352736272248
14	0xbfb5b3e7b75effdd	-0.08477638460953991
15	0xbfc9ab9eb4a37a20	-0.20054992504351876
16	0x3fd53d781aa7d4d9	0.33187677958569634
17	0xbface75ab63de3b2	-0.05645259356146627
18	0x3fd34c2cee10a4e8	0.30152438400780435
19	0x3fcbb515159dd7e0	0.21646369510170782
20	0x3fb1004063ea0bcd	0.06641008796036303
21	0xbfbbddb656cc0c30	-0.1088518106371772
22	0xbfc4416c6bad7b92	-0.1582465673227174
23	0x3fc4ecfe3485fd0c	0.16348245205515644
24	0xbfa49bb47d867858	-0.04025043518343868
25	0xbfd2b1969440c21e	-0.2920891235144455
26	0xbfc589edf88c5112	-0.16827177654398234
27	0x3fc8108a23660819	0.18800474861569752
28	0x3fc05daf9c21a0b4	0.12785906909562572
29	0x3fd250c562d82d46	0.2861798730161421
30	0xbf94b838e83646ba	-0.020234002278420184
31	0x3fb74333ec40176c	0.09086918371039382
32	0x3fcc4218bf2f5398	0.22076711020659157
33	0x3f6c6fc4e4b2175f	0.003471264416989791
34	0x3fd8d27469c162bd	0.3878451378600792
35	0xbfb3c5a9f19a6cbc	-0.07723486088291315
36	0xbfa744a3c8f848d9	-0.045445555002645306
37	0x3fba435aabab250d	0.10259024325491257
38	0xbfca37669452883a	-0.20481569521240478
39	0x3fc0d30c6acbce10	0.13144068922666508
40	0xbfa64e1dc2a35b46	-0.04356472969964513
41	0x3faa91d63da73555	0.05189389708139439
42	0xbfba433fdb44c4d6	-0.10258864501226425
43	0x3fd15f6185385204	0.2714465905167176
44	0x3fa74ef5feedb262	0.04552429902000622
45	0x3f7da86227f2090f	0.007240661069888312
46	0x3fd19d8ba52b34c2	0.27524081353915275
47	0x3f64143ab475abb8	0.002451052339599493
48	0xbf9d1d87bd6380d1	-0.028432961401336613
49	0xbfa073ba730fc662	-0.03213293699799348
50	0x3fd414d71493561c	0.3137719822819649
51	0xbfb4c0c26ac9b2a3	-0.08106627566457773
52	0x3fcb8b6bdf106d0b	0.21519230262570263
53	0xbfca824ff8663f5e	-0.20710181836011093
54	0x3fd040672f95a124	0.25393085143015726
55	0x3fc1a3b05d145330	0.13780788941280653
56	0x3fa3e4366bb4f1f6	0.0388504988172577
57	0x3fc75632c6f9f506	0.18231806483883178
58	0xbfb06cf96bdcf385	-0.06416281588913193
59	0xbfc902331eb1ea0a	-0.19537962912347978
60	0x3fc30000e7e657c0	0.14843760798674843
61	0xbfbb60cd67767c32	-0.10694583679149686
62	0xbfd23b58054f62b2	-0.2848720599991267
63	0x3f93b1dc4ce4a5a4	0.019233171647248817
64	0x3fbc95d1762ccac1	0.1116610444558246
65	0xbfc084a3e7c7e7a2	-0.1290478593580789
66	0xbfa579b076147fb3	-0.041944040693351246
67	0x3fd2a8d6315bf521	0.29155497379527345
68	0x3fc2a6b7e59cbfab	0.14571284019029682
69	0xbfca5d53b8ff2920	-0.2059731152824691
70	0xbfba914bcfefa9f5	-0.10377954317633693
71	0x3fd0dbc4d7084c32	0.2634136295247941
72	0x3fa9d575581db6d7	0.05045668316493639
73	0xbfb646e4c830037d	-0.08701925170318066
74	0x3fce5dbf0919605b	0.23723590797704017
75	0x3fd0de923a95acf8	0.26358466836127503
76	0xbfc2b1226ea8ad30	-0.14603071597353212
77	0x3fd23659114e1398	0.2845671338075646
78	0xbfb8c4521c1ae4ae	-0.0967456167808389
79	0xbfd144d3969a3c34	-0.2698258372046809
80	0x3fd1d6b524ea4f60	0.2787297115803451
81	0xbfcfe1a1aae3fa54	-0.2490732273508508
82	0xbf6237fe110f009d	-0.0022239649046867497
83	0xbfcf94fd29374607	-0.24673428070541112
84	0xbfbc7c54228d99af	-0.11127210467893776
85	0x3fc993399e24be78	0.19980545255519977
86	0xbfd962fc71b6a877	-0.3966666326983907
87	0x3f93e2eb58fe45f6	0.019420316035001016
88	0x3fc768587a1e0d54	0.1828718754078219
89	0xbfce78f8bff25431	-0.23806676266090812
90	0x3fb51d2480c97142	0.08247593063555761
91	0x3fc914e1e6afa81a	0.19594978107426259
92	0xbfbdea557bb98055	-0.11685690184231252
93	0xbfccbcfc2b2cc409	-0.2245173655333306
94	0x3fa5fb311b80f0ef	0.04293206654299008
95	0xbfd3e14e6f238002	-0.31062661031137406
96	0xbfb01dfb9c9023a1	-0.06295750210132535
97	0xbfbae5641c35bafe	-0.10506272972791561
98	0xbfc75d1359750c41	-0.18252794139888986
99	0x3fc216485cc4df86	0.14130501298654624
100	0xbfaa33ba1e7588c1	-0.05117589589896588
101	0xbfd1cea271a8e8d8	-0.27823697185125473
102	0x3fc4041db1b75536	0.15637561013742535
103	0xbf942fae228a5df9	-0.019713135584053607
104	0xbfb3c8a4a29e2169	-0.0772803208366263
105	0x3fbdd02d8eeafc60	0.11645779360968467
106	0x3fc21c55e41586b6	0.14148973118704128
107	0x3f9c70a5a94ff3bd	0.027773464640620683
108	0x3fce47633fcab483	0.2365535794719201
109	0x3fc739401dcfed84	0.18143464523005204
110	0xbfd5f78214346603	-0.34323169682610927
111	0xbf52ddd2a2915f54	-0.001151519487640547
112	0xbfcda7a75eb16a9c	-0.23167888759310962
113	0x3fdb43f5a87bfdc5	0.4260229249339001
114	0xbf811398c5de8710	-0.008338159121027228
115	0x3f5fa03a93e5de64	0.0019302913711650932
116	0xbfbdcebd5dc0745e	-0.11643584765302381
117	0xbfde097ad2bd7e86	-0.46932859974001706
118	0x3fc09535c4772cbd	0.12955352871936113
119	0xbfa6c16037b9dc68	-0.04444409065484295
120	0x3fc8e5862a8bcdd0	0.19450451924750078
121	0xbfd2f8593d70dd82	-0.29640799522481853
122	0xbfb768408dcd6186	-0.09143451177567927
123	0x3f9aea4102971966	0.026284232886405155
124	0x3f9dbc7ee5d1300b	0.029039366509366043
125	0x3f7a55d4328eeca4	0.006429509064157877
126	0x3f9f9bc82e8de0c3	0.030867698518222363
127	0xbfa5a54227610650	-0.042276446635253095
128	0xbfc894322e255ed3	-0.19202258351537313
129	0xbfbab17ec2dce619	-0.10427086121935537
130	0x3f9778b15b52de15	0.022921343993145344
131	0xbfbc43a35cb6ce91	-0.11040707601096701
132	0x3fb342efd7b7ac37	0.07524012581386406
133	0x3fd3f65b3f479de4	0.3119114034620607
134	0xbfc6f5348ac31a28	-0.17935807013982807
135	0xbf92bedf8bb576d9	-0.018306248571540038
136	0xbfa76876bf52aaea	-0.045718870978211104
137	0x3fcdf14755781dc0	0.23392573998738264
138	0x3fc7cee9c1d0a022	0.1860019871103314
139	0xbf7e9392e033b55b	-0.007464956029463589
140	0x3fce7d57a2a798bb	0.2382001442158009
141	0x3fc0abe23a470bd9	0.13024547429640057
142	0xbf8db902121a1b7e	-0.014513031175068521
143	0xbfd6926ad1eb59b2	-0.3526866006845025
144	0x3fc322b8e33dfe24	0.1494971379834037
145	0xbfc28edc9ac92e4c	-0.14498479421523525
146	0x3fa37a8be70610aa	0.03804433055032182
147	0xbfa6a87dc207cd04	-0.04425423615966831
148	0xbfb1d8e6aead9b6b	-0.06971589817622507
149	0xbfa76d770494514b	-0.045757026013378686
150	0x3fbb4e5ef89f9226	0.1066645962706124
151	0x3fcca209ffafb45c	0.2236950396030889
152	0xbfb65aa309f44e17	-0.08732050889039332
153	0x3fbd3742d774cfc2	0.11412446746982055
154	0xbfc2d109c364dd15	-0.1470043376991518
155	0x3fb450e7762d734b	0.07935949931329593
156	0xbfd2f0ab991b6777	-0.29593934966907604
157	0xbfd221ef681f23de	-0.2833212391674901
158	0xbfd7c933afba78f5	-0.3716553894136177
159	0xbfcb15693d01261a	-0.21159091452345608
160	0xbfc415201a00c3b0	-0.15689469594647454
161	0x3fb35522dd4dde84	0.07551782515462874
162	0xbfd0caa49dd38eda	-0.26236834919676044
163	0x3f6235a23b6968ac	0.0022228401751763407
164	0x3fbcce725971ea92	0.11252512630191294
165	0x3fb3891b3472329f	0.07631082563802714
166	0x3fd3726fcce795ca	0.30385966310708723
167	0x3fc3825fd483e3fc	0.15241620899885777
168	0xbfdee7bf99546ff5	-0.48289480184189354
169	0xbfbaef0d7a79c70a	-0.1052101539624141
170	0x3fb5e95228a375d2	0.08559144489432605
171	0xbfc75c83dbfbc60b	-0.1825108360422266
172	0xbf9bf130a905ca74	-0.027287254635164307
173	0xbfccf344339d8355	-0.2261739017513046
174	0x3fd82c6e2e94a3dc	0.37771181630028905
175	0xbfa96337e9d2521a	-0.049585101406737844
176	0xbfd86faa0fe42218	-0.38181544830197955
177	0xbfcbb068737908df	-0.21632104528732207
178	0xbfc5575467436f52	-0.16672759096297313
179	0x3fd58fe4541976bd	0.33690746510351827
180	0x3fbb729f2d6e9688	0.10721773966960246
181	0x3fd3355854edb684	0.3001309232121019
182	0x3fc681f0def93ed9	0.1758404816377979
183	0xbfc14f9a7bf2c982	-0.1352418046204314
184	0x3fc89492eac7a439	0.1920341154466614
185	0xbfcdba77a43c5977	-0.2322530319149327
186	0xbfd0084aa8359efd	-0.2505060808821183
187	0xbfc294634da34601	-0.14515343943507733
188	0xbfc3380980167ba1	-0.15014761690414694
189	0x3fcd21e8c4f9b391	0.22759732835711735
190	0x3fca39eda725410b	0.20489283238794828
191	0x3fb12fd382530e3d	0.06713602000950743

conv_kernels_64d.1 f8 [3, 64]
0	0xbfcd1267e7f52deb	-0.22712420297680977
1	0xbfcd9efd16078dce	-0.23141444755229518
2	0xbfc087f0e5ce8d99	-0.1291485902885199
3	0xbfbb2bc48270e11c	-0.10613659081071031
4	0x3fbb71a9add20581	0.10720310681974433
5	0x3fcb9a9115719e74	0.21565450236379358
6	0xbfadb3b14e3cf8b4	-0.0580115707402781
7	0x3fd3bc964811bff9	0.30838543928166434
8	0x3fb659aa3b3f08eb	0.08730567881051214
9	0x3fd1cc28a4fca74d	0.27808586227421445
10	0xbfe0f3aff2d2b301	-0.5297469847333504
11	0xbfa264cf391404fa	-0.035925365178636384
12	0x3fb8e07e3985f4fb	0.09717549232842153
13	0x3fca0135ebbe16c0	0.20316194544664334
14	0x3fb76d1ad75bdbf0	0.09150855787071044
15	0x3f93c3a38bffd8da	0.01930099050510923
16	0x3fb0dd6c3a15aea0	0.06587864320834536
17	0x3f81757680eceeb2	0.008524823960775894
18	0x3fb7337ebb735bb5	0.09062950207167726
19	0xbfb40aba97d1724b	-0.07828870970247086
20	0xbfacbb9b6cf6f039	-0.05611882882246317
21	0x3f9f018e492a1a28	0.030279372420887324
22	0xbfb9025153e8a497	-0.09769161509088274
23	0x3fcc24852ca15627	0.21986450843057634
24	0xbfc6d823900a514f	-0.17847103627412728
25	0x3faffec5209f6584	0.06249061606622333
26	0x3fc08548e9ed0777	0.12906752988970613
27	0xbfb86cc8eee3cc85	-0.09540992576858016
28	0x3fb087279c3eecdd	0.06456229748339433
29	0x3fa4cc75cabc438d	0.040622406957601866
30	0x3fbbef44a5ac2532	0.10911969227540366
31	0x3f69584342254cf3	0.0030938447609202223
32	0x3fb2a40dd5c1ef88	0.07281576603594264
33	0x3fa92b6b94773481	0.049159395097015064
34	0x3fe4554dd79ccc00	0.6354130946332361
35	0xbfa88789529649f3	-0.04790906079428572
36	0x3fc672435bfff0c6	0.17536203376938014
37	0xbfd0c0a8e52a7a61	-0.26175901774869287
38	0x3fc84d0e5e794cb2	0.1898515664384824
39	0xbfc7e00d82396212	-0.18652504786111074
40	0x3fc30f15ce2fd29b	0.1488978630801697
41	0xbfb799c54f8303c4	-0.09219010535436128
42	0x3fb604d5dd8746a4	0.08601128252419216
43	0xbf9e7edee406dae0	-0.029780848186159115
44	0x3fd1bb90c4dcf94e	0.2770730898372634
45	0x3fc145cb0eecf834	0.13494241932670692
46	0xbfd0464875693838	-0.25428973642272323
47	0xbfb28b1126d19b98	-0.07243449399685031
48	0x3faa86bef04b548b	0.05180927928237463
49	0xbfcfe2378c9e0219	-0.24909109464717075
50	0x3f944bdecdd357aa	0.019820672333331103
51	0xbfc8dea443567958	-0.19429448402383787
52	0x3faf0694896896d1	0.0605970781073616
53	0x3f78f8b19e7da0fa	0.006096547913195355
54	0xbfafb55734504e87	-0.061930394302319995
55	0xbf477428e70ca630	-0.0007157516211908129
56	0xbfa9238835491ed1	-0.04909921312770183
57	0x3f87527f51ae053a	0.011387819938820532
58	0x3fc11a5c582d517b	0.13361696534651543
59	0xbfccc2054a466af7	-0.2246710407897223
60	0xbfc390d3849a8ac4	-0.1528572461584955
61	0x3fadf137ee9150d0	0.058480975982691086
62	0x3f882f4af7a6cf05	0.011808953936316433
63	0x3fc148b5ba0cfae5	0.13503142914301872
64	0x3fb6ba024ec36c28	0.08877577231344047
65	0x3fbf1103112ba768	0.12135333222582079
66	0xbfa3695ffb3fe61d	-0.037913321895711706
67	0x3fc05050871e7242	0.12745100591281938
68	0x3fbda739e7f3f82a	0.11583291924395725
69	0x3fc225fd7f6719b7	0.14178436966740346
70	0x3fcfafa8722d8be4	0.2475481565007548
71	0x3fc4a791cf9ee37a	0.16136381757476298
72	0x3fa1b2addff45447	0.0345663391000604
73	0xbfcae9b6d2711ffb	-0.21025738978846661
74	0xbf8652dc886091f9	-0.010900233184721652
75	0x3fa9f5fdff516b8f	0.050704896370653
76	0xbfd1327b4cc004f0	-0.26870615477680726
77	0xbf9397e02956d373	-0.019134047053472835
78	0x3f9d91d2501c8e56	0.02887657751047209
79	0x3fc7450f221efe69	0.1817950169188294
80	0x3fa018447c081712	0.03143514646585123
81	0x3fcc0c2da10e3771	0.21912165035285683
82	0xbfadaffb901036cc	-0.0579832661970677
83	0xbfb3e37cb8241daa	-0.07768992896682528
84	0xbfa5a584e4c823aa	-0.042278435637917625
85	0x3f72252a0225ed2d	0.004429973693159267
86	0x3f7e52cc8f931d18	0.007403182092452519
87	0x3fc4300bad8aae95	0.15771623586384878
88	0x3fa43bbfe0401823	0.039518352627098595
89	0xbfbafbe72520b612	-0.1054062333721151
90	0xbfcd0f276fbb9b0a	-0.227024964863823
91	0x3fa28a45606b0e7a	0.03621117403011183
92	0xbfd7d99a9aeaa17b	-0.37265648964468995
93	0x3fcf891b2f2cbb4e	0.2463716488213898
94	0xbfd31a5ef94d605d	-0.2984845575897504
95	0xbfa0af39d1f05a44	-0.03258686721544682
96	0x3fcc6cef070e37c3	0.2220743927431937
97	0x3f9bba5405b4b6df	0.02707797322107452
98	0x3fb01e81ec45b12f	0.06296550768246754
99	0x3f97a3408a771766	0.023083694888348737
100	0xbfb4afa6364d0c7c	-0.08080519509990042
101	0xbfc125a550bbab10	-0.13396135751767035
102	0xbfd46030cb11da5d	-0.3183710082152283
103	0x3fd0405f013f79f5	0.253928900927263
104	0xbfc3ca537a2683f5	-0.15461200203301897
105	0xbfc17418cbbaf898	-0.13635549495478894
106	0xbf73a84249d2bc10	-0.004799136103584636
107	0xbfce45136e6a8196	-0.2364830292836017
108	0xbfaa8940e1b02614	-0.05182841067296465
109	0x3fadc9aa45f0c358	0.05817920783773073
110	0xbfdbbd47404fb9d4	-0.4334276321450521
111	0xbf85da127c7b5f9a	-0.010669845985304783
112	0xbfd0efbc8639930b	-0.2646323500433005
113	0x3fb9b2f5185e19be	0.10038692326461437
114	0x3fa43eb283da4f09	0.039540842624004986
115	0x3fce72903294a3b1	0.2378711935973832
116	0xbfb2fd9f04240a71	-0.07418245173543327
117	0x3f9c2d60ec029c19	0.0275168556260291
118	0x3fc09cbc047ef4f1	0.12978315562751377
119	0x3fc839e87f3a6a9a	0.1892672177535431
120	0xbfbac34841ef8bab	-0.1045422707534686
121	0xbfae4915a8ea0087	-0.059151341313737275
122	0x3fc23ae87e05ac3a	0.14242273477006667
123	0xbfc0c19bd9c4cc60	-0.1309084714244788
124	0x3fb9dd16554f293c	0.10102977354759884
125	0x3fc38f33edcbe603	0.15280770407825636
126	0x3f778ad29e232bce	0.005747626042828592
127	0xbfdd1945ade8fb85	-0.4546674917545988
128	0x3fc5edd1428db6f9	0.17132011174856368
129	0x3f9d78f9c235430d	0.028781797865408843
130	0x3fa73c3d8c79962b	0.04538147296697689
131	0x3fb67b9be13e7c45	0.08782362221835267
132	0xbfc6656d9e8d7f26	-0.17497034303505038
133	0xbf590cdc84c9a722	-0.0015289453032444962
134	0x3fa1baefa3bd710c	0.03462933419970868
135	0x3fde511f654e65c3	0.47370133298099065
136	0x3fa8cb6d509767dc	0.048427024925061096
137	0xbfc6815cdb0ed2aa	-0.1758228368395483
138	0x3fd3ef2b401767ef	0.31147271403244664
139	0x3fb9f4e4b07e905b	0.10139302548356126
140	0xbfc3456e35872a83	-0.15055635083838945
141	0xbfc2022d84cc3410	-0.14069146141301347
142	0xbfd05dc7e0b020f2	-0.2557239240855004
143	0xbf96bebb7a0c40da	-0.022211961101732715
144	0xbfb55f188928e9ab	-0.08348229740742023
145	0x3fcc76240713846f	0.22235536904830464
146	0x3fb4dc9ff03f1d2c	0.08149146666902557
147	0xbfc3dbc18073da21	-0.15514391681763676
148	0x3fbcef29624415d4	0.11302431725569956
149	0x3fb4690cad7e3c6e	0.07972792850181218
150	0xbfd727500e743492	-0.3617744580413468
151	0xbf7330946296cddc	-0.0046850010198115875
152	0xbfa7bd8aafc210d3	-0.046367963747827944
153	0xbfd71902f6f431d2	-0.3609015857371364
154	0x3fbfb42963775970	0.12384279898046713
155	0x3fd0e9e26537afc5	0.26427516827129366
156	0xbf894e3e545cb3a6	-0.012356268834617112
157	0xbf9286a32f806df8	-0.018091726087829912
158	0x3f9fd53928283095	0.031086819721210707
159	0x3fa341766585c593	0.03760881413735286
160	0x3fbe8a6d0e765f11	0.11929971316419265
161	0xbfa646cfdfae4114	-0.04350900273778016
162	0x3fb890b95be8e5e1	0.09595831388369148
163	0xbfca2ad165b505f7	-0.2044317003838356
164	0x3fbafe829fb238fb	0.10544601820786063
165	0x3fbe27da7d30c789	0.11779561573419363
166	0x3fc83008b37c0461	0.18896588100327263
167	0x3fb114fc0239cdd6	0.06672644666996716
168	0xbfb4897b56ff27a6	-0.08022280572836724
169	0xbfb03432193b9687	-0.06329644313844983
170	0x3fc13d9e5e0ce2ce	0.13469295112897445
171	0xbfa317339abacd0e	-0.03728638900556734
172	0x3fc28928f8d3c1b6	0.14481079244388945
173	0x3fb6a0adfb9a0c49	0.08838927643414353
174	0x3fcc8df45dbd9361	0.2230821092336113
175	0x3f94802d3942fa71	0.020020205135319494
176	0xbfbe81d0f60a00f2	-0.11916833884061243
177	0xbfbda0d22cb63743	-0.11573518363567552
178	0x3fae7f220f0dced7	0.059563698136938896
179	0xbfc22a828e492e9c	-0.1419223017459118
180	0xbfb5c322aa7f53f6	-0.0850087801221234
181	0x3fd42314c7af2841	0.3146411848107427
182	0x3fb281ba8cb32aef	0.07229200301223292
183	0xbfc60cd55e43f939	-0.17226664641197845
184	0x3fc3c5cc0bd454b7	0.1544737870941952
185	0x3fcd1526a6839bcc	0.22720797663279624
186	0x3fd4a49bf29ad66d	0.3225469464481197
187	0x3fc6ccf1643abffe	0.17812936204927604
188	0x3fb078d83b20e073	0.0643439430576807
189	0x3fd419d0f10c796b	0.3140756944648248
190	0xbfbcd81a7c5c6674	-0.11267247711330147
191	0xbfcf227393ed85e1	-0.24323887560880933

conv_kernels_64d.2 f8 [3, 64]
0	0x3fd2ee6382cfd662	0.29580009245487393
1	0xbfb6bf922e0eb76f	-0.08886064171266893
2	0x3fc2063cb0899654	0.1408153402327793
3	0x3fc0705aa837b3a2	0.12842877591847662
4	0xbfb781750b247cf7	-0.09181911012682407
5	0xbfabe83d4f40338f	-0.05450622169892149
6	0x3fb31454473b68d3	0.07452894915641943
7	0xbfd623c35b09e0c0	-0.3459328068779648
8	0x3fc368f8c7989bfd	0.15164098497299952
9	0x3fb591b506e28e58	0.08425456445780222
10	0x3fc522edf561485a	0.165128464521845
11	0x3fca52cd18cc5a77	0.20565189085819544
12	0x3fc8717ffc7cf2fa	0.1909637434818235
13	0x3fcfd7bfc2fab6d2	0.2487716390655153
14	0x3f913003e5d8c1db	0.016784726051072823
15	0x3fba8d4b9677c327	0.10371849463969039
16	0x3faefe8d383bf02b	0.060535824884908905
17	0xbfc007902cea2b35	-0.12523081009961748
18	0x3fd8bb194aba4c6b	0.3864196042788481
19	0xbfdc9846e9b33044	-0.4467942507005811
20	0x3fc87c5d116d14f1	0.19129527426608875
21	0x3fcb4f4e0e810135	0.2133576937503762
22	0x3f6b2ad93e8f3c6e	0.0033163302473223
23	0xbfabe3a6de93b816	-0.054471220655486416
24	0xbfcfab5911b7b547	-0.24741662373655002
25	0x3fb42f3a3f25421f	0.07884563485755124
26	0x3fc0bc2a5d03fbc7	0.1307423547914068
27	0x3fbfff47db2716a4	0.12498902416617824
28	0x3fc97a96a0e2d66e	0.1990536008431038
29	0xbfc6c2a4f090b5b6	-0.1778150725016709
30	0xbf8d2b061dfffe79	-0.014242217817808754
31	0xbfaf2f85c430fb0b	-0.060909443091523206
32	0xbfcc0ccfec445d0f	-0.21914099728085332
33	0x3f8c10150d4ea986	0.013702549427610188
34	0xbfb19315e28babd9	-0.06865059643648354
35	0xbfc22db11ec9f1e5	-0.14201940539704974
36	0x3fd1b2f6c112d592	0.2765480885967345
37	0x3fb984042ad01d14	0.09967065854299434
38	0xbfc0cf4ef9186ff2	-0.13132655299057167
39	0xbfaf32ade4aaa14d	-0.060933527148622525
40	0xbfbc8260cd3b0b59	-0.11136441240800589
41	0xbfcbd9a4c16bf12b	-0.21757945484558525
42	0x3fd0c7d21610b033	0.26219608454516957
43	0xbfc15f78d0d6ba6d	-0.13572607228475722
44	0x3fc81f2a65b50c94	0.1884510990731526
45	0x3fbd16fa026f9c24	0.11363184508773877
46	0x3f9f5b98b35300f0	0.03062285036571749
47	0xbfc4ccc039a072f3	-0.1624985009556422
48	0xbfc6d8117eac040a	-0.17846888241913944
49	0xbf98e4090427e686	-0.024307385328916208
50	0xbf809097617486da	-0.008088286077114249
51	0xbfcf1a42611aa246	-0.24298887006195197
52	0x3f63bbf328665a26	0.002408957402802575
53	0xbfc452739d7db648	-0.1587662238120393
54	0x3fd53f08a7d7af14	0.3319722785079062
55	0x3fa9ff6ffe7f1dc9	0.05077695829055135
56	0x3fa9addce5f5f01a	0.05015459353577985
57	0x3fd182723140e3b5	0.2735867959013903
58	0x3fb1a1f6950015bf	0.06887761247352041
59	0xbfc019694258d84d	-0.12577548732378077
60	0xbfd606f7f06ffcf8	-0.34417532425136654
61	0xbfbbbe286ec81704	-0.10837032990101753
62	0x3fc3ddcc2e647b7f	0.155206225063889
63	0x3fd6bed12ede160e	0.35539655281931537
64	0xbfc7e689d2cf6a90	-0.18672297280757677
65	0xbfc9b71119034189	-0.20089925500225217
66	0x3fb3ac0b2110b421	0.07684392506844563
67	0xbfb5d6f8cb42c7db	-0.08531146013663664
68	0xbfd0ef90cc77889b	-0.2646219250438066
69	0x3fc90b42797b86e1	0.19565611774219518
70	0x3fb50acd3340776e	0.08219606877579874
71	0xbfcda2df9719933f	-0.2315330016891952
72	0xbfc41910731d7251	-0.1570149004063688
73	0x3fb846228e7b88e1	0.0948201749666029
74	0xbfb063991cc3d249	-0.0640197463251947
75	0xbfb6995c2954c21f	-0.08827758797702544
76	0x3fb503bc8c3b34b7	0.08208826469054285
77	0x3fc455039b7e006f	0.15884442417518893
78	0x3fc4d6a1269f34b5	0.16279997239909041
79	0x3fca1f33a4fef687	0.2040772014278682
80	0x3f8f8bbc443efe1c	0.015403242905335061
81	0x3f8aae07393220c8	0.01302724498079079
82	0x3fce6d0a1a2edeca	0.2377026203009705
83	0x3fc04f677bfcace7	0.12742322496465094
84	0x3fca6e94ca8582f2	0.20649967087503956
85	0x3fa4c1e569284cec	0.04054181011829336
86	0x3fc0cde5275241d6	0.13128342075334726
87	0x3f972ff87e894cb6	0.02264393112484405
88	0x3fbf207491113ee5	0.12158897916492213
89	0xbfc6b80c3ae53120	-0.1774916923117269
90	0xbfa163da5518779c	-0.03396494187130303
91	0x3fd2df7d64f04cd2	0.29489073617260175
92	0x3f791532149cd6fc	0.006123729350113068
93	0x3f75cd5dcbca3901	0.005322805777394858
94	0xbfd760ef2e633af1	-0.3652914002422412
95	0xbfd289a8c5dff080	-0.28965205501277325
96	0xbfd600793bd8973c	-0.3437789043840558
97	0x3fc3bcb90bbb3c6d	0.15419686386892142
98	0x3f8c61030956c04c	0.013856910440921542
99	0xbfb3ce152623edda	-0.07736332112465708
100	0xbfa38752d0ee4765	-0.03814181137489817
101	0xbfc6febe5371bfe0	-0.17964915346556065
102	0x3fbe90179e7a5586	0.11938617343033373
103	0x3fbd9e5424069e36	0.11569715384995835
104	0xbfd167eebe80f898	-0.27196854213605937
105	0xbfa1f03ea0018d95	-0.03503604605864578
106	0x3fa7da9cf14dc224	0.04658976026155795
107	0xbfc4a8086f2c3bdd	-0.16137795856818019
108	0xbfbac6a15f165054	-0.10459335872138925
109	0x3fb8ad4a3287457b	0.09639419301608669
110	0x3fa32a2736ab5298	0.03743097822522151
111	0xbfc05fe70926a99f	-0.12792671152903964
112	0xbfb03ce7e0434cc1	-0.06342934823196612
113	0xbfca9a24ef3d5251	-0.20782910997026474
114	0xbfa78336b62ce01a	-0.045922956216998226
115	0xbfb226d8f7a34ef0	-0.07090526624534355
116	0xbfd1cc9e9a336714	-0.2781139856211763
117	0x3fae129c200b61bd	0.05873573199432112
118	0xbfd9b1f78fdbebe1	-0.40148724602448566
119	0xbf8765087dd8d12d	-0.011423174229186895
120	0xbfc1f68bd92ecc84	-0.1403364954436236
121	0xbfc0493711764d18	-0.1272343478454807
122	0xbfd454c1ce351a11	-0.3176731599564003
123	0x3fca4adfa11ee4ca	0.2054099594804824
124	0x3fd09b4d0423081b	0.25947881130207556
125	0xbfcb7dd7c9ac5c8e	-0.21477792117432098
126	0xbfa868a3300efd8e	-0.04767332040455151
127	0x3fcc132c15eb2764	0.21933508939974466
128	0xbfa007a7d36bd640	-0.03130840736222895
129	0xbfb9109089365117	-0.09790900564104664
130	0x3fcc7f731adbd288	0.2226394539972214
131	0x3fb64662fd366394	0.08701151544518232
132	0x3fc47c620638f3f5	0.16004586509544053
133	0xbf99d5cb7509b786	-0.025229624765806168
134	0xbf91581f52fb85a6	-0.0169377226255897
135	0xbfb4fe24f98cb7b6	-0.08200293629189911
136	0x3fc7b6c56198da8d	0.18526522889597566
137	0x3fa52b2b2884c449	0.04134497518169462
138	0x3fbb49659949bf7e	0.10658869736084672
139	0xbfce3a7276666097	-0.23615866452451392
140	0xbf70dc7fb970b638	-0.0041165341599885205
141	0x3fc1bbf79c65d51b	0.138548804632287
142	0xbf8141363ec3034d	-0.008425163069092934
143	0x3fd80867fa9811a1	0.3755130717475144
144	0xbf94a8102b9e85c5	-0.020172360098177373
145	0x3fd65d7f020addcb	0.3494565505929727
146	0x3fb1233455f3a89a	0.06694342707092674
147	0xbfc24a7f12f0b59e	-0.14289844918077405
148	0x3fcf1cfb3caf3853	0.24307194197757784
149	0xbf9daf208e841de8	-0.028988369654170315
150	0xbfa3667d08341a9e	-0.03789129948750268
151	0xbfb9f0ed2d4548f4	-0.10133249621620505
152	0xbfc2b243b77480ae	-0.14606520135658257
153	0x3fc2d720e69513e7	0.14719020136740754
154	0x3f8054a0504c3416	0.007973911715021525
155	0x3fd0aeec506827db	0.2606764588568901
156	0xbfc73703cb272c5b	-0.18136641902524073
157	0x3f9dc4d9098dd3a0	0.029071227272158162
158	0xbfb3c35ea3942c22	-0.07719985478995331
159	0xbfc7189a87740936	-0.18043834318093283
160	0xbfc85018d02207a3	-0.18994436419239688
161	0xbfb4a1353858d5f6	-0.08058483720454732
162	0x3fc99cfeb14a9fb2	0.20010360390483367
163	0x3fbc662fae8e47f4	0.11093423854461532
164	0xbfc2df655d838e14	-0.1474425036059165
165	0xbfc73ad0deb381f6	-0.18148241876680488
166	0xbfd627e62b70f55e	-0.34618524782475457
167	0xbfbe7a5b3ef358c0	-0.11905451094512198
168	0xbfd250566eea4cb8	-0.2861534197956632
169	0x3fb2e92f80214842	0.07387062910245937
170	0x3fbedc152e9609e8	0.12054569613795929
171	0x3faa725b6f38e602	0.05165372593587493
172	0xbfbe9a633dd9d85e	-0.11954326877625607
173	0x3fadd3b71b23b4af	0.0582558842305415
174	0xbfe312f8051ead62	-0.5960655307766667
175	0xbf80785e3b0a44d2	-0.008042083908807039
176	0x3fa04d6fea603861	0.031840798721632486
177	0x3fae2a1fd08d91b7	0.05891513272107168
178	0xbfbf74cae84fb8c2	-0.12287586375871043
179	0xbfe0960ee3035420	-0.5183176454398826
180	0xbfc593b2779cda26	-0.1685698589369206
181	0xbfcde41a4287f2f3	-0.2335236382349631
182	0x3fb7da042fcc405f	0.09317041556300996
183	0xbfb31c2cf812f015	-0.07464867645734359
184	0x3fc1bf202a46ae93	0.13864519180548437
185	0xbfc90844ce02246b	-0.19556484278681138
186	0xbfcacd71c8d00ce2	-0.20939466767604303
187	0x3fc03e6083b751bd	0.12690359527063136
188	0x3fa08494e8a0d2ad	0.032261517903326854
189	0xbfb8289ed63c1764	-0.09436981897678504
190	0xbfcb47ead67c2a8b	-0.21313224289800234
191	0xbfc6324f29afee2e	-0.1734103158522528

conv_kernels_64d.3 f8 [3, 64]
0	0x3fb05e9d72f980b2	0.06394371087071951
1	0x3f9aef8d72c56202	0.026304445390765714
2	0xbfc414b005d4a790	-0.15688133511258373
3	0xbfd11fc1021a1f0d	-0.26756310658719046
4	0x3fc1e175f016ba00	0.13969301436505077
5	0x3fce0198a28ee7a1	0.23442371308720758
6	0x3f9d5fb7164a8d48	0.028685436950252524
7	0xbfb01a684a84d748	-0.0629029447489674
8	0x3fb9f3b37ae72715	0.10137483358917294
9	0x3fd22ec17cdf712f	0.28410374827014356
10	0xbfbf2f00eab72cb8	-0.12181096773490452
11	0xbfb442dc205020bd	-0.07914520062343207
12	0xbfb6813dec2abbbe	-0.08790957465929147
13	0x3fd1c9f8c8228a61	0.2779523806040399
14	0xbf924a7d88fa35c0	-0.017862283215938524
15	0x3fb30fa9f74947c4	0.0744577625967216
16	0xbfc28b9fbcd90a81	-0.14488598557553092
17	0xbfd37d1721a05ff7	-0.30450990947565465
18	0xbfbf95ad9c424861	-0.12337765755572284
19	0xbf8f1a159b3e38cc	-0.015186470794813188
20	0xbfcaad9b64b521ab	-0.2084230653511104
21	0xbf94f50c3edd0c41	-0.020466033303147894
22	0xbfb69e6e75386b80	-0.08835497247529922
23	0x3fc1ff2932db00eb	0.14059939368417615
24	0xbfd20ad3eb7f5525	-0.28191087720672875
25	0x3fd1387f9140b405	0.2690733831867081
26	0xbfc253e2b92f4b08	-0.14318498651717726
27	0x3fcc798f9c530df6	0.2224597466757669
28	0xbfc1fc6e305b53f2	-0.14051606522721688
29	0xbfc441ba29cc56a2	-0.15825583496978363
30	0xbfb814087b946377	-0.09405568139153596
31	0xbfc54908a9a1e5a2	-0.1662913158686879
32	0x3fc9ef9f074ce7d1	0.20262515884843293
33	0x3fc1efdc8c622caf	0.14013249258673485
34	0x3f97f75201d8d03a	0.023404389727332588
35	0x3fc4eb46d4417212	0.1634300743488813
36	0x3fb48a444dfeeab3	0.08023478416627476
37	0x3fd4bf5c0a88860d	0.3241796591629232
38	0xbf929485146363c6	-0.01814468323650311
39	0x3fa79e7b6b0d88cd	0.046130997484185345
40	0xbfc0a14e9477e2b0	-0.12992269753865093
41	0x3fc34b1608a7a223	0.1507289449939587
42	0xbfc793743f4606f3	-0.18418744172600263
43	0xbfc4847ee7f8078f	-0.16029344870190385
44	0x3fa84e64f2690227	0.04747310122593645
45	0xbfcb78700fc53de5	-0.2146129681591297
46	0xbfa184ec79ad2f0c	-0.0342172525912173
47	0xbfa69b43e6c0baa0	-0.04415332977111075
48	0x3fd12b0bdf28525c	0.2682523421547438
49	0x3fd51921ce23d743	0.32965893870219903
50	0xbfb1acb9fe38af5a	-0.06904184776857161
51	0x3fcebe5a4900b93b	0.24018410267439969
52	0x3fb576f58b645cb1	0.08384642270208321
53	0xbfc4af150c85b61f	-0.16159308539811065
54	0x3fb74ab47a4c3be8	0.09098365770135752
55	0x3fa34d9f09388ada	0.03770157802161629
56	0x3fc21d86e0699e67	0.14152608831067257
57	0xbfd506339dc8ba71	-0.32850351723292365
58	0xbf9bfd5da6ff1708	-0.027333701436666608
59	0x3f845d54b1e31d1e	0.009943639448819538
60	0x3fd203f53e041ce3	0.28149157577759193
61	0xbfb2cc1121326be7	-0.0734263139769805
62	0xbfd7bb7284fc1e7e	-0.3708158777885514
63	0x3fdbce349a6401c4	0.43446078374111274
64	0x3fd3c880edc894c1	0.30911277028128487
65	0xbfd5795848b9ee7a	-0.33553130247285134
66	0x3fc1ae2a4133dfef	0.1381275957462544
67	0xbfd46ffc987792dc	-0.3193351258217214
68	0x3fbd649c1e152890	0.11481643423499777
69	0xbfb41767a9cc9a89	-0.07848213096131408
70	0xbfb1c119338d54bb	-0.06935269840808449
71	0x3fa13d9716bca469	0.033673020864008425
72	0xbf89fd25aa80dc29	-0.012689871087884512
73	0x3fa842fa6caea03d	0.04738600327192486
74	0x3f928001c0f638fc	0.018066432383016626
75	0xbfd376d44a117ced	-0.304127762157761
76	0xbf9e9ba6b2fdb686	-0.02989063708758135
77	0x3fa1fd45e12d2033	0.03513544439061924
78	0xbfb6010f28101fc8	-0.0859536621866247
79	0xbfb05485ed2482d7	-0.06378972091307432
80	0xbfb5b8f1a7d99ed9	-0.08485327098753305
81	0xbfb1660535bfe558	-0.06796295702215127
82	0x3fd0e3bdd551e648	0.26390024024985737
83	0x3fd2474e8d52ec51	0.28560222436107546
84	0xbfcbab49ca67fce4	-0.21616480239024505
85	0xbfb54d669752b5f4	-0.08321229166423177
86	0x3fac4543a964699f	0.05521594469810797
87	0xbfb0a7495a07a264	-0.06505258987420742
88	0xbfa3dbd7f39428b6	-0.038786648257955234
89	0x3fb9023b92955a3c	0.09769031838127601
90	0xbf967df616e59ba0	-0.021964879176632146
91	0xbfc52d8862c994e6	-0.16545204948048492
92	0xbfc04d0a8913dfcd	-0.12735110944026787
93	0xbfbe457ab034100c	-0.11824766923751912
94	0x3f9a7be95127be9a	0.025863309458087437
95	0x3fb6edbafe02908f	0.08956497861305678
96	0x3fc6599c030f7022	0.17460966252736038
97	0x3f82c0f81f9589fc	0.009157122100707397
98	0x3fc372ac6fb939dc	0.15193705992937978
99	0xbfc18de00dd388de	-0.13714218783486037
100	0x3fa61bf40d88ca8e	0.04318201699461098
101	0xbfc49e061cbc3215	-0.1610725059803292
102	0xbfc839a27855558d	-0.18925886989260868
103	0xbfb8bd89f5c11857	-0.09664213418827337
104	0xbfbc9b225b5b1ecc	-0.11174216013307187
105	0x3fc2dc94181a65f1	0.14735652138624247
106	0xbfdda5a1f2396b77	-0.46323441176144037
107	0x3fb62108f7b6232f	0.08644157455104272
108	0x3fac9aab45f44b72	0.05586753109869037
109	0x3fc99d783d02ac02	0.2001180932905698
110	0xbfc05a14cf55357c	-0.12774906276392162
111	0xbfc7c8ede8c251da	-0.18581937661350773
112	0xbfa9ab3dddcd10c5	-0.05013459522754852
113	0x3f9d327c1afeaef4	0.028512896678576774
114	0xbfc08aa34c47373e	-0.12923089241524538
115	0xbfab93924edb2d0e	-0.05386025631522716
116	0x3fd0b401dd895b49	0.26098677286556843
117	0xbfba95898ddbcba2	-0.10384425843567027
118	0x3fd0babc8d69ead0	0.2613974934571788
119	0x3fb17f1c55e614b8	0.06834580514085331
120	0xbfbed80024591bf3	-0.1204834069004475
121	0xbfc0b28fd8d2c210	-0.1304492768008605
122	0x3fb532bb914fbe61	0.08280536935466777
123	0x3fa1effcefe1f01a	0.035034088404217026
124	0x3fc44ca300031abd	0.15858876705734373
125	0x3fd2789a7c0d5520	0.2886110507436843
126	0xbfd47c8c670bf3d8	-0.3201018339457824
127	0xbfc5b0c90497a662	-0.16945755695569448
128	0x3fc95def05d4f7ec	0.19817912850152142
129	0x3fab758f4d3ba064	0.053631284883352476
130	0xbfb578e6e1ef0687	-0.08387606636008559
131	0x3fb5a5546491983b	0.08455398040095556
132	0xbfd12536f2fcf30f	-0.26789640168480927
133	0xbfc93b50fad1f40c	-0.19712269064976373
134	0xbfaf9ad5f36d7483	-0.06172817799117871
135	0xbfab6c13b8ade79f	-0.053558937353002316
136	0x3fcb6c71f79cefcc	0.2142469843910234
137	0xbfd1f114c36a0cff	-0.2803394230215445
138	0xbfc3b048bbf5e388	-0.1538172643447775
139	0xbfbc27add6e7b5d3	-0.10998045441348063
140	0xbfac842f561daab0	-0.055695990812485774
141	0x3f9db7bb202e4621	0.02902119048991925
142	0x3fde43f4c37c1383	0.4728977116613395
143	0x3fc5a534a5ec0965	0.1691041765371423
144	0x3fb0bcf891fb7552	0.0653834682847976
145	0x3fcce315a37515fa	0.2256800697452233
146	0xbf9534fdbcedb2f5	-0.020709957748681302
147	0xbfb6f836ba4a3dfa	-0.08972494171234038
148	0x3f86fc87a0c69397	0.011223849863037745
149	0xbfbe7ed37c891efc	-0.11912271299763327
150	0x3fb914c3cab71ae2	0.09797309588530426
151	0x3fd690b0aba0384f	0.35258118400895894
152	0x3fc20d1d8cce3145	0.1410252511526641
153	0xbfc4121475a8c5e4	-0.15680175538140795
154	0xbfc3b25ef15b5e5e	-0.15388094697003657
155	0x3fc7b69ac76cffb0	0.18526015031420462
156	0x3fc45e9c7adba390	0.15913730620311783
157	0x3fb4a49793877ceb	0.08063647605694128
158	0xbfa0838ce01c3971	-0.03225364909859508
159	0x3fb8bf5940d15c3e	0.0966697486158958
160	0xbfb7f10b16379bc8	-0.09352177898800484
161	0x3fc8eaaca9c52fca	0.19466169633449076
162	0xbf96dee69fbb905f	-0.022334674357708525
163	0x3fb440c90c3c41f7	0.07911354588237161
164	0x3fc4cfe15d2df104	0.1625940041520907
165	0x3fad23ab3471baf7	0.05691275611103735
166	0x3fdbb3bca06587b0	0.4328452650425971
167	0x3fe12e14c68cf263	0.5368751409474267
168	0x3f9a46699eed5ea1	0.025659227681301137
169	0x3fb4f9570dcd199d	0.08192962729399374
170	0xbfd1b2a5eca3ddb0	-0.2765288172663203
171	0x3fd4a0eb049cadca	0.32232165766137355
172	0xbf4e34e616d5e1c8	-0.000921833370440211
173	0xbfc4e594b9bbca28	-0.1632562548544041
174	0x3fbd994f387671ef	0.11562056663974095
175	0x3f85d81c12b27306	0.0106661027151005
176	0xbfb12a48620fe8a8	-0.06705143350692089
177	0xbfc686978366e2b7	-0.17598241726024863
178	0x3fa0233e6a5f2c66	0.03151888893588577
179	0x3f9b8362570aefab	0.026868378222146976
180	0xbfc36b0717039269	-0.15170372604110874
181	0xbfc8084db653ca91	-0.18775340464306514
182	0xbfbe08426d74d8c0	-0.11731352970386677
183	0xbf7279b2aa0dee61	-0.0045105914185757665
184	0x3fc2b7ef2caf529c	0.1462382286250844
185	0xbfc12ec9cea6838d	-0.13424036589006186
186	0x3fd54abf1d4e8468	0.332687166805107
187	0x3fb1939e78ac3572	0.06865873762236221
188	0xbfcb91e8ba93b050	-0.21539029226494444
189	0xbfd043be4a03397f	-0.2541347239283808
190	0xbfc9b069871d5d62	-0.20069617364309084
191	0x3fb28f4089ab562b	0.07249835358683103

conv_kernels_64d.4 f8 [3, 64]
0	0xbfb78cdea6ab6559	-0.09199325150566064
1	0xbfab503048791caa	-0.05334616551095313
2	0x3fcc71bb95073db1	0.22222084786197407
3	0x3fa230d3ebc6a572	0.0355287766754583
4	0xbfc2e6496c54ade8	-0.14765279569233702
5	0x3fc8c4ffd4f8a1d4	0.1935119428537876
6	0x3f9839a484d7e9e3	0.02365738926708073
7	0xbfc17a18af03e809	-0.13653858705203017
8	0xbfa4f043e19fe368	-0.04089557770925617
9	0xbfbd2591f88a048a	-0.11385452573633095
10	0xbfc0006d070f86bb	-0.1250129971004322
11	0xbfa6d1fb45fae682	-0.04457078198670407
12	0x3fc1509808e5b92e	0.13527203020516637
13	0xbf939598347fb274	-0.019125345424912912
14	0xbfba5701d87aa593	-0.1028901246560479
15	0x3fb05e80d6a71f4b	0.06394200554416078
16	0x3fbebf04b1577a8a	0.12010220842010191
17	0xbfd724b97765dffd	-0.3616164842601391
18	0x3fb3336d02964389	0.07500344575079344
19	0xbfc62e45cb2ea116	-0.17328712864878842
20	0x3fc7d70d4e75c75c	0.18625036555345786
21	0x3fca30a3030168f2	0.2046092762637453
22	0x3fd4322ca4387414	0.3155624011722591
23	0xbfd64f1625ebf035	-0.34857705786976406
24	0x3fcd9358908a0136	0.23105914170810998
25	0x3fd706c62fe1b26e	0.359788462409404
26	0x3fc605d4385025c4	0.17205288648282935
27	0x3fd185c185f20e9b	0.27378881531351745
28	0xbfc29e9bfeb1c26e	-0.14546537338493998
29	0xbf9866f62830bbdc	-0.023830267146134662
30	0x3fd25042d130efdd	0.28614874295067044
31	0xbfc688f199abc696	-0.17605419162241692
32	0xbf77662131b0c6c0	-0.005712632812945706
33	0x3f72e91cfc20ddde	0.0046168453428019045
34	0x3fbec83c0f53a7e2	0.12024283765973068
35	0x3fb99aba54532658	0.10001720961295157
36	0x3fbd36e4b6a6c9dc	0.1141188569952542
37	0x3fab6f2370b3f280	0.053582293994598906
38	0x3fc65d63504da17d	0.17472497387940314
39	0xbfbb77374e1cf581	-0.10728784234102841
40	0xbfaa0a058546a202	-0.05085770847228234
41	0xbfc27d54f5bd042b	-0.14444982527678127
42	0x3fd24d715300549f	0.2859767256316647
43	0xbfbcfcf93728b559	-0.11323506924300854
44	0xbfba254e82695d03	-0.10213175472141604
45	0x3fd70406dc3253c0	0.3596207762105301
46	0xbfc926dd4346dfab	-0.1964985445499655
47	0x3fce1795a3d3806a	0.2350947427685271
48	0x3fd261f26d7b7f76	0.28722820941583593
49	0x3fba9a3cd8b212e7	0.10391598024768776
50	0x3fc924c83bf7ce67	0.19643500259518307
51	0xbfcde6773b4259a2	-0.23359575646891267
52	0x3fac321fc1e98f9e	0.05506991617292488
53	0x3fd0d8cc62374381	0.26323232261079715
54	0x3fa830094ff22370	0.04724148846532372
55	0x3fa355419cfacad7	0.03775982896094881
56	0x3fa9f6cf5ed96157	0.05071113617731509
57	0x3fb37324f38fab64	0.07597571321791247
58	0x3fd639b4a8a1c98a	0.34727207630125945
59	0x3fd3b62ae33d931f	0.3079936236520541
60	0x3f78c3b97fe58023	0.006046032531543263
61	0x3fafbf768760d9bb	0.06200762178962146
62	0x3fc41fb40cc98490	0.15721750854848837
63	0xbfd3f597a126b7da	-0.31186476457048473
64	0xbf8d074fe0a905da	-0.014174102824770541
65	0x3fc415fb8e283e8a	0.156920856869409
66	0xbfb0bf1d42d40037	-0.06541617280527211
67	0xbfce78880b5ac607	-0.23805332712576918
68	0x3fbde735e6308a4c	0.11680924291480571
69	0xbfa5f122b92d599b	-0.04285534391844977
70	0xbfad19bef5e4fda8	-0.05683705093042174
71	0xbfcf99c074049ade	-0.24687963166180443
72	0x3f9059d4539d9cbc	0.01596767196988645
73	0x3fb8268aa7e22743	0.09433809851375678
74	0x3fd1f65683c52e71	0.2806602751559018
75	0x3fd32da1ec078047	0.29966018724190174
76	0xbf96bb858db71e59	-0.022199713492027182
77	0x3fd3d0ad563ee04c	0.3096116392366681
78	0xbf904df7babea75c	-0.01592242314624258
79	0x3f995fd98f116b8f	0.024779700619869834
80	0x3fbd408693c554b8	0.11426583392797596
81	0x3fa52b78e6880e8d	0.04134729208092578
82	0xbf3c72e1da3b3638	-0.0004340936086294242
83	0xbfcf57c44f7a64d0	-0.24486593132750167
84	0xbfa8854b6d2e00ae	-0.04789195735702499
85	0x3fd2ca8b080f47dc	0.2936122492511666
86	0x3fbc6ebc62494147	0.11106469535412088
87	0x3fa67deb34d233b9	0.043929434011352915
88	0x3f8810dd03512ba6	0.01175091425297643
89	0xbf79313f244cbc59	-0.006150480888023579
90	0x3fd1cc4213e4e282	0.27809192602902766
91	0xbf9f889de2aba786	-0.03079458900439349
92	0xbfcf3d663af6267e	-0.24406125906925874
93	0x3fcf4a4f4b034e99	0.2444552532457365
94	0xbfb79f14b99ad574	-0.0922711327683226
95	0xbfb2fa0b17a375f7	-0.07412785842048907
96	0x3fc8dafa737e0f26	0.19418268813398604
97	0xbfb6f4d53607166e	-0.08967335289988806
98	0x3fba535124586bb5	0.10283381593073566
99	0xbf9b550c92b537b4	-0.026691624121035054
100	0x3fd14775be32295b	0.2699865682012807
101	0xbfb739cdc9433e53	-0.0907257667888584
102	0x3fa6a0f551eb8ce3	0.044196764230741946
103	0x3fbc13524818af6a	0.1096698213593165
104	0xbfc4b9894269b669	-0.1619121145517284
105	0xbfb80cda4072e375	-0.09394611428696271
106	0x3f9772f0a3af123d	0.022899398794623094
107	0xbfdbc01b2a39650c	-0.43360022662598463
108	0x3fc3f1b537542bf6	0.15581383897401196
109	0x3fb595cffe6f26d4	0.08431720697185635
110	0xbfad9bdd9bde5603	-0.05782978561107301
111	0xbfd063375841e700	-0.2560556756867385
112	0xbfa7428fe04438f9	-0.04542970287922005
113	0xbfc208a451c45923	-0.14088872902420588
114	0x3f7865a70391f335	0.005956318281388919
115	0xbf830cd6439bf870	-0.00930182832552992
116	0xbfcd0f30f3b330f1	-0.2270260991994131
117	0x3faf3d11b91f0f4e	0.06101279625684573
118	0x3f9d2ba26b0983aa	0.0284867647009183
119	0xbfc4fc754cbed298	-0.16395441291173962
120	0xbfbe638cebfb4046	-0.11870651971116883
121	0xbfd8c8c68837ed04	-0.3872543649919893
122	0x3fc398df1b5cdd9b	0.1531027682883462
123	0xbfcad92d5bfd631c	-0.20975272170724046
124	0x3fc95cce07e2f0bd	0.19814467797357863
125	0x3fb8d9dfb4e4d3a7	0.09707449117998
126	0x3fa477d1906bd72c	0.03997664344744431
127	0xbf8420967e54fe4f	-0.009827781420084806
128	0x3f970f9e109112f7	0.022520513306761605
129	0xbf6da0f307250a71	-0.003616785682568229
130	0x3fc0c5a1d00cac03	0.13103125246684053
131	0xbfb51d26e0728ca5	-0.08247607211756021
132	0x3fd1da2cdc829bf5	0.2789413598461004
133	0x3f7c43f6021e76c1	0.006900750131448142
134	0xbfa5e796679fe7c6	-0.042782497548571594
135	0xbfa73dd8bdbd3837	-0.045393727456584924
136	0xbf9f97e0b2fe18a3	-0.030852805065955235
137	0x3fb9e5bd0f03c4ad	0.10116178146906192
138	0x3fcb8a2308c31f80	0.21515310218660133
139	0xbfd66d5b29b2d96e	-0.3504245669568239
140	0xbfc5dd292b5a6da5	-0.17081179253442005
141	0x3fb502628f77ca3c	0.08206764223704338
142	0xbfc3ee4305b9156c	-0.1557086732811216
143	0xbfda287bd05e8d45	-0.4087209257943026
144	0x3fc8b840035d8333	0.19312286533661335
145	0x3fc23c975abfd71b	0.14247409754869342
146	0xbfa46b4c143e3d88	-0.03988111254795529
147	0x3fb691f1cffb5ec0	0.0881644375580164
148	0xbfb6980fc6dcf0eb	-0.08825777630858382
149	0x3fb534369e3dcde9	0.08282796252552029
150	0xbf77d362e2f1c7ec	-0.005816828036687465
151	0x3fb3494b23ee430a	0.07533712031569109
152	0xbfd0c1dfb9990f89	-0.2618331253508975
153	0x3fccebb203cf038f	0.225942851886455
154	0x3fc0d32d5e5f63ed	0.1314446173480798
155	0xbfd2cc0f7ed12f1d	-0.293704866261338
156	0xbfce30dd6ddb11ac	-0.23586624015855528
157	0xbfaf0cf86cd27987	-0.060645831378894725
158	0xbf7aef00b8a58e6a	-0.006575587098584282
159	0xbfbe4f382159002f	-0.11839628996040184
160	0x3fd051aab769dc54	0.25498454963184725
161	0x3fa08bd15ed0268b	0.032316725562918945
162	0x3fc09a42a15cb1d0	0.12970764998443807
163	0xbfb53832b33df41a	-0.08288876415277038
164	0xbfc577fe906a6fbc	-0.16772443820525307
165	0x3fc7c352983e4420	0.18564827378989524
166	0x3fc46d5cdf7dc033	0.15958748734147007
167	0xbfb06e26c3285816	-0.06418077721204471
168	0xbfd48218a752c6d9	-0.32044044819040846
169	0x3fc9668ade1d2989	0.1984418472805596
170	0x3fd5838f0fbc3ff8	0.3361547139802492
171	0xbfcc1a3c27c67804	-0.21955062811042592
172	0x3fdab041069db5c4	0.41700769086932277
173	0xbfd357f022a9e797	-0.3022423113358114
174	0xbf83f12348c192de	-0.00973727765831128
175	0xbf9fd64d6226b8e6	-0.031090935817410868
176	0xbfcdccae360028e7	-0.23280885349988198
177	0x3fc7c4f58d74d315	0.18569821745918405
178	0x3fc6a63b65c8fd1a	0.1769479987142198
179	0xbfd9d296795dafed	-0.40347825863022885
180	0x3fae1fd2a3ad1082	0.05883653877256824
181	0xbfd18780e1288fba	-0.2738954733670159
182	0xbfd56fb347672c59	-0.334942645768654
183	0xbfb6fccd65020225	-0.08979495731365057
184	0xbf9aadc229515fb0	-0.026053460857241084
185	0x3f9a0b34b459a204	0.025433372028063075
186	0x3fcbd2bd9b18b20d	0.2173687941843955
187	0xbfbd719899659bb9	-0.11501458878556904
188	0x3fbc4d302ef06354	0.11055279870960294
189	0xbfc38ba16e93fd9f	-0.1526986875469278
190	0x3fac295592dcf748	0.05500285547030487
191	0x3fb443b78724106f	0.07915827798211848
