state_dicts/model20240104-203400.pt (torch, 39255 bytes, 6 tensors)

layerone.weight f4 [64, 128]
000000 d9 86 43 bd 47 77 3c bc ec 45 26 3d 26 d9 19 bb
       -0.047736023 -0.011503047 0.040594026 -0.0023475378
000010 8f 90 84 bc 94 a7 c7 3d ff be f5 3d 1d 17 0b bd
       -0.016182212 0.0974876 0.1199932 -0.03395759
000020 92 23 db 3c b6 fb 63 bd a7 7e d3 3b 68 2c b8 3d
       0.02675036 -0.055659972 0.006454307 0.08992845
000030 d4 d7 73 bd 7c 91 8f bd 8c 32 bf bc a7 ac d6 3d
       -0.059532 -0.07010171 -0.023339532 0.104821496
000040 69 b9 5c 3d d2 c2 3e bd 0b 15 54 3d 8e 04 1b bc
       0.05388776 -0.046572514 0.05177788 -0.009461535
000050 a1 9f 0d bd 05 65 03 3d df 8c 80 3d 0f b2 93 3d
       -0.034576062 0.03207876 0.06276869 0.07211696
000060 b8 11 03 bd 82 07 53 bc d3 02 8f 3d 8c 25 74 bc
       -0.03199932 -0.012880208 0.069829606 -0.01490153
000070 31 01 20 bd 55 41 a4 ba dc 87 80 bd 0d 2c 02 3c
       -0.039063636 -0.0012531677 -0.06275913 0.007945073
000080 2a 2c 81 3d c5 ef 7e bc 36 c4 9c 3c 34 bf e4 3a
       0.06307252 -0.015560095 0.01913653 0.0017452003
000090 0e 61 c7 3d 92 77 8f bd 7a 6e 86 bd a0 ef 0d 3d
       0.097353086 -0.07005228 -0.065640405 0.034652352
0000a0 06 02 83 3d 5e 7a 1d 3d 74 36 5a 3c 14 d6 9a 3d
       0.0639687 0.038446777 0.013318647 0.075603634
0000b0 19 4f 23 bd 65 6b 8a bb c0 3f bf 3d 78 8f 0a bd
       -0.039870355 -0.004224228 0.09338331 -0.03382823
0000c0 78 56 03 3e e3 da 02 bd 2e 74 82 bc 31 89 8e 3d
       0.12825954 -0.031947028 -0.01592454 0.06959761
0000d0 3c 33 cf 3b 61 d3 50 bd 8c 67 1e 3d da fd 2a bd
       0.0063232463 -0.050982837 0.03867297 -0.041745998
0000e0 b6 91 5d bc ae 66 d9 bc 34 46 1e bd ad 88 28 3c
       -0.01352351 -0.02653822 -0.03864117 0.010286492
0000f0 44 ce a9 3d 8c 8b 98 bb 26 82 d2 3c 3a f1 b3 3c
       0.08291295 -0.004655307 0.025696825 0.021965612
000100 dc e2 97 bd 56 87 04 3d b2 74 b6 bc f6 c5 9d 3d
       -0.07416317 0.03235563 -0.022272442 0.07703774
000110 1a 47 4b bd 84 b8 94 bd 68 dc 05 3d ce 1c d2 bc
       -0.049628355 -0.07261756 0.0326809 -0.0256485
000120 40 e3 df 3d 92 49 35 3d c2 0e c0 bc 3f d2 93 3d
       0.109320164 0.044259615 -0.023444537 0.07217836
000130 ad e4 a0 3b 5a a3 03 bd e7 d6 89 bd d3 1c d5 3c
       0.004910073 -0.032138206 -0.067304425 0.026014721
000140 41 9e e8 3d 91 6d 70 bb 30 e1 ba 3d 4b d2 fb bc
       0.113583095 -0.00366864 0.09124982 -0.030739924
000150 90 4e 88 3b 1b c0 96 3d b1 50 9e 3d 68 e4 5b 3c
       0.004159756 0.0736086 0.077302344 0.0134211555
000160 ae e6 e8 bb b7 60 87 bd fd 8f 08 bd 03 33 de 3b
       -0.0071075773 -0.06610244 -0.033340443 0.0067809834
000170 66 80 ac 3c 2f 73 6f bc 99 aa 58 3d 46 8d 81 3c
       0.021057319 -0.014614864 0.05289707 0.015814435
000180 68 bb 6d bd b7 93 50 bd 92 04 0f bc 18 cc 9d bc
       -0.058040053 -0.05092212 -0.008729117 -0.019262359
000190 d8 c0 bc 3d 91 38 f4 3b c5 e1 14 3d 78 e4 aa 3d
       0.092164695 0.0074530323 0.036348123 0.08344358
0001a0 3e a6 9a 3d 71 cd 4c 3c 47 4d 84 3d 62 c2 4c bd
       0.075512394 0.012500153 0.06460052 -0.049990065
0001b0 0c d0 a5 bd 5c 3c 89 bd c4 7f 2b bd b4 77 80 3d
       -0.080963224 -0.06700966 -0.041869894 0.062728316
0001c0 06 08 0c 3d 14 c1 d6 bb 44 de 2d 3d 7b 43 fe 3d
       0.03418734 -0.0065537784 0.042448297 0.12415215
0001d0 bf 0f 69 3d ba b1 b4 3d 6e 5d 6f 3d b0 2c a9 3c
       0.056899782 0.08822961 0.05843871 0.020651191
0001e0 b9 a8 06 3d 0b a8 23 3e f2 3b f8 bc 0b c1 95 3d
       0.03287575 0.15982072 -0.030302022 0.07312211
0001f0 85 53 b6 3d 50 5a 85 3d e1 21 b0 3d 7a 8a 3a 3c
       0.08902649 0.06511366 0.08600212 0.011385554
000200 cc 96 b1 bc 5c 91 00 bd 43 99 c7 3d 55 11 f9 bc
       -0.02167835 -0.031388626 0.09746029 -0.030403772
000210 23 ab 90 bc 68 b0 c1 3d ea d9 86 bd 11 0c 13 bd
       -0.01765973 0.09457475 -0.065845326 -0.03590018
000220 6a fd 9b 3c 51 86 a1 3d fc b0 6f bc b3 6f cd 3c
       0.019041736 0.07886947 -0.014629599 0.025077676
000230 97 7f ec bc c9 70 86 bd fd f9 db bd bf 72 91 3d
       -0.028869433 -0.06564481 -0.10741041 0.07101964
000240 ab 9b 91 3d a3 74 3d 3d 99 07 3b 3d ed a8 99 3c
       0.071097694 0.04625381 0.045661543 0.018757308
000250 b1 4d b2 bc b4 5e 6a bc de 48 a8 3d 05 dc bc bc
       -0.021765562 -0.014304806 0.08217023 -0.023054132
000260 4d c2 2e bd 65 4b 39 3c 10 ae 87 bb a7 ff a4 bc
       -0.04266577 0.011309479 -0.004140623 -0.020141436
000270 d7 ef 54 3d 9f e1 f9 3d 61 b4 81 3d f5 7f 06 bd
       0.05198654 0.12201237 0.06333233 -0.032836873
000280 91 05 de bd ff f6 90 3c 57 9a 48 bc 32 af 32 ba
       -0.108409055 0.017695902 -0.012243829 -0.0006816267
000290 83 e9 b6 3d 8c 55 bd bc ed 55 20 3c bd 6d 46 3d
       0.089312576 -0.023112081 0.009786111 0.0484445
0002a0 c3 e8 d2 bc e9 eb 9f bd dd 25 a4 bc 4d db 88 bc
       -0.025745755 -0.07808668 -0.020037586 -0.016706133
0002b0 16 45 5a bd d3 eb c1 bb 1b 60 91 bd be 39 76 bd
       -0.05328854 -0.005918005 -0.07098409 -0.06011366
0002c0 5b 35 c2 bc d3 71 3e 3d c6 9e 01 bd 1f 59 af 3c
       -0.023707082 0.04649527 -0.03164556 0.021404801
0002d0 a1 d5 2f 3c 2c f3 54 bc 51 1a 7a 3d d3 76 aa 3c
       0.010732085 -0.01299743 0.061060254 0.020808613
0002e0 c8 a9 9a bc 99 dd 50 3c 17 d8 28 bd bc 9d 90 3a
       -0.018879786 0.0127481455 -0.041221704 0.0011033337
0002f0 a2 61 1c 3d 46 a5 2c bd 1b 79 5e bd be 30 85 bd
       0.038179047 -0.042149805 -0.054314714 -0.065034375
000300 78 ff 46 3d 0f c4 bd bc 80 0f be b8 fd cd 24 bd
       0.048583478 -0.023164777 -9.062793e-05 -0.04023551
000310 be 47 0e bd 7e cc 64 bc 38 aa 82 3b ae a0 b7 3d
       -0.034736387 -0.01396477 0.003987577 0.08966194
000320 45 a6 5d bd 4b 48 90 3d f9 d2 e4 3c 35 ef e2 bc
       -0.054113645 0.07045039 0.02793263 -0.027701953
000330 5b 4d 80 bd f4 9c 92 3b 43 d5 d8 3c a0 75 62 3d
       -0.062647544 0.0044742767 0.026468879 0.055287957
000340 af 11 bd bd e8 e3 69 bd 0d 88 15 bd d0 a9 ac 3c
       -0.092318885 -0.057102114 -0.0365067 0.021077067
000350 4c 27 58 3d ec 3a e8 3c 76 b3 0e bd 81 37 5c bd
       0.05277185 0.028348409 -0.034839116 -0.05376387
000360 04 30 04 bc ec 89 0f 3d 92 f7 0e bd 43 b7 cb 3b
       -0.008068088 0.035043642 -0.03490407 0.006216915
000370 c7 f6 12 bd 9e 93 1e 3d b3 39 a3 3d 39 13 82 3a
       -0.035879876 0.038714997 0.0796999 0.0009923942
000380 5a 48 68 bd 4f 15 87 3d 0b ab 35 bb 97 53 c6 3d
       -0.056709625 0.06595861 -0.0027720358 0.09683912
000390 65 a6 81 bd 50 fe 0f 3d f9 47 1e bd 00 bb 40 3c
       -0.06330565 0.03515464 -0.038642857 0.011763334
0003a0 aa 66 fc bc ff 81 8f 3d 19 d4 0e bd 70 6b 81 bc
       -0.030810673 0.07007217 -0.03487024 -0.0157983
0003b0 45 1e ce 3c dd 94 83 bd 58 fd 94 bd 52 25 64 bd
       0.025160918 -0.06424878 -0.07274884 -0.055699654
0003c0 88 cb 20 bd 98 ef dd 3c c8 16 3b bd 3c 66 af bb
       -0.039256603 0.027091786 -0.045676023 -0.0053527635
0003d0 e2 c1 6a 3d d9 a2 97 3d 93 e4 05 bd 38 d5 7d 3d
       0.057313807 0.074041076 -0.03268869 0.06197092
0003e0 03 a2 24 3d 21 a2 3d bd 48 5e bc 3c 18 c4 80 bd
       0.04019357 -0.046297196 0.022994176 -0.06287402
0003f0 16 10 97 3c 85 0c 6f bd 75 81 5b bd 78 dd 10 3d
       0.018440288 -0.05836155 -0.053590257 0.03536746

layerone.bias f4 [64]
000000 51 de 80 3d ec 8c 3e be bb 00 0b 3e d6 9f 1e 3e
       0.062924035 -0.18608445 0.13574497 0.1549066
000010 1e b0 c9 3d 3a ac 66 bd 18 09 fe bd 13 fa c0 3d
       0.09848045 -0.05631659 -0.12404078 0.09422698
000020 6a d2 51 3e ba ff 41 3e 56 de af 3d fb 6f 69 3c
       0.20490423 0.18945208 0.08587329 0.01424789
000030 d5 27 44 be 86 de a2 3c 7a ec 9d bd aa 56 f8 3d
       -0.1915582 0.019881498 -0.0771112 0.12125905
000040 31 73 02 3e 35 a2 2c be 81 3c 39 3e 5b 69 9c bc
       0.12739255 -0.16858752 0.18089487 -0.019093206
000050 13 fb f9 3d 32 2c 13 3e 99 09 e7 3b 05 8b e4 3d
       0.12206092 0.14372328 0.0070507047 0.11159328
000060 fc 78 45 3e a7 fd 9b 3d fc 00 a9 3d 19 83 7c bc
       0.19284433 0.0761674 0.08252141 -0.0154121155
000070 d0 e1 ba bd f5 22 f0 bc 03 a0 2a be 11 95 91 bd
       -0.091251016 -0.029313544 -0.16662602 -0.0710851
000080 a4 86 b8 3d 45 ab 10 be 5f 1f ca 3d 95 e1 34 3e
       0.09010056 -0.14127834 0.09869265 0.17664178
000090 d0 1f 2e be 52 7b f2 3c d8 f4 d6 3c bc 55 89 3c
       -0.17004323 0.02959982 0.026239797 0.016764514
0000a0 09 5c db 3d af 03 b7 3d 5a 62 3b 3e 17 e9 99 bd
       0.10710914 0.089362495 0.18299237 -0.075151615
0000b0 81 50 c0 bb df 00 d2 bc b2 70 44 3e 98 58 8d bd
       -0.005868972 -0.025635181 0.19183615 -0.069016635
0000c0 30 6c f7 bd b4 f7 11 3e 5c d8 b1 3b 5e 70 2b be
       -0.12081182 0.14254647 0.0054274034 -0.16742083
0000d0 67 b0 29 bd 1b 83 42 be a3 b2 02 be 74 a8 ed 3d
       -0.041427996 -0.18995325 -0.12763457 0.116043955
0000e0 fe 40 d5 bd f2 20 84 bd 68 d5 a5 3d 93 bc a6 3c
       -0.10412787 -0.06451596 0.08097345 0.020353591
0000f0 dc 73 e5 3d 73 3f 94 3d 56 63 b8 3b 5b bb d6 3d
       0.11203739 0.072386645 0.005627076 0.10484954

layertwo.weight f4 [16, 64]
000000 91 33 bc bd 62 01 bb 3a cf f4 5c bd 8f 0a ca bd
       -0.09189523 0.001426738 -0.053944405 -0.09865295
000010 50 80 58 be 2e b5 eb 3b ee fa ed 3d b5 65 67 be
       -0.21142697 0.007193229 0.11620127 -0.22597392
000020 a5 a1 09 bc 64 c7 04 be 34 c8 28 bd b3 67 c2 bd
       -0.0084003555 -0.12966686 -0.041206554 -0.09492435
000030 43 a2 03 3e 80 ed 17 3d 2d 89 d6 3d ab fa 6d 3c
       0.12854867 0.037091732 0.10475383 0.014525096
000040 f2 fc 92 bd 85 2b fc 3d 78 6b 2f bd d5 ba 92 bd
       -0.07177152 0.12312988 -0.0428271 -0.07164542
000050 09 ce eb bd b1 4c 53 be 77 b9 f4 bd c1 b9 19 be
       -0.115139075 -0.20634724 -0.11949437 -0.15012266
000060 7f e1 12 bb f2 2f 08 be a5 5f dc 3c 51 ee 2c be
       -0.0022412238 -0.1329954 0.026901076 -0.16887785
000070 55 b3 fa 3d 19 57 67 3e d2 de 16 3d bf 46 3a 3e
       0.12241236 0.22591819 0.03683359 0.1819105
000080 cf 86 51 be 4a 0f 88 bd 96 8f 28 3b dd 92 8f bd
       -0.20461582 -0.06643541 0.002572035 -0.07010434
000090 61 96 05 3e 30 f5 2f bd c3 e4 13 3d 29 19 67 3c
       0.13045646 -0.04295844 0.036106836 0.01410512
0000a0 36 03 f2 bd ca 82 49 be a7 10 f3 bd 36 58 85 3d
       -0.11817019 -0.19678798 -0.118684106 0.065109655
0000b0 ff 72 29 bd e9 6a cb 3d fb 1b 53 bd bd 9f cd bd
       -0.041369434 0.09932501 -0.051540356 -0.10040233
0000c0 d0 67 bb 3d 46 38 18 bd 0f 48 a7 3d 5f 71 97 3d
       0.0915066 -0.03716304 0.08168041 0.07394671
0000d0 09 fc da bd ee 5c aa 3d ce a9 9d 3d 42 85 69 3b
       -0.10692603 0.08318506 0.07698403 0.0035632406
0000e0 c7 0c 08 3d c9 33 a8 3d 6a 25 3c be 21 ef b6 bc
       0.03321531 0.08213002 -0.18373647 -0.022330822
0000f0 19 82 28 be 24 69 7c bb cc 65 95 bd 4c 7b 3a be
       -0.16455878 -0.0038514817 -0.07294807 -0.18211097
000100 bf f6 20 be 1c 0e 99 3d 36 19 1d be e5 63 64 3d
       -0.15719126 0.07473394 -0.15341648 0.05575933
000110 c9 33 16 be b7 0a 0c bd 25 67 2f 3e 82 df 61 bc
       -0.14668192 -0.034189906 0.1712919 -0.013786199
000120 fc 80 fc bd e6 7c 8b bd 04 2c 88 3d 4f 77 ec bd
       -0.12329289 -0.06810932 0.0664902 -0.11546194
000130 79 73 54 bd ac 8c 1e be 72 7e 86 bd b6 fe d4 bd
       -0.051867936 -0.1548335 -0.06567086 -0.10400145
000140 fc b2 51 bc 73 a2 0c bc f4 bd 03 be 4f 75 cf bd
       -0.012799021 -0.008583653 -0.1286543 -0.10129797
000150 73 6d 24 be db ad c7 3c 72 3a 15 be 57 97 1d be
       -0.16057377 0.024374893 -0.14573076 -0.15389763
000160 d5 ab 61 be 60 71 84 bd 4d 2a bd 3c af 1a 93 bc
       -0.22038205 -0.06466937 0.02309146 -0.01795706
000170 66 93 75 3d c1 46 39 3e cc 4c 09 bb d6 25 00 3c
       0.059955023 0.18093397 -0.0020950316 0.007821521
000180 b1 e4 23 be 3f 57 af 3d 77 8b 82 3c ba 68 84 bd
       -0.16005208 0.08561563 0.015935643 -0.064652875
000190 46 d5 a0 3c 75 2f 15 3d 20 17 46 bb e4 6e 3c be
       0.019632947 0.03642221 -0.0030226186 -0.18401676
0001a0 e3 ee 63 bd 76 8c d0 3b f7 8f 1e bc e6 a5 89 bd
       -0.055647742 0.0063644005 -0.009677879 -0.06721096
0001b0 13 1e 86 bd a4 b8 8d 3d da be 6e be 69 5d 50 bd
       -0.06548705 0.06919983 -0.23314992 -0.050870333
0001c0 82 99 cb 3b 62 40 ff bd 34 02 1b 3e 84 89 d3 3d
       0.006213368 -0.12463452 0.15137559 0.103289634
0001d0 c3 82 9b bd a2 b2 2e 3e 9e 50 d1 3d d2 0b 56 be
       -0.075933 0.1706033 0.10220455 -0.20902947
0001e0 ce 03 22 3e 18 23 95 3d b7 58 16 be 4e 4f ee 3d
       0.15821764 0.07282084 -0.1468228 0.1163622
0001f0 76 aa a3 bb e7 e3 5a bd de 76 9f 3c 1e 80 2d be
       -0.0049946858 -0.05344 0.01946586 -0.16943404
000200 7b 89 0c be 23 2a 07 3e a4 2f b8 3d f6 a8 40 bd
       -0.1372432 0.13199668 0.08993462 -0.047036134
000210 08 2d 9b bd 78 d6 27 be 57 6f a4 3d 4c 90 75 bd
       -0.075769484 -0.16390407 0.08029049 -0.059952065
000220 1c bf ca bd 8f 02 0b be c9 71 de bd 88 b5 96 bd
       -0.098997325 -0.13575195 -0.108615465 -0.07358843
000230 3f fe 71 3d 3f 2a a2 3c da d3 f7 3b 48 7a f1 bd
       0.05908036 0.019795535 0.0075630965 -0.117909014
000240 05 db 67 be 4e b9 e4 3c 50 92 80 bd 03 0f 72 bd
       -0.22642143 0.027920391 -0.06277907 -0.059096348
000250 22 45 5b be 81 b3 53 bd 7f 8a 2c be a0 4c 46 be
       -0.21413091 -0.05168486 -0.16849707 -0.19365168
000260 3b 8f 56 be f4 cf 17 be f1 94 8e bd 4a 87 53 bd
       -0.20953076 -0.14825422 -0.06962002 -0.051642694
000270 66 da 01 3e 28 41 81 3d b9 0b 8c 3d 33 c4 e9 3d
       0.12680969 0.06311256 0.068381734 0.11414375
000280 ba f0 31 bd d0 19 fb bb 85 d8 52 be 3b 1b 03 be
       -0.043442465 -0.007662989 -0.20590408 -0.12803356
000290 1a 92 df 3d db 2d 8a 3d 2e eb 1c 3d bd 03 b4 bd
       0.109165385 0.067470275 0.038310222 -0.087897755
0002a0 13 98 11 be 4f cc 64 bd 24 92 42 be 53 03 16 be
       -0.14218168 -0.055858906 -0.1900106 -0.14649706
0002b0 db d8 93 bd ee 59 21 3e 37 dd 8f bd 2f ab 68 bd
       -0.07219096 0.15756962 -0.07024615 -0.05680388
0002c0 d3 eb de 3d 5a 90 c4 bc 9b 00 9f 3c 60 ee 1e bc
       0.10884824 -0.023994613 0.019409468 -0.009700388
0002d0 ae 7e 99 bc c8 06 0b 3d 86 4b f1 3c 49 be d8 bd
       -0.018737163 0.033942014 0.029454958 -0.10583169
0002e0 46 74 0a bc cf 0a aa bc 3f 99 4d be eb e2 26 3e
       -0.008450573 -0.020757107 -0.2007799 0.162975
0002f0 d0 c2 53 be b2 8a 4d be 66 c6 41 3b c9 c3 45 be
       -0.20679784 -0.2007244 0.0029567718 -0.19312967
000300 81 2e f9 3d 6b 3d 02 3d dd ff bc 3d 7a a1 e0 bd
       0.12167073 0.031796854 0.092284895 -0.10968299
000310 41 c5 43 3e f7 9d 1c 3c 49 80 e0 bd fa 2e c1 3d
       0.19118215 0.009559146 -0.109619685 0.09432788
000320 0e 12 f4 3c 04 1c 70 3e 7a e5 5d bd 06 c5 3a 3d
       0.029793765 0.23448187 -0.054173924 0.045598052
000330 2f 98 d3 bc 51 97 48 3d 48 d0 83 3d 80 2f eb 3c
       -0.025829403 0.04897243 0.06436211 0.028709173
000340 b3 7d e7 3d bb c3 21 be 8e b3 0b 3d e9 da 53 3e
       0.11303272 -0.15797321 0.034106784 0.20688976
000350 e0 2a 77 3a 6f da 84 3d f0 f6 06 3c 51 cd 12 3e
       0.0009428691 0.064869754 0.008237585 0.14336134
000360 cf ea 0b 3e e9 7a 3d 3e b0 a7 03 3e 0c ad d2 bc
       0.13663791 0.18503918 0.12856936 -0.02571728
000370 c8 3f 05 be 86 b5 2b bd 88 98 73 bd f7 68 bc bd
       -0.13012612 -0.04192116 -0.059471637 -0.09199708
000380 11 b4 10 3e de de 23 be ed 85 04 3e 53 91 2b 3e
       0.1413119 -0.16002986 0.12941714 0.16754656
000390 5d 4d 58 3c 44 44 86 3c 10 47 99 bd 9b 8b 46 3b
       0.013202039 0.016389973 -0.07484257 0.0030295614
0003a0 af 27 86 3d ab eb 24 3e 4a 9f 5f 3d bf 5e 90 bc
       0.06550538 0.16105525 0.05459527 -0.017623303
0003b0 fc da 1b 3e 69 99 46 3d ce 14 b0 3b ab 6c 29 3d
       0.15220255 0.048486147 0.005373574 0.0413634
0003c0 aa 4c cb bd e8 b3 60 3e fc 6d fd bd 7d 2e d6 bb
       -0.09926732 0.21943629 -0.123744935 -0.0065363036
0003d0 13 8a 59 3c fa 1e a8 bd 11 61 0e be 90 85 d7 3d
       0.013277548 -0.08209033 -0.13904215 0.10523522
0003e0 f1 90 23 bc ea 85 1b be b7 24 08 3e d7 a4 1e bd
       -0.009983287 -0.15187803 0.13295256 -0.038731422
0003f0 80 b2 43 3e 80 73 64 3e 32 06 02 be a4 54 32 3e
       0.19111061 0.22309685 -0.12697676 0.174151

layertwo.bias f4 [16]
000000 b3 14 c5 bd 82 0f 67 bb 08 60 80 bc c5 5a ec 3c
       -0.09623089 -0.0035257046 -0.015670791 0.028851876
000010 f5 66 94 bc 70 bc f3 bc a1 24 02 bc 03 93 31 bc
       -0.0181155 -0.02975294 -0.007943303 -0.010838273
000020 98 a9 d9 bc 0e f3 df bd 06 71 69 3d 15 1e 53 bd
       -0.026570126 -0.10935031 0.056992553 -0.05154236
000030 bf ca a8 3d 87 e2 ac bc f3 31 00 bd f3 f4 84 3d
       0.08241796 -0.02110411 -0.031297635 0.06492033

layerthree.weight f4 [2, 16]
000000 63 7d 09 bd a0 23 1e bd b3 68 52 be c2 01 56 3c
       -0.033566844 -0.038608193 -0.20547752 0.0130619425
000010 ff e5 ae 3e 33 2f 7d 3e 05 c8 06 3e 59 9b e7 3c
       0.34159848 0.24725036 0.13162239 0.028272318
000020 3a 43 38 be 6e f8 aa 3e 67 c1 2d be 7e ad 2b be
       -0.17994395 0.33392662 -0.16968308 -0.16765401
000030 99 c0 82 3e 88 22 47 be b3 63 dc 3d ee f8 f8 3d
       0.25537565 -0.19446766 0.107612036 0.121568546
000040 2b ad 50 3e 00 13 40 3e 4d 8d 26 3e ae b5 8f be
       0.20378558 0.18757248 0.1626484 -0.28068298
000050 41 7e 45 3d 85 9e 71 be 27 64 21 be ee 66 d1 bd
       0.04821611 -0.23595627 -0.15760861 -0.102247104
000060 d7 90 86 3e 6e 2f 8e 3d 44 67 9a be 0b 20 84 3e
       0.2628238 0.0694264 -0.3015691 0.25805697
000070 ab b0 47 be 48 2c 46 3d 52 1f 38 be cd c9 79 3e
       -0.19500987 0.048382074 -0.17980698 0.24393387

layerthree.bias f4 [2]
000000 2c 20 8d 3c 7a 67 29 3e
       0.017227255 0.1654338
