state_dicts/model20240104-203556.pt (torch, 16919 bytes, 6 tensors)

layerone.weight f4 [40, 81]
00000000: 04eb 793d f037 993d de82 c2bc 6ece 2d3d
00000010: 21b7 8ebb 25c6 213e 8321 053e 4bd0 c9bd
00000020: fa0f 9b3c 0c41 15bd b065 223d 848e 143d
00000030: 8f56 18be 6686 f7bd df6b a63c a342 f7bc
00000040: 847f a8bd 68f2 e43d ff65 ce3d 40df be3c
00000050: dfe4 21be f42f bf3d 8676 e5bd a49c f5bc
00000060: 953f ec3d 29ef 023e 8e16 d33d 92d3 b73c
00000070: e279 80bd 286f 15be 1488 3ebe 2098 5c3c
00000080: d8c7 f7bd 71e6 7e3d 2ecc d63d 5322 963d
00000090: 6097 38bd 37e6 fdbd 53f5 06bd b939 513e
000000a0: 3756 04be 2d75 493e c2ef 8a3c a21d 51bd
000000b0: 48ba 11be 4354 9abb 0c5a e83d 6d25 8b3b
000000c0: e5a1 03bd 6c6c 243e 0533 24be c6f6 acbd
000000d0: 7845 9a3d 7105 4ebe 72d5 1a3d 9d9d cc3d
000000e0: fb8f d03d 1d43 05be cd31 623d 05fb 32bc
000000f0: aab0 dbbc 38a5 d83c e64e 133e 5c67 f13d
00000100: bcee 48bd c073 56bd 781c 07bd 0804 5cbe
00000110: c00e 5ebc 03fb 37be 9259 84bb 5571 29bd
00000120: c7b3 9cbc 0c62 b7bb dc23 8cbe 96e6 be3d
00000130: 54b9 e83b 84ba 6b3d 7d09 06bd 4cbe c63d
00000140: a12d adbd 8a76 d53c 5578 59bd 0c68 3cbd
00000150: 3554 d9bb d938 b3bb 60fd a1bb 9044 533d
00000160: dd6e 8abc 5066 e53c 5820 2abc 9573 90bc
00000170: ed93 a93d 45da 50bd e536 3e3d 9619 9fbd
00000180: 2522 f53d 4aaf f63d 5e17 3a3d 89ff 57bd
00000190: bc24 f33d 482f e53c 0650 a63d 95c7 ac3d
000001a0: d01e 263d c021 a53c 2e95 9ebd ae68 8d3d
000001b0: b219 763d 4967 9f3d ca9e a33d c623 b23d
000001c0: 6fab 80bc 8ce2 383d ed59 5c3d 3e73 42bd
000001d0: 8004 d2bb c4fe 8f3d 05ee f2bc b3c1 f73c
000001e0: 13bb 3d3c 5da0 a03d 3f0a 2cbd cfba b13d
000001f0: c25d 1d3c 308f 13bd 77da aabd f643 86bc
00000200: c0fd 21bd 9a92 1e3d 9e8e 883c 80cd dd3d
00000210: 7fe5 bb3d 5555 dd3c 4f48 e53d fb3e 83bc
00000220: 9e00 db3b 4ddd 68bd b74b 483c 8380 c33c
00000230: 5417 903d 0b99 973d 8e9f 483d 5780 81bd
00000240: 6335 2abc e3eb 193d c448 acbd e55c aabc
00000250: 5cd1 38bd 19d4 51bd dd8d bf3d 69e6 c7bc
00000260: 1f8a 7abd b300 d23d 3828 8a3d 4d1a 043e
00000270: 0d4b 923d d03d 5a3d a1f4 a23c b429 4fbd
00000280: 59fc b93d fb04 cfba db24 1a3d 76b3 cbbc
00000290: f14e 053d 2121 fbbc 9677 46bd 6659 3abc
000002a0: b2d4 26bd 9f0f ccbc f71d cdbd d0aa a6bc
000002b0: 4d7c 2fbd e861 1bbd 9dcd e53c b5b6 10bd
000002c0: afbd dbbb 8edd 383d 490c 853c 5358 52bd
000002d0: 901c d6bc f954 6c3a 63a1 9ebd 6eb2 96bc
000002e0: d342 963d 1226 183d dab0 533c 2e0c fcbd
000002f0: 2c5e cc3d 3985 2c3d 824e 8e3b 2ddc acbb
00000300: afa2 dabc 5ba8 85bc 46c7 84ba 4516 76bb
00000310: a89c 1cbc 8667 b4bc b01d bc3c a161 033c
00000320: bd7b 80bd f324 3ebd 100f 8d3d 38be ca3b
00000330: 5c58 1cbd fc93 913c d2fc f63c 1b36 173d
00000340: 8279 543d 510f 81bd 92e4 cc3c 58ad cd3c
00000350: 846a 89bc 0f50 bfbb 001b 9fbc 6d15 fabb
00000360: c8e7 07bd b22c febc 645a adbc 4ae4 6b3d
00000370: ab73 423c 7504 f03c ca26 bebc 68db 89bd
00000380: a281 35bd 7d48 8dbc 0a43 9cbd 3c1d 3dbc
00000390: 53c4 a73c e498 d13c 288c 2a3c a8e0 0e3d
000003a0: a254 98bd 1972 bfbb 1f23 3fbc 303e 9c3c
000003b0: 5898 e6bb 0f63 a6bd 01a1 7abd 63b2 09bc
000003c0: ec88 29bc b4c3 e33c a9da 483c 0144 2d3b
000003d0: a917 f03d 2d31 d9bd 6c49 cd3b 5bb3 debc
000003e0: f666 003e 15ed 60bd fc35 c4bd 56d8 883d
000003f0: 80f5 afbd 4a49 d2bc fd1b cc3d 7fb4 e7bd
0.061015144 0.07481372 -0.023744043 0.042433195 -0.0043553268 0.15798242 0.13001065 -0.09854182
0.018928517 -0.036438987 0.039647758 0.036268726 -0.1487677 -0.12086181 0.020315109 -0.030183142
-0.08227447 0.11179048 0.10078048 0.023299813 -0.15809964 0.09335318 -0.11204247 -0.029981919
0.11535565 0.12786545 0.10307036 0.022439752 -0.06273247 -0.14593184 -0.18606597 0.013464004
-0.12098664 0.062231485 0.10488163 0.073307656 -0.045066237 -0.123974256 -0.032948803 0.20432176
-0.12923513 0.19673605 0.016960029 -0.05105365 -0.14231217 -0.004709752 0.113453 0.004246405
-0.032136817 0.16056985 -0.16035087 -0.08445506 0.07532781 -0.20119263 0.037801214 0.09991
0.10183712 -0.13013883 0.055223275 -0.0109241055 -0.026817638 0.02644597 0.14385566 0.11787292
-0.0490558 -0.05235648 -0.032986134 -0.21485913 -0.013553321 -0.17966847 -0.004038998 -0.041367847
-0.019128693 -0.005596405 -0.2737111 0.093213245 0.007102171 0.057550922 -0.032723892 0.09704265
-0.08455969 0.0260575 -0.053093273 -0.045997664 -0.0066323527 -0.0054694233 -0.0049435347 0.05157906
-0.016898567 0.028002888 -0.010383688 -0.017633239 0.08280168 -0.050989408 0.04643907 -0.07768552
0.11969403 0.120451525 0.04543244 -0.05273393 0.11872241 0.027976647 0.08120732 0.08436505
0.04055673 0.020157695 -0.077432975 0.06904732 0.0600831 0.07783372 0.07989271 0.086982295
-0.015706746 0.045137927 0.053796697 -0.047473185 -0.006409228 0.070310146 -0.029654512 0.03024373
0.0115802465 0.07843087 -0.04200196 0.08678209 0.009604873 -0.036025226 -0.0834245 -0.016389828
-0.039548635 0.03871403 0.016669568 0.10830212 0.09174632 0.027018229 0.111954324 -0.016021242
0.006683423 -0.056851674 0.012225083 0.02386499 0.070356995 0.074022375 0.04898029 -0.06323307
-0.010388705 0.037578475 -0.084123164 -0.020796249 -0.045121536 -0.051227663 0.0935323 -0.02440186
-0.06116688 0.102540396 0.06745952 0.12900658 0.07143221 0.053281605 0.019892039 -0.05057688
0.090813346 -0.0015794331 0.037632804 -0.024865847 0.032545988 -0.030655446 -0.04845389 -0.011373853
-0.040730186 -0.024909792 -0.10015481 -0.020345122 -0.04284315 -0.037935168 0.028052146 -0.035330493
-0.0067059617 0.045133166 0.01624121 -0.051353764 -0.026136667 0.00090153475 -0.07745626 -0.018395629
0.073369645 0.03714568 0.012920583 -0.123070106 0.09978899 0.04211924 0.004342855 -0.0052752704
-0.026688902 -0.01631563 -0.0010130189 -0.0037549895 -0.009558834 -0.02202202 0.022963375 0.008018882
-0.06273601 -0.046421956 0.068876386 0.0061872266 -0.038170204 0.01777076 0.030149851 0.036916833
0.05187369 -0.063017495 0.025011335 0.02510707 -0.016774423 -0.005838401 -0.019422054 -0.0076319487
-0.03318003 -0.031027172 -0.021161266 0.05759076 0.011868398 0.029299 -0.023211855 -0.067313015
-0.04431308 -0.01724648 -0.07629974 -0.011542615 0.020479357 0.0255856 0.010409392 0.034882218
-0.074380174 -0.005842459 -0.011666088 0.019072622 -0.0070372038 -0.08124363 -0.0611887 -0.008404347
-0.010347586 0.02780328 0.012259164 0.0026438239 0.11723263 -0.10605083 0.006264856 -0.027185133
0.12539276 -0.0549136 -0.09580609 0.06681888 -0.08591747 -0.025669713 0.09966276 -0.11313724

layerone.bias f4 [40]
00000000: 1d46 053f 639e e4bd e77c 18bd 4724 b73e
00000010: 4655 043f be42 2d3e 5716 0d3f 7a3c 1c3f
00000020: f9f7 0f3f 61ab 71bc fca7 513d bd7b 103f
00000030: 218b 323e 6668 1c3f 0eb7 c53e 322f f53e
00000040: d79d e23e 407f 163f 112b 48be f5ad cc3e
00000050: fee8 dd3e 5b5f 023f c904 1d3f 55ea c3be
00000060: a828 b5be b155 bdbe 99fc f4be 7e4e edbe
00000070: ea31 bc3e 4cf3 cfbe ec23 b6be 7168 aebd
00000080: b603 0e3f 9a78 093f a6a6 bebe 5076 a23e
00000090: 8e94 1d3f bfda 24bf 64c4 13bf dfb7 d63e
0.5206011 -0.11163022 -0.03722849 0.35769865 0.51692617 0.16919991 0.5511221 0.6102978
0.5623775 -0.014750333 0.051185593 0.5643881 0.17435886 0.610968 0.38616222 0.4788757
0.44261047 0.5878792 -0.19547679 0.3997647 0.4334182 0.5092675 0.61335427 -0.3826472
-0.3538258 -0.3697944 -0.47848967 -0.46348947 0.3675683 -0.40615308 -0.3557428 -0.08516014
0.5547441 0.5369965 -0.37236518 0.3173089 0.615548 -0.6439628 -0.57721543 0.41937158

layertwo.weight f4 [10, 40]
00000000: b16a 15bf bdb6 123a 5cf2 55bd 2bf6 31bf
00000010: 28af c1be fc2d c2bd 8a73 7fbe 63a9 b9be
00000020: 8116 47bf fbaf 8f3d c90c e1bc b8ef f5be
00000030: 5614 3bbe 7c15 b5be 6259 85be 7eba d0be
00000040: d17a e3be 2fac 65be bd1f 3a3d a4cc 11bf
00000050: c365 b9be 1c65 a0be f902 09bf 5896 9bbd
00000060: 2fa7 463e c2f1 473d 76c7 223e 968d b93e
00000070: 1785 9fbe 564a 223e 821d 763e 5294 8dbb
00000080: 1316 0cbf 9985 16bf 9b2f 7a3e 4d37 c6be
00000090: a8b9 a6be a5c5 bd3e 94c6 a83e b4c0 e1be
000000a0: 677f 9d3e a409 57be ea73 823c 2a88 4a3f
000000b0: d14c 2e3e 2611 a63d a90c 793e f402 cd3e
000000c0: 70a4 4d3f f6b5 87bc b88e c6bc 3f0e e33e
000000d0: 1746 483e 1eb3 d23e 1359 b03e 0d94 f93e
000000e0: aa35 e73e 9367 963e d621 56be 992a e13e
000000f0: 3696 843e a6dd 873e e61b ef3e 235f cbbc
00000100: 0518 28be 50b8 e9bd 5bc2 26be 66e7 b9be
00000110: 3514 d93e b6e1 1cbe 2468 70be 71db 1cbd
00000120: 2b84 803e 4204 d63e 03cd 98be 3701 ed3e
00000130: 20b1 e93e 1d11 7bbe eb56 82be 4214 f93e
00000140: ef62 d83e 3f4b 50bd 5287 d0bd fba5 183f
00000150: 5537 993e de85 7cbd 5cce a03e 04d6 d13e
00000160: c8cb 213f e6d6 83bd 3e33 43bd 5293 cb3e
00000170: f7e5 a43e 0c60 ec3e 137c b23e 2c26 1a3f
00000180: ec35 af3e 7b5b cd3e 2a63 a03a d911 eb3e
00000190: fda5 ac3e a2ce 4c3e 5b2c be3e 5338 24be
000001a0: 0f7e e9bc 452c 29be 41ca 81be 272b b7be
000001b0: 5069 c73e e2a3 9dbe 80c0 9fbe f156 1cbe
000001c0: 2116 033f c1d1 093f 3e15 93be c453 ef3e
000001d0: fed3 b53e 8277 bdbd 7af0 81be 2276 963e
000001e0: 50c5 f83e 66e7 51be 4d0a eebd 0d54 203f
000001f0: c5ae 8f3e d27e e6bd 48ff 9f3e f733 ab3e
00000200: 2e03 283f bc2a babd e790 b33c 43b6 a53e
00000210: 99ee 8f3e d32e ee3e 74b9 fe3e 33a3 bc3e
00000220: 5db2 e93e 2d4b 913e 845b 323d 723c a93e
00000230: 65fe ff3e e6f4 bb3e 37dd 013f 3669 d6bc
00000240: 5ad5 f3bd 396c c7bd 68ee 94be d91a 58be
00000250: 13f9 ab3e a99a 85be 3138 64be dbc7 b3bd
00000260: 2d4e 0d3f c0ce f13e cf08 0fbe f09f a93e
00000270: e454 813e 023f 95be 7f7f 32be 4b93 d63e
00000280: 97f1 fcbe 97c6 033e 803c acbc 6e80 46bf
00000290: 73e3 95be 466c 3d3d 4ff7 debe 2038 f6be
000002a0: f02d 34bf 2be9 8bbd e0b0 a1bc 443c 9dbe
000002b0: f29d 3ebe ca52 aebe d118 6fbe d87a d0be
000002c0: 216a f4be 22bb cbbe f4c3 e23d 6ce0 08bf
000002d0: 04dd d0be 3ef1 dbbe 7ed5 13bf f7ad 563e
000002e0: b732 bd3b 7583 503d 854e ae3d ab60 533e
000002f0: 8c92 2abe 72ea 883e 7a44 7b3e 3e34 53bd
00000300: d774 00bf 21e1 afbe 6485 433e 8a76 b0be
00000310: cdb3 02bf 601f a03e 55e2 943e eda8 8abe
00000320: 06e5 2cbf 0442 9b3d c2bb 6fbd b541 32bf
00000330: 318a a5be 34c5 20be 1b4b d6be 1e8b 1bbf
00000340: 06d4 42bf 72d2 b0bc 7ccf 153e 6f0e 1bbf
00000350: 2335 c7be dac0 8fbe 2b68 c1be c5e5 c1be
00000360: f7be 0fbf 94b1 75be d73d 9abd 5126 15bf
00000370: fd72 eabe ca57 a1be a592 17bf 87e2 af3d
00000380: 6fa5 043e 6ca3 153e e69a 463e a49b 983e
00000390: e371 70be 6591 9f3e 9b40 763e 9cad fb3d
000003a0: 382c bbbe 4526 1ebf b5e2 673e 2089 8bbe
000003b0: bee5 efbe 0d9d a83e 09a1 be3e 1145 c4be
000003c0: f754 31bf c64c c6bd 9596 8b3d a249 34bf
000003d0: c115 73be a33e e8bd c8d9 89be cf1f c0be
000003e0: f197 57bf 8186 f23d 8bea 2ebd 8727 b9be
000003f0: 6e0f c8be 6027 0bbf c975 a8be 4509 cdbe
-0.58365923 0.0005596688 -0.052233085 -0.6951625 -0.37828946 -0.09481427 -0.24946418 -0.36262044
-0.77768713 0.070159875 -0.027471917 -0.48034453 -0.18269476 -0.35367954 -0.26044756 -0.40767282
-0.4442964 -0.22428964 0.045440424 -0.5695288 -0.3621045 -0.3132714 -0.5352016 -0.07597035
0.19399713 0.048814543 0.15896401 0.36240834 -0.31156227 0.1584867 0.24034694 -0.0043206597
-0.5472118 -0.58797604 0.24432223 -0.38714066 -0.3256352 0.37064853 0.32964003 -0.44092333
0.30761263 -0.20999771 0.015924413 0.7911402 0.1702149 0.081087396 0.24321236 0.40041316
0.80329037 -0.016566258 -0.024237975 0.44346806 0.19557987 0.4115228 0.34442958 0.48745766
0.4515813 0.29375896 -0.20911345 0.43977812 0.25895852 0.26536292 0.46700972 -0.024825638
-0.16415413 -0.11412108 -0.16285078 -0.36309355 0.4239823 -0.15320477 -0.23477226 -0.038295213
0.25100836 0.41800123 -0.29843912 0.4628999 0.45642948 -0.24518247 -0.25456938 0.48648268
0.4226298 -0.05085301 -0.1018206 0.59628266 0.29925027 -0.061651103 0.3140744 0.40983593
0.6320157 -0.06437473 -0.04765629 0.39760834 0.322067 0.46167028 0.34860286 0.60214496
0.34220827 0.40108857 0.0012236584 0.45912054 0.3372039 0.20000699 0.37143216 -0.16037111
-0.028502492 -0.16520794 -0.2534962 -0.3577511 0.38947535 -0.30789095 -0.31201553 -0.1526754
0.5120564 0.53835684 -0.28727144 0.46743596 0.355133 -0.0925131 -0.25378782 0.29387003
0.48588037 -0.20498428 -0.116230585 0.6262825 0.28063026 -0.11254658 0.31249452 0.33438084
0.6562985 -0.09090182 0.02191968 0.32365617 0.28111723 0.465201 0.49750865 0.3684326
0.45643893 0.28377667 0.043544307 0.3305393 0.49998775 0.3671028 0.5072817 -0.026173215
-0.11905928 -0.09737439 -0.2908814 -0.21103992 0.33588466 -0.2609456 -0.2228706 -0.08778354
0.5519741 0.4722805 -0.13968204 0.33129835 0.2526008 -0.29149634 -0.17431448 0.4190925
-0.49403068 0.12868725 -0.021024942 -0.7753972 -0.29275092 0.046245836 -0.43548056 -0.48089695
-0.70382595 -0.06831583 -0.01973766 -0.30710042 -0.18614939 -0.34047538 -0.2334931 -0.40718722
-0.4773722 -0.39791209 0.11072531 -0.5346744 -0.40793622 -0.4295749 -0.5774764 0.209648
0.005773868 0.050906617 0.0851107 0.20642345 -0.16657466 0.26741368 0.2453784 -0.051563494
-0.50178283 -0.34351447 0.19093853 -0.34465438 -0.51055604 0.31273937 0.29078928 -0.27082005
-0.6753696 0.07580951 -0.05852867 -0.6963151 -0.32331994 -0.15700227 -0.41854176 -0.6075915
-0.7610477 -0.021584723 0.1462993 -0.605689 -0.38907728 -0.28076822 -0.37774786 -0.37870613
-0.56150764 -0.23993522 -0.07531326 -0.5826159 -0.45790854 -0.3151229 -0.59208137 0.085881285
0.12953733 0.14613122 0.19395027 0.29806244 -0.23480944 0.31165615 0.24048083 0.12288973
-0.36557174 -0.61777145 0.22645076 -0.27253056 -0.46854967 0.3293232 0.37232235 -0.38333943
-0.6927027 -0.09682612 0.068158306 -0.70424855 -0.23738767 -0.11340072 -0.26923966 -0.37524268
-0.8421622 0.11842061 -0.042704146 -0.3616297 -0.39074272 -0.54356956 -0.32902363 -0.40046135

layertwo.bias f4 [10]
00000000: 5631 633d b337 4cbe 3d2b bbbd d530 33be
00000010: 6ad5 4bbd 3157 e6bd 97e8 86bc e2de 6abd
00000020: 8636 75bc fdf0 fdbd
0.055466972 -0.19943123 -0.091391064 -0.17499097 -0.049764074 -0.11247099 -0.01646833 -0.057341464
-0.014966613 -0.123994805

layerthree.weight f4 [2, 10]
00000000: 30dc 1abf 566c bc3e b5d4 b93e 9c93 203e
00000010: 6e08 20bf ec47 76be aede 15be 16dd 9c3e
00000020: 32b2 d6be 0f1e d13e 2069 563e 68cb c2be
00000030: be76 c9be 1089 f1be 51e3 d93e c86a 0e3f
00000040: b008 273f 18d0 dfbe 1b77 c53e fa72 b2be
-0.6049223 0.36801404 0.36295095 0.15681309 -0.6251286 -0.24050874 -0.14635727 0.30637425
-0.41932827 0.40843245 0.2093854 -0.38045812 -0.39348406 -0.47174883 0.4255624 0.55631685
0.6524763 -0.4371345 0.38567433 -0.34853345

layerthree.bias f4 [2]
00000000: ef04 9fbe 09f1 11be
-0.31058452 -0.14252104
