state_dicts/model6844.pt (torch, 353686 bytes, 69 tensors)

conv_kernel_16d f4 [3, 16]
0	0xbeb6fdd1	-0.35740522
1	0x3e9b442a	0.30325443
2	0x3eb680af	0.35645053
3	0xbe3efa4e	-0.18650171
4	0xbe703021	-0.2345586
5	0x3ea1bc2d	0.3158888
6	0x3f1c7e50	0.6113024
7	0xbeb00202	-0.34376532
8	0xbe0d653c	-0.13808149
9	0xbed2f47b	-0.4120215
10	0xbe062ecd	-0.1310379
11	0x3e0908d9	0.13382281
12	0x3d9c7bde	0.07640813
13	0x3f0b5e69	0.54440933
14	0x3d54eb42	0.05198217
15	0xbe69f634	-0.22847825
16	0xbec4db61	-0.38448623
17	0xbe489030	-0.19586253
18	0xbdabddbd	-0.083919026
19	0x3da014c5	0.078164615
20	0x3f110a1b	0.56656045
21	0x3e44718f	0.19183944
22	0xbe9af739	-0.3026674
23	0xbf3a1b0f	-0.7269754
24	0x3ebb8569	0.3662522
25	0xbefd52df	-0.49477288
26	0x3ed169ad	0.40900937
27	0xbdaea014	-0.08526626
28	0x3dc257ce	0.09489404
29	0xbe3c53de	-0.18391368
30	0x3dc7b4d8	0.0975129
31	0x3e2868e1	0.16446258
32	0xbe5d1f7a	-0.21594039
33	0xbed0198c	-0.4064449
34	0x3de81058	0.11331242
35	0xbe3659a2	-0.1780763
36	0x3d70fcf5	0.05883499
37	0xbe94a66a	-0.29033214
38	0xbec35d77	-0.38157246
39	0xbecf058e	-0.40433925
40	0x3ed15ed8	0.40892673
41	0xbf2998e6	-0.6624893
42	0xbe3a4f82	-0.18194392
43	0xbdca4ce6	-0.098779485
44	0x3f231b4d	0.6371353
45	0x3eadc99c	0.33942878
46	0x3eab5cda	0.33469278
47	0x3e90827b	0.2822455

conv_bias_16d f4 [3]
0	0xbfbb9846	-1.4655845
1	0x3f9584ed	1.1681191
2	0xbf06fa9c	-0.5272615

conv_kernel_8d f4 [3, 8]
0	0xbf9d13fb	-1.2271723
1	0xbe8f6792	-0.28008705
2	0x3ef5ae61	0.47984603
3	0xbe6507d4	-0.22366267
4	0xbd1c650c	-0.038182303
5	0xbf5761cb	-0.84133595
6	0xbe5521f0	-0.20813727
7	0x3e99844c	0.29983747
8	0x3f2b7d81	0.6698838
9	0xbea52d7a	-0.32261258
10	0x3cbbf6c6	0.02294482
11	0x3e5398c9	0.20663752
12	0xbea97d61	-0.3310347
13	0x3ea90bb1	0.33016732
14	0x3e873d60	0.26414013
15	0xbe67f96a	-0.22653738
16	0x3f143d5c	0.57906127
17	0x3e856a5c	0.26057708
18	0xbd962ed6	-0.07333152
19	0xbe22a368	-0.15882647
20	0xbe8d17bd	-0.27557173
21	0x3eebedb3	0.46079788
22	0xbe2e9b11	-0.1705134
23	0xbf56e3bd	-0.8394125

conv_bias_8d f4 [3]
0	0xbe940f25	-0.28917804
1	0x3f5044a4	0.8135474
2	0x3e483a8f	0.19553588

widechannel_conv_kernel f4 [3, 3]
0	0xbe97d454	-0.2965418
1	0xbf13b2e6	-0.5769485
2	0xbf362227	-0.7114586
3	0xbf80d1a2	-1.0063975
4	0x3fb2415c	1.3926196
5	0xbea6a053	-0.32544193
6	0x3ff102f7	1.882903
7	0xbf37ddca	-0.718228
8	0x3ea75b99	0.3268707

widechannel_conv_bias f4 [3]
0	0x3f505817	0.81384414
1	0x3ef04f76	0.46935624
2	0x3ffb82d4	1.96493

midchannel_conv_kernel f4 [3, 3]
0	0x3fa8e70d	1.3195511
1	0x3e6d482d	0.23172064
2	0xbd2b525a	-0.041826583
3	0xbeaf6f65	-0.34264675
4	0xbf067183	-0.52516955
5	0x3fa2eb32	1.2728026
6	0xbea5b90d	-0.32367745
7	0xbf4687b9	-0.77550846
8	0xbcc78c16	-0.02435879

midchannel_conv_bias f4 [3]
0	0xbf715ab9	-0.94279057
1	0x3e3698e9	0.17831768
2	0xbd8bb983	-0.06822493

narrowchannel_conv_kernel f4 [3, 3]
0	0xbdfdc98a	-0.12391956
1	0x400efd35	2.2342045
2	0x3f6dc3b0	0.9287672
3	0x3fea4344	1.8301778
4	0x3fbe6904	1.4875798
5	0xbc71d0b1	-0.014759229
6	0xbef741b1	-0.48292306
7	0x3f753ddd	0.9579752
8	0xbe9ab3b8	-0.3021524

narrowchannel_conv_bias f4 [3]
0	0xbf9c4ad8	-1.221034
1	0xbf11c2e0	-0.5693798
2	0x3f5b7507	0.85725445

conv_kernels_64d.0 f4 [3, 64]
0	0x3e31b01e	0.1735234
1	0xbe854252	-0.2602716
2	0x3eafef6d	0.34362355
3	0x3de40f8d	0.111357786
4	0x3c0554d3	0.008137899
5	0x3e469a62	0.1939483
6	0xbe61bbf6	-0.22044358
7	0xbdeca9c9	-0.115558214
8	0xbe846b78	-0.25863242
9	0x3d07785e	0.033073775
10	0x3e078577	0.13234507
11	0x3bdaeb5b	0.0066808886
12	0x3db1acbf	0.08675527
13	0xbde7b0c5	-0.11313013
14	0xbdb1363e	-0.08652924
15	0x3e475a3e	0.19468018
16	0xbdaa57a9	-0.08317501
17	0x3e4470c3	0.1918364
18	0x3cb8435a	0.022493053
19	0xbddd7d9f	-0.10814976
20	0x3dcced0e	0.10006152
21	0x3db9d9ad	0.090747215
22	0xbd652638	-0.05594465
23	0xbde2bb04	-0.11070827
24	0xbcb0f17c	-0.021599524
25	0xbeb71cbe	-0.35764116
26	0x3df3cce2	0.11904313
27	0x3dfcc520	0.12342286
28	0x3e20330f	0.15644477
29	0xbdf42ee8	-0.11923009
30	0xbe187975	-0.14890082
31	0xbdeb9de5	-0.11504725
32	0xbddcb0db	-0.1077592
33	0x3e771b23	0.24131446
34	0x3e066c32	0.1312721
35	0x3cd3c731	0.025851818
36	0x3e50c899	0.20389022
37	0x3e76908b	0.24078576
38	0xbabf469c	-0.0014593187
39	0x3db08fb3	0.086211585
40	0x3eefb2d4	0.46816123
41	0x3df6ec35	0.12056772
42	0x3e0439c1	0.12912656
43	0xbc99e81d	-0.018787438
44	0x3e28efb5	0.16497691
45	0xbde63b73	-0.11241808
46	0x3cd8792f	0.026424972
47	0x3e87dae4	0.26534188
48	0xbcfd9bc4	-0.030958064
49	0x3e711070	0.23541427
50	0xbeb29d7d	-0.3488578
51	0x3c31f32c	0.010861199
52	0xbe553916	-0.20822558
53	0xbcb4e4c4	-0.02208174
54	0xbd5e72e7	-0.0543088
55	0xbc7002d8	-0.0146491155
56	0x3e5cebc2	0.2157431
57	0xbd87c2fa	-0.06628986
58	0x3e444a64	0.19169003
59	0xbcb134cf	-0.021631626
60	0xbe4c475a	-0.19949093
61	0x3e869993	0.26289043
62	0xbd0d1a7c	-0.034449086
63	0xbe6eb6b7	-0.23311888
64	0x3e2fa7c8	0.17153847
65	0xbe4580c5	-0.19287403
66	0xbe5f99b9	-0.21835984
67	0x3d446fb3	0.047958087
68	0x3d456464	0.048191443
69	0x3daf3809	0.0855561
70	0xbe82349f	-0.25430772
71	0xba306559	-0.0006728969
72	0x3ca3f859	0.020015882
73	0xbe8c8dff	-0.27452084
74	0x3e1edd95	0.15514214
75	0xbeb4e63e	-0.3533191
76	0xbf10275f	-0.56310076
77	0x3d887258	0.06662434
78	0xbd1a38e8	-0.037651926
79	0xbe1e622a	-0.15467134
80	0xbecec526	-0.40384787
81	0xbee0f93e	-0.43940157
82	0xbd984ded	-0.07436738
83	0x3df8221f	0.12115883
84	0xbbdd84a7	-0.006760198
85	0xbe5f6fdb	-0.21820013
86	0x3ec6c462	0.38821703
87	0x3c98cb8f	0.018651752
88	0x3df05451	0.11734832
89	0xbd2b41b3	-0.041810703
90	0x3b9a1fb3	0.004703486
91	0xbe1b08c6	-0.15140066
92	0xbd5aaf97	-0.05339011
93	0xbda4f702	-0.080549255
94	0x3e967629	0.29387024
95	0xbe4816ac	-0.19539899
96	0x3e90a64c	0.28251874
97	0x3d3513eb	0.04420845
98	0xbb063ffc	-0.0020484915
99	0x3d8c3784	0.06846526
100	0x3ea85f25	0.3288509
101	0xbe06c846	-0.13162336
102	0x3dbc3bce	0.09191094
103	0x3b956595	0.0045592287
104	0x3da6c70e	0.081434354
105	0x3e06b31a	0.1315426
106	0xbe02d151	-0.1277516
107	0xbe91ee65	-0.28502193
108	0x3e20aac0	0.15690136
109	0xbe3cda71	-0.18442704
110	0x3e6f88bb	0.23392002
111	0x3ecb1918	0.39667583
112	0xbd962d8e	-0.073329076
113	0xbd8784bd	-0.06617115
114	0x3e40106e	0.18756267
115	0x3e0a70b2	0.13519552
116	0x3e8415f4	0.25798
117	0x3c005a10	0.007833973
118	0xbdd7ebca	-0.1054302
119	0xbaea1644	-0.0017859419
120	0x3e770c00	0.24125671
121	0xbeaafc54	-0.33395636
122	0x3d1f9955	0.03896459
123	0x3e7250c9	0.2366363
124	0xbd81c952	-0.06337227
125	0x3e2b72c9	0.16743006
126	0x3cf219d1	0.029553326
127	0x3df190aa	0.117951706
128	0xbdd27f26	-0.10278158
129	0x3da919b8	0.082568586
130	0xbc6104de	-0.013734071
131	0xbc1a9535	-0.009434988
132	0x3dc75636	0.0973324
133	0xbd1d0122	-0.03833116
134	0x3e90f7c7	0.2831404
135	0xbe92d057	-0.28674576
136	0xbe2f374e	-0.17110941
137	0x3defd11e	0.11709808
138	0xbd61f125	-0.055161614
139	0x3e066764	0.13125378
140	0x3df828ea	0.12117179
141	0xbe84de5c	-0.25950897
142	0xbe3fbccf	-0.18724369
143	0xbea27382	-0.3172875
144	0x3e2d60da	0.16931477
145	0x3d408849	0.04700497
146	0x3d7e9b6d	0.062159944
147	0x3d17ba51	0.03704292
148	0x3e21efb1	0.15814091
149	0xbdf5b8f5	-0.119981684
150	0x3bebe358	0.0071987323
151	0xbd4b0464	-0.049564734
152	0xbe136d1a	-0.14397088
153	0xbd879ffa	-0.0662231
154	0xbd4ca019	-0.04995737
155	0xbd5b6041	-0.05355859
156	0xbe19e1c5	-0.1502753
157	0xbdd48e36	-0.10378687
158	0xbedaa633	-0.42704925
159	0xbdbda671	-0.09260262
160	0xbbd7b9de	-0.0065834364
161	0xbdfc63dc	-0.12323734
162	0xbdf9d105	-0.121980704
163	0x3e8fbf5d	0.28075686
164	0x3dd61bf6	0.10454552
165	0xbe2b9b19	-0.16758384
166	0xbcc3ae3a	-0.023886789
167	0xbe090882	-0.13382152
168	0xbe7b0354	-0.24512988
169	0xbdb5b649	-0.08872659
170	0x3de63563	0.112406515
171	0x3d93de91	0.072201855
172	0x3e8db3d9	0.27676275
173	0xbcea1903	-0.02857638
174	0xbdc49908	-0.09599501
175	0xbd0204b1	-0.031742755
176	0x3d96c810	0.07362378
177	0x3d30e984	0.043191448
178	0x3b65468e	0.003498468
179	0x3e515f2e	0.20446464
180	0xbdea08df	-0.11427473
181	0x3e86aff3	0.26306114
182	0xbcf6c075	-0.030121068
183	0xbcac0a37	-0.021000965
184	0xbde6b2ee	-0.11264597
185	0x3e1c439f	0.1526017
186	0x3c8bcf8d	0.017066741
187	0xbd7c3757	-0.061576214
188	0x3d932e64	0.07186583
189	0xbda4b62c	-0.08042559
190	0x3c0ec800	0.008714676
191	0xbdc36424	-0.09540585

conv_kernels_64d.1 f4 [3, 64]
0	0x3dcadba4	0.099051744
1	0xbe15a9da	-0.14615574
2	0x3ea04a4b	0.3130668
3	0x3e2967a2	0.16543439
4	0x3e4c054b	0.19923894
5	0xbd9cfa20	-0.07664895
6	0xbcffd487	-0.03122927
7	0xbcd20d92	-0.025641236
8	0xbe0f27a8	-0.13979971
9	0x3d7a378d	0.061088134
10	0xbe2f5e6f	-0.17125867
11	0x3d388858	0.045051903
12	0x3ed35eef	0.41283366
13	0xbb4dc80c	-0.0031399755
14	0xbe3647dd	-0.17800851
15	0x3de37af6	0.11107437
16	0x3ec1088e	0.3770184
17	0x3e2eafe4	0.17059284
18	0x3da31287	0.07962518
19	0x3e4ea708	0.20180905
20	0xbeaa0e96	-0.33214253
21	0xbd85d550	-0.06534827
22	0x3e029050	0.12750363
23	0xbeeb81c5	-0.45997444
24	0x3ef6351b	0.4808739
25	0xbd014da2	-0.031568177
26	0xbe4b5e97	-0.19860302
27	0xbdd1fbd4	-0.102531105
28	0x3de9be9b	0.11413308
29	0x3e72eca9	0.23723091
30	0x3ddb4e83	0.10708334
31	0xbda09307	-0.07840543
32	0x3e194677	0.14968286
33	0x3a921f12	0.0011148176
34	0xbdcfdf13	-0.1014997
35	0xbda88e12	-0.08230223
36	0xbe3ee159	-0.18640651
37	0xbe08d094	-0.13360816
38	0x3e3a11c7	0.18170844
39	0xbe83556e	-0.25651115
40	0xbde46127	-0.11151343
41	0xbca27ad2	-0.019833956
42	0xbea17308	-0.31533074
43	0x3debde84	0.11517051
44	0xbd2838ea	-0.041069902
45	0xbe579913	-0.21054487
46	0x3e2a254f	0.16615795
47	0x3ba6f3d3	0.005094984
48	0x3ea55bac	0.32296503
49	0x3e6dfb65	0.2324043
50	0xbe675a47	-0.22593032
51	0x3e4d653b	0.20058148
52	0x3d44cca5	0.048046727
53	0xbd2421a9	-0.040071163
54	0x3dd7a5c9	0.10529668
55	0xbea14cda	-0.31503946
56	0xbe3a5016	-0.18194613
57	0x3d1cf785	0.03832199
58	0xbd1ffbc2	-0.039058454
59	0xbc5bf9a5	-0.013426219
60	0xbd093941	-0.033501867
61	0x3e76cc0f	0.2410128
62	0xbe9c1de3	-0.30491552
63	0x3e888572	0.2666431
64	0xbcad778f	-0.021175174
65	0xbc87422a	-0.016511042
66	0xbe3af586	-0.18257722
67	0xbe907b54	-0.28219092
68	0x3ec1079a	0.37701112
69	0x3d3e4578	0.04645297
70	0x3e45c257	0.19312416
71	0x3d829078	0.063752115
72	0xbdcc03df	-0.09961676
73	0xbcda67d6	-0.026660841
74	0xbe3ef97c	-0.18649858
75	0x3dac3bf0	0.0840987
76	0xbd8d079d	-0.06886218
77	0xbdfab02d	-0.12240634
78	0x3df35f60	0.11883426
79	0xbe4796c8	-0.19491112
80	0x3d69237b	0.056918602
81	0xbdf78f2f	-0.12087857
82	0xbdf51b85	-0.119681396
83	0xbea014c1	-0.31265834
84	0x3e1824b5	0.14857753
85	0x3e2d1018	0.1690067
86	0x3ddeabf6	0.10872643
87	0xbdac6566	-0.08417778
88	0xbdaa6986	-0.08320908
89	0xbd8a82ca	-0.06763227
90	0x3e7a6b2b	0.24454944
91	0x3e214530	0.15749049
92	0x3e4786ca	0.19485012
93	0x3da0df52	0.07855095
94	0xbdce09a5	-0.10060433
95	0x3c49b1a2	0.012310417
96	0x3e37480e	0.1789858
97	0xbd4a0598	-0.04932174
98	0x3d70f5c2	0.058828123
99	0xbcce208b	-0.025162002
100	0xbd96f662	-0.073712125
101	0x3e22f56e	0.15913936
102	0xbdc994ca	-0.098428324
103	0x3d7b93ba	0.06142018
104	0xbe982702	-0.2971726
105	0xbc4b0453	-0.012391168
106	0x3d819b34	0.06328431
107	0xbe8ff95d	-0.28119937
108	0x3e404a9f	0.18778466
109	0xbd86c0fd	-0.06579778
110	0xbe006c19	-0.12541236
111	0xbdba5526	-0.09098272
112	0xbe340931	-0.17581631
113	0x3c9b3122	0.018944327
114	0x3c834439	0.016023742
115	0x3cda9d31	0.026686283
116	0xbd3fb716	-0.046805464
117	0x3ae97e7c	0.0017814185
118	0x3d6788fc	0.056527123
119	0xbe083c83	-0.13304333
120	0xbe071ca5	-0.13194521
121	0x3e531956	0.20615134
122	0x3e157118	0.14593923
123	0xbe08c765	-0.13357313
124	0xbe5cff68	-0.21581805
125	0x3cb63316	0.022241157
126	0xbd28e099	-0.041229818
127	0xbdf356d5	-0.11881796
128	0xbd6b7a2e	-0.057489567
129	0x3caa7abc	0.020810477
130	0xbe8aedea	-0.2713464
131	0x3e15453b	0.1457719
132	0x3dc07e24	0.093990594
133	0xbd9326a0	-0.071851015
134	0x3df5e7b0	0.120070815
135	0x3d79520a	0.060869254
136	0xbe49201b	-0.19641154
137	0xbe18be97	-0.14916454
138	0x3d23945b	0.039936405
139	0x3dc7cea4	0.097562104
140	0xbe9888c4	-0.29791844
141	0x3db51a01	0.088428505
142	0x3e89c265	0.26906124
143	0x3c9ecc4b	0.019384524
144	0x3e46bd09	0.19408049
145	0xbe4e542b	-0.20149295
146	0xbd8bc21c	-0.06824133
147	0xbe1c082f	-0.15237497
148	0xbe611842	-0.2198191
149	0x3def57ce	0.11686669
150	0x3dd71bfb	0.10503384
151	0x3c043892	0.008070128
152	0xbe9de96a	-0.30842143
153	0xbe50a1bc	-0.20374197
154	0x3e875eca	0.26439506
155	0xbe546f3d	-0.20745559
156	0x3da9541c	0.08267996
157	0x3d54c296	0.051943384
158	0xbd7bfea8	-0.061522156
159	0xbe8c2e9b	-0.27379307
160	0x3d9c6927	0.07637244
161	0xbd7a09a3	-0.061044347
162	0xbeba771c	-0.36418998
163	0xbe20a599	-0.1568817
164	0x3d0e9da9	0.034818325
165	0x3dc7dec9	0.0975929
166	0x3deb1952	0.11479439
167	0x3d82c0db	0.063844405
168	0xbe1ef40e	-0.15522787
169	0xbd3bc39d	-0.04584085
170	0x3dad8934	0.08473435
171	0xbe532847	-0.20620833
172	0xbe1a2024	-0.15051323
173	0xbe339e28	-0.175408
174	0x3e26ee27	0.16301785
175	0xbe48fa71	-0.19626786
176	0xbc00ac84	-0.007853631
177	0x3d57b59c	0.05266343
178	0x3e40b988	0.18820775
179	0xbd46d4d3	-0.04854281
180	0x3d2e04db	0.0424851
181	0x3bca91a4	0.0061819125
182	0x3e15cf05	0.14629753
183	0xbeebb5a3	-0.46037015
184	0xbe520984	-0.20511442
185	0x3e4048d5	0.18777783
186	0x3db4a1f7	0.08819955
187	0xbe203829	-0.15646423
188	0xbc53e2b2	-0.012932466
189	0x3da83971	0.08214081
190	0xbb3f582b	-0.002919684
191	0xbd69d927	-0.05709186

conv_kernels_64d.2 f4 [3, 64]
0	0xbe5dd2b7	-0.21662413
1	0xbd921808	-0.0713349
2	0x3b3d1d0b	0.0028856422
3	0x3d35bcc8	0.04436949
4	0x3de77687	0.11301904
5	0x3de616f4	0.11234847
6	0x3d170862	0.03687323
7	0xbcddbac8	-0.027066603
8	0xbe075505	-0.13216026
9	0xbd8b65b5	-0.068065085
10	0x3d20abc5	0.039226312
11	0x3df0bca0	0.11754727
12	0x3e91c089	0.28467205
13	0x3dfc5804	0.12321475
14	0xbe56bc1a	-0.20970193
15	0x3e097bb9	0.13426103
16	0x3e66446f	0.22487043
17	0x3cae7bde	0.021299299
18	0x3dcb3f57	0.099241905
19	0x3e92f1ee	0.28700203
20	0x3e830d7e	0.2559623
21	0xbe093aeb	-0.13401382
22	0xbe6d75a7	-0.23189412
23	0xbd16c705	-0.036810894
24	0xbc97c5bc	-0.018526904
25	0xbc8b2e0a	-0.016989727
26	0x3e26ee0f	0.1630175
27	0xbc80197a	-0.015637148
28	0xbec1ce28	-0.37852597
29	0x3e4f08a9	0.20218147
30	0x3cfcd578	0.030863509
31	0x3e54c0de	0.20776698
32	0x3ded7481	0.11594487
33	0x3e2b8123	0.1674848
34	0xbd42bb22	-0.047541745
35	0x3db47f02	0.08813287
36	0xbc519bce	-0.012793494
37	0x3db72d4e	0.08944188
38	0xbdcd4bb8	-0.10024208
39	0xbd6ed91d	-0.058312524
40	0xbd8cff42	-0.06884624
41	0x3e821c1b	0.25412068
42	0x3cdebe04	0.027190216
43	0x3e316ae8	0.17325938
44	0x3e5ef8f8	0.21774662
45	0x3d10e9bf	0.035379168
46	0x3eb5ea9a	0.3553055
47	0xbe93622e	-0.28785843
48	0xbe147381	-0.14497186
49	0x3e595f43	0.21227746
50	0xbbc09b32	-0.0058778757
51	0xbe2a19e6	-0.16611442
52	0xbe1b8677	-0.15188013
53	0x3cc3b97c	0.023892157
54	0x3da03f57	0.07824581
55	0x3e15c8a6	0.14627323
56	0xbcd48fa6	-0.025947403
57	0xbe6dc84e	-0.23220941
58	0xbd216ab9	-0.03940842
59	0x3e90cbb2	0.28280407
60	0xbe92b983	-0.2865716
61	0xbdd911bf	-0.10599088
62	0x3daca088	0.084290564
63	0xbd1e676c	-0.03867285
64	0xbec9d819	-0.39422682
65	0xbd286a81	-0.041117195
66	0xbdb6b1c1	-0.089206226
67	0x3e9a62be	0.3015346
68	0xbec4f2d1	-0.38466504
69	0x3d9b2726	0.07575826
70	0x3dd10cda	0.10207529
71	0x3dd6efc4	0.104949504
72	0xbe003490	-0.12520051
73	0x3da1a8af	0.07893502
74	0x3e8f942b	0.2804273
75	0x3c565269	0.013081172
76	0xbee5e307	-0.4489977
77	0x3c77e508	0.015130289
78	0xbdfc4ef2	-0.12319745
79	0xbd8a4cfe	-0.06752966
80	0xbe11ba0d	-0.14231129
81	0xbd834656	-0.064099
82	0x3ed1ded4	0.40990317
83	0xbb4d8497	-0.0031359547
84	0xbdf1422d	-0.117802
85	0xbca577e2	-0.020198766
86	0x3d6fea2f	0.058572944
87	0xbead29a4	-0.33820832
88	0x3c25943f	0.010106145
89	0x3dbad115	0.091219105
90	0x3db942bd	0.090459324
91	0xbbf3999c	-0.007434083
92	0xbc585130	-0.01320295
93	0xbea383f2	-0.31936604
94	0x3e127303	0.14301686
95	0xbe5a6ffb	-0.2133178
96	0xbd445940	-0.047936678
97	0xbdcc25be	-0.09968136
98	0xbe26887d	-0.16263004
99	0xbdc73bef	-0.09728228
100	0xbda683f8	-0.0813064
101	0xbd015b63	-0.031581294
102	0x3d76c780	0.06024885
103	0x3d3ef259	0.04661784
104	0xbe00a1e0	-0.1256175
105	0xbcd16f6d	-0.025565827
106	0xbeb38246	-0.35060328
107	0xbe862ba8	-0.26205182
108	0xbd1ff90f	-0.03905588
109	0x3d41d962	0.047326453
110	0x3e435936	0.19077
111	0xbb94147b	-0.004519043
112	0x3d2cdfca	0.04220561
113	0xbd64d287	-0.055864837
114	0xbe1fe705	-0.1561547
115	0x3dbcfe7d	0.09228227
116	0x3da850b7	0.0821852
117	0xbdd69e91	-0.10479463
118	0xbdec73ae	-0.11545502
119	0x3e3b22be	0.18274972
120	0x3da1dfbb	0.07904001
121	0x3e8e87da	0.27838022
122	0x3cc35b68	0.023847297
123	0xbea0e968	-0.31428075
124	0x3e2aa2ec	0.16663712
125	0xbd2859e8	-0.041101366
126	0xbce9e190	-0.02854994
127	0xbd595d20	-0.053067327
128	0x3d53e403	0.05173112
129	0xbdb86ae0	-0.0900476
130	0x3e741b63	0.23838572
131	0x3da87b42	0.082266346
132	0xbe4a7cb0	-0.19774127
133	0xbdaee510	-0.08539784
134	0x3e80b398	0.2513702
135	0xbe344f7c	-0.17608446
136	0x3c8a83ac	0.01690849
137	0x3de907c7	0.113784365
138	0x3e81efd3	0.25378284
139	0x3e273503	0.16328816
140	0x3e0502da	0.12989369
141	0xbc6b68b8	-0.014368229
142	0x3ea89e2b	0.32933173
143	0xbe0f3901	-0.13986589
144	0xbeaa511c	-0.33265007
145	0x3eb104b8	0.34573913
146	0xbda6308f	-0.081147306
147	0x3e111752	0.14169052
148	0xbdbfca43	-0.0936475
149	0xbdb53820	-0.088485956
150	0x3d034acd	0.032053757
151	0xbcf1ec18	-0.029531524
152	0x3db1c8b0	0.08680856
153	0xbd41f1e6	-0.047349833
154	0xbd3c10bc	-0.045914397
155	0x3ca53850	0.020168453
156	0x3dc76450	0.0973593
157	0xbda73071	-0.08163536
158	0x3e623e68	0.22094119
159	0x3e3e9ac8	0.18613732
160	0x3cd590b4	0.026069976
161	0xbc089b35	-0.0083377855
162	0xbe887d65	-0.26658168
163	0x3e38b16a	0.18036428
164	0x3e1c0525	0.15236337
165	0xbeade3db	-0.33962902
166	0xbd7d254c	-0.061803147
167	0xbe9bd2d7	-0.30434296
168	0x3d32bc44	0.043636575
169	0xbd5637db	-0.05229936
170	0xbd801497	-0.06253927
171	0x3e9c5091	0.30530217
172	0x3dc7703f	0.09738206
173	0xbe6d87a9	-0.23196281
174	0x3dde4db8	0.108546674
175	0x3d35b064	0.044357672
176	0x3e6000ce	0.21875307
177	0x3f1d7e3c	0.61520743
178	0x3cdc36f1	0.026881667
179	0x3e25675f	0.16152714
180	0x3e1bd530	0.15218043
181	0x3d369711	0.044577662
182	0x3e39841e	0.18116805
183	0xbe54d61d	-0.20784803
184	0xbdef14e4	-0.116739064
185	0xbdfcf124	-0.123506814
186	0xbdca3218	-0.09872836
187	0xbe7111b1	-0.23541905
188	0x3eacf59e	0.3378114
189	0xbd1862b1	-0.037203494
190	0xbc5d6600	-0.013513088
191	0x3db4dfe6	0.08831768

conv_kernels_64d.3 f4 [3, 64]
0	0xbea26afc	-0.31722248
1	0xbe7a03f4	-0.2441557
2	0x3d9d4020	0.076782465
3	0x3e293059	0.1652235
4	0x3d966945	0.07344297
5	0xbe207932	-0.15671232
6	0xbde49be5	-0.11162547
7	0xbe4eec76	-0.2020739
8	0xbe153929	-0.14572586
9	0xbdeadb16	-0.114675686
10	0x3dff1c9c	0.12456629
11	0xbeb7dc78	-0.35910392
12	0x3e81dd18	0.25363994
13	0x3e9baf36	0.30407113
14	0xbe112627	-0.1417471
15	0x3e6b8e26	0.23003444
16	0xbe921956	-0.28534955
17	0xba83a9fa	-0.0010045164
18	0x3e20ada8	0.15691245
19	0x3e58950e	0.2115061
20	0xbcf14067	-0.029449655
21	0xbef616a9	-0.48064163
22	0x3d9ab402	0.07553865
23	0xbb9ad4cf	-0.004725076
24	0xbd71608f	-0.058929976
25	0x3e7319e6	0.23740348
26	0xbe903f40	-0.28173256
27	0x3e501ca9	0.20323433
28	0x3dc6fbdb	0.09716006
29	0x3e002983	0.12515835
30	0xbdbd30c8	-0.0923782
31	0x3d9a7b25	0.07543019
32	0x3e281b50	0.16416669
33	0x3cfee23a	0.031113733
34	0x3c21bf0f	0.009872212
35	0x3ed84d61	0.42246535
36	0xbe116858	-0.1419996
37	0x3e67a7d1	0.2262261
38	0xbe2b504a	-0.16729847
39	0x3e293769	0.16525044
40	0xbe1dda92	-0.15415409
41	0x3e1cfcfe	0.15330884
42	0x3e599a1e	0.21250197
43	0x3ccd7bbf	0.02508342
44	0x3e1c2378	0.15247905
45	0x3ddc53af	0.10758149
46	0xbd3fbc7e	-0.04681062
47	0x3db7ac26	0.089683816
48	0x3dfca148	0.123354495
49	0x3d9dd97d	0.07707498
50	0x3ebfe577	0.37479755
51	0xbea2ba83	-0.31782922
52	0xbe466d11	-0.19377543
53	0xbce06464	-0.02739162
54	0xbda22303	-0.07916834
55	0x3da8c4f4	0.08240691
56	0xbe80417a	-0.25049955
57	0xbe00456a	-0.1252648
58	0xbd1341b2	-0.035951324
59	0x3dd0b942	0.10191585
60	0x3e6ac20f	0.2292559
61	0xbe6665ad	-0.22499724
62	0x3d595cca	0.053067006
63	0xbe946b9c	-0.2898835
64	0x3dbd6fbc	0.09249827
65	0xbe3db4c0	-0.18525982
66	0xbdb431ce	-0.08798562
67	0xbe31c0bf	-0.17358683
68	0xbe1e8631	-0.15480877
69	0x3cf459bf	0.02982795
70	0x3df9483a	0.12171979
71	0xbdb13e6a	-0.08654483
72	0x3e614fee	0.22003147
73	0xbe356118	-0.1771282
74	0x3e4e4109	0.20141996
75	0xbc3ca4ad	-0.011513871
76	0x3e6613e3	0.22468524
77	0x3e37b042	0.17938331
78	0x3d4ad8cc	0.04952316
79	0x3e7d216b	0.24719779
80	0xbd18c224	-0.037294522
81	0xbe83bdd8	-0.25730777
82	0xbe1af638	-0.15132987
83	0x3e802b88	0.25033212
84	0xbe05c0f9	-0.13061894
85	0x3d62e04f	0.0553897
86	0xbdaa969f	-0.0832951
87	0xbe2561d3	-0.16150598
88	0x3ca98fa0	0.020698369
89	0xbdefa8c7	-0.117021136
90	0xbe55e57e	-0.20888326
91	0x3e663e88	0.22484791
92	0xbe70afa3	-0.235045
93	0xbd5673b0	-0.052356422
94	0xbe3d7104	-0.18500143
95	0x3dee3260	0.11630702
96	0xbe51ea08	-0.20499432
97	0x3d3bf186	0.04588463
98	0x3dd9ea0a	0.106403425
99	0xbdbaa30b	-0.09113129
100	0x3df27f23	0.11840656
101	0x3dc20a5f	0.094746344
102	0x3e6140e1	0.21997406
103	0xbea203eb	-0.31643614
104	0x3c6764b4	0.014123131
105	0xbcf152d5	-0.029458443
106	0x3c3e885e	0.011629192
107	0xbead8e79	-0.3389776
108	0xbda84d1f	-0.08217835
109	0xbe4619bb	-0.19345753
110	0xbe54f486	-0.20796403
111	0x3e2ae07c	0.16687196
112	0xbdb50009	-0.08837897
113	0xbd714dc8	-0.05891207
114	0x3c9b2e27	0.018942906
115	0x3f0a1452	0.53937256
116	0x3daec257	0.08533161
117	0xbddc30d0	-0.10751498
118	0xbdac2a68	-0.08406526
119	0xbec68ebd	-0.38780776
120	0xbe672c9f	-0.22575615
121	0xbc8b0c76	-0.016973715
122	0x3e404ccc	0.18779296
123	0x3d3be3ca	0.045871533
124	0xbe21d972	-0.15805605
125	0xbde87b93	-0.11351695
126	0xbe83ea72	-0.25764805
127	0xbda9919c	-0.08279726
128	0xbeca45bc	-0.39506328
129	0xbe3b95fa	-0.1831893
130	0xbd52f94d	-0.051507283
131	0x3e1c7c59	0.1528181
132	0x3dd03af7	0.10167497
133	0x3e43dec7	0.19127952
134	0x3aaa0024	0.0012970013
135	0xbe97366d	-0.2953371
136	0xbe390cad	-0.18071242
137	0xbc6f90d1	-0.014621929
138	0xbe815c85	-0.252659
139	0x3d88a30a	0.06671722
140	0xbeb01b39	-0.3439577
141	0xbe1c9fdf	-0.15295361
142	0x3ceb6321	0.028733792
143	0x3e9bddfa	0.30442792
144	0x3ea6f502	0.326088
145	0xbe3ff91f	-0.18747376
146	0xbe82b07c	-0.25525272
147	0xbe2f4c67	-0.17118989
148	0x3da79728	0.08183128
149	0xbe3c17f2	-0.1836851
150	0xbd9bd8ff	-0.07609748
151	0xbdf4f744	-0.11961225
152	0x3dd8f942	0.10594417
153	0xbdee72b8	-0.116429746
154	0xbdacb170	-0.08432281
155	0x3df297f4	0.11845389
156	0x3e786b66	0.24259719
157	0xbdf790f4	-0.120881945
158	0x3e247540	0.16060352
159	0x3e85dcb9	0.2614496
160	0x3da892b7	0.08231109
161	0xbe812cc9	-0.2522948
162	0x3badd3c7	0.005304787
163	0xbe1df248	-0.15424454
164	0xbdacab30	-0.08431089
165	0x3df35e1f	0.118831865
166	0x3d8c14ce	0.06839906
167	0x3da8d6d4	0.082441
168	0xbe216c00	-0.15763855
169	0x3d65e60d	0.056127597
170	0x3e0add21	0.13560916
171	0xbc80ee19	-0.015738534
172	0x3dae1812	0.08500685
173	0x3e222e03	0.15837865
174	0xbe0a6097	-0.13513409
175	0x3e7ddbb3	0.2479084
176	0x3e4478b4	0.1918667
177	0xbe3ce65c	-0.1844725
178	0x3ddac0c5	0.10681299
179	0xbec2bd8d	-0.3803524
180	0x3be7aa7b	0.0070698834
181	0x3d4829b4	0.048867896
182	0xbe99ae30	-0.30015707
183	0x3e725fa8	0.23669302
184	0xbe9b5097	-0.30334923
185	0x3d660883	0.05616046
186	0xbca96937	-0.020680053
187	0x3e4216e1	0.1895404
188	0x3dfa567a	0.12223525
189	0x3e3d0de1	0.18462326
190	0xbe2f1423	-0.17097525
191	0x3cee8319	0.029115247

conv_kernels_64d.4 f4 [3, 64]
0	0xbe1434bd	-0.14473243
1	0x3e5214cf	0.2051575
2	0x3e0a4c9b	0.13505785
3	0xbcdaa0a9	-0.026687937
4	0x3b05fc72	0.0020444659
5	0xbea7e54b	-0.32792124
6	0xbe716e52	-0.2357724
7	0x3e1ffc48	0.15623581
8	0x3d980eb8	0.074246824
9	0x3e5e4ab5	0.21708186
10	0xbebabe21	-0.36473182
11	0xbe951790	-0.2911954
12	0x3e1feec0	0.1561842
13	0xbda68ebf	-0.081326954
14	0x3dc31f9d	0.09527514
15	0x3e484586	0.19557771
16	0xbddb235d	-0.107001044
17	0x3e30f984	0.17282683
18	0x3ec24f65	0.37951198
19	0xbe7658d9	-0.2405733
20	0xbe09330b	-0.13398378
21	0x3e4033cd	0.1876976
22	0x3d768c82	0.060192592
23	0x3db5a9ae	0.088702545
24	0xbe6283ea	-0.22120634
25	0x3e2f62aa	0.17127481
26	0xbdb1ece5	-0.08687762
27	0x3d88fc2a	0.066887215
28	0xbe1ec2bf	-0.15503977
29	0x3c4bda6e	0.012442214
30	0xbde51b1d	-0.11186812
31	0x3d18ca4a	0.037302293
32	0xbecf931d	-0.40541926
33	0xbc0ba91c	-0.008524206
34	0x3de11800	0.10990906
35	0x3d129fb0	0.03579682
36	0x3df4e05a	0.11956854
37	0xbde72e54	-0.11288133
38	0x3da7c683	0.0819216
39	0x3d438c60	0.047741294
40	0x3e83b5fe	0.25724787
41	0x3e41ce27	0.18926297
42	0xbe97d71c	-0.29656303
43	0x3db17e0f	0.08666622
44	0xbe344422	-0.17604116
45	0xbecae085	-0.3962442
46	0xbf027844	-0.5096476
47	0xbe8325c6	-0.25614756
48	0x3e9fcb6c	0.31209886
49	0xbe86edd5	-0.26353326
50	0xbda06181	-0.078310974
51	0xbd6a4007	-0.057189967
52	0x3d341b6a	0.043971457
53	0x3e0ada67	0.13559876
54	0xbe38d2ec	-0.1804921
55	0xbea1f8bd	-0.31635085
56	0x3e094a46	0.1340724
57	0x3d95355f	0.0728557
58	0xbe10b2aa	-0.14130655
59	0xbc539284	-0.01291335
60	0x3e331e74	0.17492086
61	0xbd56646a	-0.052341856
62	0xbda03913	-0.07823386
63	0x3db9b312	0.09067358
64	0xbbf46260	-0.0074580163
65	0xbe28d637	-0.16487966
66	0xbc6f4795	-0.014604469
67	0x3d5ad9b0	0.05343026
68	0xbd95a834	-0.07307473
69	0xbea91143	-0.33020982
70	0x3ea78d94	0.32725203
71	0x3ed5f973	0.41791877
72	0x3c6a5fa9	0.014305034
73	0xbd5f7b6c	-0.054561064
74	0x3d8724cd	0.06598816
75	0xbea44d9a	-0.32090455
76	0xbdaf82ac	-0.085698456
77	0xbcdc8ff5	-0.026924113
78	0x3e9fbb65	0.31197658
79	0xbe9f4dbb	-0.3111399
80	0xbe3fb8b3	-0.18722801
81	0xbd9aef04	-0.0756512
82	0xbe111ea4	-0.14171845
83	0x3bf47d75	0.0074612447
84	0xbe03b9ad	-0.12863798
85	0xbde33603	-0.11094286
86	0xbe088b21	-0.13334323
87	0xbdfac572	-0.12244691
88	0xbd9800f9	-0.074220605
89	0x3d287104	0.041123405
90	0xbd775673	-0.06038518
91	0x3da9f0a6	0.08297853
92	0xbe05f0c2	-0.13080123
93	0x3e47386e	0.1945512
94	0x3eb3aba0	0.35091877
95	0x3e843320	0.25820255
96	0xbdf182df	-0.1179254
97	0x3dc93ccd	0.0982605
98	0x3e58bcfe	0.21165845
99	0x3e5dc4a0	0.21657038
100	0x3d970382	0.07373716
101	0x3df0d0e6	0.11758594
102	0x3e90a934	0.28254092
103	0xbd2ccb20	-0.042185903
104	0xbe3c19c4	-0.18369204
105	0xbe80f4dd	-0.25186816
106	0xbe745e23	-0.23864035
107	0xbda9a3db	-0.08283206
108	0xbe6efae7	-0.23337899
109	0xbdd1b359	-0.10239286
110	0x3e1a57a0	0.15072489
111	0xbd6f968f	-0.058493193
112	0xbe4013a8	-0.18757498
113	0x3d54e828	0.051979214
114	0x3cf4e8e3	0.029896205
115	0xbc9b2290	-0.01893738
116	0xbd8c4f01	-0.06851006
117	0x3e4a1ca4	0.19737488
118	0x3e02d007	0.12774669
119	0x3e25e198	0.16199338
120	0x3da1be9f	0.07897686
121	0xbd01f47a	-0.03172729
122	0xbda4113c	-0.080111
123	0xbdb3319c	-0.087496966
124	0x3c878360	0.016542137
125	0x3e358b33	0.17728882
126	0xbcd40e92	-0.025885854
127	0xbc1f5b10	-0.009726301
128	0x3e22ebc2	0.15910247
129	0xbcaa6006	-0.02079774
130	0xbd422b79	-0.04740474
131	0xbe045210	-0.1292193
132	0x3c691642	0.014226498
133	0x3e2c4e61	0.16826774
134	0xbe37eaf6	-0.17960724
135	0x3ee7c0ba	0.45264226
136	0xbe04579e	-0.12924048
137	0xbe836119	-0.25660017
138	0x3e9b0946	0.30280513
139	0x3cd4f53f	0.025995849
140	0xbd03a649	-0.032141004
141	0xbebe8d03	-0.37216958
142	0x3e9779e1	0.29585174
143	0x3de848fd	0.113420464
144	0xbcaec179	-0.02133249
145	0x3e8efb6f	0.27926204
146	0x3e09f1b2	0.13471106
147	0xbe703a72	-0.23459795
148	0x3ccce0ee	0.025009599
149	0xbe877a69	-0.2646058
150	0x3dc88d44	0.09792569
151	0x3c510d9d	0.012759593
152	0xbc7a4808	-0.015275963
153	0xbc98533d	-0.018594379
154	0x3e83e6ec	0.25762117
155	0x3dd942f8	0.106084764
156	0x3e481d03	0.19542317
157	0x3ec3c881	0.3823891
158	0xbdd81d49	-0.10552461
159	0xbe133a5e	-0.14377734
160	0xbe69bd7f	-0.22826193
161	0x3dca22f1	0.09869946
162	0x3d3ed924	0.0465938
163	0xbeaeeb8b	-0.3416408
164	0x3d8d298e	0.068926916
165	0xbd58e87f	-0.0529561
166	0xbc5a5bad	-0.013327521
167	0xbe4959c3	-0.19663148
168	0x3e085e06	0.13317117
169	0x3e7afb06	0.2450982
170	0xbe0ed9b5	-0.13950236
171	0xbe771526	-0.24129161
172	0x3e07f6bd	0.13277717
173	0xbe64155f	-0.22273777
174	0xbe9f7b06	-0.31148547
175	0xbcdc55ed	-0.026896441
176	0x3e12962c	0.14315099
177	0xbe589249	-0.21149553
178	0x3e70ceaf	0.23516344
179	0x3e5fb0cd	0.21844788
180	0xbcfcb4a0	-0.030847847
181	0xbcadd321	-0.021218838
182	0x3e74b5bc	0.23897451
183	0x3e07a020	0.13244677
184	0x3d893472	0.06699456
185	0xbd86963d	-0.065716244
186	0xbc8d3364	-0.017236419
187	0x3efcfd72	0.49412113
188	0xbd364e4c	-0.044508263
189	0xbe3bcbd0	-0.18339467
190	0x3de311f9	0.110874124
191	0x3bb3790a	0.0054770755

conv_kernels_64d.5 f4 [3, 64]
0	0x3e884b7c	0.2662009
1	0xbe0a7446	-0.13520917
2	0xbd82bc69	-0.06383593
3	0x3dfb1328	0.12259513
4	0x3e438667	0.19094239
5	0x3da07536	0.07834856
6	0xbecf3807	-0.40472433
7	0xbe497a21	-0.19675495
8	0x3cd8c160	0.026459396
9	0xbe0a94ba	-0.13533297
10	0xbc8e1570	-0.017344207
11	0xbe198da1	-0.14995433
12	0xbd0a89e8	-0.033822924
13	0x3c8071a6	0.015679192
14	0x3e20567c	0.15657991
15	0x3e689f6f	0.22717069
16	0x3d662408	0.056186706
17	0xbe3e9935	-0.18613131
18	0xbd728a8b	-0.059214156
19	0xbe3fea20	-0.18741655
20	0xbd38c1e4	-0.045106784
21	0x3ec1363a	0.37736684
22	0x3eade057	0.3396022
23	0xbcb4e4f5	-0.022081831
24	0xbe278178	-0.16357982
25	0x3dc8631a	0.09784527
26	0x3d2203be	0.03955435
27	0x3de1f050	0.11032164
28	0xbe1ec38b	-0.15504281
29	0xbd35cbb9	-0.04438374
30	0xbd9279eb	-0.0715216
31	0x3de18c1e	0.11013053
32	0x3e12da10	0.14340997
33	0xbd714fa2	-0.058913834
34	0x3d504998	0.050851434
35	0x3df3bd28	0.11901313
36	0x3cb73826	0.02236564
37	0xbcda3981	-0.026638748
38	0x3cac3c7e	0.021024939
39	0xbe395ea1	-0.18102504
40	0x3e897bb2	0.26852185
41	0xbc1ed554	-0.009694416
42	0x3e1dedd0	0.1542275
43	0x3e0531c2	0.13007262
44	0xbed1166f	-0.40837428
45	0x3ea47c58	0.32126117
46	0xbc8a1713	-0.016856706
47	0x3dca652d	0.09882579
48	0xbd5adf20	-0.053435445
49	0xbd03ab91	-0.03214604
50	0x3cf8bfe0	0.03036493
51	0xbd500962	-0.0507902
52	0xbe3d6712	-0.1849635
53	0xbdfe121d	-0.124057986
54	0xbec588e0	-0.3858099
55	0x3e4933ca	0.19648662
56	0xbd986883	-0.07441809
57	0xbe6c0724	-0.23049599
58	0x3ed0d610	0.40788317
59	0x3c54b940	0.01298362
60	0xbdda9325	-0.10672597
61	0xbef0a742	-0.47002608
62	0xbe9c736c	-0.3055681
63	0xbe3fedef	-0.18743108
64	0x3e2f876a	0.171415
65	0x3da0c152	0.07849373
66	0xbe624785	-0.22097595
67	0x3da65405	0.08121494
68	0x3d1f4aee	0.038889818
69	0xbde07473	-0.10959711
70	0x3be4654a	0.0069700824
71	0x3d44efd0	0.048080266
72	0x3e3a1980	0.1817379
73	0xbe3f7997	-0.18698727
74	0xbeae87cd	-0.34087983
75	0xb8e74560	-0.000110278605
76	0x3e0ac5f3	0.13552074
77	0xbd6dd9a2	-0.05806888
78	0x3da0f78c	0.07859716
79	0xbec5648e	-0.3855328
80	0xbe01827d	-0.12647434
81	0xbe39e845	-0.1815501
82	0xbd1a8a92	-0.037729807
83	0x3e81f827	0.25384638
84	0x3e079e2f	0.13243936
85	0x3e528827	0.2055975
86	0x3e246ece	0.16057894
87	0xbe340fc4	-0.17584139
88	0x3e2daafc	0.16959757
89	0xbc166458	-0.009179197
90	0xbc60d3ae	-0.013722343
91	0x3c59f3d2	0.01330276
92	0x3d814ee7	0.063138776
93	0xbd52bc2d	-0.05144899
94	0xbe7dd08b	-0.24786584
95	0xbe258196	-0.16162714
96	0x3e242dce	0.16033098
97	0xbe5719f7	-0.21005999
98	0xbd196bb0	-0.037456214
99	0xbe87c210	-0.26515245
100	0xbe047d04	-0.12938315
101	0xbd56d5c3	-0.052449953
102	0x3ead7c0f	0.33883712
103	0x3df89387	0.121375136
104	0x3e177302	0.14789966
105	0x3d3180b0	0.043335617
106	0x3daf713f	0.08566522
107	0x3e84fe07	0.25975057
108	0xbdc65556	-0.09684245
109	0xbd2551a0	-0.040361047
110	0xbdfd5a63	-0.123707555
111	0x3ec0847e	0.37601084
112	0xbdea65cb	-0.11445197
113	0x3cc19f8a	0.023635644
114	0xbd44dd81	-0.048062805
115	0x3d8e9a73	0.069630526
116	0x3e0015e9	0.12508358
117	0xbe4cf99d	-0.20017095
118	0x3dc7ea88	0.0976153
119	0xbe724846	-0.23660383
120	0x3dd19a02	0.10234453
121	0x3cf41bfa	0.029798497
122	0xbe294346	-0.16529569
123	0x3ec2de3c	0.38060176
124	0x3e43915a	0.19098416
125	0x3e014b60	0.1262641
126	0xbd6bb742	-0.057547815
127	0xbe65be19	-0.22435798
128	0xbe353272	-0.17695025
129	0xbea581a6	-0.32325476
130	0xbe79b511	-0.24385478
131	0x3d80d8cf	0.06291353
132	0xbe3b3496	-0.18281779
133	0x3d3516f0	0.044211328
134	0x3e41d9b1	0.18930699
135	0x3ec7e77c	0.39043796
136	0x3d9743a8	0.07385951
137	0x3e0b8012	0.13623074
138	0xbd33b634	-0.043874934
139	0x3e086174	0.13318425
140	0xbdaec7e1	-0.085342176
141	0xbdd3cfca	-0.10342367
142	0xbeb49647	-0.35270903
143	0xbe414186	-0.18872651
144	0xbe0bfcdb	-0.13670675
145	0x3e447931	0.19186856
146	0x3d9dbfac	0.07702574
147	0xbe53b8bd	-0.20675941
148	0x3da9bb3e	0.08287667
149	0xbeb4c5cb	-0.35307154
150	0xbdb5ee53	-0.08883347
151	0xbe5c7c11	-0.21531703
152	0xbce144e8	-0.027498677
153	0xbdcf4ac1	-0.1012168
154	0x3e052752	0.13003281
155	0x3e155883	0.14584546
156	0x3da8fd8e	0.08251487
157	0x3e3ce6c6	0.18447408
158	0xbdd12c44	-0.10213521
159	0xbe008a8d	-0.12552853
160	0xbd36057b	-0.04443882
161	0xbe3e6c84	-0.18596083
162	0x3e63aeb9	0.2223462
163	0x3d3a584b	0.04549436
164	0xbdb7ccc7	-0.08974605
165	0xbdc17308	-0.094457686
166	0x3e0a4622	0.13503316
167	0x3ea00056	0.31250256
168	0x3d36bea7	0.044615414
169	0xbd5af73b	-0.053458434
170	0xbd7e3616	-0.0620633
171	0xbe6e42f3	-0.23267727
172	0xbe0799b5	-0.13242228
173	0x3dd942db	0.10608455
174	0x3de3b1e2	0.11117913
175	0x3e215ba6	0.15757617
176	0xbe1c5509	-0.15266813
177	0x3e926be0	0.28597927
178	0x3d54564e	0.05184012
179	0x3ebb5857	0.36590835
180	0xbe23b02c	-0.15985173
181	0xbdb2c966	-0.0872982
182	0x3d6c6369	0.057711992
183	0xbe9b483c	-0.30328548
184	0xbd06bfd1	-0.032897774
185	0x3d2a377f	0.04155683
186	0xbcae2668	-0.021258548
187	0xbe7762fb	-0.24158852
188	0xbe0ad27e	-0.13556859
189	0xbe833286	-0.25624484
190	0xbcd931b4	-0.026512958
191	0x3cb82e20	0.022482932

conv_kernels_64d.6 f4 [3, 64]
0	0xbe8e496d	-0.27790394
1	0xbcf7073c	-0.030154817
2	0xbd255014	-0.04035957
3	0xbe5e5bf6	-0.21714768
4	0x3d61b361	0.05510271
5	0x3e2eea2b	0.17081515
6	0x3d041bb8	0.032252997
7	0xbd3891b8	-0.045060843
8	0xbd2f6558	-0.04282126
9	0xbde1cb1a	-0.11025067
10	0xbe6ea257	-0.23304115
11	0x3d5c584e	0.05379515
12	0xbddc280f	-0.10749828
13	0x3d04ffd3	0.032470535
14	0xbd4a6405	-0.049411792
15	0x3e1d7cb9	0.15379609
16	0xbd9895af	-0.07450425
17	0x3d3d7839	0.04625723
18	0x3d363794	0.044486597
19	0x3ce48b89	0.027898567
20	0x3ddc3133	0.107515715
21	0x3c1f31fd	0.009716508
22	0xbe0b345e	-0.13594195
23	0xbe358dbd	-0.1772985
24	0x3eab983d	0.33514586
25	0x3d5fb22b	0.054613274
26	0x3e878cf0	0.26474714
27	0x3e908866	0.28229064
28	0xbe5822c5	-0.21107014
29	0xbe4b4729	-0.19851364
30	0x3dd06ed8	0.10177392
31	0xbc59a22a	-0.013283292
32	0xbce5d2cd	-0.02805462
33	0x3e622540	0.22084522
34	0x3ce32779	0.027728783
35	0xbe41b20e	-0.18915579
36	0xbde0c8d0	-0.10975802
37	0x3e8a7805	0.27044693
38	0x3e4961a6	0.19666156
39	0x3e2cb865	0.16867216
40	0x3d5b6fd1	0.053573433
41	0x3bcc0cd6	0.006227116
42	0xbe423a7f	-0.18967627
43	0x3ed35970	0.41279173
44	0xbdf40ecd	-0.119168855
45	0x3ec7cf00	0.39025116
46	0xbe041c7a	-0.12901488
47	0xbd39fa7f	-0.045404907
48	0x3dff196a	0.12456019
49	0xbdf69d27	-0.12041693
50	0xbe8df1e3	-0.27723607
51	0xbe5014c1	-0.20320417
52	0xbd4c1bcf	-0.049831208
53	0x3e511de9	0.20421566
54	0x3ed2e944	0.41193593
55	0xbe0b3a39	-0.13596429
56	0x3d0c0a68	0.03418961
57	0x3d59d88b	0.053185027
58	0xbe8782d5	-0.26467004
59	0xbd8ca8a0	-0.068681
60	0xbd7c9765	-0.06166782
61	0xbdeb7484	-0.11496833
62	0xbe4b5a43	-0.19858651
63	0x3ce7b376	0.028283816
64	0xbe747ec8	-0.23876488
65	0xbda8f640	-0.082500935
66	0xbe7f5afc	-0.24937052
67	0xbe37f4f5	-0.17964537
68	0x3d80eb2c	0.062948555
69	0x3e9e479d	0.30914012
70	0xbdc7bc3b	-0.09752699
71	0x3d584296	0.052797876
72	0x3d8abf00	0.067747116
73	0xbe053602	-0.13008884
74	0xbe7893a1	-0.24275066
75	0xbd54f069	-0.051987085
76	0x3dc88fd0	0.09793055
77	0x3ec7a63b	0.3899401
78	0x3eef85ec	0.46781862
79	0xbd32efdb	-0.043685775
80	0xbd337e0d	-0.043821383
81	0x3df72396	0.12067334
82	0xbe426577	-0.18984018
83	0x3de38147	0.11108642
84	0x3e85ba33	0.2611862
85	0x3e4ec57f	0.20192526
86	0x3d494a21	0.04914296
87	0x3e89da1a	0.2692421
88	0xbc890b1a	-0.016728926
89	0x3dd83610	0.105571866
90	0x3dc6e6fe	0.09712027
91	0x3de56a0b	0.11201867
92	0x3e0c9eaa	0.137324
93	0x3e6c21b1	0.23059727
94	0x3f0e3274	0.55545735
95	0x3cdfa30f	0.027299432
96	0x3cfe8a24	0.03107173
97	0xbe128290	-0.14307618
98	0x3d596aa3	0.053080212
99	0xbdfe4cd4	-0.124169976
100	0xbb15618e	-0.0022793743
101	0xbdd5289f	-0.104081385
102	0xbb55b1d7	-0.0032607222
103	0xbd25169a	-0.040304758
104	0x3e6a0e51	0.22857024
105	0x3e5327a1	0.20620586
106	0xbe77eddf	-0.24211834
107	0x3d615baf	0.055019077
108	0xbd19f2d1	-0.037585083
109	0xbe62cd0e	-0.22148535
110	0x3e112eef	0.1417806
111	0x3e83aa37	0.257158
112	0x3d804878	0.06263822
113	0x3e07bb9f	0.13255166
114	0x3d21833c	0.039431795
115	0x3dd0c981	0.10194684
116	0x3d83f90b	0.064439856
117	0x3db13017	0.086517505
118	0x3dc5e892	0.096635
119	0x3ead6e6a	0.33873302
120	0x3e15235b	0.14564268
121	0xbd5a52b2	-0.05330152
122	0x3eaccbb7	0.33749172
123	0x3ea08397	0.31350395
124	0xbea25086	-0.3170206
125	0xbd1ffbae	-0.03905838
126	0x3da1def7	0.07903855
127	0xbda8ea30	-0.08247793
128	0x3b7fd695	0.0039037813
129	0xbe44fce1	-0.1923709
130	0x3e043fc5	0.12914951
131	0x3d46090f	0.048348483
132	0xbdca0b63	-0.09865453
133	0xbba24dc0	-0.004953116
134	0x3e781fd9	0.24230899
135	0xbd683b4c	-0.056697175
136	0x3c9d1228	0.019173697
137	0xbdb03cb8	-0.08605331
138	0xbcc9331f	-0.02456051
139	0xbe92f0a6	-0.28699225
140	0x3e0dbaab	0.1384074
141	0x3dc69691	0.09696687
142	0xbdebc12d	-0.11511455
143	0x3de7fb78	0.11327261
144	0x3e8fc0f8	0.2807691
145	0x3d57e4b2	0.052708335
146	0x3dbd6ca1	0.09249235
147	0xbe5bee87	-0.2147771
148	0xbe217e63	-0.15770869
149	0xbd1dfbfe	-0.038570397
150	0x3a5be0b0	0.0008387668
151	0xbce41017	-0.027839703
152	0xbcf967c1	-0.030444982
153	0xbe449190	-0.19196153
154	0xbe661aab	-0.2247111
155	0xbe346862	-0.17617944
156	0xbd6c0d33	-0.057629775
157	0xbd414e2a	-0.047193684
158	0x3e9afc2a	0.3027051
159	0x3e10f044	0.14154154
160	0xbea07368	-0.31338048
161	0x3ebb6381	0.36599353
162	0xbcf40f69	-0.029792504
163	0xbc804c29	-0.015661316
164	0xbd79ddd8	-0.061002582
165	0xbe660174	-0.22461492
166	0x3e6a8ddd	0.22905679
167	0x3dbf3429	0.09336121
168	0x3e6618de	0.22470424
169	0x3e12a232	0.14319685
170	0xbe1dd203	-0.15412144
171	0xbc2d07f5	-0.010560979
172	0xbe01bbd1	-0.12669303
173	0x3c87c1af	0.016571848
174	0x3d1f9d94	0.038968638
175	0x3e260774	0.1621378
176	0x3ea66ae5	0.3250343
177	0xbe85d337	-0.26137707
178	0xbdbe6966	-0.09297447
179	0xbe01b862	-0.12667993
180	0xbe38fbf1	-0.18064858
181	0xbedb603f	-0.42846867
182	0x3b7129f4	0.0036798688
183	0xbd3b5ab7	-0.04574081
184	0x3db02d43	0.08602383
185	0xbdb5e6d6	-0.08881919
186	0x3dd2c8b9	0.10292191
187	0xbe0635e6	-0.13106498
188	0x3db06c31	0.08614386
189	0xbd8b8f7b	-0.06814476
190	0x3df11634	0.11771813
191	0xbe1bf99d	-0.15231939

conv_kernels_64d.7 f4 [3, 64]
0	0x3e208014	0.15673858
1	0x3e848e55	0.2588984
2	0xbe8b60c8	-0.27222276
3	0xbd58c47c	-0.052921757
4	0x3e784f88	0.24249089
5	0xbe549df8	-0.20763385
6	0x3e5565f7	0.20839678
7	0xbd618231	-0.0550558
8	0xbdb27991	-0.08714593
9	0xbea89cc9	-0.32932118
10	0xbea7848e	-0.3271832
11	0xbdf85c5f	-0.121269934
12	0xbdd4f95f	-0.10399126
13	0x3e9198eb	0.2843698
14	0x3da70343	0.08154919
15	0xbd6d6e67	-0.057966616
16	0x3d187732	0.03722305
17	0x3d1d212a	0.038361706
18	0xbdb6f8b1	-0.08934153
19	0x3e9a08fd	0.30084983
20	0xbea17515	-0.3153464
21	0xbe39eb90	-0.18156266
22	0x3b91f602	0.0044543752
23	0xbca42820	-0.020038664
24	0x3ec03cf9	0.37546518
25	0x3dbb4db6	0.091456816
26	0x3e05d2cf	0.13068698
27	0xbe48354c	-0.19551581
28	0xbd8c4c09	-0.0685044
29	0x3e0a055d	0.13478608
30	0x3dd602e9	0.10449774
31	0xbd8e5923	-0.06950595
32	0x3eb3ee73	0.3514286
33	0xbdeab6ed	-0.114606716
34	0x3cc44bf6	0.023962002
35	0x3e1ba8fb	0.1520118
36	0xbdc99063	-0.09841993
37	0x3e80198a	0.25019485
38	0xbe4dd531	-0.20100857
39	0x3c8845f0	0.016634911
40	0x3c6dc630	0.014512584
41	0x3a661e2c	0.00087782997
42	0x3eff6854	0.49884284
43	0x3dbef2f0	0.093236804
44	0xbd1258ff	-0.035729405
45	0xbe8fa34f	-0.28054282
46	0xbc4ccab4	-0.0124995
47	0x3cf690f7	0.030098421
48	0x3de7ff07	0.113279395
49	0x3d856809	0.06513984
50	0xbe069b6a	-0.13145223
51	0xbd84140e	-0.06449138
52	0x3dcd9292	0.10037722
53	0xbe1a9048	-0.15094101
54	0x3e6ca076	0.23108086
55	0x3da3b741	0.07993937
56	0x3eaff40c	0.3436588
57	0xbe8d42fd	-0.2759017
58	0xbe0a3d7b	-0.13500015
59	0xbd6ae4bb	-0.05734704
60	0xbc3c9582	-0.011510255
61	0x3d70540c	0.058673903
62	0x3e10a25e	0.14124438
63	0x3e8aa5d9	0.27079657
64	0xbe784b8a	-0.24247566
65	0x3ef681ac	0.48145807
66	0xbe2eeeec	-0.17083329
67	0x3bf3403e	0.0074234297
68	0x3dd93b19	0.10606975
69	0xbd94ec26	-0.07271604
70	0xbc8e8ed0	-0.017402083
71	0x3ddf8155	0.1091334
72	0x3c7a0faa	0.015262524
73	0x3d8178af	0.06321847
74	0x3e3cbe5f	0.18431996
75	0x3e0bdaba	0.13657656
76	0x3d31090a	0.04322151
77	0xbd20d52c	-0.039265797
78	0x3e049efc	0.12951273
79	0xbd506ec5	-0.050886888
80	0x3e9100bd	0.28320876
81	0x3ea632ed	0.32460728
82	0x3c3213cb	0.010868977
83	0x3e265c4c	0.16246146
84	0xbe546ab0	-0.20743823
85	0xbe01ca1a	-0.12674752
86	0xbe7f9d9c	-0.24962467
87	0x3ca32494	0.019914903
88	0xbd454b0f	-0.048167285
89	0x3be0b800	0.006857872
90	0x3e726a4b	0.2367336
91	0xbd8f7b95	-0.07005993
92	0x3c9a86c8	0.018863097
93	0x3d862ff7	0.06552117
94	0x3ea94057	0.330569
95	0x3ccfaf34	0.025352098
96	0xbdf3bddc	-0.11901447
97	0xbe5e1447	-0.21687423
98	0x3de1ec6b	0.11031421
99	0x3df5d7cd	0.12004051
100	0x3d93e4f3	0.07221403
101	0x3da2945c	0.079384536
102	0x3e2d05ea	0.16896787
103	0x3e32c4af	0.17457841
104	0x3d9af53f	0.07566308
105	0xbde90920	-0.113786936
106	0x3e096933	0.13419037
107	0x3df9671b	0.12177869
108	0x3d6a5ff6	0.05722042
109	0xbd206a10	-0.03916365
110	0x3c96ab07	0.018392099
111	0xbea5c618	-0.32377696
112	0x3dff2bed	0.1245955
113	0xbe413197	-0.18866573
114	0x3dd9305a	0.106049255
115	0xbe918b5e	-0.2842664
116	0x3cce1b5e	0.025159534
117	0xbe164fd3	-0.14678888
118	0xbca05ae2	-0.019574586
119	0xbcbe1639	-0.023203956
120	0xbd69eebe	-0.057112448
121	0x3bfa1de8	0.0076329596
122	0x3e457bf1	0.19285561
123	0xbd1c516e	-0.038163595
124	0xbdb9dc36	-0.09075205
125	0xbe848f44	-0.25890553
126	0xbdda3b97	-0.10655897
127	0xbe1dc272	-0.15406206
128	0xbefd0379	-0.49416712
129	0xbe3c6562	-0.1839805
130	0xbe058daa	-0.13042322
131	0x3c701051	0.014652328
132	0xbcb6fddc	-0.022337846
133	0x3ecec21e	0.40382475
134	0xbdf0aa9d	-0.11751292
135	0xbe819abe	-0.2531337
136	0x3ccc1f79	0.024917351
137	0xbeb3b10c	-0.35096014
138	0x3cd91d19	0.026503133
139	0xba7f74b8	-0.00097448705
140	0x3d8da78e	0.06916724
141	0xbc3a52b2	-0.011372255
142	0x3db53697	0.08848303
143	0xbe65b07b	-0.22430603
144	0xbdb8e150	-0.0902735
145	0xbe0b5b85	-0.1360913
146	0xbe138510	-0.14406228
147	0xbc22ab92	-0.009928601
148	0x3c3f9feb	0.011695842
149	0x3d028f0f	0.031874713
150	0x3e5fdd6a	0.21861807
151	0xbc8ab652	-0.01693264
152	0xbdc613e9	-0.09671766
153	0x3c998ad7	0.018742962
154	0xbd219cf6	-0.03945633
155	0xbea57314	-0.3231436
156	0x3daeef27	0.085417084
157	0xbe8a7f8a	-0.2705043
158	0x3c514e62	0.012775036
159	0x3bd9950e	0.006640083
160	0x3e559527	0.20857678
161	0xbd4458bb	-0.047936182
162	0x3e028e59	0.12749614
163	0xbd40fb6e	-0.047114782
164	0xbe4815a3	-0.19539504
165	0x3de6c540	0.11268091
166	0xbe2c1f1a	-0.1680874
167	0x3e7c4ce8	0.24638712
168	0xbd0cb723	-0.03435434
169	0x3e213154	0.15741473
170	0x3e310040	0.17285252
171	0x3e51fec7	0.20507346
172	0xbe06c063	-0.13159327
173	0x3e1bff18	0.1523403
174	0x3c19eb92	0.009394543
175	0xbdaf85dc	-0.085704535
176	0xbd8a73c0	-0.06760359
177	0x3dfce517	0.12348383
178	0xbe9ee589	-0.31034496
179	0x3dce84d9	0.100839324
180	0xbd3828f4	-0.04496093
181	0x3e9003f6	0.28128022
182	0x3cc16a55	0.023610273
183	0xbe371149	-0.17877688
184	0xbea17ab3	-0.31538925
185	0xbe2a4992	-0.16629627
186	0xbe3f44e5	-0.18678625
187	0x3dc8a42f	0.097969405
188	0x3d3edc0b	0.046596568
189	0x3e081e0f	0.13292716
190	0x3cfc52c7	0.03080119
191	0x3e019601	0.12654878

conv_biases_64d.0 f4 [3]
0	0x400619c7	2.0953233
1	0xbf03d873	-0.5150215
2	0x3f0aab34	0.54167485

conv_biases_64d.1 f4 [3]
0	0x3eac2834	0.33624423
1	0x3e6184f0	0.22023368
2	0xbf226ceb	-0.63447446

conv_biases_64d.2 f4 [3]
0	0xbf4aa0a7	-0.79151386
1	0xbe113d72	-0.14183596
2	0x3f895731	1.0729734

conv_biases_64d.3 f4 [3]
0	0x3e3b0993	0.18265371
1	0xbeb6f3ef	-0.35732982
2	0xbf70f342	-0.9412118

conv_biases_64d.4 f4 [3]
0	0xbf1c26e5	-0.6099685
1	0xbe2ec0f0	-0.17065787
2	0xbf3f657a	-0.74764216

conv_biases_64d.5 f4 [3]
0	0x3ff27f56	1.894511
1	0xbe9717c4	-0.2951032
2	0xbf514136	-0.8174013

conv_biases_64d.6 f4 [3]
0	0xbddd21d4	-0.10797468
1	0xbf869cd5	-1.0516611
2	0x3f875789	1.0573589

conv_biases_64d.7 f4 [3]
0	0xbd3ee08e	-0.04660087
1	0xbdd2b8e8	-0.10289174
2	0x3f0280e3	0.50977916
