state_dicts/model20240104-204218.pt (torch, 39255 bytes, 6 tensors)

layerone.weight f4 [64, 128]
0	0x3db7d7bd	0.08976696
1	0x3dc0eb31	0.09419859
2	0xbd35773c	-0.044303164
3	0x3d42aac4	0.047526136
4	0x3c329012	0.010898607
5	0x3c07dc7d	0.008292315
6	0xbd8d0644	-0.06885961
7	0x3dae05bc	0.084971875
8	0xbd657f76	-0.05602976
9	0x3dac7646	0.08420996
10	0xbda54764	-0.08070257
11	0x3da1b60d	0.078960516
12	0x3dc22329	0.094793625
13	0x3d34ea60	0.04416883
14	0x3d0543b0	0.032535255
15	0x3d91d1a5	0.07120065
16	0xbd086bad	-0.033305813
17	0x3dab2845	0.0835729
18	0x3ca84041	0.020538451
19	0x3d6b6039	0.057464812
20	0x3a65b604	0.0008762779
21	0xbd907077	-0.07052701
22	0x3d80e01a	0.06292744
23	0x3d4c6bb1	0.04990739
24	0x3d508fa0	0.05091822
25	0xbc6919e7	-0.014227367
26	0xbd6edb1b	-0.058314424
27	0x3d145bb7	0.03622028
28	0xbd5a1383	-0.053241264
29	0x3d3e81b7	0.046510424
30	0xbcfcec06	-0.030874263
31	0x3d8a06bf	0.06739568
32	0x3cd0d2ac	0.025491081
33	0xbd7705c5	-0.060308237
34	0x3d31b8c6	0.043389104
35	0x3dbb73d4	0.09152952
36	0xbd5e560e	-0.054281287
37	0xbd7519ab	-0.059838932
38	0x3d962661	0.07331539
39	0x3d80def9	0.06292529
40	0xbd380ff9	-0.044937108
41	0x3d91bd6c	0.071162075
42	0x3cfe0594	0.03100852
43	0xbd1d64f0	-0.03842634
44	0x3bce96bd	0.0063045905
45	0xbd657187	-0.05601647
46	0x3d99b843	0.07505848
47	0x3c08ee1a	0.008357549
48	0x3d391c9e	0.045193307
49	0xbcc8c5bd	-0.024508351
50	0x3ba5afe6	0.005056369
51	0x3c7a6890	0.015283719
52	0x3da6b01f	0.08139061
53	0xbd92e9c4	-0.071734935
54	0xbd095f07	-0.03353789
55	0x3d844e21	0.064602144
56	0xbda3ea7c	-0.08003709
57	0xbd13ed68	-0.03611508
58	0x3d80bd28	0.06286079
59	0x3db84882	0.08998205
60	0xbd98ffe9	-0.07470686
61	0xbd7ae730	-0.061255634
62	0x3d69e5fd	0.0571041
63	0x3d9f7f51	0.077879556
64	0x3d5509fc	0.052011475
65	0xbd9a1fac	-0.07525572
66	0xbd063391	-0.03276402
67	0x3d1f3cfc	0.03887652
68	0xbc135acc	-0.008993816
69	0xbd899c43	-0.06719258
70	0x3d8b2a5d	0.067951895
71	0x3d8a4f0e	0.0675336
72	0xbd9eb8ab	-0.07750066
73	0xbd83896f	-0.06422698
74	0x3c70f4f0	0.014706835
75	0x3db8db12	0.09026159
76	0x3d84a2c6	0.06476359
77	0x3caf59ce	0.021405127
78	0x3d2aaf9c	0.04167138
79	0xbd3e327f	-0.046434876
80	0x3d0d958a	0.03456644
81	0xbd7e3df2	-0.062070794
82	0xbb723582	-0.0036958163
83	0x3ca5a518	0.020220324
84	0xbd1692f9	-0.036761258
85	0x3ce876ca	0.028376956
86	0xbd821c03	-0.06352999
87	0xbd7c9cd2	-0.061672993
88	0x3d47e2b1	0.048800174
89	0xbc1d42ca	-0.009598443
90	0xbc94e9cd	-0.018177891
91	0x3d4a2654	0.04935296
92	0xbd95a543	-0.07306912
93	0x3b07909a	0.0020685554
94	0x3d2ca735	0.04215165
95	0x3caf9d5a	0.021437336
96	0xbd2d4613	-0.042303156
97	0xbd352b49	-0.044230733
98	0x3a5fe60c	0.00085410546
99	0xbd00fd4f	-0.031491574
100	0x3d41a24c	0.04727392
101	0xbd832c40	-0.064049244
102	0x3dbd3882	0.09239294
103	0xbb4fb51f	-0.003169365
104	0xbd915a4a	-0.070972994
105	0x3d0ad197	0.033891287
106	0x3d231e73	0.03982396
107	0xbd5fea9f	-0.05466711
108	0x3c80bdec	0.015715562
109	0x3da28049	0.07934625
110	0x36b34600	5.342765e-06
111	0x3ce6cfac	0.028175198
112	0x3cd79e2c	0.02632054
113	0x3db4299c	0.08796999
114	0x3d973aff	0.073842995
115	0xbd85b526	-0.06528692
116	0x3daf7c61	0.08568645
117	0x3cdf278f	0.027240543
118	0x3c535f49	0.012901136
119	0x3cdd0c7c	0.026983492
120	0x3d5e1c46	0.054226182
121	0x3d4effbd	0.05053686
122	0xbd93a75c	-0.07209656
123	0x3dbe5727	0.09293967
124	0xbceea49d	-0.029131228
125	0xbd1f81cf	-0.038942154
126	0xbd9a8d28	-0.07546455
127	0xbc582f40	-0.013194859
128	0x3d65b34a	0.056079186
129	0x3d156b56	0.036479317
130	0xbc166827	-0.009180105
131	0x3dbd53e1	0.09244514
132	0x3c853358	0.016259834
133	0x3d82417a	0.06360145
134	0x3cafc357	0.02145545
135	0x3ccfdaee	0.025372948
136	0xbd159993	-0.036523413
137	0xbd2aa722	-0.041663297
138	0x3dc0ac94	0.09407917
139	0xbc3a0832	-0.011354493
140	0x3daddce3	0.084893964
141	0x3cf36654	0.02971188
142	0xbd9c4b37	-0.076315336
143	0xbd938458	-0.07202977
144	0x3d981d45	0.07427458
145	0x3d8178e1	0.06321884
146	0x3db3a9b8	0.08772606
147	0x3d8f44b3	0.06995525
148	0xbcf15a1a	-0.02946191
149	0xbd6bdfb8	-0.0575864
150	0xbca1a27b	-0.019730797
151	0x3d95ce7a	0.07314773
152	0x3da56718	0.08076304
153	0x3d839e42	0.0642667
154	0xbd8293c2	-0.06375839
155	0xbb851885	-0.004061761
156	0xbd9ff349	-0.07810075
157	0x3c4f4ca6	0.012652552
158	0x3d9bd487	0.07608896
159	0x3d899da0	0.06719518
160	0xbc8ae2b8	-0.016953811
161	0x3d271fa1	0.040801648
162	0x3d759346	0.059954904
163	0x3db8e5f6	0.090282366
164	0x3c33fa9b	0.010985042
165	0x3c60ebb8	0.013728075
166	0x3ce313da	0.027719427
167	0xbda36e80	-0.079800606
168	0x3cdcf976	0.026974421
169	0xbd277b4f	-0.04088908
170	0x3cb9bf3d	0.022674197
171	0x3908f790	0.00013062195
172	0xbd999b0c	-0.07500276
173	0xbc99d57f	-0.01877856
174	0x3db60cd4	0.088891655
175	0xbd9482c8	-0.07251507
176	0xbd0450a6	-0.032303475
177	0xbcf89cad	-0.030348146
178	0x3d3dcaa5	0.046335835
179	0xbd8711df	-0.065952055
180	0xbd938bc3	-0.07204392
181	0xbc81d431	-0.015848251
182	0x3c0940a4	0.008377228
183	0x3d88fecd	0.066892244
184	0x3db8d547	0.090250544
185	0x3b169970	0.002297964
186	0xbc4b3ba4	-0.012404356
187	0xbafcad56	-0.0019277732
188	0x3b8e67c0	0.004345864
189	0xbd472cf1	-0.048626844
190	0x3da78e21	0.08181406
191	0x3b4faa24	0.0031687105
192	0x3d7bbe0b	0.061460536
193	0xbc278211	-0.010223881
194	0xbd745581	-0.059651855
195	0x3d313680	0.043264866
196	0x3d9cba8a	0.07652767
197	0xbd7dc8a6	-0.06195893
198	0x3c80f0c0	0.015739799
199	0xbbc7e280	-0.006099999
200	0x3d49123c	0.049089655
201	0xbd797151	-0.060899083
202	0x3d8e5d1a	0.069513515
203	0x3a16a620	0.00057468005
204	0x3d68952b	0.056782883
205	0x3dc3d033	0.09561195
206	0x3d5f7b34	0.054560855
207	0xbc82a245	-0.015946517
208	0x3d29b164	0.04142894
209	0x3d28f49f	0.041248914
210	0xbd019008	-0.0316315
211	0x3dc122b5	0.09430448
212	0xbd0dc5eb	-0.034612577
213	0x3da984a2	0.08277251
214	0x3d5add31	0.0534336
215	0x3d2ff2a2	0.042956002
216	0x3d8b179a	0.06791611
217	0xbd74af2e	-0.059737377
218	0x3da82be2	0.08211495
219	0xbc1e0db4	-0.009646822
220	0x3d41fc17	0.047359552
221	0x3d88439f	0.06653523
222	0xbd32e0d4	-0.043671444
223	0xbb78f789	-0.003798934
224	0xbc42ab93	-0.011881727
225	0x3da54b87	0.08071046
226	0x3cf1dcf2	0.0295243
227	0xbcc94531	-0.024569126
228	0x3d79db47	0.061000135
229	0xbd534b9a	-0.05158577
230	0x3c9ae388	0.018907323
231	0xbd8f03d1	-0.0698315
232	0x3ccbf773	0.024898266
233	0xbd3daee8	-0.04630938
234	0xbd71cb72	-0.05903191
235	0x3d7aac4c	0.06119947
236	0xbd5acbd8	-0.053417057
237	0x3d9ee7a7	0.07759028
238	0xba5b07a8	-0.0008355328
239	0xbccb6d17	-0.024832292
240	0xbd593b0b	-0.053034823
241	0x3dbfabb5	0.093589224
242	0x3da6a442	0.081367984
243	0xbd508e32	-0.050916858
244	0x3d538589	0.05164102
245	0xbd3bec76	-0.045879804
246	0xbd4887cb	-0.048957627
247	0x3d2b5c6b	0.041836184
248	0xbce74b99	-0.02823429
249	0x3d10d11d	0.035355676
250	0x3db503cd	0.088386156
251	0xbd8fa316	-0.07013528
252	0xbcd75298	-0.026284501
253	0x3d191b43	0.037379514
254	0x3c7037c9	0.014661738
255	0x3c0aa2a0	0.008461624

layerone.bias f4 [64]
0	0xbce16334	-0.027513124
1	0xbd1eae99	-0.038740728
2	0x3dbd42d8	0.09241265
3	0xbda105b4	-0.07862416
4	0x3d22247f	0.039585587
5	0xbd793b12	-0.06084735
6	0xbd0e34e2	-0.0347184
7	0xbd0753fd	-0.03303908
8	0xbb5bf84c	-0.0033564745
9	0xbcdc8b6f	-0.026921956
10	0x3a440f94	0.0007479128
11	0x3b8d7dd4	0.0043179784
12	0xbd7d281f	-0.06180584
13	0xbd2fbc0d	-0.04290395
14	0xbdc38550	-0.09546912
15	0x3cee89fd	0.029118532
16	0xbd8269b4	-0.063678175
17	0xbd898a4d	-0.06715832
18	0xbbd8bb56	-0.006614129
19	0x3d8d4660	0.068981886
20	0xbaa60de6	-0.0012668937
21	0xbc855afa	-0.016278733
22	0x3d56056b	0.05225126
23	0xbd824958	-0.063616455
24	0x3d956851	0.072952874
25	0x3c58fc20	0.013243705
26	0x3cbeb745	0.02328075
27	0xbcdb0395	-0.026735106
28	0xbd84ffd2	-0.06494106
29	0xbd36d099	-0.044632528
30	0x3c9b0b83	0.018926388
31	0xbdb5721e	-0.08859657
32	0xbcfc2f17	-0.030784173
33	0x3dbe8f92	0.093047276
34	0x3ca36441	0.019945266
35	0x3c39d6ec	0.011342745
36	0xbcbb1052	-0.02283493
37	0xbd0b1626	-0.03395667
38	0xbc30eda5	-0.010798846
39	0x3d89d8ac	0.0673078
40	0xbc98cc84	-0.018652208
41	0x3d543259	0.051805828
42	0xbd1994cb	-0.037495416
43	0x3cc5d88a	0.024151105
44	0x3db8928a	0.09012325
45	0xbcab0a89	-0.020879047
46	0x3dbb48fc	0.0914478
47	0x3d3f2870	0.046669424
48	0x3c066eb7	0.008205107
49	0x3da71975	0.081591524
50	0x3da4fc9c	0.08055994
51	0x3dbc31d7	0.09189194
52	0x3d6fda6e	0.05855792
53	0xbd08c109	-0.033387218
54	0xbd079bc1	-0.033107523
55	0xbcfa6349	-0.030564921
56	0x3d89855b	0.06714889
57	0x3cbde0a1	0.0231784
58	0x3d96225a	0.07330771
59	0x3b70670d	0.0036682517
60	0xbd452454	-0.04813035
61	0xbd42e026	-0.047577046
62	0x3d983c82	0.07433416
63	0x3dbe1920	0.09282136

layertwo.weight f4 [16, 64]
0	0xbdabeb8f	-0.083945386
1	0x3db85afe	0.090017304
2	0x3df3a2cf	0.11896288
3	0xbdcc4afb	-0.09975239
4	0x3d65db18	0.056117147
5	0xbc73b2c5	-0.014874165
6	0xbbcd621a	-0.006267798
7	0xbdce9ddb	-0.10088702
8	0xbd4302be	-0.047610037
9	0x3defa674	0.1170167
10	0xbde136aa	-0.109967545
11	0xbd9e8968	-0.07741052
12	0x3b42d284	0.0029727528
13	0x3ccc99d3	0.024975693
14	0xbd9daa85	-0.0769854
15	0xbd9ab1d2	-0.07553448
16	0x3e082905	0.13296898
17	0x3d1780b7	0.036987986
18	0x3d4b9a22	0.04970754
19	0xbdc833c4	-0.097754985
20	0x3cfdc9a5	0.03097994
21	0xba886e5e	-0.0010408869
22	0xbdd2c063	-0.10290601
23	0x3da20512	0.07911123
24	0x3d0ebc11	0.034847323
25	0x3d25fb14	0.04052265
26	0xbd86e5ae	-0.06586777
27	0x3c856d6d	0.01628753
28	0x3d47679f	0.048682805
29	0xbd754f6f	-0.059890207
30	0x3d19216a	0.03738538
31	0xbddecab5	-0.10878507
32	0x3dd50f11	0.10403264
33	0xbdcbff20	-0.099607706
34	0x3c124d72	0.008929597
35	0xbcac2550	-0.021013886
36	0xbd931e5a	-0.071835235
37	0xbca2ec64	-0.01988811
38	0x3cf68893	0.03009442
39	0x3dbf6a7a	0.09346481
40	0x3ce7bf3e	0.028289434
41	0x3dc6ab07	0.097005896
42	0xbdb665fc	-0.08906171
43	0xbdd4fb90	-0.10399544
44	0x3d6a1dcd	0.057157326
45	0xbdd25e45	-0.10271887
46	0xbbbf2302	-0.0058330307
47	0x3da654f7	0.081216745
48	0xbcff15af	-0.03113827
49	0x3dcfc86f	0.101456515
50	0xbdd2230b	-0.1026059
51	0x3d801d6b	0.06255611
52	0x3c9560d8	0.018234655
53	0x3c6d53c6	0.014485305
54	0x3d8bd611	0.06827939
55	0xbd846a87	-0.06465631
56	0xbd0b162b	-0.033956688
57	0xbd24112e	-0.040055446
58	0x3dd94752	0.106093064
59	0xbc8b05f8	-0.01697062
60	0x3dbc5ce7	0.09197407
61	0xbd944d9a	-0.07241364
62	0x3c5cc20b	0.013473998
63	0xbd29f98f	-0.041497763
64	0xbd3ac029	-0.045593414
65	0xbd92f35c	-0.07175323
66	0xbd1a9284	-0.037737384
67	0x3dc43e0b	0.09582146
68	0x3dc23586	0.09482865
69	0xbdab19c8	-0.08354527
70	0x3da31007	0.07962041
71	0xbdc9b061	-0.09848095
72	0x3dd0e8ac	0.10200629
73	0xbc559c42	-0.013037743
74	0xbd913815	-0.07090775
75	0xbda3c007	-0.07995611
76	0xbe061021	-0.1309209
77	0x3d31fa78	0.043451756
78	0xbd1f91f7	-0.038957562
79	0xbd216a3a	-0.039407946
80	0x3d36ff18	0.04467687
81	0xbe0492a6	-0.12946567
82	0x3dab26f0	0.08357036
83	0xbd0e0358	-0.034671158
84	0xbcc379c7	-0.023861779
85	0x3db03959	0.08604688
86	0xbcebceb6	-0.02878509
87	0xbdc52c8a	-0.09627636
88	0x3da7533b	0.08170172
89	0xbde6fd2c	-0.112787575
90	0xbddf3b1b	-0.10899945
91	0x3d318669	0.043341074
92	0xbd48ed4f	-0.04905444
93	0xbd82d0fc	-0.06387517
94	0x3ce2331f	0.027612267
95	0xbe0180e9	-0.12646832
96	0xb99edb18	-0.00030299346
97	0xbdd20293	-0.10254397
98	0x3da860f1	0.08221615
99	0x3d8750ce	0.06607209
100	0x3c62ea4b	0.013849805
101	0xbdd50141	-0.1040063
102	0xbe082226	-0.13294277
103	0x3da83a95	0.08214299
104	0xbd43799f	-0.04772341
105	0xbde1e97d	-0.110308625
106	0xbd09de01	-0.033658985
107	0xbd943302	-0.072362915
108	0xbda7a81a	-0.0818636
109	0xbd4dfe13	-0.050291132
110	0xbb03a33e	-0.0020086314
111	0xbde45f28	-0.11150962
112	0x3dac5aa7	0.08415728
113	0x3dbf79e1	0.093494184
114	0xbdfb76fe	-0.12278555
115	0xbdd97c11	-0.10619367
116	0xbdbd3d55	-0.09240214
117	0xbdbb4d84	-0.09145644
118	0xbd899c06	-0.06719212
119	0x3d752d33	0.05985756
120	0x3dccbf36	0.09997408
121	0xbe0386ab	-0.1284434
122	0x3d2e70f0	0.042588174
123	0x3d266f6a	0.040633596
124	0x3dcf117d	0.101107575
125	0x3d1cca97	0.038279142
126	0x3bc06d9b	0.005872441
127	0xbdebd342	-0.115149036
128	0x3dfaa5e7	0.122386746
129	0x3c8e397a	0.017361391
130	0x3dab7dc2	0.08373596
131	0xbd7faa05	-0.062418003
132	0x3d2ab76c	0.04167883
133	0x3c8f65fa	0.01750468
134	0x3db3c9ee	0.087787494
135	0xbe02c37a	-0.12769881
136	0x3dbc1bbb	0.09184977
137	0x3c9e8f70	0.019355506
138	0x3b93a60a	0.0045058774
139	0x3cc118da	0.02357142
140	0x3dfadcfb	0.1224918
141	0xbd93b513	-0.072122715
142	0xbd77727f	-0.060411926
143	0xbda72e85	-0.0816317
144	0xbdbb9c4b	-0.0916067
145	0x3d74b4ce	0.05974274
146	0x3d44300a	0.047897376
147	0xbd8ff86b	-0.07029804
148	0x3cf90e21	0.030402245
149	0xbd9e8262	-0.07739712
150	0x3e09269b	0.13393633
151	0xbd1fd8a2	-0.039024957
152	0xbdc2411c	-0.09485075
153	0xbd302f61	-0.043013934
154	0xbd35d66b	-0.044393938
155	0x3c781895	0.01514258
156	0xbd5713ba	-0.052509047
157	0xbd895d73	-0.06707277
158	0xbcd24920	-0.025669634
159	0xbd3ceba4	-0.046123162
160	0x3de26047	0.1105352
161	0xbc9ff3a9	-0.019525366
162	0x3d529e28	0.05142036
163	0xbddc8e3b	-0.10769316
164	0x3dc17d1d	0.094476916
165	0x3d2b0cb4	0.04176016
166	0x3e0921c3	0.13391785
167	0x3d87f151	0.06637824
168	0xbcaf8beb	-0.021429023
169	0x3d8d6556	0.06904094
170	0x3d7ad247	0.061235692
171	0xbdac1a47	-0.084034495
172	0x3ce5223c	0.027970426
173	0x3b0c6eff	0.0021428464
174	0x3ca7aafb	0.020467272
175	0x3a974306	0.001154036
176	0xbdb22164	-0.08697775
177	0x3d06395b	0.032769542
178	0x3da37c08	0.079826415
179	0x3cba0c3d	0.022710914
180	0x3daa208c	0.08306989
181	0x3defdaad	0.11711631
182	0x3d28c9e6	0.04120817
183	0xbd5e552a	-0.054280438
184	0x3c5cf940	0.01348716
185	0x3d54679a	0.051856615
186	0x3da4ffc1	0.08056594
187	0x3dcdec86	0.10054879
188	0xbdda8008	-0.10668951
189	0x3ca56272	0.020188544
190	0x3d259a0a	0.040430106
191	0x3df8097d	0.12111185
192	0x3d9cefe3	0.07662942
193	0xbd826545	-0.06366972
194	0xbd94f0e5	-0.072725095
195	0x3ca2f8c7	0.019894017
196	0xbb114493	-0.0022166118
197	0x3dc812bf	0.097692005
198	0x3d487173	0.04893632
199	0xbdbf18f0	-0.09330928
200	0x3d940d07	0.07229047
201	0x3d338085	0.043823738
202	0x3d83fb1b	0.06444379
203	0xbda28437	-0.07935374
204	0x3c5833d7	0.013195953
205	0xbdba8e31	-0.09109152
206	0xbd03edf1	-0.03220934
207	0x3dea845e	0.11451028
208	0x3d48296a	0.04886762
209	0x3de469f9	0.11153025
210	0xba728567	-0.0009251446
211	0xbd54e723	-0.05197824
212	0x3db0f064	0.08639601
213	0x3db7bb61	0.089712866
214	0x3db317c2	0.08744766
215	0xbce1391e	-0.027493056
216	0xbd27ca45	-0.040964384
217	0x3d7eca7c	0.062204823
218	0xbd673521	-0.056447152
219	0xbd915a88	-0.070973456
220	0xbda7c032	-0.08190955
221	0x3cf55c41	0.029951217
222	0x3dcbe375	0.09955493
223	0x3c2c8eb4	0.01053207
224	0x3df71883	0.12065222
225	0x3da4d75a	0.080488876
226	0x3ce0bd71	0.027434083
227	0x3de59f45	0.11212019
228	0xbdb770ff	-0.08957099
229	0x3dc66acc	0.09688339
230	0x3d6ea443	0.05826212
231	0xbdcb9189	-0.09939868
232	0xbdcb992a	-0.09941323
233	0x3e04314c	0.1290943
234	0x3d940c7a	0.07228942
235	0x3dcd96be	0.100385174
236	0xbd71c203	-0.059022915
237	0x3cee0f2e	0.029059973
238	0x3e003cae	0.12523147
239	0x3c65c790	0.01402463
240	0x3ce375ee	0.027766194
241	0x3d17e8ee	0.037087373
242	0xbdc8a671	-0.09797371
243	0xbdbabc84	-0.09117988
244	0xb9edef20	-0.00045382325
245	0x3d877425	0.0661395
246	0x3dc3f9a5	0.095691
247	0xbd2c9006	-0.04212954
248	0x3c786f2a	0.015163222
249	0x3d11d028	0.035598904
250	0x3d07a0b3	0.03311224
251	0xbcaf64a7	-0.0214103
252	0x3d9654ab	0.07340368
253	0xbd2dc23b	-0.04242156
254	0xbcfb2ab6	-0.030660015
255	0x3dd3a2db	0.103337966

layertwo.bias f4 [16]
0	0xbc449e15	-0.01200058
1	0xbdb99b83	-0.09062865
2	0x3e04f5d1	0.12984397
3	0x3da079d6	0.07835738
4	0x3dd4f85f	0.103989355
5	0xbdc062a9	-0.09393818
6	0x3da2eaaf	0.079549186
7	0xbdce283f	-0.1006627
8	0x3ddc4157	0.1075465
9	0xbdba730a	-0.09103973
10	0x3d9c6025	0.076355256
11	0x3c8ac11d	0.016937787
12	0xbceed49d	-0.029154116
13	0xbd701df5	-0.05862232
14	0x3d6cd6b3	0.05782194
15	0xbd319e97	-0.043364134

layerthree.weight f4 [2, 16]
0	0x3e6bef28	0.2304045
1	0xbe373188	-0.17889988
2	0x3e61d543	0.22054009
3	0x3dfbf5f3	0.123027705
4	0x3dc7f2e0	0.097631216
5	0xbe0eebdf	-0.13957165
6	0xbd95af2d	-0.07308803
7	0xbd0520ef	-0.03250211
8	0xbd2bba5a	-0.041925766
9	0xbd7f1c4e	-0.062282853
10	0x3d3d3a44	0.046198145
11	0x3e377174	0.17914373
12	0x3e7d50f9	0.2473792
13	0xbde9007f	-0.11377048
14	0xbe667116	-0.22504076
15	0xbdf3d0d9	-0.11905069
16	0xbd9997c0	-0.07499647
17	0x3ca6a64b	0.020342967
18	0xbe7ffc79	-0.24998654
19	0x3c97e33a	0.018540967
20	0x3df4879d	0.11939929
21	0x3e4d6631	0.20058514
22	0x3d68937a	0.05678127
23	0x3e170dd4	0.14751369
24	0xbc16c3ba	-0.009201938
25	0xbd9161f0	-0.07098758
26	0xbe3dc68b	-0.1853277
27	0x3e2a2161	0.16614296
28	0x3e61b3d9	0.22041263
29	0x3e14ef02	0.14544299
30	0x3e54d2c7	0.2078353
31	0x3dcc53b8	0.099769056

layerthree.bias f4 [2]
0	0x3e237e17	0.15966068
1	0x3dc2c118	0.09509486
