state_dicts/model20240104-203335.pt (torch, 39255 bytes, 6 tensors)

layerone.weight f4 [64, 128]
0.06552716 0.012742162 -0.098148964 -0.09829164 0.00678146 -0.092236966 -0.029315261 0.022570359
0.040163185 -0.06582831 -0.036667027 -0.05599725 -0.04347356 0.04735567 -0.033935808 -0.030532591
0.013637416 -0.07691594 -0.086237475 -0.0772215 -0.09510408 -0.0058555873 0.054217067 -0.036442615
0.023048777 0.033358663 0.047127776 0.037438415 -0.03272449 -0.08876196 0.020975089 -0.049034227
-0.047869444 -0.06998677 0.025126385 -0.09819018 -0.0027612979 -0.000476341 -0.041896615 0.009901488
-0.09234558 0.008300453 -0.11947074 -0.09557938 -0.04035962 -0.082018755 0.020588433 0.062198948
-0.015115907 0.023901986 -0.09696523 -0.05414348 -0.09002471 -0.05346997 -0.031265073 -0.10839527
0.017939745 -0.06461683 -0.028555822 0.07034732 -0.04871845 -0.07749137 -0.035585232 0.02960026
0.061068255 0.056175 -0.0496406 -0.037794583 -0.052576758 0.06762253 0.040137503 -0.036581963
0.0050887726 -0.072381675 0.045225445 -0.05171971 0.07065517 0.007384557 0.051398844 0.038321238
0.05533762 -0.06526352 -0.060347386 -0.065893784 0.02837899 -0.0114953825 0.037089083 -0.017747788
0.06333736 0.035261035 0.033037163 0.0057061813 -0.025444234 0.054606404 0.0781145 -0.015457808
0.008054692 -0.013844664 0.055449463 -0.09208321 -0.11463656 0.013296548 -0.04729039 -0.0764272
-0.038164172 -0.039302696 -0.038728386 -0.0011676687 0.022981863 0.06814771 0.01328074 -0.12593281
-0.0881662 -0.010654336 -0.04646556 0.031864572 -0.12654819 -0.10116058 -0.0896307 -0.031224731
-0.01858912 -0.052964073 -0.0879913 -0.021748358 0.048290126 -0.046287287 0.022113781 -0.020819861
0.06461494 -0.0031924876 0.08727168 0.06384113 -0.056585863 -0.0060666115 0.04243042 0.10427202
0.09385031 0.019923467 0.05107127 0.03592619 0.023998892 0.07735986 0.05872342 0.015881278
0.07195084 0.053173367 -0.004273232 -0.0048431223 0.04959793 -0.04843655 0.08732743 0.04697134
0.08615098 0.083534166 0.044776324 0.019470224 0.08674428 -0.007367319 -0.033642933 0.020248327
0.029669099 -0.026993912 0.075432174 0.09499271 0.025225306 -0.066487655 -0.027946385 0.08945814
-0.0034712811 -0.042286616 0.04259649 0.01741004 0.05696532 -0.050675932 -0.048918467 -0.0030951025
0.046018645 -0.052065864 0.08952415 0.030288657 -0.017837051 0.026570493 0.057009965 0.021453364
0.0836778 0.08895438 -0.028346987 -0.006451064 0.068320684 -0.0361744 -0.036289733 0.008213263
0.003471 0.044529602 -0.014611315 0.023554439 0.0026204274 -0.025904335 -0.044644147 0.08416555
0.09209191 0.027154332 -0.023465816 0.07741093 0.03890367 0.088193126 -0.054681804 0.06150431
0.0059627434 -0.024717085 -0.039718892 -0.007966414 -0.0028307107 0.0700843 -0.0068299565 -0.041603953
-0.055228125 -0.005868592 -0.06505549 0.06455218 -0.011415665 -0.005834082 0.026463991 0.07155558
-0.0134263355 0.0728132 -0.0073505635 0.05538635 0.07065186 0.09954114 0.04190363 0.06118781
-0.054428756 0.09961216 -0.00954589 -0.013020223 0.06344231 0.08295496 0.087042294 -0.03258259
0.08597782 0.09376086 -0.05264618 0.068337016 0.05601843 -0.0040034493 0.09681843 -0.010674752
0.044303276 0.046216287 0.029959295 0.07995489 0.02871706 0.053842746 -0.021102916 0.033555962
00000000: 1b33 863d 80c4 503c 5302 c9bd 214d c9bd
00000010: 0237 de3b bce6 bcbd 8f26 f0bc 79e5 b83c
00000020: 2782 243d fed0 86bd 2a30 16bd 5f5d 65bd
00000030: 5511 32bd 05f8 413d 4600 0bbd 7c1f fabc
00000040: 786f 5f3c 1b86 9dbd 469d b0bd 4e26 9ebd
00000050: eec5 c2bd 3ae0 bfbb b712 5e3d da44 15bd
00000060: cad0 bc3c 18a3 083d 0e09 413d 0659 193d
00000070: 1d0a 06bd d5c8 b5bd f3d3 ab3c 1dd8 48bd
00000080: c012 44bd 3955 8fbd d9d5 cd3c ef17 c9bd
00000090: e4f6 34bb 68bd f9b9 c99b 2bbd da39 223c
000000a0: ae1f bdbd a0fe 073c 13ad f4bd 1fbf c3bd
000000b0: 2150 25bd 73f9 a7bd 13a9 a83c 53c4 7e3d
000000c0: b6a8 77bc 19ce c33c b595 c6bd 8ec5 5dbd
000000d0: e05e b8bd 5403 5bbd ce0f 00bd 57fe ddbd
000000e0: 5ff6 923c d455 84bd e6ed e9bc 4112 903d
000000f0: ff8c 47bd ccb3 9ebd d2c1 11bd 3f7c f23c
00000100: b522 7a3d c217 663d f153 4bbd 7ece 1abd
00000110: ba5a 57bd ae7d 8a3d 3967 243d f8d6 15bd
00000120: b8bf a63b d83c 94bd 513e 393d 0cd8 53bd
00000130: a8b3 903d 27fa f13b 9887 523d bbf6 1c3d
00000140: b3a9 623d e1a8 85bd d22e 77bd 52f3 86bd
00000150: 0e7b e83c 2157 3cbc b9ea 173d cf63 91bc
00000160: 05b7 813d e06d 103d fa51 073d ebfa ba3b
00000170: 6d70 d0bc f7aa 5f3d 7ffa 9f3d bf42 7dbc
00000180: d4f7 033c bbd4 62bc fa1e 633d 1f96 bcbd
00000190: 93c6 eabd c4d9 593c 91b3 41bd dd85 9cbd
000001a0: 0952 1cbd ddfb 20bd a8a1 1ebd 760c 99ba
000001b0: 7644 bc3c 0791 8b3d 7697 593c 88f4 00be
000001c0: 7b90 b4bd 868f 2ebc ac52 3ebd 6d84 023d
000001d0: d995 01be 472d cfbd 4d90 b7bd 02cb ffbc
000001e0: 3648 98bc dbf0 58bd c834 b4bd 9d29 b2bc
000001f0: decb 453d bd97 3dbd f627 b53c 6a8e aabc
00000200: d654 843d 0e39 51bb 7fbb b23d 23bf 823d
00000210: 94c6 67bd 6dca c6bb 85cb 2d3d 928c d53d
00000220: 9734 c03d 8a36 a33c 1c30 513d 5727 133d
00000230: 5399 c43c d96e 9e3d f887 703d 7419 823c
00000240: f65a 933d 51cc 593d 7806 8cbb 0eb3 9ebb
00000250: 3327 4b3d 6765 46bd b9d8 b23d 0565 403d
00000260: ed6f b03d f613 ab3d 6167 373d 0580 9f3c
00000270: fca6 b13d 8d69 f1bb 2ccd 09bd d2df a53c
00000280: 9c0c f33c 5622 ddbc 2f7c 9a3d 8a8b c23d
00000290: 4da5 ce3c ae2a 88bd d1ef e4bc d435 b73d
000002a0: 6f7e 63bb bb34 2dbd a879 2e3d 809f 8e3c
000002b0: 7854 693d 9191 4fbd bb5e 48bd 34d7 4abb
000002c0: 0c7e 3c3d 0443 55bd 7058 b73d eb1f f83c
000002d0: 021f 92bc 5daa d93c 4883 693d f7be af3c
000002e0: 445f ab3d b72d b63d f137 e8bc 7263 d3bb
000002f0: b7eb 8b3d 9c2b 14bd 8ba4 14bd ec90 063c
00000300: b779 633b ac64 363d 4c64 6fbc 3df5 c03c
00000310: 7abb 2b3b 5435 d4bc c8dc 36bd fd5e ac3d
00000320: af9a bc3d c372 de3c 623b c0bc 9f89 9e3d
00000330: 7459 1f3d 999e b43d 07fa 5fbd f2eb 7b3d
00000340: 1e63 c33b 7c7b cabc 47b0 22bd 9085 02bc
00000350: 7283 39bb 5c88 8f3d d4cd dfbb e868 2abd
00000360: e336 62bd 514d c0bb d03b 85bd ef33 843d
00000370: c508 3bbc d42b bfbb 03cb d83c bb8b 923d
00000380: 22fa 5bbc 161f 953d ffdc f0bb ccdc 623d
00000390: ecb1 903d 3adc cb3d 24a3 2b3d 12a0 7a3d
000003a0: b0f0 5ebd 7601 cc3d 5d66 1cbc c652 55bc
000003b0: 0bee 813d 4ae4 a93d 3b43 b23d 5275 05bd
000003c0: 2415 b03d b205 c03d 85a3 57bd 47f4 8b3d
000003d0: 9573 653d 5e2f 83bb be48 c63d 28e5 2ebc
000003e0: 5a77 353d 4a4d 3d3d 326d f53c 64bf a33d
000003f0: 0a40 eb3c 368a 5c3d 06e0 acbc fa71 093d

layerone.bias f4 [64]
-0.1107599 0.10393164 -0.14781213 0.21418616 0.0019568712 0.053539544 0.027213158 0.07329714
-0.15317607 0.09266497 0.11943204 -0.05300894 -0.19952424 0.047661632 -0.14521433 0.08821706
0.0249465 0.092920244 -0.20162146 0.099047646 0.09550128 -0.08024216 0.010089617 0.12076728
0.044626005 0.15181474 0.03417193 -0.061381567 -0.14571975 0.16185965 -0.1459174 0.028534412
-0.037369918 0.16972399 0.084096685 -0.05093959 0.06891525 -0.038767926 0.16224438 -0.1504464
-0.14523661 -0.087614395 -0.024352646 -0.2150937 0.05721711 0.2018741 0.19850993 -0.15507993
0.034836024 0.19487973 0.04967475 0.13636489 0.1675463 -0.19756946 0.16526473 0.14799786
-0.1630328 -0.07528782 0.077199526 0.1624025 0.15517585 0.08886767 0.02707928 0.12201536
00000000: 16d6 e2bd 1dda d43d 105c 17be 9e53 5b3e
00000010: da3e 003b 484c 5b3d 21ee de3c d01c 963d
00000020: 30da 1cbe 22c7 bd3d c998 f43d e71f 59bd
00000030: 1550 4cbe d838 433d 11b3 14be 25ab b43d
00000040: 9a5c cc3c f84c be3d db75 4ebe 7ed9 ca3d
00000050: 2d96 c33d 0056 a4bd ec4e 253c d654 f73d
00000060: c2c9 363d 5375 1b3e def7 0b3d 3d6b 7bbd
00000070: 8f37 15be 89be 253e 5f6b 15be 00c1 e93c
00000080: 3311 19bd 20cc 2d3e e23a ac3d 08a6 50bd
00000090: 7023 8d3d 1ecb 1ebd 6423 263e 9f0e 1abe
000000a0: e8b8 14be 2d6f b3bd 337f c7bc 8641 5cbe
000000b0: 7d5c 6a3d 16b8 4e3e 3046 4b3e 46cd 1ebe
000000c0: 38b0 0e3d 8d8e 473e c077 4b3d 3da3 0b3e
000000d0: 4291 2b3e a64f 4abe 283b 293e c08c 173e
000000e0: 12f2 26be 8030 9abd c91a 9e3d d74c 263e
000000f0: 6be6 1e3e 4100 b63d 5ed5 dd3c 30e3 f93d

layertwo.weight f4 [16, 64]
-0.012453565 -0.035130076 -0.05696258 0.09010025 0.033296853 -0.07317512 -0.1250741 0.014307536
-0.11455952 0.12807746 0.0022363644 -0.12848511 -0.06832154 0.035733048 -0.13595578 0.013203297
0.053801488 0.08428637 -0.14220922 0.113306925 -0.09786348 0.0044371216 0.103949934 0.1628268
0.1064645 0.18733001 -0.00400685 0.14782171 -0.029556733 0.038563225 -0.044949703 0.031558678
0.070585035 0.078745015 0.11003967 0.059563007 0.09646366 0.06816457 0.035695672 -0.11841198
-0.1943213 -0.0066524143 -0.040508877 -0.18002327 -0.011776052 0.20056365 0.03495329 -0.068073474
0.060932923 0.19866155 0.024911713 0.15070103 0.11461965 -0.08513637 0.085472405 0.18727106
-0.019160347 -0.04270006 0.11192634 0.14390999 0.08259722 0.20009534 -0.022008553 -0.0336767
0.1166363 -0.028743917 0.072000004 -0.04528586 -0.059923336 -0.0033659548 0.062165257 -0.07494063
0.14850625 -0.07518692 -0.122872375 0.20815729 0.1598965 -0.2087435 0.18024424 -0.07978944
-0.000382307 0.032270588 0.10904111 -0.15042026 -0.080900155 0.0073337993 -0.042055786 -0.07588645
-0.073741004 -0.18094106 -0.11164917 0.023001458 0.027368514 -0.025459837 -0.0132842595 -0.051960602
-0.09687931 -0.11386652 -0.16303748 0.10016861 -0.12815996 -0.017683204 -0.16553828 0.1933325
0.15995108 0.0918497 -0.077811465 -0.022506021 0.03905838 -0.2452741 -0.20145656 -0.024648495
-0.005620417 0.011463058 0.023536352 -0.16613305 -0.13330755 0.06385212 -0.044526134 -0.20957816
0.17261061 0.033581357 -0.22702515 -0.12960134 -0.07610596 -0.045961954 -0.1206929 -0.059894152
0.117984325 0.0053960225 0.025274163 -0.16679156 0.05724793 -0.10810484 -0.08255598 -0.060418412
0.05827542 0.017223036 -0.21842338 0.18388776 0.17061357 -0.07111476 0.18463868 -0.045200862
-0.05693825 0.0509403 0.12408589 -0.057865344 -0.10178816 -0.013694291 0.0032065997 -0.042496655
-0.20229135 -0.0220277 0.020962385 0.0024753178 -0.07949699 -0.0657478 -0.066164814 -0.050734542
0.06707499 -0.021523288 0.013848448 -0.044766136 -0.07630121 0.042539164 -0.11259614 -0.022284176
0.04685932 0.11939387 -0.10302723 0.09195205 0.09864882 -0.22733733 -0.0713081 -0.07899306
-0.045194212 -0.1943929 0.049432367 -0.13511725 -0.037898555 0.15721846 0.080562726 0.003300177
-0.018426917 0.11652866 -0.1933803 -0.03616075 -0.012367912 -0.21920538 0.040035333 -0.08560518
0.058484044 -0.014856314 -0.07430362 -0.16889669 -0.07946371 -0.012908941 0.05424429 -0.00145072
0.060606837 -0.17736073 -0.049942125 0.13068508 0.20995821 0.00031530135 0.08782113 -0.09579979
-0.17922217 0.08778367 0.04039685 0.00999165 0.05229139 -0.07603619 -0.17054804 -0.18566233
-0.053582262 0.008456238 -0.11845067 -0.048942707 -0.031863004 -0.06469367 -0.10690137 -0.096095
0.0454507 0.016396178 -0.21780862 -0.07366605 -0.02546083 -0.11633959 -0.04450655 0.06823221
0.066543974 -0.034394756 0.02822228 0.12097149 -0.03766837 -0.02600474 -0.050856877 0.104077876
-0.0060241073 -0.081987254 -0.10222391 -0.14068586 -0.0053705373 0.03364606 -0.08670444 -0.008642675
0.18980655 0.13759308 -0.13575657 -0.11135323 -0.21351162 0.008289592 0.104530014 -0.11683532
00000000: 0a0a 4cbc 8ee4 0fbd 9851 69bd 7b86 b83d
00000010: 4862 083d d6dc 95bd 6d13 00be 286a 6a3c
00000020: 2e9e eabd bd26 033e f88f 123b 9a91 03be
00000030: 2aec 8bbd d15c 123d fe37 0bbe a452 583c
00000040: f35e 5c3d 559e ac3d 4b9f 11be 760d e83d
00000050: a66c c8bd 4665 913b b4e3 d43d 12bc 263e
00000060: 0f0a da3d 70d3 3f3e e54b 83bb 935e 173e
00000070: f620 f2bc 79f4 1d3d 2e1d 38bd ac43 013d
00000080: e38e 903d 1145 a13d 7a5c e13d 57f8 733d
00000090: bd8e c53d de99 8b3d a035 123d fb81 f2bd
000000a0: 2afc 46be 7ffc d9bb a3ec 25bd 0558 38be
000000b0: 58f0 40bc 8f60 4d3e 2e2b 0f3d 1b6a 8bbd
000000c0: cd94 793d ef6d 4b3e a613 cc3c 5f51 1a3e
000000d0: b5bd ea3d fa5b aebd 280c af3d fcc3 3f3e
000000e0: 29f6 9cbc 42e6 2ebd a339 e53d 245d 133e
000000f0: bb28 a93d cbe5 4c3e 484b b4bc 94f0 09bd
00000100: 03df ee3d 5d78 ebbc bd74 933d aa7d 39bd
00000110: 2c72 75bd 5a97 5cbb ffa0 7e3d 797a 99bd
00000120: 0612 183e 9afb 99bd 83a4 fbbd 2f27 553e
00000130: e8bb 233e dbc0 55be f291 383e a568 a3bd
00000140: 6070 c8b9 2a2e 043d f250 df3d c507 1abe
00000150: fbae a5bd 5e50 f03b b042 2cbd 5b6a 9bbd
00000160: 8605 97bd 9d48 39be 52a8 e4bd 8e6d bc3c
00000170: ef33 e03c 2691 d0bc 39a6 59bc a4d4 54bd
00000180: a968 c6bd da32 e9bd 4cf3 26be 3325 cd3d
00000190: 5d3c 03be 5edc 90bc de82 29be f4f8 453e
000001a0: 37ca 233e b21b bc3d 9e5b 9fbd 8c5e b8bc
000001b0: aefb 1f3d 2229 7bbe a14a 4ebe a4eb c9bc
000001c0: 7a2b b8bb 8dcf 3b3c 4fcf c03c c81e 2abe
000001d0: c681 08be e6c4 823d 0961 36bd a89b 56be
000001e0: d6c0 303e 9b8c 093d 4879 68be 37b6 04be
000001f0: 71dd 9bbd 9a42 3cbd d72d f7bd 9253 75bd
00000200: c4a1 f13d 1ed1 b03b c30b cf3c 68cb 2abe
00000210: ce7c 6a3d 1266 ddbd 1c13 a9bd 4c79 77bd
00000220: 35b2 6e3d 5317 8d3c 61aa 5fbe 134d 3c3e
00000230: 53b5 2e3e 9ea4 91bd ec11 3d3e 8a24 39bd
00000240: 1538 69bd c7a6 503d be20 fe3d 3604 6dbd
00000250: 5076 d0bd 055e 60bc d125 523b f910 2ebd
00000260: 7725 4fbe 6f73 b4bc 4fb9 ab3c f138 223b
00000270: 51cf a2bd c8a6 86bd 6b81 87bd 06cf 4fbd
00000280: 9d5e 893d 9b51 b0bc 9ae4 623c b25c 37bd
00000290: cf43 9cbd 8c3d 2e3d ce98 e6bd 4e8d b6bc
000002a0: 8fef 3f3d c684 f43d f1ff d2bd 5b51 bc3d
000002b0: 6408 ca3d 1ecb 68be fb09 92bd 1dc7 a1bd
000002c0: 911d 39bd ef0e 47be 9879 4a3d 2d5c 0abe
000002d0: 843b 1bbd e0fd 203e 12fe a43d c847 583b
000002e0: 0cf4 96bc 94a6 ee3d 7c05 46be 4b1d 14bd
000002f0: c8a2 4abc 6077 60be 17fc 233d c551 afbd
00000300: f78c 6f3d e667 73bc 7f2c 98bd 41f3 2cbe
00000310: dfbd a2bd 0680 53bc 432f 5e3d 1626 beba
00000320: e03e 783d 0d9e 35be 1d90 4cbd 4fd2 053e
00000330: 49ff 563e 084f a539 91db b33d ae32 c4bd
00000340: 0486 37be edc7 b33d 2b77 253d 04b4 233c
00000350: 7f2f 563d ddb8 9bbd 25a4 2ebe 441e 3ebe
00000360: 1379 5bbd 088c 0a3c 4496 f2bd 2678 48bd
00000370: c882 02bd 1d7e 84bd 1bef dabd 75cd c4bd
00000380: 832a 3a3d 4751 863c 3909 5fbe 3ade 96bd
00000390: 3b93 d0bc 7343 eebd 804c 36bd 54bd 8b3d
000003a0: 3548 883d 84e1 0cbd 6932 e73c e7bf f73d
000003b0: 264a 1abd e407 d5bc 4d4f 50bd c826 d53d
000003c0: e065 c5bb efe8 a7bd c55a d1bd f40f 10be
000003d0: 55fb afbb 73d0 093d 1992 b1bd 029a 0dbc
000003e0: a65c 423e 33e5 0c3e c503 0bbe 2a0d e4bd
000003f0: caa2 5abe 12d1 073c d513 d63d 5b47 efbd

layertwo.bias f4 [16]
0.06934003 -0.07864156 -0.08497236 -0.05321635 -0.02975845 -0.113459125 0.036303032 -0.084098
0.11631252 0.022104444 -0.007963097 0.11942461 -0.10575201 0.07542504 0.013151515 -0.0144016985
00000000: 2502 8e3d d40e a1bd fd05 aebd 63f9 59bd
00000010: fec7 f3bc 425d e8bd 7db2 143d 923b acbd
00000020: 4235 ee3d 6114 b53c a677 02bc e494 f43d
00000030: 8394 d8bd 7278 9a3d 7479 573c 1af5 6bbc

layerthree.weight f4 [2, 16]
0.20575066 -0.23109671 -0.14451642 -0.17259358 -0.04307956 -0.2689743 -0.28607318 -0.2771707
0.13010356 0.2596629 -0.2145105 0.2082888 0.08608655 0.22898962 0.16485845 -0.17876086
-0.057083916 0.15736264 0.07617929 0.013640695 0.26972118 -0.07954344 0.2577112 0.08933211
-0.324568 -0.3039267 -0.008094095 -0.24493052 -0.22527522 -0.030610984 -0.18591273 0.10044149
00000000: 4db0 523e 9ea4 6cbe 1dfc 13be 5fbc 30be
00000010: 3174 30bd 00b7 89be 2f78 92be 51e9 8dbe
00000020: de39 053e 89f2 843e a4a8 5bbe a949 553e
00000030: 254e b03d 417c 6a3e a7d0 283e 160d 37be
00000040: d3d0 69bd ac23 213e e303 9c3d 397d 5f3c
00000050: e518 8a3e ace7 a2bd b9f2 833e c1f3 b63d
00000060: c72d a6be 489c 9bbe 189d 04bc 11cf 7abe
00000070: 8cae 66be e3c3 fabc e85f 3ebe 45b4 cd3d

layerthree.bias f4 [2]
0.13783881 0.07297609
00000000: 9e25 0d3e 7d74 953d
