state_dicts/model20240104-204124.pt (torch, 39255 bytes, 6 tensors)

layerone.weight f4 [64, 128]
000000 c2 37 87 bd a1 30 40 3d 0b 2e 36 bd af f2 96 bd
       -0.06602432 0.046921376 -0.044477504 -0.07370507
000010 cb 1e b2 3d a9 0d c4 3d 7e 79 6a 3c 69 df a4 3d
       0.086972795 0.09572918 0.014311193 0.080504246
000020 c3 b0 82 3d 41 2b 11 bd a7 4b 90 bd de 53 7e bd
       0.06381371 -0.03544164 -0.070456795 -0.0620917
000030 16 0a 9b 3c b1 14 0d bd d9 7f 94 bd 9c bf b7 3d
       0.018925708 -0.03444356 -0.072509475 0.089720935
000040 03 34 8d 3d 43 25 fa bb 76 c9 63 3c 72 03 2c bd
       0.06894686 -0.0076338365 0.0139030125 -0.041995473
000050 44 ed 30 bd b9 47 45 bd c2 cf eb 3b f5 d7 22 bb
       -0.043195024 -0.048164103 0.0071963975 -0.0024847959
000060 1f 81 a1 3d c9 6d 95 3d cd d6 9a bd 25 4f 24 3d
       0.07885956 0.072963305 -0.07560501 0.04011454
000070 97 88 81 3d 95 79 f3 3b 09 84 89 bd 09 bc 52 bd
       0.063248806 0.007430265 -0.06714637 -0.051448856
000080 50 23 fe 3c ce 06 99 3c 76 a4 37 3d 08 0e ad 3c
       0.031022698 0.018680003 0.044834577 0.021124855
000090 14 f6 a9 3c 80 72 cb 3c fe 59 59 bb 02 d2 1b 3c
       0.020747222 0.024834871 -0.0033165212 0.009510519
0000a0 40 2f ad 3d f2 2f 24 bd 26 ee 95 3d 54 60 76 3d
       0.08456278 -0.040084787 0.07320814 0.06015046
0000b0 a5 e6 75 3b 1b e3 ba 3d cb f7 86 bd 6d 5c 17 bd
       0.0037521508 0.09125348 -0.065902315 -0.03695338
0000c0 a5 df b5 3d eb af 92 bd 98 8c 6f 3c ee 42 43 bd
       0.088805474 -0.0716246 0.0146209225 -0.04767125
0000d0 78 5a d1 3c 6f eb a5 bc d1 06 9f 3d 9d 0b bd 3d
       0.025555834 -0.020253865 0.07764972 0.09230731
0000e0 14 c7 06 3d 87 26 b8 3d d8 ca 2a 3d c4 26 8f 3c
       0.0329047 0.089917235 0.041697353 0.01747454
0000f0 97 69 c1 3d dc 1b 85 bd fa e9 18 bc c0 d6 3a bc
       0.09443968 -0.064994544 -0.009333128 -0.011403739
000100 bf bd 24 bc 49 6c ad 3d 04 e3 e2 3c 6f 0a 17 bc
       -0.010055005 0.084679194 0.02769614 -0.009218796
000110 15 ae 0b 3d cf 05 0e bd 04 d4 15 3b f7 5a 30 bd
       0.034101564 -0.03467351 0.0022861967 -0.0430555
000120 6a 6d 36 bd a0 c8 ad 3d 2a 2e c3 3d fd ef 44 3d
       -0.04453794 0.08485532 0.095302895 0.048080433
000130 9d c7 19 3c 0f e4 0d 3d b4 47 5a bd 95 75 4b bd
       0.00938597 0.03464132 -0.053291038 -0.04967268
000140 19 fe b6 bc 74 6c 8e 3b 92 db 91 bd 3c 23 4c bd
       -0.02233796 0.0043464247 -0.07121958 -0.04983829
000150 c7 03 85 bd 97 6d 42 bd 6f d1 96 bd 14 94 75 bd
       -0.06494861 -0.047467794 -0.07364165 -0.05995567
000160 66 45 dc 3c ff 67 ad 3d 14 9e b5 3c ab 04 af 3d
       0.02688856 0.08467101 0.022170104 0.08545812
000170 8f ce 3e bd ec 07 73 bc e8 e7 95 3c 78 c0 80 bd
       -0.04658371 -0.014833432 0.018299058 -0.062867105
000180 a7 95 8f 3b bd 60 c3 3d e6 07 34 bc de 2d a2 bd
       0.0043818536 0.09539936 -0.010988211 -0.07918905
000190 26 21 76 3d c2 73 9a bd 84 1d be 3d cc 67 9d 3b
       0.060090207 -0.0754161 0.092829734 0.0048036333
0001a0 64 4d 62 bd 3c e9 80 bd 58 0b 83 3d 96 f2 3c 3d
       -0.055249587 -0.06294486 0.06398648 0.046129785
0001b0 d0 47 dd bc df 2f 82 3c 0d 10 34 3b 2c c2 52 3d
       -0.027011782 0.015891967 0.0027475387 0.051454708
0001c0 65 ce a9 3d 8a f4 3a 3d e8 a0 45 3d 44 d8 88 bd
       0.0829132 0.045643367 0.048249155 -0.066818744
0001d0 46 3a 72 bd 88 5d d9 3c 6d e7 90 bd 3c 41 2c 3d
       -0.059137605 0.026533857 -0.07075391 0.0420544
0001e0 88 62 b3 3d 17 91 85 bd be 82 63 3c e3 00 38 3d
       0.08759028 -0.06521814 0.013886152 0.04492272
0001f0 e3 1b 6c 3c cb c2 2c 3d 37 b2 be bc 78 42 a3 3c
       0.014410946 0.042177957 -0.023278339 0.019929156
000200 f4 4f 1f 3d 3b 99 37 bd ec b4 86 3d b1 46 8e bd
       0.03889461 -0.044823866 0.06577477 -0.06947077
000210 46 7a c2 3d 86 79 05 bd f6 e0 77 bd da f3 a9 3d
       0.09495978 -0.032586597 -0.060517274 0.08298464
000220 dc 33 f6 3c 0d 0f d4 bc a5 27 0e 3d dc 3e 8d bd
       0.030054025 -0.025886083 0.034705777 -0.06896755
000230 c8 71 d6 bb 44 a0 cb 3c 29 97 7a 3d 43 65 30 3d
       -0.0065443255 0.024856694 0.061179314 0.04306532
000240 35 1f a5 bd 5b 9d 86 bd a7 2d 52 3d c7 8d d3 bc
       -0.08062593 -0.06572982 0.05131307 -0.02582444
000250 68 08 1f bc 5b d3 28 3c 71 32 a4 bc 66 c6 07 bd
       -0.009706594 0.010304297 -0.020043584 -0.033148192
000260 95 de 69 3d 3f 65 20 bd 74 ef 64 bd 49 ed 9e bd
       0.057097036 -0.039159056 -0.055892423 -0.07760102
000270 91 f4 40 ba 7f 15 92 bd 86 b5 1e 3d 19 49 a7 3d
       -0.0007360662 -0.07133006 0.038747333 0.08168239
000280 2c 69 c0 b9 09 ae 30 bd 8f b3 1f bc 06 9d c6 bc
       -0.00036699453 -0.043134723 -0.0097474 -0.024244796
000290 fb 5f 86 bd 76 d6 87 3d 04 99 87 3b 8f fa ac 3c
       -0.065612756 0.06632702 0.004138114 0.02111557
0002a0 2f 7e 8e 3d ca b1 6a 3d fb a2 2a bd 45 a9 8b bd
       0.06957661 0.05729846 -0.041659337 -0.06819395
0002b0 08 e9 3e 3c f9 5e 7f bd b6 0a b3 3d 4b 67 ef bc
       0.011652239 -0.062346432 0.08742277 -0.029224059
0002c0 dd ad 9c bd 53 7f 6b 3d 4f ab 0e 3d a5 9a db 3c
       -0.07650349 0.057494473 0.03483134 0.026807139
0002d0 e4 f5 84 bd 5b a8 28 3d 4f 22 51 bd cc 57 f3 3c
       -0.064922124 0.04117618 -0.05105811 0.02970495
0002e0 7e 3f 88 bc a5 d4 8e 3d bd 6f 8b bd 64 dd de bb
       -0.016631838 0.069741525 -0.06808422 -0.006801294
0002f0 2c ae 27 3d 01 bc 15 3c 86 77 cb bc 5f ac 89 3d
       0.040937588 0.009139062 -0.024837267 0.0672233
000300 2a 53 99 bc df 5b 5d bc 63 8f 8c bc bc 09 68 3d
       -0.018716414 -0.013510673 -0.017158216 0.05664991
000310 b5 35 33 bc ca f9 d8 3b de 17 71 3b 5b d8 8f bd
       -0.010938098 0.006621574 0.0036787908 -0.070236884
000320 ce 6c e4 3c 18 2d a0 bd ac f1 02 bd 11 92 9f bc
       0.027883913 -0.07821101 -0.031968758 -0.01947883
000330 0b f4 24 3d 23 d4 41 bd f5 9e 60 bd 11 d1 ac 3d
       0.0402718 -0.04732145 -0.054839093 0.08438314
000340 6a 4d 63 3d b5 63 45 bd d3 1a 72 3c 53 9c 16 bd
       0.05549375 -0.04819079 0.014776903 -0.036770176
000350 1b dd 84 3c d5 1d 12 bd ab 02 d6 3c 0e 92 76 3d
       0.016218713 -0.03567298 0.026124319 0.060197882
000360 88 53 9f 3d 6f 30 39 bd a9 e8 80 bd 3a 1c a0 3c
       0.07779604 -0.045212205 -0.062943764 0.01954471
000370 92 f4 d0 3c 6c 8e 16 bd 34 bb 77 3c 18 cb ce 3c
       0.025507245 -0.036756918 0.015120316 0.025243327
000380 fc 43 33 bd 3f ac ed 3c e9 96 5d 3c 0c 1f ad 3d
       -0.043766007 0.029012797 0.013524749 0.08453187
000390 b7 2a d5 3c f3 bc 4f 3d 2c fe 9e 3b 4b 1e 3e 3d
       0.026021345 0.050717305 0.004852077 0.04641561
0003a0 1c 6a 6b 3d 71 9c 88 3d 1a ba 19 3d 28 ba 13 3d
       0.05747424 0.06670464 0.037530996 0.036066204
0003b0 90 bc 89 3c fb dc f0 3b 5c 06 2f 3d 98 f1 03 3c
       0.016813546 0.0073505617 0.042730674 0.008053206
0003c0 e4 0b 87 bd 1e e3 d2 bc fc 9d ed bb 3d 98 99 bd
       -0.06594065 -0.025743064 -0.007251499 -0.0749974
0003d0 d3 14 33 3d 0c 5f a0 3d 65 51 50 bd 5a aa c4 bb
       0.04372103 0.07830629 -0.050858874 -0.006001753
0003e0 ea 31 4c 3c 58 2e 30 3d 8a 27 6b 3d 17 4d dd bc
       0.012463072 0.043012947 0.057410754 -0.027014298
0003f0 9e 1b 61 3d b3 a3 37 bd 6c c3 64 bd 7f f5 88 bd
       0.05495798 -0.04483385 -0.05585043 -0.0668745

layerone.bias f4 [64]
000000 62 34 f2 3c c6 36 41 bd 28 66 05 bd bd 82 70 bd
       0.029565994 -0.047171377 -0.032568127 -0.05871843
000010 d7 a2 92 bd f6 22 11 bd 2e ad 8f 3c a0 72 e6 3c
       -0.071599655 -0.035433732 0.017538633 0.02813083
000020 1c 87 73 bc 23 a4 76 bd 8a 63 78 3d 5b b6 51 3d
       -0.014863756 -0.060215127 0.060641803 0.0511993
000030 9f 2c 52 bb 2f f0 00 3c 41 13 9c bd f5 00 4f 3d
       -0.0032070053 0.007869764 -0.0762086 0.050538022
000040 0f a6 7b 3c 4a 7e 11 bd 27 56 96 bc c9 e6 42 bd
       0.015359416 -0.03552083 -0.018351628 -0.047583375
000050 e6 f7 0e 3d 01 f6 b1 3c 3c a6 05 bd fb 68 36 3b
       0.034904383 0.02172375 -0.032629237 0.002783357
000060 31 de cf bc d2 d9 59 3d 4c da ac bc 78 6b c5 3c
       -0.025374504 0.053186245 -0.021100186 0.024099097
000070 86 74 f4 bc 8b 6d 8f bd e3 62 6c 3d 4d 15 c3 bd
       -0.029840719 -0.070033155 0.057711493 -0.09525547
000080 ea 2a 2d 3d 3c 96 12 bd 59 ea 90 bd ee 9e b8 3d
       0.042277254 -0.035787806 -0.07075948 0.090146884
000090 d3 ca ad 3b 7c e7 6f 3d c8 4d 2c bc 7e d0 85 bd
       0.0053037195 0.05857037 -0.010516591 -0.06533907
0000a0 20 67 d9 3b db b7 29 3d 03 c9 a2 bd 42 0e 8a 3d
       0.006634608 0.041435104 -0.07948496 0.06741001
0000b0 26 e8 bf 3d 1a cd c7 3c eb 96 64 bd 36 3a 1d 3c
       0.09370451 0.024389792 -0.05580799 0.009596398
0000c0 7e ac 6a bd a5 ad 83 bd a4 2c 59 3a ad 63 60 bd
       -0.057293408 -0.064296044 0.0008284545 -0.05478256
0000d0 0e c2 b7 bd 95 06 11 bd 9c 9f dd bc 33 57 6e bd
       -0.0897256 -0.035406668 -0.027053647 -0.05818863
0000e0 de 1d 00 bc cc 3d 87 bb 24 67 02 3d 42 b1 10 3b
       -0.007819621 -0.00412724 0.031836644 0.002207831
0000f0 63 cb c4 3d 73 51 23 bd 7e 0e a1 bd 7e f4 05 3d
       0.096091054 -0.039872598 -0.07864092 0.03270387

layertwo.weight f4 [16, 64]
000000 24 68 e2 3d 90 e3 97 3c bf d5 ea 3d 34 98 8a 3a
       0.110550195 0.018541127 0.1146655 0.0010573925
000010 4c 0b 92 bd 03 02 ee bd 0f c2 e5 bd 3f 08 d8 bd
       -0.07131061 -0.116214775 -0.11218654 -0.10548448
000020 0b 64 0e 3d 80 eb 86 3c ad 1c fc 3c 9e c5 da bd
       0.034763377 0.016469717 0.030775392 -0.10682224
000030 73 02 b2 bd 18 11 43 3d ef 9e ac 3d e2 99 b2 bc
       -0.086918734 0.047623724 0.08428752 -0.021801893
000040 ef 58 ee 3d 5e 7b ef bc 0d 1a 94 3c f0 f9 b3 3d
       0.116380565 -0.02923363 0.018078828 0.08787906
000050 b8 ea a6 bd fd 5e a7 3d 8e c1 01 be 86 94 2a 3d
       -0.08150238 0.081724145 -0.12671492 0.04164555
000060 67 95 e6 3d f1 22 8d bd 17 e4 a8 3d bb 6d 09 3d
       0.11258965 -0.0689143 0.0824663 0.033551913
000070 4e b2 7d bd ae 78 88 bc 2c 89 ad bc 64 cd d1 bc
       -0.061937623 -0.016659107 -0.021183573 -0.025610633
000080 bb 67 67 bd 7d b8 91 3c f2 07 ac bd 45 60 a5 3c
       -0.05649541 0.017788166 -0.08399953 0.020187506
000090 31 28 02 3d e8 d1 70 3d 77 58 a7 3d e1 c0 fe bd
       0.03177661 0.058793932 0.0817117 -0.124391325
0000a0 a5 c1 c8 3c c9 77 25 3d 5e 2a cf 3d 4d d1 ba bd
       0.0245064 0.04039744 0.10115503 -0.09121952
0000b0 5f ce 56 3d dc 46 bd bd ea 72 b1 3d da 9f 8c bd
       0.052442905 -0.09242031 0.08664496 -0.06866427
0000c0 c2 43 b3 3c d8 d7 00 3d 3b 4b 5c 3d 92 1b d7 3d
       0.021882895 0.031455845 0.053782683 0.105033055
0000d0 6a 06 e1 3d 64 3d c5 bd 57 59 95 bd 55 ff 62 3d
       0.109875515 -0.0963085 -0.07292431 0.055419285
0000e0 93 ea b1 bd f0 13 5a bd 28 60 cf 3d 2b af ab bd
       -0.086873196 -0.05324167 0.10125762 -0.0838302
0000f0 65 47 ca bd cc a4 aa bd 4a 6a 86 3a 94 08 dd 3c
       -0.09876899 -0.08332214 0.0010255065 0.02698163
000100 c9 12 08 be 90 5a da bd 37 ba 88 3d bf d5 68 bc
       -0.13288416 -0.10661805 0.06676143 -0.014211117
000110 7e 5d 18 3d a6 9e a0 bc 1b f4 c6 3d 47 67 03 3c
       0.037198536 -0.0196069 0.09714528 0.008020229
000120 86 d0 0f bd 48 2f 70 bd e5 9e 9e 3d 72 d2 b1 3d
       -0.035110973 -0.05863884 0.077451505 0.086827174
000130 d8 1a 8a bb ec d9 32 bd 72 f6 3d 3d 6e a2 9a 3d
       -0.004214626 -0.043664858 0.046377607 0.07550512
000140 90 6d c1 3d 36 b1 2e 3c 04 4f cb bd dd 5f e8 bd
       0.094447255 0.010662368 -0.099271804 -0.113464095
000150 d2 bd d5 3d 98 ce a9 bd a7 46 56 3c e4 22 7a 3d
       0.10436596 -0.08291358 0.013078368 0.06106843
000160 99 54 c2 bd d6 f5 f0 bd a5 b8 c4 bd c8 03 9f 3d
       -0.09488792 -0.117656395 -0.09605531 0.07764393
000170 49 b2 e1 3d 66 8e be bd 8d e9 e2 3d 5e 7d c9 bd
       0.11020333 -0.09304504 0.110797025 -0.09838365
000180 08 50 f6 bd ba 32 d3 bd d5 49 06 be c5 44 ea bd
       -0.120269835 -0.1031241 -0.13114102 -0.11438898
000190 fe e1 ec bd b5 50 ae bd c6 58 95 3d b0 45 13 bd
       -0.11566542 -0.085114874 0.07292323 -0.03595513
0001a0 56 db be 3d d0 ec a0 3d 84 30 59 bd 88 21 be 3d
       0.09319179 0.078576684 -0.053024784 0.09283739
0001b0 85 fa 9a 3d 26 f6 1d 3c c1 b7 34 3d 49 2f b0 3d
       0.07567314 0.009641206 0.044120554 0.08602769
0001c0 f6 d4 d4 bd da 5e ad bc 09 66 e0 bd 79 16 2b bd
       -0.103921816 -0.021163393 -0.10956962 -0.04176948
0001d0 ca 70 c2 3d 95 7e af bd fb 1a f7 bd 2c ca 58 3c
       0.09494169 -0.085690655 -0.12065693 0.013231795
0001e0 6d 2c 9c bd 0b 37 7f bc 58 1a 8c 3d cc 00 14 bd
       -0.07625661 -0.015577088 0.06840962 -0.036133572
0001f0 c0 f9 80 3c 54 0a 0d bc 6e d8 25 bc f2 51 b7 bd
       0.01574409 -0.008608419 -0.010122402 -0.08951177
000200 63 41 c6 bd 81 ef ef bd e1 43 b9 bd 8b 62 11 bc
       -0.0968044 -0.117156036 -0.0904615 -0.008873592
000210 06 0e 00 bd 81 8c 9a bd 3d b6 95 bd 9b 92 94 bd
       -0.031263374 -0.0754633 -0.0731015 -0.07254525
000220 06 4c 42 3d 12 9a 7e bd c7 f9 3e bd 3a f0 ac 3d
       0.047435783 -0.06215865 -0.046624925 0.08444257
000230 80 27 98 3d 12 f7 30 3d 12 9a ca 3d 16 86 43 3d
       0.07429409 0.043204375 0.09892668 0.047735296
000240 a0 21 d5 3c ae 86 c1 bd 75 f8 a6 bd ce 04 02 be
       0.02601701 -0.09449516 -0.08152858 -0.12697145
000250 22 99 9b bd 5e 5d 5b 3c 4a b7 17 bc 20 cd 8c bc
       -0.07597567 0.01338896 -0.009260008 -0.017187655
000260 90 f7 98 3c 56 d9 a2 3d b8 f1 01 3d 27 be 6f bd
       0.018672734 0.0795161 0.03172466 -0.058530953
000270 bb 32 8b bd d7 e3 ed bd 5a 29 8e bd 54 62 32 bd
       -0.067967854 -0.116157226 -0.06941481 -0.043550804
000280 e9 26 d5 3c 98 08 41 bc 1a e4 c2 bb 80 1f ce 3d
       0.02601953 -0.011781834 -0.005947602 0.10064602
000290 b4 24 c6 3c 51 71 a3 3d 6d 23 da 3d 89 f8 93 bc
       0.024187423 0.07980598 0.10651288 -0.018062847
0002a0 be 29 b1 bd 65 f5 4c 3d c6 6d 30 3d 28 4b 16 bc
       -0.0865054 0.050038714 0.043073438 -0.009173192
0002b0 82 6f cf 3d e4 e1 3f 3d 10 46 8f bc 8a 36 97 bd
       0.1012869 0.046846285 -0.017489463 -0.073834494
0002c0 bf 0b 78 3d dc 61 dc 3d 2f 48 89 3d 6f d9 44 3d
       0.060558077 0.10760853 0.06703221 0.048058923
0002d0 99 17 9d bd 3d 3c b5 bd 26 d6 b8 3d 38 f8 a6 3d
       -0.076705165 -0.0884938 0.090252206 0.08152813
0002e0 e0 a7 9c bc 91 8e ea 3b 89 9b c4 3d 59 71 cc 3d
       -0.019123018 0.0071581085 0.095999785 0.09982557
0002f0 3e 05 72 3d 56 83 c2 3d f9 d2 c3 bd 10 c6 5a bb
       0.05908703 0.094977066 -0.09561724 -0.0033382215
000300 24 30 24 bd b4 82 bf bd 76 26 4f 3c a0 06 cd 3d
       -0.040084973 -0.093511015 0.012643447 0.10011029
000310 f9 45 cd 3d 95 e4 54 3d a2 8c b4 bd 12 7c 7c bd
       0.10023112 0.051975805 -0.08815886 -0.06164176
000320 0e e1 f1 3b 8a bb 19 3d 7a d1 b6 bc 1a 01 8e 3c
       0.007381565 0.037532367 -0.022316683 0.01733451
000330 47 d4 3c bd 66 31 c6 bc 24 3a ee 3d 14 38 31 bd
       -0.04610088 -0.024193477 0.11632183 -0.04326637
000340 fd c8 b5 bc 4d 90 8a bd 93 63 aa 3d f5 4a 43 3d
       -0.022190565 -0.067658044 0.083197735 0.047678906
000350 cf 7a cb bc 20 e2 20 3d 92 a2 b1 bd d9 15 b7 bc
       -0.024838833 0.03927815 -0.08673586 -0.022349285
000360 94 e4 cc bc 5e 18 81 3d 38 b9 4e 3d 11 db 14 bd
       -0.025011338 0.06303476 0.050469607 -0.03634173
000370 01 03 a0 bd a0 77 0e bd a3 35 50 3d 25 01 20 bd
       -0.07813073 -0.034782052 0.050832402 -0.03906359
000380 c0 eb eb bd ae 99 00 3e 5c 2f e9 3d da d7 db 3c
       -0.11519575 0.12558624 0.11385986 0.026836324
000390 13 48 a4 3c f4 3d ba 3d 58 2e cf bd a6 46 c8 3d
       0.020053899 0.09093848 -0.10116261 0.097791
0003a0 af d6 6b bd 54 8a 58 bc eb 29 41 3d 3a c0 a8 bd
       -0.057577785 -0.013216574 0.047159117 -0.08239789
0003b0 0a ad b4 3d 6e 22 00 3e 4c 92 e9 bd b1 45 b8 bd
       0.08822067 0.12513134 -0.11404857 -0.089976676
0003c0 0b f3 dd bd de 35 80 bc bb 6c e3 bd 98 b5 a9 3d
       -0.108373724 -0.015650686 -0.11104723 0.082865894
0003d0 7e 00 dc bd ed 51 50 3d 08 16 dc 3d a2 7c 8e bd
       -0.107422814 0.05085938 0.107463896 -0.069573656
0003e0 86 44 e5 bd 84 1b 9e bd c4 53 85 3d cc c5 1e bd
       -0.111947104 -0.07720092 0.06510118 -0.038762853
0003f0 11 19 f2 bc 26 53 49 3d 12 b2 b3 bd 82 43 df bd
       -0.029552968 0.049151562 -0.087741986 -0.10901548

layertwo.bias f4 [16]
000000 8c 6b 3f bd 20 38 e1 bd 01 68 82 3c 88 6f 80 3c
       -0.046733424 -0.10997033 0.015918734 0.015678182
000010 ac 1c 9e bc 3c df dc 3c 2c 80 9a 3d 96 63 77 3c
       -0.019300781 0.026961915 0.07543978 0.015099427
000020 f0 11 2f bc da 88 bf bd 6d 80 9a bd 93 4f 93 bc
       -0.010685429 -0.09352274 -0.075440265 -0.01798228
000030 00 00 37 3d 6b 78 9f 3d d8 f4 d4 bd 6d 16 7b bd
       0.044677734 0.0778664 -0.10398263 -0.061300684

layerthree.weight f4 [2, 16]
000000 d4 35 78 3d 0b e1 24 be fb a1 ea bd 2e 93 0f bd
       0.06059821 -0.16101472 -0.114566766 -0.03505247
000010 5f f3 15 3e 30 a9 c5 bd 23 45 50 3e 83 0f 55 3d
       0.1464362 -0.096514106 0.20338874 0.052016746
000020 ae fc c3 3b b1 28 db 3c c0 e2 6a bd b4 68 50 3d
       0.0059810495 0.026752802 -0.057345152 0.050881103
000030 d3 1e f4 bd 60 43 ca 3d 41 f0 99 bc 6d b2 e1 3c
       -0.11919942 0.09876132 -0.01879132 0.0275509
000040 aa db b9 3d 07 70 6e 3e 87 b7 df bd 41 6a 19 be
       0.09075101 0.23284923 -0.10923677 -0.14981939
000050 1d 50 f1 3d ef 03 f3 bd 08 62 a0 3b ac 66 10 be
       0.117828585 -0.11865985 0.0048944987 -0.14101666
000060 81 e7 2d 3e 23 9f ff 3d 27 fd 65 be 24 a1 72 be
       0.16982843 0.12481525 -0.22459851 -0.23694283
000070 be 8e a0 bd 6c da 5a 3e 3c 4f c5 3c 95 ec a8 3c
       -0.07839726 0.21372384 0.024085633 0.020620624

layerthree.bias f4 [2]
000000 9f a4 48 bd 67 13 46 3e
       -0.04898512 0.19343339
