state_dicts/model20240104-204117.pt (torch, 39255 bytes, 6 tensors)

layerone.weight f4 [64, 128]
000000 56 8f 58 3c 12 15 ac 3a c2 0e 38 3d 16 2a 3e 3d
       0.013217768 0.0013128838 0.04493595 0.046426855
000010 15 c4 63 bd 53 df 91 3d 35 a5 7b bd ff 4a 60 3d
       -0.05560692 0.07122674 -0.06143685 0.05475902
000020 2f f2 8b bc 8b c5 f0 bc b0 10 4e 3c 52 1b 84 3c
       -0.017083256 -0.02939107 0.012577221 0.016126309
000030 60 2b 43 3d 43 04 ab 3c 1d a7 41 bd 1c d0 92 bd
       0.047648787 0.020876056 -0.047278512 -0.071686
000040 00 99 a0 bc e6 41 cd bc c8 f8 f0 bc 33 3d 56 bd
       -0.019604206 -0.025055837 -0.029415503 -0.052304458
000050 bc ed b9 bd 14 e2 a7 bd a0 b2 cb 38 c0 fb 57 bc
       -0.09078547 -0.08197418 9.713066e-05 -0.0131825805
000060 d0 3a 5f bd 1a c8 64 3d 09 dd a1 3d 7e 54 a6 bc
       -0.054499447 0.055854894 0.07903487 -0.02030396
000070 48 64 91 bc 4b c9 2a bd 5d ba 8d 3c 38 9c 27 bc
       -0.017748013 -0.041695874 0.017300779 -0.010230117
000080 bb cd fd bc f2 fe 23 bb 31 a3 1f bd 0f 6b 46 bd
       -0.030981889 -0.0025023785 -0.03897399 -0.048441943
000090 e1 98 38 bd 6c d7 93 3d a0 ac 10 bd 0e 86 3c 3d
       -0.04506767 0.07218823 -0.035320878 0.046026282
0000a0 d5 19 8a bd 48 16 01 3d 5b 28 bd bc a3 f4 48 bd
       -0.06743208 0.03151539 -0.023090532 -0.04906143
0000b0 1b 89 68 bd 10 c9 c9 bc 22 ae 31 3d 34 8d d1 3c
       -0.05677138 -0.024632007 0.043378957 0.025580026
0000c0 f2 67 44 3b 70 ca ac 3d cc 72 7d 3d 39 cf d2 bb
       0.0029969183 0.084370494 0.061877057 -0.0064333943
0000d0 d8 d4 d0 3c 44 d3 94 bc 24 3a c2 bc 2d 2c a0 3d
       0.025492117 -0.018167146 -0.023709364 0.07820926
0000e0 52 2b 33 bd 22 54 e4 bc 70 38 4c 3d 2a 9b fb 3a
       -0.043742485 -0.027872149 0.04985851 0.0019196023
0000f0 4d 3e 1e 3d d4 12 03 bd 25 90 9e bd 2e 2f 23 3c
       0.038633633 -0.032000378 -0.07742337 0.009959979
000100 dc 36 28 bd f3 5b f0 3c aa 01 e9 3c 6c 30 39 3c
       -0.041067943 0.02934072 0.028443176 0.011303049
000110 5e df 6d bd ec 57 17 3d a6 44 3f 3d 0e 5d 39 bd
       -0.058074348 0.036949083 0.046696328 -0.04525476
000120 bc 44 b2 bd f8 73 9c 3c 3a 3e cc 3c 24 ab 8e bd
       -0.08704516 0.019098267 0.024932016 -0.06966236
000130 90 30 72 3a b5 45 6e bb 0c 73 a0 bd e0 dd 16 b9
       0.0009238804 -0.0036357467 -0.078344434 -0.0001438777
000140 49 59 54 3d a3 25 06 3d 54 c7 1d bd b9 45 9d 3d
       0.05184296 0.032750737 -0.038520172 0.07679314
000150 a3 77 71 3d 8a 5a 1f 3d 3f ae 05 bc 18 aa 71 3d
       0.058951985 0.038904704 -0.008159219 0.059000105
000160 a0 32 9e bd d4 32 02 3d eb 28 9c 3c cd 4c 19 bd
       -0.077245 0.031786755 0.01906248 -0.03742676
000170 26 68 2c 3c fc 38 3b bd d6 bd a3 bc 0a a3 32 bc
       0.010522878 -0.04570864 -0.019987982 -0.010903129
000180 f8 03 15 bd 62 9e 54 3d 4a 29 35 3c bc c3 52 3a
       -0.036380738 0.051908858 0.011057207 0.0008040031
000190 d8 00 3f 3d 81 21 cc bc 7e 04 a3 bc 2a 68 7c 3d
       0.046631664 -0.02491832 -0.019899603 0.061622776
0001a0 47 05 b4 bd b3 64 ce 3c 38 ee 7f bd bc 7b 5d ba
       -0.08790069 0.025194502 -0.062483042 -0.0008448919
0001b0 3d 8a f1 bb 65 22 52 bc 32 a3 ab bd 86 c3 6b bd
       -0.0073712156 -0.012825583 -0.083807364 -0.057559513
0001c0 08 52 2f bd c1 60 9c bd 67 36 34 bd 89 96 63 3d
       -0.04280284 -0.07635642 -0.043997195 0.055563483
0001d0 f2 da d1 bc 8e ec 61 3d 47 7c b1 bd cb f5 10 3d
       -0.025617097 0.055157237 -0.08666282 0.035390656
0001e0 a0 f2 ef 3c 9f 80 c0 3c 5a 91 ab 3d bd bb 1d 3d
       0.029290497 0.023498831 0.08377333 0.03850912
0001f0 ce 8f 16 3d 7d 28 88 3d 86 39 04 bc 7f 97 82 3d
       0.036758237 0.066483475 -0.008070355 0.06376552
000200 db 70 7f bc 6e ba 45 bd 8c b2 a9 3d 8d f6 9b 3d
       -0.015590872 -0.048273496 0.08286008 0.07615385
000210 8e 90 8c 3d e4 81 12 bd 58 fa 73 3d 37 7c 95 3d
       0.06863509 -0.035768405 0.05956492 0.07299083
000220 3e bb 16 3d 5e 2c d2 3b bf 08 1d bb a0 ee 94 3d
       0.03679966 0.0064139804 -0.0023961512 0.072720766
000230 81 87 33 3d 72 62 7e bd 6e b0 1d bd fc ef 40 bd
       0.0438304 -0.062105604 -0.038498335 -0.047103867
000240 4f 8d ad bd ae 07 87 3c e0 5c c0 39 e1 ec 08 3d
       -0.08474218 0.016483154 0.0003669029 0.03342903
000250 e7 39 b3 3d 9f f3 95 3d 0c 7c 50 bd 1a 4f b4 3c
       0.08751278 0.07321858 -0.05089955 0.022010375
000260 f0 9e 28 3d 62 48 4d 3d af 75 31 3d 97 97 0f 3c
       0.0411672 0.050117858 0.043325122 0.008764169
000270 0c ee 59 3d 42 8f 97 3d 46 ad 80 bb 64 b5 8a bd
       0.053205535 0.07400371 -0.003926906 -0.06772879
000280 2a bb 0d bc 72 3f a5 bd 4b 69 51 3d d3 5d 94 3c
       -0.00865058 -0.08068742 0.051125806 0.018111145
000290 e6 1b 94 ba 98 8c 45 bc 29 4d 46 bc b1 74 53 bd
       -0.0011299818 -0.012057446 -0.012103357 -0.051624957
0002a0 63 60 8a bd 71 f9 91 3d d3 e8 6e 3c c9 ab 17 3d
       -0.067566656 0.07127655 0.014581877 0.03702906
0002b0 6d a3 c9 3c 5e 86 d0 3c ee 5b 2f 3c ac 7f a9 3c
       0.02461406 0.025454696 0.01070307 0.020690762
0002c0 45 5b e2 3c 37 f2 84 3d d1 cb 1d bd 5e a1 1e bd
       0.027631411 0.06491511 -0.038524453 -0.03872811
0002d0 c3 b9 27 bd ba 5d 93 3d f6 7d 80 bd 3e f7 f8 bc
       -0.04094864 0.07195611 -0.06274025 -0.030391332
0002e0 11 f6 aa bd f6 d3 28 3d 10 ee 62 ba 0d 18 b4 3d
       -0.08347715 0.041217767 -0.000865669 0.0879365
0002f0 e2 64 31 3d e9 1f 15 3d 4f d4 e3 3b 03 63 23 3d
       0.0433091 0.036407385 0.0069527994 0.039889347
000300 2d b0 8b 3d 4d 02 de bc 17 7b 80 3d 8a 69 26 bc
       0.06820712 -0.027100706 0.062734775 -0.010156998
000310 ba b2 08 bc 21 18 85 bd e7 69 aa bd 7d 98 eb bc
       -0.008343393 -0.06498743 -0.083209805 -0.028759236
000320 6b 5b b2 3d d9 32 57 3d 56 69 ae 3d a0 96 aa bd
       0.08708843 0.052538726 0.08516185 -0.08329511
000330 ab e6 72 bb b9 cc 41 3d 08 0c 48 bd 17 2d a6 bd
       -0.0037063758 0.04731438 -0.0488396 -0.08114069
000340 4d 20 41 bc f4 f0 1e 3d 24 cc 8d ba 0f ca 9c 3d
       -0.011787486 0.03880401 -0.0010818285 0.07655727
000350 7b 84 10 3d bc 0d 81 3d 90 a2 e6 3b 9b bf ae bd
       0.035282593 0.06301448 0.007038422 -0.085326396
000360 5c d3 ea 3c 39 c2 a8 3c 4e 81 4c 3d e8 4d 12 3d
       0.028665237 0.020600425 0.049928002 0.03571883
000370 9a 03 24 3d b0 6b 65 3d 0c 2f b1 3c d4 fa 08 3d
       0.040042497 0.056010902 0.021628879 0.033442333
000380 bc ab 64 3c 35 9d 85 3d 1b 89 62 3c 2a 03 ad bd
       0.01395696 0.065241255 0.013826634 -0.08447869
000390 ba fb 4b 3d 10 e4 8d bc b6 12 8b bd 51 50 9a 3d
       0.049800612 -0.017320663 -0.06790678 0.075348504
0003a0 d1 41 ab bd 22 f7 a7 bd a9 cd 91 bc de 10 a2 3d
       -0.08362163 -0.08201434 -0.017798262 0.079133734
0003b0 b0 dc 63 3c e3 c6 50 3d 9a 80 77 bd 6d 42 0d bd
       0.0139075965 0.050970923 -0.06042538 -0.034487177
0003c0 18 92 69 bd 28 01 21 3c 0a 07 93 3b 72 11 de bb
       -0.05702409 0.009826936 0.004486923 -0.006776982
0003d0 b6 c1 72 bd 8b 46 02 3c ce 2b 17 bd b4 ff 4e 3d
       -0.05926677 0.007951389 -0.03690701 0.050536826
0003e0 c7 25 74 3d 40 17 1c 3d 0f 03 73 bb 69 ed 48 bd
       0.05960634 0.03810811 -0.003708068 -0.049054537
0003f0 95 3d c5 3c bc 9e a0 bc c4 7e 9d bc ea dd eb bc
       0.024077216 -0.01960694 -0.019225486 -0.02879234

layerone.bias f4 [64]
000000 36 c1 22 3d db a8 0c 3d cd 6c 87 3d 28 85 a4 3d
       0.03973504 0.03434072 0.06612549 0.0803321
000010 d6 14 ba 3c ba 15 a2 bd b0 05 de bc 04 1d b6 3d
       0.022715013 -0.079143 -0.027102321 0.08892253
000020 97 b7 68 bd 60 81 ce b9 a0 37 66 bd 30 f1 eb bc
       -0.05681571 -0.00039387774 -0.056205392 -0.02880153
000030 2d 31 8c bd c4 dd 94 bd 3a 09 ee 3c 44 92 f2 bc
       -0.06845317 -0.07268861 0.029057134 -0.02961076
000040 27 77 4b 3d 8d b3 71 3d 69 40 18 3d 34 d4 41 bd
       0.04967418 0.059009124 0.0371708 -0.047321513
000050 2b f3 87 bc 09 fd 05 bd 5c f2 a2 3c f3 b5 af bd
       -0.016595444 -0.032712016 0.019890957 -0.08579626
000060 4d 4d c4 3c 7f 0e 83 bd a9 53 c6 3c 76 93 74 3d
       0.023962641 -0.06399249 0.024209814 0.059710942
000070 9d 8d 10 bd 50 79 b4 3c e7 95 1b bd 86 82 4d 3d
       -0.035291303 0.022030503 -0.037984755 0.050173305
000080 06 99 06 bc 16 79 cf ba a8 c6 92 bd 46 99 67 3d
       -0.008215195 -0.0015828933 -0.07166797 0.056542657
000090 2c e7 ce 3a 0a a0 a1 bd 40 0e ba 3d 35 75 4d bd
       0.0015785447 -0.07891853 0.09084749 -0.050160605
0000a0 7c d1 c2 bc 39 a2 a4 bc 77 18 ac 3d 0f ee 78 3d
       -0.02378153 -0.020096885 0.08403104 0.060773905
0000b0 02 c7 fc 3c 88 43 cb 3c d6 13 63 bd 92 0b 1f bd
       0.030856613 0.024812475 -0.05543884 -0.038829394
0000c0 cb 7a 9a bd df 9c ac 3d 9a 87 77 bc 44 e6 15 bd
       -0.07542952 0.08428358 -0.0151080135 -0.03659655
0000d0 75 58 04 bc 14 9b 10 bc 00 5c bb bc 26 09 aa bd
       -0.00807773 -0.008826036 -0.022871017 -0.08302526
0000e0 37 2d 17 3d 23 65 c9 bc 65 96 0c 3c 90 93 7f 3c
       0.036908355 -0.024584359 0.008580779 0.0155991465
0000f0 ba 40 a2 bd b6 42 c2 bc 15 df 77 bc 1f 28 0a 3c
       -0.07922502 -0.02371345 -0.0151288705 0.008432417

layertwo.weight f4 [16, 64]
000000 12 c5 d8 bb 9d 8f 64 3d 7d ec 87 3d 4b 94 69 3d
       -0.0066152895 0.055801023 0.066369034 0.05702619
000010 1f e8 d6 bd 7c 9f 60 bb a1 71 f7 3d cb ac 88 3d
       -0.10493492 -0.0034274748 0.1208222 0.06673583
000020 77 0c c2 3d ff 9a 18 3d 80 0c 17 bd 66 92 a5 3b
       0.09475034 0.03725719 -0.036877155 0.0050528524
000030 c0 a8 11 3d 6f 02 54 bc 48 a4 89 bd cc e5 13 bd
       0.035561323 -0.012940033 -0.06720787 -0.036107823
000040 67 9e 00 bd 1b df fc bd 61 19 2b bd 62 06 d7 3d
       -0.031401064 -0.123472415 -0.04177225 0.10499264
000050 1c 77 ef 3d 1a 36 df bd d7 6b 17 3d 02 6e 90 3d
       0.1169264 -0.10898991 0.03696808 0.07052232
000060 76 6e b0 3d 1c 9a d5 bd 88 a5 e6 3c 91 cc e3 bd
       0.08614819 -0.10429785 0.028155103 -0.11123002
000070 0e 4b 97 bd 07 a3 8f bd 3a bc a0 3a 3e 52 0e 3c
       -0.073873624 -0.07013517 0.0012263127 0.0086866
000080 77 61 9a bd 97 32 ee bd 17 88 e5 3d 3b 88 0b 3b
       -0.07538121 -0.11630743 0.11207598 0.0021290916
000090 19 ce b7 bd 44 9f de 3b 09 c6 6a 3d 37 e3 db 3d
       -0.08974857 0.0067938883 0.057317767 0.10736697
0000a0 b9 da 7d bd 76 1b b9 bd 45 8d 9d 3d 9c 49 11 bd
       -0.06197617 -0.09038441 0.07692961 -0.03547059
0000b0 da 82 bd 3d 5f 41 89 bd d9 36 b2 bd 61 6e bd bc
       0.092534736 -0.06701922 -0.087018676 -0.023123922
0000c0 0e 3d 91 3c b1 22 f3 3d ba 29 a4 3d e2 58 9e 3d
       0.017729308 0.11871851 0.08015771 0.07731797
0000d0 49 64 1f bd da ee a6 3d b4 cf d3 bd c3 92 a4 3d
       -0.038914 0.08151026 -0.103423506 0.08035805
0000e0 92 86 b9 3d 1d 47 7e bc 60 ea 93 bc e0 15 da bc
       0.090588704 -0.015519884 -0.018056095 -0.026621759
0000f0 24 a4 f5 bd 58 b0 da bd 1e f6 8e 3d 78 8f 6e bc
       -0.11994198 -0.10678166 0.06980537 -0.014560573
000100 23 5d 9a 3c 55 6c d2 3d e4 2f ab 3c c7 44 5d 3d
       0.01884324 0.10274569 0.02089686 0.05402067
000110 ce 60 9c 3d fa 41 ca 3d fc 51 d0 3d 63 bf 82 bd
       0.076356515 0.09875865 0.10171887 -0.0638416
000120 c7 b4 33 bd 6c 03 c8 bd 26 a7 6f bd 99 3d c1 bd
       -0.043873575 -0.09766278 -0.058509015 -0.09435577
000130 ff 28 9e 3d 46 1a e0 3d 0f 21 f2 3d a0 4a de 3d
       0.07722663 0.10942511 0.11822712 0.10854077
000140 28 d3 23 3d 46 e9 c8 bd 08 2e 81 bd c4 92 19 bd
       0.039996296 -0.098101184 -0.06307608 -0.037493482
000150 e6 c6 da bd 6c 7e 03 3d 04 bb 88 3d a1 5e 98 3d
       -0.10682468 0.032102987 0.066762954 0.07439924
000160 8f f7 8f 3d 0c 21 84 3d 52 fd ad bd 00 7e f0 3d
       0.0702964 0.06451616 -0.08495583 0.117427826
000170 cd 66 d8 bd 3a d4 5a 3d 53 43 75 bd 8c e0 5b 3d
       -0.10566483 0.05342505 -0.05987866 0.05368094
000180 1c 02 bf 3d e7 6c 52 3d e2 e7 9d bb 96 ba de bd
       0.09326574 0.05137339 -0.0048189024 -0.10875432
000190 00 f5 a7 bc 8b 43 c9 bd e0 b4 76 bd 76 04 e1 bb
       -0.020502567 -0.09827336 -0.06023109 -0.006866987
0001a0 37 57 40 bd 60 d0 b3 3d 58 81 0a 3d 1d b1 c1 3d
       -0.046958175 0.08779979 0.033814758 0.0945761
0001b0 24 ed ac 3c b3 be 69 3d 72 96 9c 3d b5 72 21 bc
       0.021109171 0.05706663 0.07645883 -0.009854008
0001c0 70 80 0a 3d c9 9f cf 3c 28 93 ad bd d5 5d d6 3d
       0.033813894 0.025344746 -0.084753335 0.10467116
0001d0 48 2e 9d bd 8e 6a 9e bd 0c a2 0f bd 28 75 ff bb
       -0.07674843 -0.077351674 -0.03506665 -0.0077959485
0001e0 ec fc da 3d 37 c7 d7 3d 23 2a 02 be fb 66 ea 3d
       0.10692772 0.10536044 -0.12711386 0.11445423
0001f0 8f 40 d9 bd 00 15 d1 3d fe 35 c1 3d d8 31 c7 3d
       -0.10608017 0.102090836 0.09434126 0.09726304
000200 d3 c4 24 bd fd 9e b2 3d 7f 26 38 bd 23 d3 91 bd
       -0.04022677 0.08721731 -0.044958588 -0.07120349
000210 23 4e ab 3d f4 ca 6a 3d 33 b2 ee 3b de 6a 6f 3d
       0.08364513 0.057322457 0.0072844266 0.058451526
000220 99 07 e0 3d 75 11 89 bd f1 93 59 bd cc 7b 2e bd
       0.10938949 -0.06692783 -0.053119604 -0.04259853
000230 32 ce f1 bc bd 4e 56 3d 12 46 b4 bd 7b 5d 9d bd
       -0.029517267 0.052321184 -0.08802427 -0.076838456
000240 5f 92 a1 3d 34 59 89 3d 31 71 a4 3d 00 7e bf b7
       0.07889246 0.06706467 0.08029402 -2.2827648e-05
000250 a4 11 b6 bd c8 79 42 3d 54 ee c3 3d 72 58 6e bd
       -0.088900834 0.04747942 0.09566942 -0.058189817
000260 9d 77 99 bd 8b 9d 5e bd e1 1b e4 3c d6 ea cf bd
       -0.074935175 -0.054349463 0.027845325 -0.10152213
000270 92 5f 0d bc 44 46 46 3c ce 64 82 bc b3 1b bd 3d
       -0.008628743 0.012101714 -0.015917208 0.09233799
000280 20 8b fd bd e7 39 02 bd d9 40 ca 3d ec 1a 2c 3d
       -0.123800516 -0.0317935 0.0987565 0.042017862
000290 17 df 82 bd d4 7c e9 bd fb 6b ce bd 8d 11 8e bd
       -0.06390207 -0.11400762 -0.100791894 -0.06936941
0002a0 f8 07 d6 bd f4 a6 4a 3b f2 4a b2 3d 5a 67 02 be
       -0.10450739 0.0030922266 0.08705701 -0.12734738
0002b0 e4 99 f1 3d 11 e7 eb 3d ce 0d 0f 3c 56 3e e0 3d
       0.117969304 0.11518682 0.008731319 0.1094939
0002c0 08 5f 8f 3d 68 2b f4 bd 06 16 64 bd a3 fc 35 bd
       0.07000548 -0.119223416 -0.055685066 -0.044430386
0002d0 4e 2e 32 bc 72 44 41 bb 0e 70 e1 bd ba b7 36 bc
       -0.010875298 -0.002949026 -0.11007701 -0.011152202
0002e0 f7 d2 9b 3d fe 96 26 3c e1 8f 34 bd f3 8b 2e bd
       0.07608598 0.010167835 -0.044082526 -0.042613935
0002f0 7c 39 b1 bc a0 5a 94 3d 2c bd 84 3d 5c 01 53 3d
       -0.021633856 0.07243848 0.06481394 0.05151497
000300 54 1d c5 bd 31 f6 32 3d 3b e4 a7 bd eb fd b7 3d
       -0.096247345 0.043691818 -0.081978284 0.08983978
000310 ec ff 36 3d 0a d6 77 bd b8 5b 8f bd 3c 20 b0 3d
       0.04467766 -0.060506858 -0.06999916 0.08599898
000320 f4 62 36 bd d8 93 4d bd c3 f1 d2 bd 27 b5 95 3d
       -0.044527963 -0.050189823 -0.10300019 0.07309943
000330 4a e5 6a bc 84 dc 96 3d b8 6a 07 bd 4f c5 00 3e
       -0.014336893 0.07366279 -0.03306076 0.12575267
000340 be 8f 1d bc 6a a4 a6 3d 55 48 dc 3d 5a 1f 78 bd
       -0.00961679 0.08136828 0.10755984 -0.060576774
000350 15 4a 15 3d 55 31 b7 bd 26 ce c8 bd 31 e5 4e 3d
       0.036447603 -0.08944956 -0.09804945 0.050511543
000360 4d cd 02 3d 57 84 01 bd 0b cf 81 bb e2 55 7f 3d
       0.03193407 -0.03162035 -0.003961449 0.062337764
000370 d2 bb 6c bd f9 94 c1 3d 1c 31 43 3d 2f 0a 5c 3b
       -0.057796307 0.094522424 0.047654256 0.0033575406
000380 d1 c3 20 3d b4 ce f2 bc 4f d9 d7 bb 16 64 81 bd
       0.039249245 -0.02963958 -0.0065871845 -0.06317918
000390 5c d4 3b 3d d4 69 a2 3c 32 c9 f2 3d da 0c ba bd
       0.04585682 0.019825853 0.11854781 -0.090844825
0003a0 97 fb c6 bc 66 76 ab 3d dc 9b f0 bd 0a 0d 80 bc
       -0.02428989 0.08372192 -0.11748478 -0.015631218
0003b0 48 82 68 bd 50 c4 d5 bc 5d 71 e0 3d 37 9b 02 3d
       -0.05676487 -0.026094586 0.10959122 0.031886306
0003c0 28 61 f3 bd 9c a4 6e 3d 30 cb 9a bd 09 80 11 bd
       -0.118837655 0.058262452 -0.07558286 -0.035522494
0003d0 2e 87 62 3c 63 77 14 3c 64 4b e7 bd 38 1d 6b bd
       0.013826175 0.009061667 -0.112936765 -0.057400912
0003e0 cc 9e 52 3d 76 fe ba bd c0 72 81 3d 33 18 05 bd
       0.05142097 -0.09130566 0.06320715 -0.03249378
0003f0 ef 57 f6 bd 82 e2 94 bd b1 ae d8 bd 06 af 5d bd
       -0.12028491 -0.072697654 -0.10580195 -0.054121993

layertwo.bias f4 [16]
000000 7c 67 5c bd 1e 3d a0 3c 12 3d f6 bb fd 8d ef 3d
       -0.053809628 0.019560393 -0.0075146044 0.11697004
000010 e8 27 5d bd eb 62 d2 bd 26 ac ad 3d 7a ee 93 3d
       -0.053993136 -0.10272773 0.084801 0.0722322
000020 d5 6f 02 3d cf 28 5a 3c 16 c8 f4 bd d7 c5 53 3d
       0.031844933 0.013315394 -0.11952226 0.051702347
000030 15 97 82 3d 06 65 01 3c a6 d8 ae bd e0 5c 3b 39
       0.06376473 0.007897621 -0.08537416 0.00017868308

layerthree.weight f4 [2, 16]
000000 f2 08 dd bd 80 a2 07 be ae a3 39 3e 3e 4e 22 be
       -0.10792722 -0.13245583 0.18128845 -0.1585016
000010 49 9c c2 bd 8e b5 5b be 83 9b ab 3d 06 98 4c 3d
       -0.09502465 -0.21455976 0.08379271 0.04994967
000020 5f 38 e0 3d f5 90 da bd 6e 81 49 3e 78 53 d0 3d
       0.10948252 -0.106721796 0.1967828 0.101721704
000030 24 c6 04 3e 82 d1 70 be 94 d7 65 be 20 6c 4a 3e
       0.1296621 -0.23517421 -0.22445518 0.19767809
000040 bb a9 3e 3e 71 d2 88 3d 6e 4a 49 be 64 b9 e4 3c
       0.18619435 0.066807635 -0.19657299 0.027920432
000050 98 fc 6b be d4 a5 35 3e 38 01 2c be 72 b3 6a be
       -0.23045576 0.1773904 -0.1679734 -0.22920015
000060 8e 06 55 bd 86 dd 25 bd 42 69 90 3a 44 b5 4b be
       -0.052008204 -0.040494464 0.0011017697 -0.19893366
000070 bc c8 a9 bc 28 2f 6a 3c ea ac 5e 3e 18 00 1a 3e
       -0.0207256 0.0142934695 0.21745649 0.15039098

layerthree.bias f4 [2]
000000 a4 11 69 be b6 20 48 be
       -0.22760636 -0.19543728
