state_dicts/model7853.pt (torch, 7511 bytes, 6 tensors)

layerone.weight f4 [64, 4]
-0.62171555 -0.20994973 -0.4700007 1.3293142 -0.25757903 0.33729357 -0.16894148 0.3028665
-0.04476595 -0.57215476 -0.05748537 -0.9342202 -0.460549 0.22473186 -0.35729492 0.91142523
0.1366521 -1.0107089 -0.43675986 -0.5858915 0.24300723 0.3565462 0.47798204 -0.57461184
0.24268642 0.26173747 -0.5712326 -0.68120104 -0.1314421 -0.39843816 -0.11888561 -0.7105697
0.2723339 -0.6091831 0.00874175 -0.1498495 -0.040289007 -0.4400805 -0.05240924 -1.2988878
0.27092355 0.14338669 0.23195173 -0.97881955 0.30359194 0.6773941 0.4154695 0.77760625
-0.13144645 -0.60249287 0.11368211 -0.18227959 -0.3257193 0.03755426 0.52002734 0.26988697
-0.2554177 -0.40380663 -0.35277706 0.7563576 -0.04524304 -0.60199755 -0.010149388 -1.0341359
-0.05222533 0.096089326 0.29524028 1.0306168 -0.42990905 0.23394024 0.014809295 -0.06647694
-0.030716684 0.13473037 0.115856 1.2636139 -0.03874965 -0.4215956 -0.05480734 -1.559219
0.16163725 0.43106985 0.37915292 0.6143763 -0.15952997 -0.35546273 0.21469694 0.14708649
-0.03788536 0.109909244 0.50350064 0.9640699 -0.4846103 0.29978666 0.008618012 -0.26863223
0.11167542 0.057184003 -0.5520805 -0.79424095 0.53035814 0.082316145 -0.24312349 0.47165972
-0.042009648 -0.54365605 0.12892967 -1.4306504 -0.3244417 0.40867585 -0.34783494 -0.0429558
0.055941038 -0.67207503 0.13067329 0.06874626 -0.18349722 0.6007498 0.018981062 0.04825266
0.16348211 0.2648588 0.10181825 0.88156515 -0.27579686 -0.4143001 -0.13657646 -0.026572824
0.48294404 0.6349836 -0.19747028 -0.017418507 -0.5444847 0.05843127 -0.038428996 0.6535925
-0.4643057 0.19666362 0.019970309 -0.53033364 -0.31440756 0.28898975 0.37127775 0.7305946
0.28653875 -0.2099615 -0.29890606 -0.44788694 -0.22585946 -0.078361444 0.5119664 0.56331253
-0.41740057 0.13530947 0.2865881 0.0735923 0.12187828 -0.5157768 -0.42428347 0.17461163
-0.40521193 0.075272836 0.37692124 0.109649055 0.22437471 0.22643986 -0.16856818 0.9974057
0.36249602 -0.1938872 0.59491247 -0.09173146 0.15351655 -0.09524251 0.35425344 0.46671438
-0.041438363 -0.54583454 0.20882018 -1.4498359 -0.47208458 0.24761912 -0.8463325 -0.2827144
0.2957004 -0.09076601 0.42922553 0.37851322 -0.08539475 0.5161255 -0.16340894 0.21598874
-0.65080494 -0.65314406 0.32452488 0.72638744 -0.21602257 0.23015988 0.21753821 0.37521192
0.045256067 -0.30094403 -0.101156265 0.06746092 0.27454835 -0.23642877 -0.6022166 -0.44312614
-0.10955619 -0.1357685 -0.6489265 1.0089638 0.21673077 -0.27490404 0.94329983 0.2356845
-0.2771315 0.48292777 0.4194359 0.4586628 0.14350784 -0.9040842 -0.5101135 -0.30004758
0.056508772 -0.5241886 -0.5438436 -0.5650844 0.5704828 0.24198602 0.64918005 0.7569495
-0.04226911 -0.490742 -0.04653893 -1.1223211 -0.2129146 0.1551938 0.14273807 0.5439038
0.4644284 0.0021216597 -0.14164329 0.4293235 -0.042757582 -0.4969292 -0.1002532 -1.0914574
0.32316205 -0.48273715 0.71637607 0.63098663 -0.04336545 -0.52149904 -0.07870654 -0.90786177
00000000: c028 1fbf 10fd 56be efa3 f0be f826 aa3f
00000010: 66e1 83be beb1 ac3e fffe 2cbe 5111 9b3e
00000020: 805c 37bd bc78 12bf c875 6bbd 0e29 6fbf
00000030: 14cd ebbe 1c20 663e 5cef b6be 2a53 693f
00000040: 87ee 0b3e e95e 81bf fd9e dfbe fcfc 15bf
00000050: e3d6 783e 398d b63e 10ba f43e c319 13bf
00000060: ca82 783e 7402 863e 4d3c 12bf 3163 2ebf
00000070: c298 06be 1600 ccbe 4c7a f3bd e5e7 35bf
00000080: 596f 8b3e 6cf3 1bbf 8f39 0f3c 2672 19be
00000090: 1606 25bd 3b52 e1be 12ab 56bd f541 a6bf
000000a0: 7eb6 8a3e f6d3 123e c184 6d3e eb93 7abf
000000b0: 6770 9b3e b369 2d3f 6bb8 d43e 3411 473f
000000c0: e699 06be f93c 1abf 2bd2 e83d 80a7 3abe
000000d0: aec4 a6be 7fd2 193d 8320 053f a02e 8a3e
000000e0: 1cc6 82be bebf cebe 329f b4be a7a0 413f
000000f0: c450 39bd 831c 1abf 9e49 26bc 915e 84bf
00000100: 3aea 55bd 7bca c43d bc29 973e 40eb 833f
00000110: 0a1d dcbe 088e 6f3e afa2 723c 1025 88bd
00000120: 8ea1 fbbc c2f6 093e e945 ed3d 1abe a13f
00000130: f4b7 1ebd 61db d7be a97d 60bd 7d94 c7bf
00000140: 3c84 253e 30b5 dc3e 5520 c23e c447 1d3f
00000150: d35b 23be 36ff b5be 84d9 5b3e d79d 163e
00000160: ae2d 1bbd 1918 e13d 6be5 003f 49cd 763f
00000170: d71e f8be a37d 993e 9032 0d3c 2a8a 89be
00000180: 15b6 e43d c639 6a3d 2655 0dbf 6053 4bbf
00000190: 8dc5 073f 5e95 a83d 5df5 78be 627d f13e
000001a0: 4f12 2cbd 0b2d 0bbf 2406 043e 8d1f b7bf
000001b0: 391d a6be f63d d13e 6c17 b2be 6cf2 2fbd
000001c0: 6e22 653d 1c0d 2cbf 38cf 053e d7ca 8c3d
000001d0: b2e6 3bbe bdca 193f 2c7e 9b3c 95a4 453d
000001e0: db67 273e 939b 873e 1686 d03d 41ae 613f
000001f0: 3f35 8dbe 251f d4be b3da 0bbe 40af d9bc
00000200: 7144 f73e 498e 223f a635 4abe 42b1 8ebc
00000210: 5963 0bbf a155 6f3d b967 1dbd d751 273f
00000220: 7ab9 edbe 3062 493e c698 a33c f2c3 07bf
00000230: 07fa a0be 77f6 933e 1e18 be3e 3f08 3b3f
00000240: 35b5 923e 2600 57be 370a 99be 7051 e5be
00000250: b447 67be f77b a0bd 3b10 033f 4035 103f
00000260: 87b5 d5be 918e 0a3e adbb 923e 8fb7 963d
00000270: 529b f93d f309 04bf af3b d9be 64cd 323e
00000280: f077 cfbe a528 9a3d d2fb c03e af8f e03d
00000290: 7cc2 653e dadf 673e 239d 2cbe fb55 7f3f
000002a0: 1499 b93e 5e8a 46be 2f4c 183f b4dd bbbd
000002b0: 7133 1d3e 810e c3bd b560 b53e 30f5 ee3e
000002c0: 46bb 29bd d0bb 0bbf f5d4 553e 3994 b9bf
000002d0: 12b5 f1be de8f 7d3e 3fa9 58bf f1bf 90be
000002e0: 0b66 973e 88e3 b9bd 73c3 db3e 7ccc c13e
000002f0: 71e3 aebd cd20 043f ac54 27be 272c 5d3e
00000300: 279b 26bf 7334 27bf 2028 a63e 87f4 393f
00000310: 0535 5dbe 08af 6b3e 56c2 5e3e c71b c03e
00000320: 6d5e 393d 5615 9abe 042b cfbd f328 8a3d
00000330: 9a91 8c3e 621a 72be de2a 1abf 6ee1 e2be
00000340: ff5e e0bd e606 0bbe 0c20 26bf ba25 813f
00000350: acee 5d3e 39c0 8cbe 197c 713f 4757 713e
00000360: 2ee4 8dbe 4f42 f73e 4dc0 d63e dad5 ea3e
00000370: b8f3 123e 1072 67bf cc96 02bf d69f 99be
00000380: be75 673d 3931 06bf 5639 0bbf 5fa9 10bf
00000390: 290b 123f 2fcb 773e aa30 263f 71c7 413f
000003a0: 6022 2dbd 8942 fbbe 9b9f 3ebd 38a8 8fbf
000003b0: 4906 5abe 20eb 1e3e ee29 123e 483d 0b3f
000003c0: 8fc9 ed3e 8b0b 0b3b f00a 11be 4ad0 db3e
000003d0: 9322 2fbd 816d febe 8d51 cdbd e0b4 8bbf
000003e0: 7f75 a53e 5329 f7be 6c64 373f 5788 213f
000003f0: f89f 31bd f680 05bf e530 a1bd a169 68bf

layerone.bias f4 [64]
0.08535035 4.8794284 2.4772215 0.66672784 -0.59627223 -0.04544322 -0.1248353 1.485846
-0.44005775 1.7317723 -0.8537556 -0.046902105 1.1074387 -3.106702 -0.17890394 2.8515153
-1.2763695 0.5044209 -1.7558845 2.2104013 -0.9796826 -0.13874586 -1.9700764 5.0805044
-4.1130824 0.056188848 2.6322975 1.3001704 -0.44612095 1.7211304 -1.3791432 -1.5000675
0.1862818 1.2898034 -2.1893835 1.3685077 3.6146266 -3.8708653 1.6052796 -1.1672597
-4.3131967 -1.4000224 -0.18890537 -1.6354158 2.4379084 1.7283356 -1.8556359 0.29848886
-0.6484665 0.22002983 0.57789934 1.947878 -3.0042448 -0.78053343 1.9866036 -0.72771317
-0.28051552 0.36671117 1.9336803 -3.650433 -0.50711185 2.090413 -2.7198455 1.9689449
00000000: 2acc ae3d 4724 9c40 cc8a 1e40 adae 2a3f
00000010: 4ca5 18bf ab22 3abd a6a9 ffbd 3430 be3f
00000020: 404f e1be b7aa dd3f ba8f 5abf 6c1c 40bd
00000030: 8dc0 8d3f 35d4 46c0 9832 37be 3a7f 3640
00000040: 1360 a3bf ba21 013f d3c0 e0bf 3777 0d40
00000050: 7bcc 7abf 6513 0ebe 772b fcbf 7e93 a240
00000060: 5f9e 83c0 4726 663d 9077 2840 fc6b a63f
00000070: f769 e4be 004e dc3f c487 b0bf 3602 c0bf
00000080: a8c0 3e3e 4718 a53f dc1e 0cc0 432b af3f
00000090: 0b56 6740 42bc 77c0 cd79 cd3f c468 95bf
000000a0: b505 8ac0 ef33 b3bf 6970 41be 4e55 d1bf
000000b0: b106 1c40 1a3a dd3f 7a85 edbf 88d3 983e
000000c0: e701 26bf 804f 613e 36f1 133f 1154 f93f
000000d0: 8c45 40c0 0ad1 47bf 0749 fe3f 694b 3abf
000000e0: bb9f 8fbe 91c1 bb3e d682 f73f b2a0 69c0
000000f0: 15d2 01bf 54c9 0540 f311 2ec0 6306 fc3f

layertwo.weight f4 [16, 64]
1.4446492 1.8447158 -2.3561785 1.4581419 0.034947764 -0.056295622 0.80344236 1.054107
0.42623225 -2.5196006 -0.2000902 -0.0748004 -1.2566748 -0.087432064 0.53372884 -2.7235782
-0.13706179 -0.046852436 -0.40671235 -2.6494539 -0.056462713 0.40912524 0.022299873 0.7129039
-0.4558409 0.013402381 -2.5518796 0.8281561 0.07396203 -0.53293663 0.1004016 0.06964523
-0.059864897 0.049567237 -1.1370276 0.2933952 0.8146003 -0.21511316 -0.82819533 0.10572619
-0.9262036 0.09944705 -0.0857731 -0.012913253 -2.5903313 0.19899386 0.112432025 0.3301703
1.1747102 0.06539739 0.3103851 0.3542421 -0.14902374 0.1325203 -0.64586025 0.0966306
0.160656 0.1379685 -2.5498571 -0.017171662 0.10347855 -2.4868436 0.12817857 -2.717762
1.4716362 1.7272708 -1.7561332 2.0355678 -0.51025444 -0.24155317 0.63626105 0.9469495
0.42024624 -1.7127138 -0.45228255 -0.066608116 -1.5439771 0.09150943 0.36527464 -2.0022678
0.04695981 0.08553247 -0.3244558 -1.6855187 0.046216514 0.32542846 0.098924406 0.6307818
-1.2349496 0.06681052 -1.9333681 1.1440891 -0.2590123 -0.56304425 0.061886445 -0.039037846
0.07319922 0.1347434 -1.3869997 0.48690644 -0.2859002 -0.122713864 -1.3761637 -0.081725806
-1.1776637 0.013896252 0.08957597 -0.07154554 -1.8004849 0.27525675 -0.07847609 0.4256406
1.2770693 -0.09642054 -0.08265074 -0.8291774 -0.52291524 -0.14189738 -0.60757697 -0.54376745
-0.15820208 -0.047608335 -1.822425 -0.1768194 0.07305871 -1.9076523 0.03022123 -1.6960052
-1.538268 -1.9071114 2.6583736 -1.3698136 0.07371544 0.034982793 -0.6994469 -0.6257825
-0.37457216 2.4949465 0.2514384 -0.1396285 0.7470975 0.094363995 -0.36204374 2.7072802
-0.051675394 0.08455983 0.4594253 2.7033193 0.022533523 -0.35092008 -0.050858025 -0.84635663
0.59055644 -0.11390021 2.8448706 -0.78727883 -0.06078842 0.60629815 -0.067245916 -0.11788232
-0.08479146 -0.124056116 1.2684423 -0.21388921 -0.5567748 0.33892727 1.2782193 0.016620502
0.9826903 -0.11676493 -0.1251055 -0.117924966 2.8087044 -0.190682 -0.12059135 -0.48463157
-1.1750544 0.010567199 -0.19719377 -0.47070685 0.08371109 0.09046653 0.67136806 0.15868519
-0.018974025 0.06951236 2.6887395 0.080741204 -0.17370512 2.6790671 0.06273573 2.6878338
1.5862069 1.893187 -2.39562 1.3573879 0.37890112 -0.06996422 0.8304591 1.2342486
0.7525565 -2.2485447 -0.37364113 -0.0684922 -1.1109933 0.021310791 0.4232019 -2.4770951
0.08088992 0.12034357 -0.37001523 -2.6598907 -0.06895186 0.21815656 0.09733891 0.6396252
-0.5865607 0.03862839 -2.4482648 0.8743003 0.07009736 -0.63100666 0.0697172 0.13521543
-0.024442961 0.028275093 -1.3084747 0.3518294 0.68147564 -0.24406649 -0.93466085 0.07968592
-1.0628387 -0.050379798 -0.030452859 0.101835676 -2.4846215 0.12738638 0.053017758 0.30000085
1.071536 0.11569098 0.59104407 0.38447917 -0.07282461 0.10670246 -0.6954007 0.3104911
-0.0254451 -0.10494566 -2.376569 -0.12462309 0.25324467 -2.5567718 0.04076707 -2.50689
00000000: 44ea b83f a61f ec3f a1cb 16c0 65a4 ba3f
00000010: 6325 0f3d 3d96 66bd 66ae 4d3f faec 863f
00000020: 1d3b da3e 2341 21c0 72e4 4cbe f430 99bd
00000030: b8da a0bf 950f b3bd 74a2 083f 1b4f 2ec0
00000040: ed59 0cbe 57e8 3fbd 9a3c d0be a790 29c0
00000050: 7245 67bd dd78 d13e 39ae b63c df80 363f
00000060: fa63 e9be a995 5b3c ff51 23c0 0a02 543f
00000070: 6879 973d 896e 08bf 5b9f cd3d 29a2 8e3d
00000080: e534 75bd 0407 4b3d 1f8a 91bf e537 963e
00000090: a589 503f a046 5cbe 9c04 54bf f986 d83d
000000a0: ae1b 6dbf e5aa cb3d cfa9 afbd 1c92 53bc
000000b0: fdc7 25c0 0cc5 4b3e c342 e63d 150c a93e
000000c0: e75c 963f 11ef 853d ccea 9e3e 385f b53e
000000d0: ae99 18be 67b3 073e 1957 25bf 44e6 c53d
000000e0: 0283 243e 9d47 0d3e dc30 23c0 96ab 8cbc
000000f0: 90ec d33d 7228 1fc0 3e41 033e d0ef 2dc0
00000100: 935e bc3f 3617 dd3f f9c8 e0bf be46 0240
00000110: 09a0 02bf b759 77be 01e2 223f 486b 723f
00000120: 842a d73e 353a dbbf 9491 e7be d669 88bd
00000130: 0ba1 c5bf 4c69 bb3d 4705 bb3e 2825 00c0
00000140: ee58 403d a62b af3d 121f a6be 14bf d7bf
00000150: 874d 3d3d 8f9e a63e e198 ca3d eb7a 213f
00000160: d412 9ebf f4d3 883d 9b78 f7bf 8371 923f
00000170: 439d 84be ab23 10bf a47c 7d3d 26e6 1fbd
00000180: 79e9 953d 2dfa 093e 3589 b1bf cd4b f93e
00000190: 8361 92be 6851 fbbd 2226 b0bf dc5f a7bd
000001a0: afbd 96bf 1bad 633c 9b73 b73d 7886 92bd
000001b0: 4a76 e6bf 74ee 8c3e 13b8 a0bd 91ed d93e
000001c0: 0277 a33f 2278 c5bd cb44 a9bd f844 54bf
000001d0: c6dd 05bf 8c4d 11be 2a8a 1bbf 5834 0bbf
000001e0: baff 21be f500 43bd 3945 e9bf 2510 35be
000001f0: ce9f 953d f32d f4bf 8392 f73c b316 d9bf
00000200: f7e5 c4bf 3a1c f4bf cb22 2a40 0d56 afbf
00000210: 1ff8 963d 1e4a 0f3d f40e 33bf 4833 20bf
00000220: ecc7 bfbe 34ad 1f40 89bc 803e c6fa 0ebe
00000230: c841 3f3f e941 c13d cc5d b9be 1444 2d40
00000240: 94a9 53bd b42d ad3d cb39 eb3e 2f03 2d40
00000250: 3998 b83c ccab b3be 8150 50bd d4aa 58bf
00000260: b52e 173f 8344 e9bd 5c12 3640 1b8b 49bf
00000270: 47fd 78bd 5b36 1b3f 3ab8 89bd 496c f1bd
00000280: 25a7 adbd 2211 febd 515c a23f c605 5bbe
00000290: cb88 0ebf e087 ad3e b19c a33f b827 883c
000002a0: 9791 7b3f 7422 efbd a81b 00be a582 f1bd
000002b0: d0c1 3340 2442 43be 99f8 f6bd a121 f8be
000002c0: 2f68 96bf 0c22 2d3c 2aed 49be 7d00 f1be
000002d0: b870 ab3d 8446 b93d c7de 2b3f 5f7e 223e
000002e0: 6a6f 9bbc 7f5c 8e3d 4f14 2c40 a55b a53d
000002f0: c1df 31be d675 2b40 977b 803d 7805 2c40
00000300: d408 cb3f f453 f23f d751 19c0 e3be ad3f
00000310: 54ff c13e 6749 8fbd f898 543f dcfb 9d3f
00000320: 8ba7 403f 28e8 0fc0 e44d bfbe a345 8cbd
00000330: 0735 8ebf f893 ae3c ebad d83e ba88 1ec0
00000340: 9da9 a53d b176 f63d a372 bdbe a63b 2ac0
00000350: a236 8dbd 6f64 5f3e 9f59 c73d 7abe 233f
00000360: d828 16bf cd38 1e3d 5fb0 1cc0 25d2 5f3f
00000370: 348f 8f3d a789 21bf e4c7 8e3d ea75 0a3e
00000380: 9b3c c8bc 2ba1 e73c 197c a7bf fc22 b43e
00000390: 3075 2e3f 91ec 79be ef45 6fbf 5f32 a33d
000003a0: 190b 88bf 0c5b 4ebd 4678 f9bc 398f d03d
000003b0: 0a04 1fc0 9371 023e 2629 593d b699 993e
000003c0: 1728 893f 64ef ec3d aa4e 173f 74da c43e
000003d0: 1225 95bd d286 da3d c805 32bf b1f8 9e3e
000003e0: 3e72 d0bc c0ed d6bd b519 18c0 643a ffbd
000003f0: 49a9 813e 26a2 23c0 5ffb 263d e370 20c0

layertwo.bias f4 [16]
-0.016060317 0.07352243 -0.0943648 -0.0019347926 0.01897131 -0.010254025 0.13009907 -0.14812434
-0.10793787 0.058652237 0.04921193 0.055644967 -0.08892748 0.13020575 -0.0772781 0.012513413
00000000: ed90 83bc ee92 963d 5542 c1bd de98 fdba
00000010: b969 9b3c 8000 28bc b138 053e e8ad 17be
00000020: 880e ddbd 543d 703d 7392 493d faeb 633d
00000030: 9c1f b6bd a854 053e fb43 9ebd 0f05 4d3c

layerthree.weight f4 [2, 16]
0.7345018 0.7168402 -0.69505954 0.9536695 -0.7483262 -0.9627043 0.7748142 0.5784152
-0.91065764 -0.6733316 -0.68897814 -0.48930892 -0.7169586 -0.6811 0.8377049 -0.6386419
-0.608246 -0.7596994 0.71262944 -0.6721276 0.8526057 0.9966056 -0.6929672 -0.9394926
0.7688995 0.51309013 0.43497962 0.54717946 0.7329933 0.7469081 -0.75284535 0.85156155
00000000: 4f08 3c3f d782 373f 6cef 31bf af23 743f
00000010: 4e92 3fbf ca73 76bf 395a 463f 0513 143f
00000020: dc20 69bf 765f 2cbf df60 30bf b386 fabe
00000030: 998a 37bf 925c 2ebf d473 563f 097e 23bf
00000040: 03b6 1bbf a97b 42bf e26e 363f 8e10 2cbf
00000050: 5e44 5a3f 8b21 7f3f 4c66 31bf 9682 70bf
00000060: 99d6 443f e059 033f a6b5 de3e f413 0c3f
00000070: 73a5 3b3f 5f35 3f3f 79ba 40bf f0ff 593f

layerthree.bias f4 [2]
0.16225946 -0.1890413
00000000: 5827 263e 0b94 41be
