state_dicts/model2769.pt (torch, 353686 bytes, 69 tensors)

conv_kernel_16d f4 [3, 16]
0.09969595 -0.027716678 -0.24440937 -0.69618154 -0.17836478 -0.27883548 0.5182734 -0.0064628916
0.031990044 0.030778281 -0.16271153 0.12917663 -0.2853449 0.47040203 -0.0021297548 0.3043596
0.45252994 0.4202393 -0.17582224 -0.61626387 -0.28754133 -0.31132898 -0.053332984 -0.36449188
0.6315632 0.10224474 -0.0874765 -0.2676843 0.33883318 -0.103927 -0.07571908 -0.299426
0.020772066 -0.17133905 0.04756389 0.115828075 -0.31252387 0.036977574 0.112787515 -0.20358473
0.09671141 -0.2735044 -0.25412813 0.48990774 0.30055323 0.38486823 0.07897581 -0.112046905
00000000: 642d cc3d 160e e3bc 7346 7abe f438 32bf
00000010: 42a5 36be 86c3 8ebe 91ad 043f aac6 d3bb
00000020: fe07 033d bc22 fc3c da9d 26be e146 043e
00000030: ba18 92be 89d8 f03e 5b93 0bbb 06d5 9b3e
00000040: 01b2 e73e 9b29 d73e bf0a 34be 78c3 1dbf
00000050: 9e38 93be 8366 9fbe b073 5abd ae9e babe
00000060: 20ae 213f b165 d13d e126 b3bd eb0d 89be
00000070: 8b7b ad3e aed7 d4bd 9b12 9bbd 5d4e 99be
00000080: 2e2a aa3c 8173 2fbe 5bd2 423d 4537 ed3d
00000090: 2103 a0be cc75 173d 24fd e63d 8478 50be
000000a0: a210 c63d c508 8cbe 151d 82be 30d5 fa3e
000000b0: 1de2 993e 730d c53e 12be a13d d978 e5bd

conv_bias_16d f4 [3]
0.5907692 -1.3498582 -0.059380587
00000000: a63c 173f 27c8 acbf 0f39 73bd

conv_kernel_8d f4 [3, 8]
0.434318 0.47477266 0.7615505 -0.02086899 0.7024903 -0.58309186 0.16799118 -0.30400193
-0.2667446 -0.37158206 -0.15667965 0.91621524 -0.732786 0.4777083 0.22399089 0.41953915
0.41501597 0.52310735 -0.16805616 -0.87177306 -0.6555344 -0.111155815 -0.47971645 -0.009205776
00000000: ee5e de3e 6715 f33e f9f4 423f 72f5 aabc
00000010: 68d6 333f 8245 15bf e105 2c3e 24a6 9bbe
00000020: c092 88be 0140 bebe a170 20be 158d 6a3f
00000030: dd97 3bbf 2f96 f43e de5d 653e d6cd d63e
00000040: f97c d43e 5dea 053f ea16 2cbe 852c 5fbf
00000050: 1ad1 27bf a9a5 e3bd 659d f5be d3d3 16bc

conv_bias_8d f4 [3]
1.0954496 -1.655081 0.7683417
00000000: b137 8c3f b2d9 d3bf 0bb2 443f

widechannel_conv_kernel f4 [3, 3]
-0.88055265 0.22138831 0.6620785 -0.11800077 0.8413967 -0.34896064 -0.65058655 0.16599
1.2405382
00000000: e66b 61bf 9eb3 623e fa7d 293f 63aa f1bd
00000010: c665 573f f8aa b2be d78c 26bf 48f9 293e
00000020: f5c9 9e3f

widechannel_conv_bias f4 [3]
-0.448711 0.46076545 -0.5654736
00000000: 73bd e5be 73e9 eb3e e1c2 10bf

midchannel_conv_kernel f4 [3, 3]
0.79820275 0.2803656 0.109623924 -0.34310368 -1.8499904 -0.6901124 0.3709775 0.70657873
0.7680469
00000000: 0457 4c3f 148c 8f3e 8282 e03d 49ab afbe
00000010: 7ccc ecbf 35ab 30bf c3f0 bd3e 58e2 343f
00000020: b99e 443f

midchannel_conv_bias f4 [3]
1.4683528 0.47540507 -1.688314
00000000: fcf2 bb3f 4b68 f33e ac1a d8bf

narrowchannel_conv_kernel f4 [3, 3]
1.9118792 0.3283062 0.1061325 -0.40239817 0.76806414 -0.6253671 0.30061838 0.9352502
-0.53829354
00000000: 75b8 f43f c017 a83e ff5b d93d 2207 cebe
00000010: da9f 443f 0f18 20bf a7ea 993e 8f6c 6f3f
00000020: 9bcd 09bf

narrowchannel_conv_bias f4 [3]
-1.5103654 0.48203567 -0.41172507
00000000: a753 c1bf 61cd f63e a1cd d2be

conv_kernels_64d.0 f4 [3, 64]
-0.008273821 -0.16005833 -0.11972603 0.114290155 -0.00022130448 -0.049326528 -0.19557925 -0.115890354
-0.09797776 -0.009662826 -0.09196876 -0.030150903 0.03052042 0.013449107 -0.3302353 0.1049747
0.112471424 0.059859168 -0.18434277 -0.1169858 -0.1513273 -0.044349227 0.018726258 -0.051465843
-0.16770262 0.03554203 -0.11688613 -0.2363025 -0.16726233 0.06920374 -0.06059698 -0.13079034
-0.14005612 0.09447739 0.07593374 -0.028455293 0.057551235 -0.021718575 0.10777475 -0.07429001
0.1578175 0.008147513 -0.2543942 0.13141464 0.19599798 0.13961984 -0.25442782 0.19854167
0.027770333 -0.2771336 0.1331598 0.028244803 0.15040886 -0.27717826 -0.2705203 0.20917809
0.21306074 0.14792077 0.17447908 -0.05309216 -0.23288971 -0.29414782 -0.1138818 0.03591601
0.022952283 0.02528135 -0.111572646 0.17350659 -0.11552576 -0.10933993 0.25683084 -0.08237234
-0.06398306 -0.3050861 0.20843767 0.25306252 -0.11627392 -0.016568081 -0.17059529 0.038321134
-0.013512714 -0.12360608 -0.23423007 0.08965158 -0.16955225 0.049793873 -0.25358838 -0.14370799
-0.23692936 -0.16450702 -0.20445605 -0.077530846 -0.25897643 0.026687915 -0.036231514 -0.14679946
0.044210903 -0.116568685 0.007966651 0.16773896 0.17332725 -0.10330182 0.39231724 -0.30493328
0.029515969 -0.12648267 -0.10628842 -0.024744784 0.18666694 0.017820897 0.31344962 -0.10433163
-0.19159955 -0.08683607 -0.10353628 -0.24715868 -0.082120046 0.23824173 -0.17980012 0.29456967
-0.18856503 0.15230525 0.16291538 0.44929773 0.055007897 0.4032458 0.03166522 0.037694603
0.20200568 -0.1021678 0.20391427 -0.018774135 -0.0842627 -0.20169118 -0.15210684 0.25012234
-0.093398154 0.14868294 0.080501236 -0.24419828 0.05434008 -0.15619685 0.055082 -0.1937989
-0.07925439 -0.000914135 0.11251651 0.2862754 -0.026071923 0.22903404 -0.026011897 -0.24714524
0.0915918 0.19320062 -0.049190983 0.107673705 -0.09949888 -0.07263858 -0.054972216 0.04297837
-0.14073224 -0.1174039 -0.018637057 0.26308295 0.023205362 -0.011173601 0.09307137 -0.26592007
0.29628515 0.080838196 -0.15521774 -0.060666375 -0.2987475 0.08734621 -0.26713595 0.071031
0.051493973 -0.1765113 -0.24486366 0.23826747 0.10371071 -0.11562792 0.20841587 -0.07781257
-0.25388485 -0.08045246 0.03319462 -0.025357788 0.06043526 -0.27807194 -0.094193876 -0.10477315
00000000: ec8e 07bc 55e6 23be ec32 f5bd f510 ea3d
00000010: f80d 68b9 9d0a 4abd ed45 48be ec57 edbd
00000020: 90a8 c8bd d450 1ebc 1e5a bcbd 07ff f6bc
00000030: f605 fa3c a559 5c3c 9a14 a9be fafc d63d
00000040: 6b57 e63d e32e 753d 5ac4 3cbe 4096 efbd
00000050: 8bf5 1abe 89a7 35bd cf67 993c d9cd 52bd
00000060: 3cba 2bbe 8594 113d ff61 efbd 48f9 71be
00000070: d146 2bbe b1ba 8d3d 8a34 78bd e7ed 05be
00000080: df6a 0fbe 5d7d c13d 2683 9b3d 131b e9bc
00000090: d8ba 6b3d 27eb b1bc 02b9 dc3d 5c25 98bd
000000a0: e99a 213e 257d 053c f53f 82be 8f91 063e
000000b0: b2b3 483e 81f8 0e3e 5d44 82be 824e 4b3e
000000c0: 9c7e e33c 75e4 8dbe 0b5b 083e a561 e73c
000000d0: c804 1a3e 4fea 8dbe a381 8abe c832 563e
000000e0: 982c 5a3e 8b78 173e a5aa 323e 2a77 59bd
000000f0: a47a 6ebe 8b9a 96be dc3a e9bd ab1c 133d
00000100: 6d06 bc3c d51a cf3c 3380 e4bd b6ab 313e
00000110: c598 ecbd 9ded dfbd 557f 833e d4b2 a8bd
00000120: 8d09 83bd 3f34 9cbe af70 553e 6991 813e
00000130: 0521 eebd c9b9 87bc 88b0 2ebe 9ff6 1c3d
00000140: 6e64 5dbc 2f25 fdbd 02da 6fbe 3f9b b73d
00000150: 1b9f 2dbe a9f4 4b3d 56d6 81be 3028 13be
00000160: 9c9d 72be 8774 28be ed5c 51be 7ec8 9ebd
00000170: 8f98 84be 9da0 da3c 7f67 14bd 9952 16be
00000180: 7e16 353d 90bb eebd 8e86 023c c3c3 2b3e
00000190: b37c 313e e88f d3bd cedd c83e 3720 9cbe
000001a0: 79cb f13c ac84 01be bead d9bd 93b5 cabc
000001b0: 9e25 3f3e 21fd 913c 787c a03e d2ab d5bd
000001c0: ac32 44be 1cd7 b1bd d40a d4bd 2a17 7dbe
000001d0: 8e2e a8bd a4f5 733e 861d 38be d6d1 963e
000001e0: 3117 41be e8f5 1b3e 4ad3 263e 5a0a e63e
000001f0: f64f 613d 3c76 ce3e 64b3 013d a865 1a3d
00000200: 94da 4e3e 5a3d d1bd e7ce 503e 37cc 99bc
00000210: ec91 acbd 2288 4ebe e5c1 1bbe 0910 803e
00000220: 8847 bfbd 5740 183e d5dd a43d 1d0f 7abe
00000230: b493 5e3d 11f2 1fbe aa9d 613d 3873 46be
00000240: 2050 a2bd 90a2 6fba 0e6f e63d b092 923e
00000250: c994 d5bc e687 6a3e e716 d5bc a413 7dbe
00000260: 7b94 bb3d 62d6 453e 7c7c 49bd 0884 dc3d
00000270: 12c6 cbbd 89c3 94bd 8c2a 61bd 160a 303d
00000280: 1d1c 10be 7571 f0bd beac 98bc cfb2 863e
00000290: 2c19 be3c 7b11 37bc 349c be3d ad26 88be
000002a0: b0b2 973e 7f8e a53d 66f1 1ebe 4e7d 78bd
000002b0: 6ff5 98be 92e2 b23d 0bc6 88be b378 913d
000002c0: 58eb 523d 61bf 34be 8abd 7abe 63fc 733e
000002d0: 4866 d43d 55ce ecbd f86a 553e 325c 9fbd
000002e0: 32fd 81be 42c4 a4bd 15f7 073d 23bb cfbc
000002f0: f78a 773d 725f 8ebe b8e8 c0bd 4e93 d6bd

conv_kernels_64d.1 f4 [3, 64]
0.07718653 -0.066650376 -0.06335363 0.26650357 0.11059988 -0.12675224 0.02668408 -0.062404938
-0.14951101 -0.18758743 -0.033362012 -0.196631 0.0058009704 0.1958819 -0.071543984 -0.014873076
0.010802148 -0.21078776 0.15802525 0.11468742 -0.10100917 -0.01353133 -0.042946976 0.22079995
0.11214583 -0.044425342 -0.03290722 0.10016659 0.44949576 0.20915312 -0.18483585 -0.17018497
0.071525484 -0.041454982 0.073829286 -0.14486182 -0.2714684 -0.115382746 -0.11728758 -0.11777132
-0.040382057 -0.114020325 0.038320858 0.05321782 -0.19058298 -0.111455664 -0.41935134 -0.07677641
-0.12129634 -0.29731268 0.10849831 0.22407266 -0.5021305 0.00618497 -0.124128565 0.1615134
-0.05308947 -0.12810397 0.09665195 0.1340361 0.028811866 0.24982364 -0.32709762 0.2016953
0.0743472 -0.13867845 0.016709423 0.11973398 -0.3080112 0.053685296 0.36548623 -0.23771274
0.21791902 0.064267084 0.19782118 0.07513042 0.070750974 -0.0023352054 0.13292596 -0.1822292
0.07483423 -0.08128174 0.15763794 -0.044809774 -0.07303484 0.10796414 0.035720393 0.093636505
0.118748024 -0.20574793 0.23959516 0.219648 0.061506886 0.25296232 0.12146992 0.22142164
-0.1398158 -0.0341678 0.18125677 -0.33548918 -0.080331095 -0.14186288 0.15845485 0.021383738
0.2438867 -0.19319451 0.11869956 0.07350814 -0.09146222 -0.15650573 -0.19944555 -0.17677417
0.041201405 -0.13268998 -0.01740095 0.20077698 0.20206575 -0.090791926 0.12493527 0.2475798
0.081564255 -0.004399446 0.041781012 0.15021181 -0.0543677 0.033923443 -0.029264834 0.08659331
-0.06201109 -0.13048127 -0.0059410287 -0.20495848 -0.01670339 0.03655588 -0.16989413 -0.018492226
-0.22685112 -0.22837462 0.16018882 0.08909953 -0.016412374 -0.073016144 -0.0021696954 0.41276312
-0.039578237 0.029522203 0.12388553 0.017379103 0.12335227 0.06977688 -0.19286367 0.26491255
0.35193607 -0.2169009 0.32755876 0.21338631 -0.34746268 -0.043908946 -0.21846694 0.07406748
0.16427362 0.23208772 -0.02735806 -0.010922769 0.20994477 -0.2683897 -0.035185717 0.4131752
-0.22649644 0.008986188 -0.06341709 0.46934134 -0.096769266 0.18638809 -0.26854306 -0.27166122
0.15385686 0.0631056 -0.07446468 0.4177602 -0.1825269 0.12323746 -0.23331754 0.20319663
0.16150148 0.17558484 0.13925046 -0.0130147375 -0.21204697 0.52981144 0.047635373 0.07067699
00000000: f913 9e3d fe7f 88bd 8cbf 81bd 2873 883e
00000010: 3182 e23d 57cb 01be 9298 da3c 529c 7fbd
00000020: 6a19 19be eb16 40be 9ba6 08bd a359 49be
00000030: 1116 be3b 4495 483e a785 92bd 34ae 73bc
00000040: 7efb 303c bfd8 57be 5fd1 213e 3de1 ea3d
00000050: e5dd cebd 83b2 5dbc 2be9 2fbd 6219 623e
00000060: b7ac e53d 59f7 35bd b9c9 06bd 2424 cd3d
00000070: 4f24 e63e 3c2c 563e 9c45 3dbe f844 2ebe
00000080: f47b 923d b3cc 29bd cf33 973d a856 14be
00000090: e8fd 8abe ca4d ecbd 7934 f0bd 1732 f1bd
000000a0: a867 25bd 7d83 e9bd 55f6 1c3d eefa 593d
000000b0: 2f28 43be de42 e4bd 38b5 d6be f33c 9dbd
000000c0: 376a f8bd 5e39 98be 5d34 de3d 4e73 653e
000000d0: a08b 00bf 4aab ca3b 1e37 febd c563 253e
000000e0: 5874 59bd b02d 03be 75f1 c53d c240 093e
000000f0: dd06 ec3c c5d1 7f3e 5779 a7be 3689 4e3e
00000100: 5843 983d b901 0ebe 33e2 883c 1737 f53d
00000110: a5b3 9dbe 1de5 5b3d 0321 bb3e f86a 73be
00000120: 2a26 5f3e 769e 833d a391 4a3e fadd 993d
00000130: e3e5 903d 3f0a 19bb be1d 083e 4b9a 3abe
00000140: b042 993d 0a77 a6bd d76b 213e 748a 37bd
00000150: 4a93 95bd 4e1c dd3d 8c4f 123d 7fc4 bf3d
00000160: 2a32 f33d 96af 52be 6f58 753e 68eb 603e
00000170: a5ee 7b3d 4784 813e 39c5 f83d 5bbc 623e
00000180: e02b 0fbe 89f3 0bbd 609b 393e 3dc5 abbe
00000190: a184 a4bd 8144 11be fd41 223e f32c af3c
000001a0: 6fbd 793e c8d4 45be c118 f33d 708b 963d
000001b0: 8b50 bbbd 0a43 20be 743b 4cbe 4a04 35be
000001c0: cec2 283d e2df 07be 708c 8ebc 7b98 4d3e
000001d0: 53ea 4e3e 1ef1 b9bd 10de ff3d 8f85 7d3e
000001e0: 290b a73d 3a29 90bb 9122 2b3d 20d1 193e
000001f0: aab0 5ebd 4ff3 0a3d cebc efbc d557 b13d
00000200: 57ff 7dbd e29c 05be f6ac c2bb a3e0 51be
00000210: 8cd5 88bc 9ebb 153d baf8 2dbe 027d 97bc
00000220: a94b 68be 09db 69be 8a08 243e d079 b63d
00000230: 3e73 86bc 7d89 95bd 7331 0ebb b055 d33e
00000240: ca1c 22bd 8cd8 f13c b2b7 fd3d 9f5e 8e3c
00000250: 1da0 fc3d 2ee7 8e3d 0e7e 45be 9ea2 873e
00000260: f730 b43e 451b 5ebe c8b5 a73e f181 5a3e
00000270: a1e6 b1be ded9 33bd ccb5 5fbe b1b0 973d
00000280: 5837 283e 67a8 6d3e 031e e0bc 6af5 32bc
00000290: c3fb 563e 606a 89be e61e 10bd b38b d33e
000002a0: afee 67be ce3a 133c d2e0 81bd 824d f03e
000002b0: f72e c6bd 85dc 3e3e 7a7e 89be 2e17 8bbe
000002c0: a78c 1d3e 823d 813d f080 98bd aae4 d53e
000002d0: 55e8 3abe ec63 fc3d cbea 6ebe c712 503e
000002e0: a560 253e 83cc 333e ac97 0e3e c43b 55bc
000002f0: d722 59be b9a1 073f 4f1d 433d 19bf 903d

conv_kernels_64d.2 f4 [3, 64]
-0.36183235 0.21998458 0.16492186 -0.19650255 0.17436254 -0.08753608 -0.14525749 -0.037804604
0.12137065 0.16987856 -0.3727725 -0.30324888 0.17320769 0.06453683 0.1763706 0.27013174
-0.053904444 0.05410516 -0.025668109 0.05904091 -0.14001603 0.066839166 -0.28419378 0.080257304
-0.11940277 -0.14888264 0.0029872167 -0.030090626 -0.039262302 0.21595086 -0.07922682 -0.0072574
0.20336159 0.04784918 0.114882834 0.09724725 -0.054955337 -0.31814435 0.15168625 0.17514578
0.27371565 0.2879486 0.339197 0.13207607 -0.070517205 0.16715685 -0.06634911 0.06764112
-0.05001443 0.13007692 0.12486382 -0.18718083 -0.13472179 0.16668347 0.13722372 0.09918112
-0.30028182 -0.052236013 0.04942704 -0.23269743 -0.115869634 0.36395022 -0.104102395 -0.13202913
-0.09248078 0.14145486 0.41393012 0.015633358 0.06767528 -0.14172593 -0.19791847 -0.028441284
-0.103270926 0.1390139 0.019923221 0.13072303 -0.19280824 0.0011424129 0.54610914 -0.1255696
-0.29344118 0.11718547 -0.030532042 0.086828545 -0.49526986 0.078258984 -0.055862702 0.15822627
0.22910883 -0.03728177 0.048498236 0.21269089 0.07827286 -0.07798692 0.06330575 0.35249415
-0.24212515 0.17347102 0.0020111026 0.1904536 -0.014580255 -0.0026825587 0.07752235 -0.31090003
-0.13097128 0.11800022 0.102060705 -0.031107284 0.049711898 0.0042642592 0.030370114 0.031185977
-0.1998725 -0.042874955 0.33836815 0.15850048 0.17211162 -0.021768529 0.20842654 0.1552372
-0.12218549 -0.1565528 0.33921117 0.22583371 0.24134228 0.080649994 0.011265028 -0.16883439
-0.08361476 0.31132227 0.184351 -0.36131555 -0.045692954 -0.477895 0.015199784 -0.024246925
-0.16199848 0.13640243 0.13777748 0.05848299 0.1206891 -0.043939654 -0.18088067 -0.14616805
0.069350585 -0.041312627 0.110744245 -0.17202292 0.037239812 -0.30887818 -0.31801692 0.29736277
0.17408341 -0.049931776 -0.3526283 0.20610854 -0.26066563 -0.02163184 0.020907512 -0.14001364
-0.09178024 0.22554332 0.26640633 -0.17324172 0.26416495 -0.3515406 0.08457711 0.012554022
-0.08633774 -0.1359392 0.1299013 0.14934142 -0.1725756 0.13449892 0.012529614 0.037423186
-0.12440155 0.0076386104 0.036609847 -0.17648378 -0.25640488 -0.23136021 -0.12992866 -0.047815897
0.03323359 -0.13601533 0.46068543 0.25651553 -0.12833214 0.045791537 0.09715657 0.1968466
00000000: 1742 b9be a343 613e 47e1 283e f737 49be
00000010: 188c 323e 1e46 b3bd 61be 14be 00d9 1abd
00000020: 2d91 f83d a5f4 2d3e 0adc bebe 7043 9bbe
00000030: 5b5d 313e e32b 843d 7f9a 343e b54e 8a3e
00000040: e8ca 5cbd 5f9d 5d3d ed45 d2bc e2d4 713d
00000050: 5d60 0fbe f9e2 883d d981 91be f15d a43d
00000060: 7189 f4bd b174 18be 2ec5 433b 9e80 f6bc
00000070: 82d1 20bd 3922 5d3e ac41 a2bd 7ccf edbb
00000080: 053e 503e 80fd 433d b147 eb3d 9129 c73d
00000090: d918 61bd d1e3 a2be a453 1b3e 6a59 333e
000000a0: 7524 8c3e 006e 933e 3bab ad3e f33e 073e
000000b0: 536b 90bd 2a2b 2b3e 0be2 87bd 6d87 8a3d
000000c0: eedb 4cbd e232 053e 9ab8 ff3d 55ac 3fbe
000000d0: 82f4 09be 12af 2a3e 6084 0c3e 791f cb3d
000000e0: 8abe 99be 6ef5 55bd 0274 4a3d 3c48 6ebe
000000f0: 0f4d edbd af57 ba3e a333 d5bd a532 07be
00000100: 9066 bdbd 8bd9 103e a6ee d33e 8711 803c
00000110: 5699 8a3d 9a20 11be 24ab 4abe b2fd e8bc
00000120: b57f d3bd a959 0e3e 0636 a33c 42dc 053e
00000130: 866f 45be 04bd 953a cfcd 0b3f 5195 00be
00000140: ec3d 96be f0fe ef3d 551e fabc 2ad3 b13d
00000150: 0394 fdbe 3f46 a03d 4ad0 64bd 1106 223e
00000160: 819b 6a3e c5b4 18bd 16a6 463d a4cb 593e
00000170: 854d a03d 9bb7 9fbd 72a6 813d 1d7a b43e
00000180: a8ef 77be 63a2 313e b4cc 033b 4506 433e
00000190: 06e2 6ebc decd 2fbb 0ac4 9e3d 4a2e 9fbe
000001a0: 561d 06be 19aa f13d 3405 d13d b4d4 febc
000001b0: b49e 4b3d 33bb 8b3b bfca f83c bc79 ff3c
000001c0: 60ab 4cbe a69d 2fbd 973e ad3e f34d 223e
000001d0: 073e 303e ea53 b2bc c46d 553e 80f6 1e3e
000001e0: 633c fabd 614f 20be 16ad ad3e f440 673e
000001f0: 6e22 773e d32b a53d f490 383c ece2 2cbe
00000200: 373e abbd a265 9f3e 82c6 3c3e 5afe b8be
00000210: 8928 3bbd a7ae f4be 8408 793c 7da1 c6bc
00000220: eee2 25be 14ad 0b3e 8a15 0d3e dc8b 6f3d
00000230: d92b f73d 11fa 33bd c838 39be 14ad 15be
00000240: ae07 8e3d 6e37 29bd e1cd e23d c726 30be
00000250: c688 183d 4825 9ebe 1dd3 a2be ef3f 983e
00000260: ec42 323e 4385 4cbd b28b b4be 1e0e 533e
00000270: f775 85be 4235 b1bc 3b46 ab3c bc5f 0fbe
00000280: 47f7 bbbd d4f4 663e 6966 883e 4766 31be
00000290: a140 873e 21fd b3be c436 ad3d 62af 4d3c
000002a0: d7d1 b0bd a533 0bbe d904 053e f5ec 183e
000002b0: a8b7 30be 16ba 093e 0349 4d3c 0e49 193d
000002c0: 3dc6 febd 4f4d fa3b 35f4 153d 2ab8 34be
000002d0: 8047 83be b1e9 6cbe 050c 05be 9ada 43bd
000002e0: f21f 083d 9a47 0bbe f6de eb3e 0156 833e
000002f0: 8069 03be e88f 3b3d 06fa c63d 2892 493e

conv_kernels_64d.3 f4 [3, 64]
0.07428297 -0.07777466 0.022968268 -0.21960087 -0.060786534 -0.26709923 -0.0389757 -0.2967259
0.011925306 0.14558172 0.067618094 0.13736042 0.013486227 -0.41218802 -0.21780226 0.15635169
-0.046686493 -0.12392103 -0.34639156 0.07484244 -0.19994849 -0.2279239 0.010951148 0.11552563
0.023875833 0.13017933 0.075003095 -0.20144162 -0.06127435 0.0048719123 -0.061832987 0.20721367
0.06652405 -0.20062934 0.22534215 -0.0876389 0.34212384 0.17494638 -0.20898345 -0.16981731
0.14517525 0.16392894 0.21671739 -0.14775404 0.048330583 0.12174069 0.21969864 -0.14901204
-0.0018865131 0.3724407 0.03383703 0.045005497 -0.06538892 0.070813425 0.10641874 0.3198702
0.11138357 -0.18289554 0.15274918 -0.07464181 0.2734771 -0.29548338 0.13180907 0.22241351
0.15963155 0.29449767 0.038226034 -0.0876687 -0.3586121 -0.029928619 -0.007412971 0.07554435
-0.069067046 -0.01805833 -0.3512123 -0.15595387 0.07643309 0.16890028 0.122466385 -0.08879516
-0.17194697 0.10931431 -0.12639445 0.051142395 -0.18233405 -0.15487069 -0.24121965 0.079789095
-0.29639572 0.0051248586 0.07531522 0.030147392 -0.08792178 0.07790712 -0.024115806 -0.101580024
0.08535347 -0.103828505 -0.09216285 0.44695514 0.11207836 0.08384015 -0.21586068 -0.27896476
-0.20544814 0.09111256 -0.043687355 0.097890824 -0.32088155 -0.07114774 0.21301174 0.034148682
-0.119888574 -0.07177224 -0.08825096 0.035288982 0.15182981 -0.16620372 0.0774157 0.19504875
0.022136109 0.110858046 0.20338678 0.22416669 -0.16155061 0.23829395 0.028592533 -0.013011178
-0.06059347 -0.016694052 -0.27437702 0.19463345 -0.11822103 -0.11368949 -0.13111411 -0.0035356604
0.055133212 0.044656932 0.07924811 0.13870907 0.09418777 -0.02293412 0.12154335 -0.34283158
0.19482853 0.16057463 0.12974398 0.1205049 0.16579132 -0.25474098 0.10348149 -0.08160186
0.03538956 -0.04839625 -0.3148429 -0.07379167 -0.17513365 -0.18918346 0.07832959 0.038917404
0.11442453 0.020656997 0.13423145 0.20162177 -0.42059547 -0.013784673 -0.021614706 -0.010300282
0.12165247 0.25182956 -0.098641716 0.022035254 0.17316696 0.050666742 -0.025779044 -0.06694107
0.09330184 0.0075080013 0.28047773 0.3042464 0.26325074 -0.033960845 0.120354444 0.118195936
0.42166245 0.2085106 0.0048225923 0.10859949 0.0839564 -0.15450415 0.018997736 -0.04059749
00000000: ab21 983d 5248 9fbd f327 bc3c 0ddf 60be
00000010: 4dfb 78bd 3bc1 88be fca4 1fbd 75ec 97be
00000020: 5c62 433c 6013 153e 5b7b 8a3d 36a8 0c3e
00000030: 56f5 5c3c 4f0a d3be 8e07 5fbe a81a 203e
00000040: 563a 3fbd 4fca fdbd 3c5a b1be fe46 993d
00000050: 4cbf 4cbe e264 69be 726c 333c b498 ec3d
00000060: 4097 c33c bb4d 053e 399b 993d b646 4ebe
00000070: d0fa 7abd 90a4 9f3b 9644 7dbd d22f 543e
00000080: c33d 883d c771 4dbe 18c0 663e 067c b3bd
00000090: db2a af3e 2525 333e c2ff 55be 97e4 2dbe
000000a0: d2a8 143e fddc 273e 2aeb 5d3e d64c 17be
000000b0: 4af6 453d 2f53 f93d aef8 603e 9d96 18be
000000c0: e044 f7ba 8cb0 be3e b398 0a3d af57 383d
000000d0: a0ea 85bd a106 913d 11f2 d93d 07c6 a33e
000000e0: 121d e43d f848 3bbe 486a 1c3e cedd 98bd
000000f0: 3105 8c3e 9949 97be f5f8 063e 5ec0 633e
00000100: 7476 233e 66c8 963e e792 1c3d a68b b3bd
00000110: 019c b7be dd2c f5bc 82e8 f2bb ffb6 9a3d
00000120: 0673 8dbd 10ef 93bc 19d2 b3be 5fb2 1fbe
00000130: f488 9c3d 32f4 2c3e a8cf fa3d 3dda b5bd
00000140: de12 30be 2ee0 df3d 8c6d 01be b07a 513d
00000150: c7b5 3abe 6c96 1ebe 4902 77be 7768 a33d
00000160: 2ec1 97be 6eee a73b de3e 9a3d aaf7 f63c
00000170: 5610 b4bd c58d 9f3d 838e c5bc 3009 d0bd
00000180: cdcd ae3d 0aa4 d4bd e0bf bcbd 4ed7 e43e
00000190: 5789 e53d 62b4 ab3d 950a 5dbe 78d4 8ebe
000001a0: ff60 52be 3999 ba3d 83f1 32bd fc7a c83d
000001b0: 964a a4be e8b5 91bd c01f 5a3e 7ddf 0b3d
000001c0: 2488 f5bd 53fd 92bd ebbc b4bd 2e8b 103d
000001d0: 4679 1b3e 4f31 2abe 1f8c 9e3d dcba 473e
000001e0: c956 b53c 8b09 e33d a044 503e f48b 653e
000001f0: 866d 25be 5403 743e e33a ea3c d62c 55bc
00000200: dc30 78bd f7c1 88bc 257b 8cbe fe4d 473e
00000210: de1d f2bd 09d6 e8bd c742 06be 8ab6 67bb
00000220: 5dd3 613d 30ea 363d d54c a23d c009 0e3e
00000230: 84e5 c03d 56e0 bbbc b8eb f83d 9f87 afbe
00000240: 2181 473e ad6d 243e 9bdb 043e 46cb f63d
00000250: 33c5 293e 696d 82be 1aee d33d e01e a7bd
00000260: a5f4 103d 253b 46bd 1733 a1be 1620 97bd
00000270: 3c56 33be 4fb9 41be 446b a03d db67 1f3d
00000280: 6857 ea3d dd38 a93c f873 093e f075 4e3e
00000290: 4a58 d7be 1cd9 61bc 5311 b1bc 84c2 28bc
000002a0: ee24 f93d ceef 803e ab04 cabd 4783 b43c
000002b0: ae52 313e ee87 4f3d 932e d3bc 6618 89bd
000002c0: 0915 bf3d ae05 f63b c79a 8f3e 2fc6 9b3e
000002d0: cdc8 863e 871a 0bbd 647c f63d b610 f23d
000002e0: 24e4 d73e cd83 553e d606 9e3b 6969 de3d
000002f0: 55f1 ab3d 5636 1ebe 24a1 9b3c 8e49 26bd

conv_kernels_64d.4 f4 [3, 64]
-0.06719895 0.30674103 -0.009101035 -0.16352944 0.11449 0.2455643 0.16995202 0.12393333
0.32491472 0.0843687 -0.2907931 -0.15707017 0.09096872 0.0076858946 -0.07911561 -0.037706852
0.17302172 0.20296675 -0.093587376 0.032549188 -0.011007163 0.16452628 0.313939 -0.16150399
-0.13784114 -0.10150666 0.020235956 -0.2154399 0.247213 0.26907846 -0.03252422 -0.028012132
-0.20038415 -0.20568922 0.28907198 -0.024668362 -0.06980991 0.26691693 -0.044482503 0.1226512
0.012827115 0.013003509 0.260119 -0.29546893 -0.15713318 0.06864942 0.23788187 0.11565524
-0.033880226 -0.012682803 -0.053419236 0.20608833 -0.09353013 0.04417985 -0.02563714 -0.07556222
0.08316949 -0.21488336 0.03089783 0.13635568 -0.004059652 -0.16309917 0.029191844 -0.14976524
-0.12273136 0.20537417 -0.053335425 -0.01933703 0.2502721 -0.34548593 0.015427901 -0.04263733
0.18836159 0.014174784 -0.5676746 -0.290864 -0.16315362 -0.26681188 0.15055202 -0.07157997
0.20453598 0.07708588 -0.13601238 0.20335497 -0.004583381 0.022060487 -0.2611393 0.3589938
-0.3596651 0.0033058086 0.085441835 0.038424425 0.18316977 -0.021760913 0.30691522 -0.056597907
-0.0066466862 -0.08327467 -0.036310587 -0.11705071 -0.096697636 0.10819737 -0.14807028 0.351824
0.15458694 0.1210302 0.0076033613 0.0069739483 -0.13317421 -0.076180026 0.015258919 0.089546256
0.048838332 0.063730195 -0.07209656 0.037552495 -0.050668966 0.18721265 -0.13850403 0.022309372
0.19053355 -0.019344755 0.2713977 -0.074305 -0.05676805 0.25248003 0.16594699 0.02063435
-0.153317 -0.08784553 0.017307749 -0.0030447617 -0.5353978 -0.24178046 -0.116238646 0.1548786
-0.17022277 0.10364031 0.00855917 -0.18248993 0.012812294 0.18458022 -0.10306079 0.024420056
-0.057638466 -0.14919634 -0.11323728 -0.12929067 0.016132386 -0.09072653 0.18986769 -0.23865473
0.08421544 -0.20723428 -0.10228524 0.028086264 0.20345585 -0.15433839 0.13383003 -0.08712953
-0.39597386 -0.012622415 0.12554835 -0.100900985 0.026389852 -0.4196851 0.31312528 -0.12814812
-0.24893269 -0.087860875 -0.25252265 0.04206919 -0.14654489 -0.016593883 0.12442266 -0.38399157
0.3184242 -0.42888886 -0.10413953 0.20627066 -0.5398624 0.18623663 -0.013603158 0.17379878
0.06449854 0.087602295 0.13767384 -0.24436776 0.11536729 0.20229395 0.069537245 0.051433988
00000000: 9a9f 89bd 290d 9d3e 821c 15bc 4374 27be
00000010: bc79 ea3d 3575 7b3e e707 2e3e c2d0 fd3d
00000020: 395b a63e 7fc9 ac3d d5e2 94be 01d7 20be
00000030: cf4d ba3d f5d9 fb3b 5d07 a2bd 8072 1abd
00000040: 9b2c 313e 84d6 4f3e bdaa bfbd 4c52 053d
00000050: 6357 34bc 9479 283e 9dbc a03e 4d61 25be
00000060: 3a26 0dbe b9e2 cfbd e0c5 a53c 479c 5cbe
00000070: 6825 7d3e a7c4 893e 1e38 05bd b379 e5bc
00000080: 8131 4dbe 32a0 52be 3e01 943e 4e15 cabc
00000090: 80f8 8ebd 56a9 883e 4933 36bd 8d30 fb3d
000000a0: d228 523c ab0c 553c 512e 853e b447 97be
000000b0: 85e7 20be 1198 8c3d 4e97 733e a8dc ec3d
000000c0: fec5 0abd 88cb 4fbc 21ce 5abd d208 533e
000000d0: ba8c bfbd eef5 343d fb04 d2bc 5dc0 9abd
000000e0: c454 aa3d 620a 5cbe 721d fd3c d3a0 0b3e
000000f0: d406 85bb 7803 27be bc23 ef3c 0f5c 19be
00000100: 945a fbbd 9b4d 523e 3f76 5abd b168 9ebc
00000110: aa23 803e 88e3 b0be 4fc5 7c3c 7ba4 2ebd
00000120: dce1 403e 5a3d 683c 1f53 11bf 20ec 94be
00000130: be11 27be 919b 88be 4f2a 1a3e 8598 92bd
00000140: e171 513e 34df 9d3d d446 0bbe 493c 503e
00000150: 3030 96bb 32b8 b43c 0db4 85be 09ce b73e
00000160: 0626 b8be 44a6 583b 21fc ae3d ee62 1d3d
00000170: db90 3b3e f143 b2bc fe23 9d3e 35d3 67bd
00000180: 72cc d9bb e98b aabd 69ba 14bd 48b8 efbd
00000190: 6909 c6bd 9596 dd3d bc9f 17be 4622 b43e
000001a0: 0a4c 1e3e aede f73d 9e25 f93b b885 e43b
000001b0: d25e 08be 4604 9cbd 8c00 7a3c 0764 b73d
000001c0: b40a 483d fa84 823d 5ca7 93bd a5d0 193d
000001d0: 438a 4fbd acb4 3f3e 00d4 0dbe 25c2 b63c
000001e0: 3a1b 433e e478 9ebc a4f4 8a3e 382d 98bd
000001f0: 9d85 68bd 1045 813e 02ee 293e 5e09 a93c
00000200: 22ff 1cbe 5be8 b3bd fbc8 8d3c a08a 47bb
00000210: d50f 09bf 4c95 77be 870e eebd 7f98 1e3e
00000220: e14e 2ebe 5f41 d43d c33b 0c3c a4de 3abe
00000230: a8ea 513c 9902 3d3e 8911 d3bd 920c c83c
00000240: 5016 6cbd edc6 18be f2e8 e7bd c664 04be
00000250: 1128 843c d5ce b9bd ad6c 423e e861 74be
00000260: 2579 ac3d 3935 54be ed7a d1bd 2a15 e63c
00000270: bb56 503e e20a 1ebe bd0a 093e f870 b2bd
00000280: 16bd cabe 3fce 4ebc bf8f 003e 2da5 cebd
00000290: 882f d83c f7e0 d6be f551 a03e 4339 03be
000002a0: 36e8 7ebe 67f0 b3bd a64a 81be be50 2c3d
000002b0: dd0f 16be e5ef 87bc 4fd1 fe3d 8b9a c4be
000002c0: 7f08 a33e 5297 dbbe 1b47 d5bd 9e38 533e
000002d0: 6c34 0abf d1b4 3e3e c8df 5ebc 4ff8 313e
000002e0: cf17 843d d568 b33d 5ffa 0c3e 8b3b 7abe
000002f0: b045 ec3d 2526 4f3e 8b69 8e3d 72ac 523d

conv_kernels_64d.5 f4 [3, 64]
0.08000957 -0.01634569 0.027444042 -0.042438265 0.068102345 0.07782512 -0.04260881 0.128352
0.25452822 0.20822087 0.04229588 -0.3979255 -0.17811945 -0.2021028 0.059074022 -0.05484597
-0.09206106 -0.19213998 0.16837023 0.017828258 0.14822762 -0.06275245 -0.089217484 -0.004188984
-0.12913732 -0.09434335 0.21075852 -0.2245832 0.0253311 -0.11191306 -0.09176074 -0.22296506
-0.017549051 0.15709889 0.30019498 -0.011265658 -0.45416135 -0.03307554 -0.042903595 -0.060085706
0.013536833 -0.28257784 -0.23663077 0.29249233 0.31238437 -0.15708283 -0.13061547 -0.20091069
-0.03158911 -0.18335591 -0.16702381 -0.18456462 0.01648038 -0.12125737 0.14606145 0.22221753
0.24659449 0.12954722 -0.06862437 -0.28148085 0.17996284 0.16098526 -0.24786806 -0.07225028
0.16829115 -0.009357573 0.3438813 -0.11915329 0.008485407 0.18992335 -0.0015668168 -0.10496019
0.095119685 0.08293754 -0.18676926 -0.029143669 0.16844001 -0.0065368954 -0.10655609 -0.011212752
-0.108914904 -0.14364187 -0.093755 -0.04841303 0.19687024 -0.12356458 -0.102116734 0.15569958
-0.01552103 -0.1700387 -0.14188205 0.1833048 -0.022190005 0.31854248 -0.05307298 -0.09685278
0.14248411 -0.057865515 -0.31298003 0.070641935 0.26219854 -0.4321489 0.0008548495 -0.06923488
-0.046869446 -0.17350076 -0.26763278 -0.059355553 -0.20831239 -0.28385615 0.1644761 -0.052997548
0.33486277 0.2655222 0.007810183 -0.092116855 0.37211767 -0.20595089 -0.09173071 -0.37967908
-0.13559712 -0.11798101 0.033325367 -0.24480191 -0.2942596 0.06440528 0.12513395 0.24181232
-0.095473975 0.23404363 0.1782455 0.020186475 -0.01994374 -0.3035623 -0.12979734 0.044076774
-0.37860242 0.114317164 -0.10259041 0.19789544 -0.10704069 -0.0007647837 -0.09320055 0.20653209
-0.013159638 0.054765403 0.091388784 0.21626353 -0.30976993 -0.025479365 0.014664749 -0.10896712
0.048295088 0.08150678 0.23841931 -0.19475581 0.19313388 0.08329393 -0.16384229 -0.11770307
0.15139344 -0.32149312 0.22344063 0.1185895 -0.15039787 0.097920395 -0.2686311 0.00906825
-0.19427794 -0.12800805 0.06294991 -0.031362183 0.08912068 0.07137055 0.09339297 0.06752169
-0.10760578 0.0073213475 -0.088360175 -0.3103097 0.18878782 -0.007976476 0.04273334 -0.012445823
0.034036566 0.43317145 0.07492423 0.35099542 -0.008179702 -0.031596113 -0.042121008 -0.28084013
00000000: 0fdc a33d 65e7 85bc 54d2 e03c bfd3 2dbd
00000010: 3e79 8b3d c762 9f3d 9386 2ebd b56e 033e
00000020: 8651 823e da37 553e 723e 2d3d e4bc cbbe
00000030: f264 36be 09f4 4ebe 9af7 713d 2ba6 60bd
00000040: 828a bcbd 58c0 44be 3f69 2c3e 910c 923c
00000050: fbc8 173e 5b84 80bd a8b7 b6bd bf43 89bb
00000060: 933c 04be 1637 c1bd 15d1 573e 23f9 65be
00000070: 2b83 cf3c ad32 e5bd 0eed bbbd f450 64be
00000080: 07c3 8fbc 88de 203e 28b3 993e 9893 38bc
00000090: d687 e8be 387a 07bd aebb 2fbd 6e1c 76bd
000000a0: 98c9 5d3c 0bae 90be 564f 72be 8ec1 953e
000000b0: d8f0 9f3e 52da 20be 10c0 05be 88bb 4dbe
000000c0: 9563 01bd a7c1 3bbe 4a08 2bbe 82fe 3cbe
000000d0: dd01 873c c955 f8bd 2291 153e fe8c 633e
000000e0: 4483 7c3e 07a8 043e ef8a 8cbd 421e 90be
000000f0: 2e48 383e 52d9 243e 20d1 7dbe f4f7 93bd
00000100: 8454 2c3e 8250 19bc 3611 b03e a406 f4bd
00000110: 6006 0b3c 447b 423e a65d cdba 5ef5 d6bd
00000120: 1cce c23d 28db a93d 7140 3fbe b4be eebc
00000130: 8a7b 2c3e 7433 d6bb 143a dabd b1b5 37bc
00000140: c70e dfbd db16 13be 9f02 c0bd be4c 46bd
00000150: 5a98 493e 6d0f fdbd 9422 d1bd b66f 1f3e
00000160: eb4b 7ebc a01e 2ebe 8749 11be 41b4 3b3e
00000170: d0c7 b5bc 0018 a33e 0e63 59bd c05a c6bd
00000180: 5be7 113e 6404 6dbd eb3e a0be b8ac 903d
00000190: e33e 863e 9f42 ddbe fb17 603a 04cb 8dbd
000001a0: 2dfa 3fbd 2faa 31be 2a07 89be cf1e 73bd
000001b0: d84f 55be 9855 91be 6c6c 283e f513 59bd
000001c0: 2273 ab3e 87f2 873e 90ec ff3b c3a7 bcbd
000001d0: 3586 be3e cae4 52be 4fdd bbbd 4c65 c2be
000001e0: f9d9 0abe 07a0 f1bd 2e80 083d 5aad 7abe
000001f0: 32a9 96be eae6 833d 1d23 003e a69d 773e
00000200: dc87 c3bd 22a9 6f3e fd85 363e 1b5e a53c
00000210: 0e61 a3bc 856c 9bbe 98e9 04be d989 343d
00000220: 2dd8 c1be 1e1f ea3d ec1a d2bd 1aa5 4a3e
00000230: 2638 dbbd c47b 48ba eedf bebd 267d 533e
00000240: 869b 57bc b051 603d 0b2a bb3d 3074 5d3e
00000250: 2a9a 9ebe 1aba d0bc 6a44 703c 272a dfbd
00000260: 12d1 453d 07ed a63d 3124 743e 116e 47be
00000270: e3c4 453e 0296 aa3d 46c6 27be 4f0e f1bd
00000280: e206 1b3e bf9a a4be 9fcd 643e 0ddf f23d
00000290: e601 1abe 7d8a c83d 048a 89be ff92 143c
000002a0: ccf0 46be 8b14 03be e2eb 803d a275 00bd
000002b0: e784 b63d b92a 923d d044 bf3d d048 8a3d
000002c0: 6b60 dcbd eae7 ef3b 2ef6 b4bd eae0 9ebe
000002d0: 9851 413e c4af 02bc 2809 2f3d 91e9 4bbc
000002e0: ed69 0b3d a6c8 dd3e e071 993d acb5 b33e
000002f0: 2804 06bc ed6a 01bd 1487 2cbd 47ca 8fbe

conv_kernels_64d.6 f4 [3, 64]
0.1573719 0.11233156 -0.32782355 -0.042502336 -0.17094946 -0.27964637 0.06593907 -0.17988461
0.13863845 -0.0002116547 0.10067386 0.18429667 -0.1356548 0.19522904 0.18903069 -0.22878675
0.0017540571 -0.48050487 -0.0076808147 0.3630907 -0.26531145 0.19688287 0.09835399 0.111484826
-0.32292438 -0.08199837 0.44076967 0.18623899 -0.06300886 0.034753107 -0.035267152 -0.13462569
0.5121796 -0.25553152 -0.104317375 0.14373401 0.050945602 0.025025489 0.079401955 0.15683393
0.054650508 0.2799627 -0.13817997 0.16886106 0.34150058 -0.27475026 -0.06611435 -0.050326996
0.076371096 -0.041819226 0.0031073492 -0.17590156 0.16232118 0.21738094 -0.414789 0.056552287
0.033715248 0.28279307 -0.23913252 0.13248356 0.04974993 -0.09978142 -0.011755041 0.08677236
-0.35376516 -0.05634179 0.18747886 -0.27676082 -0.14591633 0.032425605 0.016184142 -0.020348677
-0.094765924 -0.39120468 -0.30296522 0.12867488 0.059749287 0.16743925 0.12040582 -0.22179675
0.039270185 0.04431728 -0.045169406 0.07139184 -0.30036265 0.2745911 -0.22526823 -0.058427878
0.28437182 -0.0034609318 -0.17851812 0.19602123 -0.16415857 -0.05668057 -0.23625946 0.050890695
0.03719467 -0.095599085 -0.07933062 -0.19477518 -0.05108127 0.046048556 0.047899168 -0.36838552
0.15492399 0.0865975 -0.022882983 0.16693182 0.0068554655 -0.32874662 -0.09647301 -0.50051737
-0.06123936 0.43236625 0.104245104 0.27997693 -0.06445894 0.022218829 0.23880523 0.19210413
0.068307675 -0.15547381 0.2602716 0.41440323 -0.07776682 0.15681955 0.026431214 0.07061869
-0.031045089 -0.26632345 0.066876054 -0.036905568 -0.059069637 0.15887102 -0.34357378 -0.19239803
-0.06776747 0.019851139 0.05639553 -0.16819078 0.20107481 -0.04172373 -0.10780585 -0.09110446
0.24961673 -0.09380838 -0.08406743 -0.14323035 0.009802477 -0.009812604 0.14084426 -0.056167208
-0.14174446 0.2955837 -0.10832699 -0.10975565 0.044368535 0.014654676 0.08464582 -0.16158928
-0.081150524 -0.26394197 -0.2487032 0.07233722 0.34256473 -0.01802302 0.014844791 -0.18789618
0.06555966 -0.014123401 0.0061706416 -0.17244111 0.00262637 0.5947384 -0.113206685 -0.09740837
-0.2092621 0.089556 -0.109195575 -0.3731195 0.043059982 0.044027634 0.14460608 0.19636685
-0.10803326 -0.06389319 0.18712391 -0.1530856 -0.2200334 -0.10039477 -0.21576948 -0.13584764
00000000: 1926 213e 170e e63d 7dd8 a7be ee16 2ebd
00000010: 600d 2fbe cf2d 8fbe 100b 873d ac33 38be
00000020: 3df7 0d3e a0ef 5db9 192e ce3d 44b8 3c3e
00000030: 18e9 0abe 1fea 473e 4391 413e 1347 6abe
00000040: 64e8 e53a bc04 f6be 58af fbbb 06e7 b93e
00000050: e7d6 87be aa9b 493e d16d c93d 2852 e43d
00000060: 5856 a5be c3ee a7bd 90ac e13e 6fb5 3e3e
00000070: ca0a 81bd 4659 0e3d 4a74 10bd 51db 09be
00000080: 341e 033f 07d5 82be 59a4 d5bd 022f 133e
00000090: 56ac 503d 4102 cd3c 7e9d a23d 1399 203e
000000a0: 36d9 5f3d 4557 8f3e 0d7f 0dbe eae9 2c3e
000000b0: 2ad9 ae3e 11ac 8cbe f666 87bd ae23 4ebd
000000c0: 7368 9c3d a34a 2bbd aba4 4b3b 8a1f 34be
000000d0: 8637 263e 1c99 5e3e 395f d4be 5fa3 673d
000000e0: 0019 0a3d 41ca 903e 28df 74be c5a9 073e
000000f0: 95c6 4b3d 335a ccbd 3798 40bc b5b5 b13d
00000100: b520 b5be a6c6 66bd 75fa 3f3e 98b3 8dbe
00000110: 176b 15be b6d0 043d 9b94 843c 45b2 a6bc
00000120: a314 c2bd fb4b c8be 421e 9bbe 59c3 033e
00000130: abbb 743d 3275 2b3e 5497 f63d b01e 63be
00000140: c6d9 203d 0986 353d 8e03 39bd e335 923d
00000150: 22c9 99be 3497 8c3e b7ac 66be 1252 6fbd
00000160: 2f99 913e cdd0 62bb 74cd 36be cab9 483e
00000170: 2f19 28be e329 68bd 00ee 71be c372 503d
00000180: 7059 183d 74c9 c3bd 1878 a2bd 2573 47be
00000190: 983a 51bd 699d 3c3d eb31 443d 079d bcbe
000001a0: 65a4 1e3e 085a b13d 1875 bbbc 2df0 2a3e
000001b0: d0a3 e03b 7a51 a8be a493 c5bd e821 00bf
000001c0: 20d6 7abd 1c5f dd3e 757e d53d 2359 8f3e
000001d0: 0c03 84bd 4304 b63c 5c89 743e f2b6 443e
000001e0: e5e4 8b3d 8734 1fbe 5242 853e a92c d43e
000001f0: 3644 9fbd 4e95 203e 4686 d83c 88a0 903d
00000200: 4552 febc 8c5b 88be 50f6 883d 4b2a 17bd
00000210: 01f3 71bd 16af 223e e7e8 afbe fd03 45be
00000220: acc9 8abd db9e a23c 00ff 663d 343a 2cbe
00000230: 8ee6 4d3e 80e6 2abd 50c9 dcbd fa94 babd
00000240: 879b 7f3e 9c1e c0bd 8b2b acbd faaa 12be
00000250: 929a 203c 0bc5 20bc 7a39 103e 960f 66bd
00000260: 7625 11be bf56 973e 8ada ddbd 92c7 e0bd
00000270: c8bb 353d 2b1a 703c ca5a ad3d a977 25be
00000280: 3f32 a6bd 6723 87be 0dac 7ebe 8925 943d
00000290: a564 af3e 03a5 93bc 9137 733c db67 40be
000002a0: 2544 863d d665 67bc 1833 ca3b 6794 30be
000002b0: 2d1f 2c3b c740 183f e8d8 e7bd 0a7e c7bd
000002c0: ce48 56be 2369 b73d eea1 dfbd 8509 bfbe
000002d0: aa5f 303d 5256 343d 9e13 143e 6414 493e
000002e0: 8b40 ddbd 6fda 82bd 699d 3f3e 79c2 1cbe
000002f0: 7050 61be c69b cdbd adf2 5cbe a51b 0bbe

conv_kernels_64d.7 f4 [3, 64]
0.40820837 -0.10980797 0.30259025 0.079311945 0.15936911 -0.021160789 -0.35670063 0.24371311
0.051588397 -0.20709468 0.19163607 0.14409246 0.06374052 -0.07722803 0.15706266 -0.44948503
0.24266925 0.20990188 -0.2534956 -0.09440682 0.03338435 -0.048338257 -0.24961857 0.20906019
-0.24385253 -0.07941975 -0.2696263 0.22144267 0.16300176 -0.062076367 0.10998358 -0.059133515
0.27260262 -0.11786142 0.23092286 0.108301334 0.07153049 0.13711095 0.22269812 0.21094346
0.26900882 -0.09008576 -0.017399576 -0.16675732 0.2714696 0.061401192 -0.31744432 0.019721828
0.03336697 0.17240375 -0.15862519 0.12380329 0.026658976 -0.13679071 -0.2582701 -0.040032554
-0.17016205 -0.051694434 0.08127859 0.20172991 -0.16873485 0.24626392 0.0939824 0.1205848
-0.026729684 -0.183367 0.23939113 -0.18416917 -0.1484634 -0.27929533 0.020353138 0.16101559
0.06735808 0.2281705 -0.010789624 -0.16518465 -0.09989169 -0.17768018 0.097154535 0.23482202
0.0289287 -0.20561941 0.08426616 0.0056350576 -0.17657124 -0.044554163 0.045031216 -0.2036545
0.039553765 -0.0625303 0.0036531491 -0.18677925 0.091157965 0.05623415 0.032417912 -0.019876726
0.039918795 -0.30396 0.30185843 -0.0068368297 0.14748958 -0.09794559 0.087794244 -0.032701053
0.28272605 0.36626172 0.13920712 0.31659377 0.06374415 -0.29183325 0.09058411 -0.14748336
-0.07621419 -0.2643816 -0.08325459 0.1838213 -0.21030042 0.0609635 0.14810577 -0.0040224027
0.06626295 -0.06938216 0.027385088 0.20824438 -0.097571135 0.071269654 -0.20302656 0.3036822
-0.29624036 0.21519205 -0.21198937 -0.19487396 -0.086623386 -0.019651422 -0.36669835 0.112309344
-0.12696822 0.04374305 -0.41463333 0.13608839 -0.07889483 0.14300054 -0.10009107 0.05845544
-0.047295786 0.06675388 -0.028136447 0.16913398 0.115034856 0.12028305 -0.19088049 0.017660039
-0.26162302 -0.083992094 -0.016661655 -0.16107623 -0.0931222 -0.2355963 0.06756694 -0.08131798
-0.05698502 0.06554989 0.15558623 -0.061167408 0.01158366 0.23702489 0.016698468 0.2780055
0.57614034 -0.11116663 0.115580514 0.022258885 0.093068175 -0.13920982 0.21187778 0.2238229
0.0612067 -0.056380045 -0.022833753 -0.054950017 -0.23024395 0.10460432 -0.06371604 0.28033778
-0.17676377 -0.11759762 0.08141331 0.17577022 -0.22149916 -0.091265224 -0.028868515 0.04705553
00000000: b000 d13e 00e3 e0bd 1ced 9a3e 4d6e a23d
00000010: a831 233e 6459 adbc 77a1 b6be ee8f 793e
00000020: 5b4e 533d a110 54be 3f3c 443e f98c 133e
00000030: 648a 823d bb29 9ebd 09d5 203e e722 e6be
00000040: 4a7e 783e 85f0 563e 2dca 81be 5d58 c1bd
00000050: 07be 083d 56fe 45bd 039c 7fbe e013 563e
00000060: 7ab4 79be d2a6 a2bd 750c 8abe dec1 623e
00000070: efe9 263e ca43 7ebd 123f e13d fc35 72bd
00000080: 9292 8b3e 5461 f1bd 0b77 6c3e 17cd dd3d
00000090: 947e 923d d066 0c3e fa0a 643e 9001 583e
000000a0: 86bb 893e e27e b8bd 8e89 8ebc 6ec2 2abe
000000b0: 10fe 8a3e d17f 7b3d 1088 a2be ac8f a13c
000000c0: ceab 083d 9c8a 303e a46e 22be 948c fd3d
000000d0: ed63 da3c dd12 0cbe fb3b 84be 2df9 23bd
000000e0: f63e 2ebe 8bbd 53bd 6475 a63d 4992 4e3e
000000f0: d4c8 2cbe 9c2c 7c3e d879 c03d 2af5 f63d
00000100: 36f8 dabc 8fc4 3bbe f322 753e d896 3cbe
00000110: ca06 18be ccff 8ebe a0bb a63c 45e1 243e
00000120: 08f3 893d 87a5 693e f7c6 30bc 2a26 29be
00000130: 0494 ccbd cbf1 35be f5f8 c63d 2f75 703e
00000140: e2fb ec3c e58d 52be bd93 ac3d 4aa6 b83b
00000150: 17cf 34be 6d7e 36bd a772 383d ce8a 50be
00000160: 2103 223d e30f 80bd ac69 6f3b 0f43 3fbe
00000170: 07b1 ba3d c855 663d a5c8 043d 84d4 a2bc
00000180: e481 233d a5a0 9bbe 308d 9a3e 7c07 e0bb
00000190: 8207 173e b397 c8bd 78cd b33d 8af1 05bd
000001a0: 78c1 903e a886 bb3e 508c 0e3e 9418 a23e
000001b0: 4b8c 823d 2b6b 95be 2984 b93d e105 17be
000001c0: 2f16 9cbd 065d 87be 6281 aabd a73b 3c3e
000001d0: fe58 57be ddb4 793d 0aa9 173e 5cce 83bb
000001e0: dfb4 873d 3c18 8ebd b156 e03c 043e 553e
000001f0: 60d3 c7bd d3f5 913d 32e6 4fbe 3c7c 9b3e
00000200: d1ac 97be 4e5b 5c3e be13 59be 0a8d 47be
00000210: 9a67 b1bd 05fc a0bc e3bf bbbe 7102 e63d
00000220: f503 02be ea2b 333d d24a d4be c15a 0b3e
00000230: 9d93 a1bd bc6e 123e 8cfc ccbd f96e 6f3d
00000240: 3ab9 41bd 42b6 883d 687e e6bc 7531 2d3e
00000250: 6597 eb3d f656 f63d 2d76 43be c9ab 903c
00000260: 74f3 85be 0c04 acbd 067e 88bc 2bf1 24be
00000270: dab6 bebd 2840 71be 8960 8a3d 0b8a a6bd
00000280: 2069 69bd 053f 863d ff51 1f3e ad8a 7abd
00000290: 64c9 3d3c a7b6 723e 3acb 883c bd56 8e3e
000002a0: ef7d 133f 55ab e3bd 7ab5 ec3d 4458 b63c
000002b0: 879a be3d 058d 0ebe 7df6 583e d531 653e
000002c0: e0b3 7a3d c3ee 66bd da0d bbbc 4513 61bd
000002d0: 12c5 6bbe ca3a d63d 8e7d 82bd 6f88 8f3e
000002e0: 9001 35be 05d7 f0bd 05bc a63d 1cfd 333e
000002f0: add0 62be 43e9 babd aa7d ecbc 4dbd 403d

conv_biases_64d.0 f4 [3]
-0.21745335 0.24121854 0.21578161
00000000: 17ac 5ebe fe01 773e dbf5 5c3e

conv_biases_64d.1 f4 [3]
-1.0357466 1.4351482 1.0149816
00000000: 5893 84bf f0b2 b73f ebea 813f

conv_biases_64d.2 f4 [3]
0.41351262 0.12016832 0.09836269
00000000: edb7 d33e cf1a f63d 6172 c93d

conv_biases_64d.3 f4 [3]
0.52282906 1.1066452 -0.09368934
00000000: 20d8 053f 8da6 8d3f 32e0 bfbd

conv_biases_64d.4 f4 [3]
0.7728068 -0.13245122 -0.5297793
00000000: abd6 453f 4ba1 07be 9e9f 07bf

conv_biases_64d.5 f4 [3]
0.6877228 -0.17353262 0.9474667
00000000: 9a0e 303f 89b2 31be 2d8d 723f

conv_biases_64d.6 f4 [3]
-0.41846195 1.3916451 -0.57006395
00000000: a540 d6be 6d21 b23f b6ef 11bf

conv_biases_64d.7 f4 [3]
1.0320332 0.6514215 -0.63958967
00000000: aa19 843f 8fc3 263f 26bc 23bf

hidden_fc_1.weight f4 [18, 36]
0.41982147 0.022661716 0.18604141 -0.24649712 0.03655052 -0.123761036 -0.44938347 -0.28529862
-0.30254477 -0.07014827 0.1380079 -0.13142022 0.025831493 0.5212328 -0.319571 -0.15354684
-0.22469752 0.05879599 0.07560612 0.23867863 0.19483034 -0.023648662 0.19245775 0.22076374
0.034886733 0.20913878 0.28341597 -0.41042984 0.22473416 -0.25206715 0.065018 0.05155995
-0.0002169786 0.09806581 -0.02252302 0.16859174 -0.14939924 -0.5838147 -0.08010363 0.3637729
0.28228322 0.23303184 -0.14645432 0.29466623 -0.22961453 0.23647888 0.12760608 -0.32088792
-0.07585107 0.35372683 -0.4965566 0.099033706 -0.056040384 -0.01096241 0.2370415 0.15218721
-0.081068955 -0.037199773 0.2994437 -0.44738567 0.44417953 -0.09805947 -0.0032791665 0.16440979
-0.2631984 0.16466288 -0.024083178 0.35407305 -0.16631028 0.53506464 -0.30082038 -0.43137065
-0.09341014 0.09276782 -0.023911782 -0.02453177 -0.26777333 0.17254002 0.14094408 0.2093833
0.022162938 -0.5067136 -0.37979513 0.562546 -0.18855566 0.3635647 -0.20157239 0.21998514
-0.098321095 0.17466941 0.12154373 0.088943705 -0.14173026 0.37188414 0.12004945 -0.18184458
0.34086946 0.013697791 -0.23531738 -0.094421804 0.032582976 0.10163871 -0.21030535 -0.3193467
-0.1281423 -0.22912042 0.07630573 0.1928685 0.070355766 0.466799 0.30443773 0.23650596
-0.11744104 0.1690168 0.25121397 -0.27172634 0.15803318 0.014442891 0.03450857 0.30940586
0.19942133 -0.3300737 0.11758435 0.4060941 -0.23010036 -0.13019301 0.016865656 0.11075808
-0.052996214 -0.052426998 -0.09865776 -0.035107728 -0.3984825 -0.023159578 -0.09923357 -0.13964283
0.28968608 -0.054301396 -0.14059377 -0.23046699 0.6917791 -0.2519165 0.5243118 -0.071728684
0.04883452 0.519158 0.3041881 0.26349613 0.47975957 -0.0034538498 0.21237403 -0.104313225
0.0024337468 -0.28446957 -0.016062405 0.15423901 0.3684609 -0.09331814 -0.15882683 0.12284035
0.3898161 0.15007012 -0.1605441 -0.024544705 0.21592328 0.39130145 0.119100556 0.2912492
0.34816897 0.21178685 0.3058076 0.021396527 0.10014562 -0.038016893 0.38818425 -0.0023239965
0.011122328 -0.10044948 -0.24697728 -0.052782238 0.017894713 0.010267093 0.14464144 -0.07221955
-0.096911594 0.1352475 -0.22667399 0.1740491 -0.182769 0.11352441 0.4503607 0.03515393
-0.13278213 0.02706389 0.2271707 -0.08725042 0.19821116 -0.44689208 -0.18115917 -0.089553475
0.25239387 -0.053780653 0.23376979 0.04781472 0.18401764 -0.31517297 0.121284 0.3406906
0.32986253 -0.30605584 0.15504715 0.16661894 -0.12379445 0.057933178 0.14882754 0.2865236
-0.034193262 -0.020097677 -0.40310553 -0.038164623 -0.015603617 -0.40448582 0.31505847 -0.28846824
-0.19747426 -0.6763872 0.39881313 -0.19956371 0.076417044 -0.030013345 0.05027156 -0.13538231
-0.2639272 0.22405809 -0.124472946 0.20132264 -0.047146145 -0.14795761 -0.03579311 -0.1639094
0.044750083 -0.5533942 0.1801842 -0.041159976 -0.24965037 0.18284759 -0.10176459 -0.43004093
0.23975779 0.09133155 -0.23135538 -0.05674088 0.53423154 0.16821763 -0.043015633 -0.15362838
00000000: d7f2 d63e 10a5 b93c a481 3e3e be69 7cbe
00000010: 00b6 153d 6d76 fdbd 9715 e6be a912 92be
00000020: 26e7 9abe e5a9 8fbd f151 0d3e 0693 06be
00000030: 919c d33c 836f 053f cf9e a3be 623b 1dbe
00000040: 1b17 66be 10d4 703d 62d7 9a3d 2c68 743e
00000050: 9b81 473e d7ba c1bc a513 453e e40f 623e
00000060: 64e5 0e3d 7a28 563e e61b 913e dc23 d2be
00000070: b620 663e f20e 81be 2828 853d 8730 533d
00000080: c084 63b9 bad6 c83d 3282 b8bc 50a3 2c3e
00000090: 1dfc 18be e174 15bf 5f0d a4bd 7140 ba3e
000000a0: 6d87 903e e69f 6e3e 1ff8 15be 7ede 963e
000000b0: 1220 6bbe 8527 723e 2bab 023e 6c4b a4be
000000c0: ce57 9bbd af1b b53e ab3c febe 2fd2 ca3d
000000d0: 9a8a 65bd ae9b 33bc 02bb 723e f7d6 1b3e
000000e0: 7b07 a6bd ca5e 18bd af50 993e bc0f e5be
000000f0: 806b e33e 67d3 c8bd 49e7 56bb 0a5b 283e
00000100: f1c1 86be 639d 283e 164a c5bc 1049 b53e
00000110: 3e4d 2abe fff9 083f 2105 9abe 9ddc dcbe
00000120: d14d bfbd 0efd bd3d a4e2 c3bc daf6 c8bc
00000130: 9619 89be 55ae 303e a553 103e 9368 563e
00000140: 0d8f b53c fcb7 01bf 8274 c2be 0403 103f
00000150: bc14 41be 2725 ba3e fe68 4ebe c943 613e
00000160: 925c c9bd 8adc 323e ebeb f83d 1e28 b63d
00000170: bd21 11be 9967 be3e 7cdc f53d 7735 3abe
00000180: 7186 ae3e b36c 603c 0af7 70be 3860 c1bd
00000190: ba75 053d f527 d03d 495a 57be 6981 a3be
000001a0: bc37 03be 8b9e 6abe 2e46 9c3d 527f 453e
000001b0: af16 903d 4700 ef3e 43df 9b3e 9e2e 723e
000001c0: ee84 f0bd bd12 2d3e 1e9f 803e b71f 8bbe
000001d0: 73d3 213e e0a1 6c3c dc58 0d3d 726a 9e3e
000001e0: 1b35 4c3e 6cff a8be 10d0 f03d 91eb cf3e
000001f0: 6e9f 6bbe 5151 05be d829 8a3c 22d5 e23d
00000200: 8f12 59bd b1bd 56bd 140d cabd 1fcd 0fbd
00000210: e605 ccbe 28b9 bdbc f83a cbbd 88fe 0ebe
00000220: bc51 943e 246b 5ebd d0f7 0fbe 8aff 6bbe
00000230: 6f18 313f 33fb 80be 4c39 063f 7de6 92bd
00000240: b506 483d 8ae7 043f 8bbe 9b3e f7e8 863e
00000250: 0ca3 f53e fc59 62bb 9478 593e 2ca2 d5bd
00000260: 7f7f 1f3b ffa5 91be 4e95 83bc d5f0 1d3e
00000270: e8a6 bc3e 951d bfbd 80a3 22be b993 fb3d
00000280: fa95 c73e fbab 193e ac65 24be fa11 c9bc
00000290: fe1a 5d3e aa58 c83e feea f33d 9d1e 953e
000002a0: 3443 b23e a7de 583e d092 9c3e c547 af3c
000002b0: 2619 cd3d 9ab7 1bbd 16c0 c63e 314e 18bb
000002c0: 6d3a 363c 75b8 cdbd 9de7 7cbe 3032 58bd
000002d0: ef97 923c 4f37 283c e31c 143e d8e7 93bd
000002e0: 9679 c6bd 527e 0a3e 3a1d 68be ed39 323e
000002f0: cc27 3bbe 7c7f e83d ad95 e63e 91fd 0f3d
00000300: 0af8 07be 17b5 dd3c 709f 683e 59b0 b2bd
00000310: def7 4a3e 0acf e4be ca81 39be d067 b7bd
00000320: c539 813e 1a49 5cbd 5961 6f3e 5ed9 433d
00000330: 1f6f 3c3e 5a5e a1be bf63 f83d 006f ae3e
00000340: bee3 a83e 5ab3 9cbe aec4 1e3e 289e 2a3e
00000350: f287 fdbd 574b 6d3d 3f66 183e 39b3 923e
00000360: 3c0e 0cbd e2a3 a4bc d963 cebe 8252 1cbd
00000370: 50a6 7fbc c418 cfbe 584f a13e 1cb2 93be
00000380: b136 4abe b627 2dbf 3c31 cc3e 6e5a 4cbe
00000390: 8a80 9c3d 8cde f5bc 8de9 4d3d a9a1 0abe
000003a0: 7721 87be 7c6f 653e aceb febd 8627 4e3e
000003b0: 511c 41bd 3382 17be cc9b 12bd ded7 27be
000003c0: dd4b 373d 3eab 0dbf 3582 383e 5d97 28bd
000003d0: 59a4 7fbe 663c 3b3e f469 d0bd 532e dcbe
000003e0: 1183 753e 090c bb3d 6de8 6cbe 2069 68bd
000003f0: 66c3 083f 3e41 2c3e 2931 30bd c250 1dbe

hidden_fc_1.bias f4 [18]
0.011881212 0.14652888 -0.13094915 -0.099226795 -0.05768189 0.13133635 0.021439884 -0.12320536
-0.13600297 -0.12751311 -0.10132958 0.14315109 -0.15722847 0.0373205 0.01534325 -0.119918905
-0.13973077 -0.1533715
00000000: 6aa9 423c ab0b 163e 8917 06be 6b37 cbbd
00000010: d843 6cbd 097d 063e b2a2 af3c 1753 fcbd
00000020: 5d44 0bbe cc92 02be e285 cfbd 3396 123e
00000030: 8000 21be 61dd 183d 4162 7b3c 0b98 f5bd
00000040: 9515 0fbe 6b0d 1dbe

hidden_fc_2.weight f4 [6, 18]
-0.2900489 0.19022116 -0.1073121 0.66054255 -0.18374686 -0.57144797 -0.015978947 -0.14776728
-0.31846333 -0.03443221 0.33217406 -0.24393883 -0.57625705 0.06533734 -0.012238877 -0.25785968
-0.40305197 -0.21788694 -0.29786882 0.24785979 -0.8825973 0.023051843 0.063190736 0.288242
-0.23365247 -0.033313602 0.20868099 -0.31641737 -0.30589214 0.07747677 -0.21571185 0.07281917
-0.6086281 -0.024545697 0.06542361 0.24159108 -0.056611005 -0.22785646 -0.2977344 0.33863518
-0.20563436 0.21060513 0.12109019 0.42546922 -0.16239169 0.20994154 0.26683143 -0.16252552
0.31191787 -0.05662466 -0.18372658 -0.43111318 -0.0040948293 -0.75331146 0.567241 -0.043076094
0.071540944 0.02366849 -0.39742026 0.08177117 -0.22399412 -0.49795756 0.69361603 -0.28831968
0.33390746 0.1421283 -0.19365306 -0.19238657 -0.5117463 -0.4157287 -0.27180094 0.4514481
-0.04283222 0.7443245 -0.007867486 0.19334994 -0.4332486 0.15238158 -0.3578959 0.3529533
-0.36737075 0.26076752 0.21793462 0.0075921407 -0.5078169 0.37965423 0.38587615 -0.19018166
0.3985135 -0.6869141 0.11722501 -0.08364625 -0.17477795 -0.25176358 0.12861855 0.48079515
0.37143457 -0.22757092 -0.09664833 -0.051181898 -0.4244926 -0.28347465 0.42246866 -0.011049887
-0.5372196 -0.10067592 -0.24283856 0.13942507
00000000: 4a81 94be 56c9 423e 72c6 dbbd 5119 293f
00000010: 2328 3cbe 6a4a 12bf 48e6 82bc 4e50 17be
00000020: a00d a3be ca08 0dbd b812 aa3e 1acb 79be
00000030: 9585 13bf 95cf 853d 9285 48bc 2f06 84be
00000040: d45c cebe c11d 5fbe 4382 98be f5ce 7d3e
00000050: e6f1 61bf 38d7 bc3c 256a 813d 7594 933e
00000060: 9842 6fbe d873 08bd 78b0 553e 7501 a2be
00000070: e59d 9cbe 24ac 9e3d 91e3 5cbe 3822 953d
00000080: 0dcf 1bbf 0f14 c9bc d0fc 853d a763 773e
00000090: f1e0 67bd 3453 69be a570 98be 9761 ad3e
000000a0: d091 52be dfa8 573e 22fe f73d 1ad7 d93e
000000b0: 024a 26be eafa 563e 219e 883e 176d 26be
000000c0: b3b3 9f3e 42ef 67bd d222 3cbe deba dcbe
000000d0: eb2d 86bb 05d9 40bf b536 113f 8f70 30bd
000000e0: 0f84 923d 6ce4 c13c ab7a cbbe a577 a73d
000000f0: b75e 65be 4bf4 febe d290 313f a39e 93be
00000100: ebf5 aa3e 158a 113e fd4c 46be fc00 45be
00000110: ce01 03bf 64da d4be 7e29 8bbe 3524 e73e
00000120: d770 2fbd 0d8c 3e3f a1e6 00bc 87fd 453e
00000130: c3d2 ddbe eb09 1c3e 223e b7be 4cb6 b43e
00000140: 0518 bcbe 5283 853e 412a 5f3e 7ec7 f83b
00000150: 4a00 02bf 0a62 c23e 8f91 c53e fbbe 42be
00000160: f609 cc3e 9ad9 2fbf ab13 f03d ba4e abbd
00000170: fef8 32be 28e7 80be 95b4 033e c82a f63e
00000180: ac2c be3e 5a08 69be 8fef c5bd 1ca4 51bd
00000190: 1857 d9be 9723 91be d04d d83e 960a 35bc
000001a0: 3987 09bf 2d2f cebd acaa 78be 72c5 0e3e

hidden_fc_2.bias f4 [6]
0.008914183 0.17532991 -0.23717336 -0.18696755 -0.17483373 0.03598485
00000000: cb0c 123c af89 333e 93dd 72be 6c74 3fbe
00000010: 9d07 33be da64 133d
