state_dicts/model20240104-203801.pt (torch, 16919 bytes, 6 tensors)

layerone.weight f4 [40, 81]
0	0x3e15cb53	0.14628343
1	0x3d301597	0.04298934
2	0x3c939cce	0.018019106
3	0x3c1d5b29	0.009604254
4	0x3b4dbec0	0.0031394213
5	0x3adc728f	0.0016818809
6	0x3ad9d05c	0.0016617882
7	0x3c86a5b9	0.016436445
8	0x3ba50e3a	0.0050370963
9	0x3b526c59	0.0032108037
10	0x3c87cdaf	0.01657757
11	0x3b12797a	0.0022350238
12	0x3a41f07e	0.0007398202
13	0x3b4a18f2	0.0030837622
14	0x3c217fa1	0.009857089
15	0x3b827545	0.003981265
16	0xbab60674	-0.0013887421
17	0x3b12de24	0.0022410238
18	0x3b1e0212	0.002411012
19	0x3c0c81ec	0.008575898
20	0x3bf95a1f	0.00760962
21	0x3bb35f7e	0.00547403
22	0x3b4e9a94	0.0031525241
23	0x3a0ebed7	0.00054453075
24	0x3b403c29	0.0029332733
25	0x3b6c5717	0.0036062652
26	0x3b4fb7de	0.0031695287
27	0x3b14836c	0.0022661341
28	0x3b0fa6b5	0.0021919433
29	0x3b9b76a9	0.00474437
30	0x3af12147	0.0018396758
31	0x3b910e16	0.004426728
32	0xb95159c3	-0.00019965232
33	0x3ae3ab30	0.0017369743
34	0x3b84ee9b	0.0040567643
35	0x3aaf8a9a	0.0013392747
36	0x3b3a8811	0.002846245
37	0x3b0bb895	0.0021319736
38	0x3b9de83a	0.0048189433
39	0x3ba0acda	0.004903418
40	0xbb2b0591	-0.0026095847
41	0x3b83ce77	0.0040224153
42	0x3b4ab004	0.0030927667
43	0x3abed1b2	0.0014558344
44	0x3a8ccf65	0.0010742961
45	0x3bbfbf78	0.0058516823
46	0x3b3fbf67	0.0029258372
47	0x3b0d7fc2	0.0021591042
48	0xb79fbe34	-1.9042847e-05
49	0x3b811717	0.00393952
50	0x3b88c0c6	0.004173371
51	0x3b2fc221	0.002681859
52	0x3afa989d	0.0019118969
53	0x3ad7643c	0.001643307
54	0x3c019c52	0.007910805
55	0x3b87fecd	0.0041502477
56	0x3b94520c	0.0045263823
57	0x395342a9	0.00020147361
58	0x3b01765e	0.001975439
59	0x3c03bd26	0.008040702
60	0x3bf5c626	0.007500428
61	0x3bcab0f0	0.0061856434
62	0x3bd109fa	0.006379363
63	0x3b73d82f	0.0037207713
64	0x3b1ad81a	0.0023627342
65	0x39947a2b	0.00028319782
66	0x3b8ecb3e	0.0043577245
67	0x3b14fed7	0.0022734904
68	0x3b0cffaf	0.0021514704
69	0x3cb7a9ee	0.022419896
70	0x3c0472e6	0.008084035
71	0x3bb7a574	0.0056044403
72	0x3b5a992a	0.0033355453
73	0x3ba7a37f	0.005115926
74	0x3b4b4579	0.003101675
75	0x3c34aa5f	0.011026948
76	0x3ba2c4b4	0.0049672965
77	0x3c6a4e67	0.014300919
78	0x3ca1abf0	0.019735307
79	0xbaebb7ea	-0.0017983888
80	0x3d83a295	0.064274944
81	0x3e316f02	0.17327502
82	0xbc084d72	-0.008319246
83	0x3d2427f4	0.040077165
84	0x3d10f3ba	0.035388686
85	0x3c45bcd8	0.01206895
86	0x3c83de49	0.016097205
87	0xb9ef1106	-0.00045598316
88	0x3d6314ab	0.055439632
89	0x3c6d7081	0.014492155
90	0x3c8b2d10	0.01698926
91	0x3ca51f17	0.020156426
92	0xbc9a099e	-0.018803414
93	0xbbfb2bab	-0.0076651177
94	0x3c950e4c	0.018195294
95	0xbc477c46	-0.012175625
96	0x3d26a869	0.040687952
97	0x3d2bcfd4	0.041946247
98	0x3b1ae542	0.0023635183
99	0x3c70db55	0.01470073
100	0x3d3b43ca	0.045718946
101	0x3d224de9	0.039625082
102	0x3cad48f2	0.021152947
103	0x3d3f7ea8	0.04675165
104	0x3d15451f	0.036442872
105	0x3c8986b2	0.01678786
106	0x3d3477ff	0.04405975
107	0x3cc0303a	0.023460496
108	0xbcd3634c	-0.025804184
109	0x3c8f636b	0.01750346
110	0x3d2fb5fd	0.042898167
111	0x3c3226b8	0.010873489
112	0xbc47c240	-0.012192309
113	0xbc992bfc	-0.018697731
114	0x3c8e82ee	0.017396417
115	0xbc992faf	-0.018699495
116	0x3c8f8fc1	0.017524602
117	0x3d0127a4	0.031531945
118	0x3c3ebcaa	0.011641661
119	0xbbb68bd9	-0.0055708704
120	0x3cf93881	0.030422451
121	0xbcd6ea7c	-0.026234858
122	0xbc6ef8e5	-0.014585708
123	0x3d3a12fe	0.04542827
124	0x3d401d86	0.046903156
125	0x3c22e435	0.009942104
126	0xbb2e9b9a	-0.0026643039
127	0xbccbcdef	-0.02487847
128	0xba8a8228	-0.0010567354
129	0x3caaa681	0.020831348
130	0x3d54952c	0.051900074
131	0xbc39a805	-0.011331563
132	0x3cd76497	0.026293082
133	0x3ac59077	0.0015072961
134	0xbc60fbec	-0.013731938
135	0x3cc427f3	0.02394483
136	0x3c852541	0.016253116
137	0x3cebb6fb	0.028773775
138	0xbcbfd136	-0.02341519
139	0x3caa45d7	0.020785255
140	0x3d41eb70	0.04734367
141	0xbc23ba3f	-0.009993135
142	0x3d07c29a	0.03314457
143	0x3d3bfa71	0.045893136
144	0x3c971321	0.018441739
145	0x3c2442f8	0.010025732
146	0xbb99d87f	-0.004694998
147	0x3c3c5b77	0.011496416
148	0x3ba4f38d	0.0050339163
149	0x3c6012a5	0.01367632
150	0x3d5b5c96	0.053555094
151	0x3c07d949	0.008291551
152	0x3d2e9daa	0.04263083
153	0xbcdae3b6	-0.02671991
154	0x3c90c294	0.017670907
155	0x3c798bdc	0.015231099
156	0x3d52594f	0.051354703
157	0x3a5e2835	0.0008474619
158	0x3c593e80	0.01325953
159	0x3bc606b5	0.00604328
160	0x3d97100e	0.07376109
161	0x3cc4d1d9	0.024025844
162	0x3b2d470e	0.0026440057
163	0xbe0e3301	-0.13886644
164	0x3de4c73c	0.111708134
165	0xbd99d194	-0.07510677
166	0x3d11d2dd	0.035601486
167	0xbd0c845e	-0.034305923
168	0x3d3f9fea	0.046783365
169	0x3e0438de	0.12912318
170	0xbceaf88f	-0.028682975
171	0x3d913164	0.07089499
172	0x3d041af2	0.03225226
173	0x3e2ddc4a	0.16978565
174	0x3e2e9e14	0.1705249
175	0xbd2cd555	-0.042195637
176	0x3d6cdf93	0.057830404
177	0x3e0c6468	0.13710177
178	0x3c050107	0.008117921
179	0xbd3a8875	-0.04554029
180	0xbc12d270	-0.008961305
181	0x3c8ae853	0.016956484
182	0xbd30e5bc	-0.04318784
183	0x3da29891	0.07939256
184	0x3e30b97d	0.17258258
185	0x3ca72326	0.020402502
186	0xbde14bea	-0.110008076
187	0xbe58a217	-0.21155582
188	0xbe5e5ab9	-0.21714295
189	0xbb76f9a2	-0.0037685414
190	0x3e5c0f5b	0.21490233
191	0x3d89cf9b	0.06729051
192	0x3d926f1e	0.071501
193	0xbd9a4378	-0.075324
194	0x3e00fc01	0.12596132
195	0xbe045502	-0.12923053
196	0xbd46d8d1	-0.048546616
197	0xbd283348	-0.04106453
198	0x3e1d4a56	0.15360388
199	0xbd1f351b	-0.038869005
200	0x3d43c51d	0.047795404
201	0xbdb4aab6	-0.08821623
202	0xbdb24a84	-0.08705619
203	0xbe5ea31b	-0.21741907
204	0xbda54f90	-0.08071816
205	0x393548d8	0.00017288642
206	0x3e0975fc	0.13423914
207	0x3d3530ed	0.044236112
208	0xbdc33382	-0.09531309
209	0xbd92bc7f	-0.07164859
210	0x3d076a69	0.033060465
211	0xbe3d0148	-0.1845752
212	0x3e3ce704	0.184475
213	0xbd37f8f9	-0.044915173
214	0x3d555b28	0.052088886
215	0x3e0dba05	0.13840492
216	0xbea51ecc	-0.3225006
217	0x3c965f94	0.018356122
218	0xbd82f662	-0.0639465
219	0x3d3241c7	0.04351976
220	0xbe006e25	-0.12542017
221	0x3d6ee18c	0.058320567
222	0x3d45bac5	0.04827382
223	0xbc5dd515	-0.013539572
224	0x3d9d785e	0.07688974
225	0xbd208b17	-0.039195146
226	0x3dca1e69	0.098690815
227	0xbdddefbe	-0.10836743
228	0x3e12e9fb	0.14347069
229	0x3e3bd40b	0.18342607
230	0x3d2733da	0.040820934
231	0x3e40945e	0.18806598
232	0x3d9c8aa5	0.07643632
233	0x3dd4c2b0	0.10388696
234	0xbd1dd879	-0.038536523
235	0xbdae1b4e	-0.08501302
236	0x3e48a2a6	0.19593295
237	0xbd3220ab	-0.043488186
238	0xbbfc3f23	-0.007697956
239	0xbb9bde4e	-0.0047567254
240	0xbdf7e6ef	-0.12104594
241	0x3d05f345	0.032702703
242	0x3b30acf1	0.002695855
243	0xbd8fb1f9	-0.070163675
244	0xbd1faed0	-0.038985074
245	0x3cc99759	0.024608301
246	0xbdd332b7	-0.103124075
247	0xbcc9053a	-0.024538625
248	0x3bfffd2d	0.0078121633
249	0xbd3cb166	-0.046067618
250	0x3deed06c	0.11660847
251	0x3dee57cd	0.116378404
252	0xbd8230d8	-0.063569725
253	0x3c9e18a5	0.01929886
254	0x3e22aa10	0.15885186
255	0x3d2be4a7	0.041966107

layerone.bias f4 [40]
0	0x3db3d002	0.08779909
1	0x3dcdb40f	0.10044109
2	0xbf075aa0	-0.5287266
3	0x3f0ec61b	0.55771035
4	0x3ed65372	0.4186054
5	0x3f1a163e	0.6019019
6	0xbec5a03c	-0.38598812
7	0xbf05ec5f	-0.523138
8	0x3cf6b45c	0.030115299
9	0x3f2fe417	0.6870741
10	0xbf025020	-0.5090351
11	0x3ee30ea4	0.44347107
12	0x3e0ef92b	0.13962238
13	0x3d94ccc4	0.072656184
14	0x3ef8e061	0.48608688
15	0x3edd85a9	0.43266037
16	0x3ed22a3a	0.4104784
17	0xbe1e69e8	-0.15470088
18	0x3ea64bcc	0.32479703
19	0xbe507abf	-0.20359324
20	0xbf311c85	-0.6918414
21	0xbee9e94d	-0.45685807
22	0x3eee86da	0.4658726
23	0x3ec6df85	0.38842407
24	0x3f0e067c	0.55478644
25	0x3c04f327	0.008114613
26	0x3eff028e	0.49806637
27	0x3eb84dfd	0.35997
28	0xbdfcd85c	-0.12345955
29	0x3efec699	0.49760893
30	0x3edd4eab	0.4322408
31	0xbed7303a	-0.4202898
32	0xbef74151	-0.4829202
33	0xbe6fb606	-0.2340928
34	0xbefa2b68	-0.4886124
35	0xbf0aa29b	-0.54154366
36	0xbed5905a	-0.41711694
37	0xbf088f4a	-0.5334364
38	0x3efa7b6d	0.4892229
39	0x3ee94f97	0.45568535

layertwo.weight f4 [10, 40]
0	0xbe076fb5	-0.13226207
1	0xbe33066b	-0.17482917
2	0x3f00b5ba	0.5027729
3	0xbe9007dd	-0.28131
4	0xbed50bed	-0.4161066
5	0xbf1ecbef	-0.6202993
6	0xbbc01f5b	-0.005863113
7	0x3e5ad904	0.21371847
8	0xbda1c239	-0.07898373
9	0xbf09bf31	-0.5380736
10	0x3ed96606	0.4246065
11	0xbf35c702	-0.71006787
12	0x3dad2a0e	0.08455287
13	0xbddc9aa3	-0.10771682
14	0xbe6a4324	-0.22877175
15	0xbf054db7	-0.5207171
16	0xbe9d4be7	-0.3072197
17	0xbad3f48e	-0.0016170905
18	0xbe7606d6	-0.24026045
19	0xbe260287	-0.16211902
20	0x3f1c0362	0.6094266
21	0x3dd8e7ed	0.10591111
22	0xbf1d58e7	-0.6146378
23	0xbe16a172	-0.14710024
24	0xbf11676a	-0.5679842
25	0x3dc7c321	0.09754015
26	0xbf0ac686	-0.5420917
27	0xbee2ed6b	-0.4432176
28	0xbdbccacb	-0.09218367
29	0xbf1aa802	-0.6041261
30	0xbe7604a4	-0.24025208
31	0x3f02340a	0.50860655
32	0x3e5845bd	0.21120353
33	0xbe4e26c2	-0.20131972
34	0x3e8ba150	0.2727151
35	0x3ee62a9a	0.44954377
36	0x3edc486e	0.4302401
37	0x3e0dc8c2	0.13846114
38	0xbef90a47	-0.48640653
39	0xbed52537	-0.41629955
40	0xbc094fd1	-0.008380846
41	0xbd7f076b	-0.062262934
42	0xbeb75953	-0.35810336
43	0x3e9b3864	0.3031646
44	0x3ec12f4e	0.37731403
45	0x3f239e68	0.63913584
46	0xbe2eca93	-0.17069463
47	0xbe5119e3	-0.20420031
48	0xbdbf628d	-0.09344969
49	0x3f031613	0.5120556
50	0xbe643c75	-0.22288688
51	0x3efa9daf	0.48948428
52	0x3d2c2b61	0.042033557
53	0xbdab2f9b	-0.083586894
54	0x3e9eafd5	0.30993524
55	0x3ef9bc01	0.48776248
56	0x3ef0612b	0.46949133
57	0xbdd3f074	-0.10348597
58	0x3e4f68d4	0.20254833
59	0x3e48ace1	0.19597198
60	0xbec1cd45	-0.3785192
61	0xbdacb4a8	-0.08432895
62	0x3edd47c3	0.43218812
63	0x3d998702	0.07496454
64	0x3ea7b73c	0.32756984
65	0xbd780df7	-0.060560193
66	0x3e8adc0c	0.27121007
67	0x3f0a67bd	0.5406454
68	0xbd8b87f2	-0.06813039
69	0x3e98fd12	0.29880577
70	0x3e083687	0.1330205
71	0xbec6d091	-0.38831
72	0xbd76900f	-0.06019598
73	0x3e6bac1a	0.2301487
74	0xbea93752	-0.3305002
75	0xbef2f3e8	-0.4745171
76	0xbee1c8fa	-0.44098645
77	0xbe9919f8	-0.29902625
78	0x3edca0d5	0.43091455
79	0x3ef6ee44	0.48228657
80	0xbcd30336	-0.025758367
81	0xbdf0d98e	-0.11760245
82	0x3ec34a0b	0.38142428
83	0xbea24957	-0.3169658
84	0xbef1185a	-0.4708889
85	0xbf0548ce	-0.52064216
86	0xbd02e3a7	-0.031955387
87	0x3e3a9af7	0.18223177
88	0x3c377111	0.011196391
89	0xbed2ff57	-0.41210434
90	0x3ee21ffb	0.44165024
91	0xbf1a2ddd	-0.6022623
92	0xbdb042d8	-0.086064994
93	0xbd1b63c2	-0.037936933
94	0xbe8ac252	-0.2710138
95	0xbf10259f	-0.56307405
96	0xbec6ad98	-0.38804317
97	0x390d1196	0.00013453359
98	0xbe9d68a8	-0.3074391
99	0xbb68988e	-0.003549132
100	0x3f0556f2	0.52085793
101	0x3e9fa5e1	0.31181243
102	0xbedd7898	-0.43256068
103	0xbeca6247	-0.39528105
104	0xbf05257e	-0.52010334
105	0x3c056a8e	0.00814308
106	0xbeb451ca	-0.3521865
107	0xbef359f9	-0.4752958
108	0xbe0168f9	-0.126377
109	0xbef9f168	-0.4881699
110	0xbe2b1846	-0.16708478
111	0x3ed0a640	0.4075184
112	0x3e3b20fb	0.182743
113	0xbd8d3bf1	-0.068961985
114	0x3e072dda	0.13201085
115	0x3f09fed8	0.53904486
116	0x3ef7cb79	0.48397425
117	0x3e0fe8fb	0.14053719
118	0xbeda460c	-0.42631567
119	0xbf26f383	-0.6521532
120	0x3dfd8ce2	0.12380387
121	0xbce2ed2d	-0.027700985
122	0xbf05bf15	-0.52244693
123	0x3ec3de53	0.38255557
124	0x3eb73a2f	0.35786578
125	0x3f19e74f	0.60118574
126	0xbdcb3796	-0.099227116
127	0xbeabf989	-0.33588818
128	0xbd0b4c72	-0.03400845
129	0x3e9d4d11	0.3072286
130	0xbe83ab01	-0.25716403
131	0x3f0081b4	0.5019791
132	0xbb09e7e8	-0.0021042768
133	0x3cc16a5d	0.023610288
134	0x3e8ee03f	0.2790546
135	0x3ed3125a	0.4122494
136	0x3eeb9649	0.46013096
137	0x3d20fc1f	0.03930294
138	0x3e8693f0	0.26284742
139	0x3dac141e	0.084022745
140	0xbf12ff3f	-0.57420725
141	0xbe591768	-0.21200335
142	0x3ede1c87	0.4338114
143	0x3e81debb	0.25365242
144	0x3edf752d	0.43644086
145	0xbd491907	-0.049096134
146	0x3e51b39f	0.20478676
147	0x3ed99e8f	0.42503783
148	0x3dd5aa08	0.104328215
149	0x3efc5929	0.49286774
150	0x3e319eaa	0.17345682
151	0xbedd249d	-0.43191996
152	0xbe7cd397	-0.2469009
153	0x3e216d91	0.15764453
154	0xbeb30d1c	-0.3497094
155	0xbefef362	-0.4979506
156	0xbee92e9b	-0.4554337
157	0xbe21bcae	-0.15794632
158	0x3edf452a	0.43607455
159	0x3efc4a74	0.49275553
160	0x3c4c7a38	0.012480311
161	0x3d6ec534	0.058293536
162	0xbee033ba	-0.43789464
163	0x3ec96766	0.393367
164	0x3e866835	0.2625138
165	0x3eb7f017	0.35925362
166	0xbe87bcdb	-0.26511273
167	0xbe8bb109	-0.27283505
168	0xbd1c59ce	-0.038171582
169	0x3ee4d01a	0.4469002
170	0xbead7db5	-0.3388497
171	0x3eee1997	0.46503899
172	0x3ccb3a65	0.024808118
173	0x3d74097c	0.059579358
174	0x3e3071cf	0.17230915
175	0x3eee17e0	0.4650259
176	0x3ecab3c8	0.39590287
177	0xbe57e736	-0.21084294
178	0x3e8104ba	0.2519892
179	0x3e0caaba	0.13737002
180	0xbeeaced7	-0.4586093
181	0xbe850f22	-0.25988108
182	0x3f0e7748	0.5565076
183	0x3e2a2eee	0.16619465
184	0x3f00af71	0.502677
185	0x3d1c3e41	0.038145307
186	0x3ed2a515	0.41141573
187	0x3ec9bf5b	0.39403805
188	0x3d4ee144	0.0505078
189	0x3eb6afca	0.3568099
190	0x3d75079c	0.05982171
191	0xbe1f3c62	-0.15550378
192	0xbe81c55f	-0.25345895
193	0x3d442659	0.047888134
194	0xbe522282	-0.20520976
195	0xbeced52a	-0.40397006
196	0xbe28d335	-0.16486819
197	0xbe8e8799	-0.27837828
198	0x3eaded34	0.33970034
199	0x3ead1ae4	0.33809578
200	0x3d5af5be	0.053457014
201	0xbd10697a	-0.03525684
202	0x3ed3b764	0.41350853
203	0xbed01df8	-0.40647864
204	0xbedefa70	-0.43550444
205	0xbef8d633	-0.4860092
206	0x3d7033f6	0.058643304
207	0x3e8ddf60	0.27709484
208	0xbd5ad713	-0.053427767
209	0xbedb1d94	-0.42796004
210	0x3e0e9059	0.13922252
211	0xbf083df0	-0.5321951
212	0xbe0b0469	-0.13575901
213	0xbce76399	-0.028245734
214	0xbe9b37df	-0.30316064
215	0xbf010eb3	-0.50413054
216	0xbe85e234	-0.26149142
217	0x3d085d55	0.033292133
218	0xbeb11001	-0.34582523
219	0xbd78c1c8	-0.06073168
220	0x3f1a439b	0.6025941
221	0x3e82e4fc	0.25565326
222	0xbec69ded	-0.38792363
223	0xbeb33974	-0.3500477
224	0xbecca06a	-0.39966136
225	0xbe130674	-0.1435793
226	0xbea489ed	-0.3213648
227	0xbf0ee9e3	-0.5582563
228	0xbc06ce9b	-0.0082279695
229	0xbe95da95	-0.29268327
230	0xbdc10e7b	-0.0942659
231	0x3ee3ba6a	0.4447816
232	0x3dcde454	0.10053316
233	0xbe802bc2	-0.25033385
234	0x3e9d624b	0.30739054
235	0x3e6cf28f	0.23139404
236	0x3e98f422	0.2987376
237	0x3ea4764d	0.32121506
238	0xbe50ef03	-0.20403676
239	0xbf111370	-0.56670284
240	0xbd734533	-0.059392165
241	0xbc89aea3	-0.016806906
242	0x3ed901e2	0.4238425
243	0xbee9dd84	-0.45676816
244	0xbee301b2	-0.4433723
245	0xbf2b9eef	-0.6703939
246	0x3d326def	0.043561872
247	0x3e9a87a4	0.3018161
248	0xbdd6b658	-0.10483998
249	0xbecf9872	-0.40545994
250	0x3eb0c177	0.34522602
251	0xbee7e2d3	-0.4529024
252	0x3e116e1d	0.14202161
253	0xbe0caf53	-0.13738756
254	0xbec03cdc	-0.37546432
255	0xbf09e47e	-0.53864276

layertwo.bias f4 [10]
0	0xbdb0fc3b	-0.08641859
1	0x3bd61f96	0.006534527
2	0xbe5b7a1e	-0.21433303
3	0x3df3cab7	0.11903899
4	0x3a98ce90	0.001165824
5	0xbe8c9d7d	-0.27463904
6	0xbe3561a3	-0.17713027
7	0xbdd1394f	-0.10216009
8	0xbe5464a4	-0.20741516
9	0x3d62ee59	0.055403087

layerthree.weight f4 [2, 10]
0	0xbf366e0d	-0.71261674
1	0x3f14d2d8	0.5813422
2	0xbf164de0	-0.5871258
3	0x3ea3120a	0.318497
4	0x3f0984a0	0.53717995
5	0xbf150005	-0.58203155
6	0xbed00c48	-0.4063437
7	0x3f0f30ab	0.55933636
8	0xbefb1290	-0.490376
9	0x3f2467c0	0.6422081
10	0x3e7cfe23	0.2470632
11	0xbeb8dc5c	-0.3610562
12	0x3ea997a7	0.33123514
13	0xbf06329e	-0.52420986
14	0xbefc9dc3	-0.49339113
15	0x3f081625	0.5315879
16	0x3f070d4c	0.52754664
17	0xbecc8f13	-0.39952907
18	0x3f1c2ba6	0.610041
19	0xbe667a7a	-0.22507659

layerthree.bias f4 [2]
0	0xbe2721c4	-0.16321474
1	0x3cce5948	0.025189057
