state_dicts/model20240104-204617.pt (torch, 24023 bytes, 6 tensors)

layerone.weight f4 [49, 98]
-0.0604089 0.032679133 -0.028192546 0.13197912 0.10521772 0.012989264 0.13949537 -0.0077273943
-0.03326729 0.12743722 -0.025137963 -0.016902529 0.01108791 0.006582998 -0.03140328 -0.026276184
-0.013494388 0.090860575 0.038399693 0.02733108 0.09031477 -0.021283649 0.03145673 0.05262159
0.057457954 0.10541378 0.072969265 0.023896674 0.077194765 0.09695196 0.06622261 0.054173857
0.094114 0.116347104 -0.013039871 0.0414036 0.14253092 -0.042026646 0.024717135 0.10704229
0.07159607 0.06804686 0.0051982077 0.08659688 -0.021078851 0.10908278 0.029694317 0.031921342
0.12059483 0.01417084 -0.043778017 -0.040506195 0.027631104 0.10734207 0.041134495 -0.040989563
0.1125707 0.037186243 0.095585674 0.09862676 0.0073812054 0.101446316 0.0020637605 0.040096365
0.14420165 0.09418985 0.073680334 -0.012423287 0.0092298165 0.11756776 0.08588538 0.046348777
-0.04896086 0.065533355 -0.04753919 0.0036584565 0.08964563 0.02812293 0.04716026 0.032167725
-0.019470816 0.019869896 0.06718785 0.05950476 0.017586153 -0.047732264 -0.012464218 0.011877942
0.016731571 0.0010081581 0.033608805 -0.045081288 0.033232283 -0.021244844 0.09931164 -0.0034932625
-0.040516045 -0.07270326 0.04009901 -0.008903567 0.01045834 0.032870702 0.035507552 0.038163677
0.0017492635 0.007831539 0.05421462 0.03525229 -0.041641377 -0.05427962 0.075931825 0.004068231
0.0028613114 -0.12307098 -0.046839263 -0.14997439 -0.09343226 -0.098698854 0.04914981 -0.06719058
-0.032579817 0.01207512 -0.11377442 0.01879799 -0.14592692 -0.062281523 0.0055635856 -0.0011842747
0.037057944 0.05839672 -0.15218838 -0.03950631 -0.10216155 -0.026751667 -0.06080731 -0.012821114
-0.03697894 0.03206416 -0.12615685 -0.105817966 -0.123014785 -0.068361886 -0.06048831 -0.033874482
0.045032978 -0.12953871 -0.11593012 0.06784976 -0.12943383 0.07102301 0.034064118 -0.09154508
-0.056732778 -0.13301216 -0.008225189 -0.1241177 0.02926825 -0.0698667 0.037674554 0.019637968
-0.013165856 -0.063738324 0.02478616 0.029637925 -0.036916155 0.01188545 -0.07536999 -0.027824208
-0.015429017 0.010908934 -0.09488471 0.047711913 -0.1152245 -0.10768285 0.045490444 -0.053301983
0.020181002 0.010122218 -0.002477444 -0.10152249 -0.10773469 -0.02985045 0.018641248 -0.024726333
-0.10483544 0.013328586 -0.11920115 0.04400275 0.07063129 0.05917119 -0.030412968 -0.048646174
0.065417424 -0.057014767 -0.05154138 0.008601647 0.2053866 0.1009555 -0.048299592 -0.010493047
0.0046599344 0.10333192 -0.034402385 0.04302328 -0.012829314 0.040844914 0.0073939995 -0.0020043429
0.09285973 0.051457677 0.05936355 -0.009950501 0.06423367 0.0043110764 -0.020911492 0.06500245
0.010824823 0.020009005 -0.034330387 0.049152862 -0.043565627 -0.035716325 0.057697803 0.048122063
0.074972235 0.016711866 0.011666662 -0.023912089 0.11365894 0.07493761 -0.030482804 0.016820507
0.026217405 0.016816163 0.07165687 0.08180837 0.048252176 0.014243897 0.08093534 -0.047585245
0.010029253 0.0057400055 0.035765316 -0.009875342 0.026751649 -0.02987779 0.07161998 0.027310621
-0.03736331 0.009801897 0.08904188 0.002025383 -0.017531663 0.037815362 0.04790934 0.033830225
00000000: 536f 77bd 8eda 053d 0ef4 e6bc 8925 073e
00000010: 637c d73d ecd0 543c e0d7 0e3e 1536 fdbb
00000020: 4843 08bd e77e 023e 21ee cdbc 2c77 8abc
00000030: 11aa 353c 31b6 d73b baa0 00bd 2741 d7bc
00000040: 9117 5dbc 1c15 ba3d ff48 1d3d 6ee5 df3c
00000050: f3f6 b83d 0c5b aebc c6d8 003d bd89 573d
00000060: 0859 6b3d 2ee3 d73d e970 953d f5c2 c33c
00000070: 4a18 9e3d c08e c63d b89f 873d 68e5 5d3d
00000080: d7be c03d 6447 ee3d 2fa5 55bc d296 293d
00000090: a0f3 113e 2224 2cbd 977b ca3c fd38 db3d
000000a0: f6a0 923d 275c 8b3d ba55 aa3b b459 b13d
000000b0: 8ead acbc cb66 df3d 7f41 f33c f4bf 023d
000000c0: 6cfa f63d d02c 683c 9450 33bd d3e9 25bd
000000d0: a05a e23c 29d6 db3d a57c 283d ace4 27bd
000000e0: 788b e63d 9a50 183d 6cc2 c33d d4fc c93d
000000f0: 0ade f13b 16c3 cf3d 2840 073b 163c 243d
00000100: 99a9 133e 9ce6 c03d b7e5 963d 0b8b 4bbc
00000110: a838 173c 5ec7 f03d ade4 af3d 37d8 3d3d
00000120: 2f8b 48bd 5a36 863d 74b8 42bd b7c2 6f3b
00000130: 2198 b73d 0f62 e63c 1e2b 413d 4ec2 033d
00000140: 4381 9fbc 31c6 a23c c999 893d 43bb 733d
00000150: d610 903c e882 43bd b836 4cbc b39b 423c
00000160: a610 893c 2c24 843a 63a9 093d 28a7 38bd
00000170: 931e 083d ab09 aebc e763 cb3d 38ef 64bb
00000180: 27f4 25bd 72e5 94bd dc3e 243d 44e0 11bc
00000190: 7559 2b3c 6ea3 063d 5e70 113d 8451 1c3d
000001a0: 8b47 e53a db4f 003c 2610 5e3d b564 103d
000001b0: 2690 2abd 4f54 5ebd 2582 9b3d cc4e 853b
000001c0: d784 3b3b a30c fcbd 87da 3fbd e392 19be
000001d0: 6a59 bfbd a022 cabd 5051 493d 379b 89bd
000001e0: 6a72 05bd b9d6 453c 9002 e9bd 3efe 993c
000001f0: de6d 15be e91a 7fbd bd4e b63b aa39 9bba
00000200: 12ca 173d 6631 6f3d 45d7 1bbe 5ed1 21bd
00000210: 133a d1bd 5026 dbbc 1611 79bd a60f 52bc
00000220: 3b77 17bd b555 033d 432f 01be 17b7 d8bd
00000230: 2def fbbd 5101 8cbd 97c2 77bd f8bf 0abd
00000240: 8074 383d cca5 04be c56c edbd d1f4 8a3d
00000250: 4d8a 04be 8374 913d d186 0b3d fd7b bbbd
00000260: a160 68bd 5734 08be f1c2 06bc 6c31 febd
00000270: f8c3 ef3c 4616 8fbd a250 1a3d cedf a03c
00000280: 9ab5 57bc 3d89 82bd 580c cb3c 3ccb f23c
00000290: 6535 17bd 31bb 423c 955b 9abd 98ef e3bc
000002a0: fdc9 7cbc 63bb 323c ea52 c2bd 916d 433d
000002b0: d3fa ebbd d388 dcbd 3054 3a3d 2e53 5abd
000002c0: a152 a53c a9d7 253c 9d5c 22bb 06eb cfbd
000002d0: 01a4 dcbd ee88 f4bc 88b5 983c e18e cabc
000002e0: f7b3 d6bd 2460 5a3c bc1f f4bd 3a3c 343d
000002f0: 23a7 903d 7d5d 723d 9e24 f9bc 3641 47bd
00000300: 92f9 853d 5188 69bd 0e1d 53bd eced 0c3c
00000310: dd50 523e c2c1 ce3d cbd5 45bd 07eb 2bbc
00000320: 5db2 983b b09f d33d 84e9 0cbd 2e39 303d
00000330: 0b32 52bc ff4c 273d 5d49 f23b 4b5b 03bb
00000340: 3e2d be3d 49c5 523d 3227 733d 6d07 23bc
00000350: f18c 833d ee43 8d3b 944e abbc 0120 853d
00000360: 995a 313c ede9 a33c 059e 0cbd 8354 493d
00000370: df71 32bd 484b 12bd 8854 6c3d a41b 453d
00000380: 0b8b 993d 53e7 883c 8725 3f3c 49e3 c3bc
00000390: 05c6 e83d e478 993d 13b7 f9bc 29cb 893c
000003a0: e2c5 d63c 0dc2 893c d6c0 923d 268b a73d
000003b0: 13a4 453d 3c5f 693c 6dc1 a53d bfe8 42bd
000003c0: bc51 243c a816 bc3b a77e 123d 30cc 21bc
000003d0: 4626 db3c 44c2 f4bc 7fad 923d 86ba df3c
000003e0: 450a 19bd 2398 203c 975b b63d 4abc 043b
000003f0: 909e 8fbc 48e4 1a3d 963c 443d 9091 0a3d

layerone.bias f4 [49]
0.05023891 -0.08407364 0.1702005 -0.2367537 0.2703187 0.11213215 0.0831956 0.08257067
-0.11214907 0.11663112 0.14398392 0.02545014 0.15700813 -0.106968336 0.11241988 0.070301756
0.21471898 -0.20415914 -0.19761454 0.044917144 0.116236016 0.10597006 0.178827 0.085863896
0.17674392 0.12564525 0.060457896 -0.06860046 0.2752339 -0.15552181 0.23065753 0.113111526
0.1430159 -0.19478865 -0.01135949 -0.14503562 -0.26313856 0.1489101 0.044511758 -0.003085552
0.12627806 -0.2119996 0.13690381 -0.20082994 -0.12896684 0.029808339 0.2610294 -0.1461892
0.13581043
00000000: 51c7 4d3d cd2e acbd 0a49 2e3e 906f 72be
00000010: 3667 8a3e 8aa5 e53d 7462 aa3d d01a a93d
00000020: 69ae e5bd 4cdc ee3d 8570 133e d07c d03c
00000030: bdc6 203e 3712 dbbd 653c e63d 5efa 8f3d
00000040: 4bdf 5b3e 180f 51be 775b 4abe 0afb 373d
00000050: 260d ee3d d506 d93d 6d1e 373e 69d9 af3d
00000060: 5cfc 343e 26a9 003e b3a2 773d 667e 8cbd
00000070: 75eb 8c3e 1c41 1fbe 7d31 6c3e 04a7 e73d
00000080: c372 123e ad76 47be 281d 3abc 3884 14be
00000090: 19ba 86be e47b 183e f651 363d f936 4abb
000000a0: 094f 013e 6c16 59be 8330 0c3e 5da6 4dbe
000000b0: e20f 04be 9e30 f43c a5a5 853e 9fb2 15be
000000c0: e411 0b3e

layertwo.weight f4 [12, 49]
0.24302073 -0.0021766399 0.060878385 -0.18665783 0.19260158 0.03885847 0.26988533 -0.023380961
-0.17993686 0.07613805 0.057749588 -0.004640196 0.104650885 0.030696161 0.012845114 0.014826149
0.113036565 -0.12851453 -0.18665789 0.23252767 0.09836409 0.0973007 0.12814578 -0.1381986
0.06163727 0.16208836 0.09841167 -0.14181164 0.0060314354 -0.09026474 0.08266532 -0.016524686
-0.12093391 -0.17307895 0.0072461963 -0.04576051 -0.06721637 0.2234711 0.028296376 -0.13721271
0.22201005 -0.06388151 -0.009976727 -0.21878669 0.08937791 -0.14310811 0.2083411 -0.072956085
0.12414619 -0.1660891 0.044097427 0.054571047 0.284557 -0.12873864 -0.12512848 -0.2906756
-0.014638554 0.168969 -0.08803311 -0.179115 -0.060125392 0.0019217522 -0.0030178498 -0.23685883
-0.13240148 -0.124984324 -0.014394199 0.23226263 -0.012318201 0.07501283 -0.022260053 -0.23274761
-0.10704187 -0.108007275 -0.17791097 -0.07961357 -0.0066367323 -0.14998855 0.186709 -0.25269455
-0.04606304 -0.075309776 0.19795498 -0.11698714 0.16507392 0.14736548 -0.15133364 -0.06949581
0.11724217 -0.21821986 0.18756145 -0.09848769 0.08437999 -0.06660599 -0.053986896 -0.17831255
0.11036924 -0.088639334 0.12651975 0.0721191 0.056057185 -0.1860358 0.1370401 0.14517365
0.1351157 -0.009549684 -0.10186749 -0.020076694 0.17751601 0.09057099 -0.0774163 -0.1613957
-0.03231242 0.00011532959 0.07103892 -0.24683538 -0.24455202 0.030341705 0.119779885 0.111806035
0.17698406 -0.115016244 0.020869592 0.01718978 0.01962195 0.035965532 0.0649349 -0.13644123
0.13623619 0.09592307 0.037820786 -0.2150608 -0.116408594 -0.12841801 -0.17693904 0.16527013
-0.009858372 0.07087049 0.098081164 -0.15786472 0.057741586 -0.19378981 -0.13064227 0.11656394
0.16519335 -0.13387004 0.16953903 -0.10456225 0.10204066 -0.08561422 0.06300616 -0.10618936
-0.031016631 -0.23298241 -0.02356133 -0.026760971 -0.059964888 -0.14799726 -0.08880962 -0.007832497
0.03483896 -0.05087106 -0.15242694 -0.20476696 0.052102037 0.2155465 -0.064519316 -0.0062957704
-0.04634956 -0.2652208 0.09789338 0.08419675 -0.037232686 -0.04696566 0.12334717 -0.20741843
-0.06511847 -0.16619596 -0.07835259 -0.10983869 0.17382893 0.09404474 0.16570462 0.041910842
-0.20214328 -0.0078362515 0.040825274 -0.11863989 0.21574463 0.010298683 0.20796993 -0.10087032
0.018161802 -0.2164435 0.16106543 -0.020794656 -0.26422858 -0.06413718 -0.08138992 0.1610631
-0.17053412 -0.023520911 -0.26042452 -0.13951449 0.20500094 -0.045154814 -0.26621825 0.032838996
-0.10354888 -0.003942584 -0.011592325 0.11357621 -0.12047586 0.061665703 0.0005109939 -0.11888064
-0.023414362 -0.09365652 -0.10729936 0.056056276 -0.07496665 -0.15463378 -0.029966265 0.122261204
-0.10472452 0.17350076 -0.036990307 0.013760036 -0.016741639 0.20104559 -0.01951211 0.17869066
0.063460484 -0.006172561 -0.10880501 0.072824575 -0.046373673 0.06783326 -0.030366998 0.031756837
-0.011240074 -0.0038193678 -0.2597712 0.2182431 -0.16765647 0.14090541 0.11262262 0.14157757
-0.28791368 0.037747666 -0.0002525691 0.07399555 -0.007074039 -0.17844081 0.073282905 0.13198899
00000000: 6dda 783e f5a5 0ebb 9d5b 793d 3b23 3fbe
00000010: 5939 453e 0f2a 1f3d 692e 8a3e 6e89 bfbc
00000020: 5e41 38be 44ee 9b3d d58a 6c3d c90c 98bb
00000030: 3453 d63d 8476 fb3c 5074 523c 60e9 723c
00000040: b77f e73d 5099 03be 3f23 3fbe bc1b 6e3e
00000050: 1d73 c93d 9745 c73d a638 033e ef83 0dbe
00000060: 5d77 7c3d 7efa 253e 0f8c c93d 1237 11be
00000070: 59a3 c53b b8dc b8bd 6f4c a93d c75e 87bc
00000080: 33ac f7bd 9c3b 31be 8071 ed3b 5f6f 3bbd
00000090: bca8 89bd 9cd5 643e cdcd e73c 7d81 0cbe
000000a0: 9a56 633e 4fd4 82bd 6d75 23bc 9e09 60be
000000b0: c40b b73d ef8a 12be 5f57 553e 006a 95bd
000000c0: 5c40 fe3d 4313 2abe 819f 343d e485 5f3d
000000d0: 75b1 913e 10d4 03be ae21 00be 6fd3 94be
000000e0: 8cd6 6fbc 3606 2d3e b44a b4bd ec69 37be
000000f0: 0b46 76bd 4ee3 fb3a 1ec7 45bb 1f8b 72be
00000100: 4194 07be c8f7 ffbd a5d5 6bbc 41d6 6d3e
00000110: 48d2 49bc 54a0 993d b75a b6bc 6455 6ebe
00000120: c538 dbbd eb32 ddbd 4b2e 36be 700c a3bd
00000130: f278 d9bb 9996 19be a530 3f3e 2e61 81be
00000140: 99ac 3cbd 033c 9abd b6b4 4a3e f496 efbd
00000150: 2309 293e fae6 163e 35f7 1abe d253 8ebd
00000160: aa1c f03d 0775 5fbe 1c10 403e eab3 c9bd
00000170: 6bcf ac3d b968 88bd 5d21 5dbd 9197 36be
00000180: 4509 e23d 8a88 b5bd 658e 013e 2eb3 933d
00000190: 389c 653d 2b80 3ebe 3d54 0c3e 67a8 143e
000001a0: c55b 0a3e 4776 1cbc e79f d0bd e177 a4bc
000001b0: c2c6 353e 497d b93d 708c 9ebd ea44 25be
000001c0: 075a 04bd 1add f138 da7c 913d 6ac2 7cbe
000001d0: d86b 7abe 2b8f f83c 284f f53d 90fa e43d
000001e0: 4f3b 353e a38d ebbd b5f6 aa3c 95d1 8c3c
000001f0: 36be a03c 9850 133d 97fc 843d 40b7 0bbe
00000200: 8081 0b3e 5173 c43d f8e9 1a3d e638 5cbe
00000210: a167 eebd 0380 03be 822f 35be 933c 293e
00000220: 0285 21bc 8c24 913d c7de c83d 4aa7 21be
00000230: 7182 6c3d d670 46be 16c7 05be 13b9 ee3d
00000240: 7228 293e 3a15 09be a49b 2d3e bc24 d6bd
00000250: b2fa d03d 8256 afbd 6009 813d cf79 d9bd
00000260: 9716 febc f192 6ebe b103 c1bc d339 dbbc
00000270: be9d 75bd 988c 17be d1e1 b5bd e053 00bc
00000280: 4cb3 0e3d 2c5e 50bd cf15 1cbe 6eae 51be
00000290: f268 553d 39b8 5c3e b422 84bd c04c cebb
000002a0: 09d9 3dbd 05cb 87be 537c c83d 586f ac3d
000002b0: 4d81 18bd 105f 40bd 719d fc3d 7f65 54be
000002c0: d55c 85bd 462f 2abe 5377 a0bd 1bf3 e0bd
000002d0: 3600 323e 879a c03d 79ae 293e b4aa 2b3d
000002e0: a6fe 4ebe 9f63 00bc 6738 273d 78f9 f2bd
000002f0: 29ec 5c3e cfbb 283c 12f6 543e 1995 cebd
00000300: 0fc8 943c 5da3 5dbe 56ee 243e 8e59 aabc
00000310: f848 87be 5b5a 83bd c2af a6bd baed 243e
00000320: 7fa0 2ebe edae c0bc 5d56 85be e3dc 0ebe
00000330: c4eb 513e 41f4 38bd c24d 88be 2f82 063d
00000340: 6f11 d4bd cb30 81bb bced 3dbc a59a e83d
00000350: 0cbc f6bd 2d95 7c3d 38f4 053a b177 f3bd
00000360: 7acf bfbc fdce bfbd c4bf dbbd 449b 653d
00000370: 1d88 99bd 5158 1ebe d07b f5bc 1564 fa3d
00000380: cf79 d6bd 2faa 313e 2683 17bd c671 613c
00000390: c325 89bc e5de 4d3e dcd7 9fbc affa 363e
000003a0: 92f7 813d 3243 cabb 29d5 debd 0d25 953d
000003b0: 52f2 3dbd 2aec 8a3d 36c4 f8bc 7513 023d
000003c0: 4a28 38bc 5c4e 7abb bb00 85be 1f7b 5f3e
000003d0: 23ae 2bbe 8249 103e b0a6 e63d b6f9 103e
000003e0: 6c69 93be 4c9d 1a3d 406b 84b9 fb8a 973d
000003f0: 57cd e7bb 30b9 36be 5915 963d 1f28 073e

layertwo.bias f4 [12]
0.046182744 5.9828104e-05 0.12778524 -0.040108044 -0.16016419 0.123005725 -0.11143781 -0.11798006
-0.0743947 0.049490944 -0.028470917 -0.15865359
00000000: 1e2a 3d3d f0ef 7a38 22da 023e 5548 24bd
00000010: 1502 24be 6dea fb3d 8239 e4bd 889f f1bd
00000020: 405c 98bd 04b7 4a3d d73b e9bc 1676 22be

layerthree.weight f4 [2, 12]
0.2605208 -0.26079446 0.2876914 -0.13952294 -0.24781889 0.22508197 0.3100919 0.19547647
-0.25060037 -0.020960525 -0.33028376 0.006782905 -0.15960902 0.2903217 -0.38916427 0.14306895
0.061095227 -0.037691645 0.0019070613 -0.18719275 0.26230428 -0.219524 0.26628968 0.12765661
00000000: fb62 853e da86 85be 4a4c 933e 1adf 0ebe
00000010: 3cc4 7dbe e37b 663e 5ec4 9e3e fc2a 483e
00000020: b14e 80be 68b5 abbc f41a a9be 2243 de3b
00000030: 8c70 23be 0ca5 943e 8a40 c7be ab80 123e
00000040: fd3e 7a3d 8e62 1abd 5cf6 f93a 75af 3fbe
00000050: bf4c 863e e6ca 60be 1f57 883e 6ab8 023e

layerthree.bias f4 [2]
-0.10184544 -0.20386569
00000000: 5894 d0bd 2bc2 50be
