state_dicts/model20240104-212105.pt (torch, 39319 bytes, 6 tensors)

layerone.weight f4 [64, 128]
0	0x36451607	2.936811e-06
1	0x3cc51755	0.024058977
2	0x3d2900f8	0.04126069
3	0xbacc1aed	-0.0015571989
4	0xbce9178d	-0.028453613
5	0x3cfa3c4d	0.030546332
6	0xbd5d8739	-0.054084036
7	0x3db52678	0.08845228
8	0x3e05c732	0.13064268
9	0xbd2eae65	-0.042646784
10	0xbe0fbdfe	-0.1403732
11	0xbdfba697	-0.12287634
12	0x3d6b3ba4	0.057429925
13	0x3b3a3e22	0.0028418382
14	0x3c17a203	0.009254935
15	0x3c75ea2c	0.015009444
16	0xbca934a2	-0.02065498
17	0xbe06cc07	-0.13163768
18	0x3ce11863	0.027477449
19	0x3cc207e3	0.023685401
20	0x3e99d61f	0.30046174
21	0x3c712785	0.014718895
22	0x3a2623e4	0.00063377456
23	0xbe2be276	-0.16785607
24	0xbd20ad09	-0.03922752
25	0x3dec414e	0.115358934
26	0x3de5c302	0.112188354
27	0xbde801f1	-0.11328495
28	0xbdff2072	-0.1245736
29	0x3b62a4b0	0.0034583025
30	0x3dc5e218	0.096622646
31	0x3d961dcd	0.07329903
32	0xbd724fd4	-0.05915816
33	0xbd687dfa	-0.056760766
34	0xbcffda85	-0.031232128
35	0xbd8b10ee	-0.067903385
36	0x3db0edb8	0.08639091
37	0xbdb25ec3	-0.087094806
38	0xbd9404de	-0.07227491
39	0xbd2c2dc2	-0.042035826
40	0xbb95a3c2	-0.0045666406
41	0xbe11d5e6	-0.14241752
42	0x3ddac88c	0.106827825
43	0xbd918548	-0.071054995
44	0xbe1a2f55	-0.15057118
45	0xbe260c77	-0.16215692
46	0x3da9b4ac	0.082864136
47	0x3cc8d169	0.024513917
48	0x3d9bd65c	0.07609245
49	0x3d1d2c30	0.03837222
50	0xbd0e9ec2	-0.034819372
51	0xbdce3788	-0.100691855
52	0x3d5b319e	0.053514116
53	0x3e0f77af	0.140105
54	0x3d506c86	0.050884746
55	0xbd90aeca	-0.07064588
56	0x3cf2704f	0.029594569
57	0x3d8e3147	0.06942993
58	0xbc765649	-0.01503522
59	0x3bbf7d2b	0.0058437786
60	0x3dbb1cf8	0.09136385
61	0xbd6247a6	-0.05524411
62	0xbde5a29a	-0.112126544
63	0xbdc065db	-0.093944274
64	0x3def1d63	0.11675527
65	0xbcf0dfe9	-0.029403644
66	0xbdeae94a	-0.114702776
67	0x3c8ccdcf	0.017187981
68	0x3d4aef0e	0.049544387
69	0x3dfb5411	0.12271894
70	0x3d326680	0.043554783
71	0x3daa44f2	0.083139315
72	0xbda254df	-0.07926344
73	0xbdf334f2	-0.11875333
74	0xbcfe2b96	-0.031026643
75	0x3dc28528	0.09498054
76	0xbd8fe284	-0.07025626
77	0xbe21369e	-0.15743491
78	0xbd3336fe	-0.043753617
79	0x3c4129f5	0.0117897885
80	0xbc0ede37	-0.008719972
81	0xbd9c8889	-0.076432295
82	0xbdc45100	-0.09585762
83	0x3db35e34	0.08758202
84	0xbdd0f953	-0.10203805
85	0xbd85f5dc	-0.065410346
86	0xbd8d38ec	-0.068956226
87	0x3d8bb467	0.068215184
88	0xbdeca322	-0.115545526
89	0xbd90c741	-0.07069255
90	0xbda42bb5	-0.08016149
91	0x3db1ab8c	0.08675298
92	0x3db8fa2e	0.09032093
93	0x3caefab2	0.021359775
94	0x3d23ac2f	0.03995913
95	0xbde31c30	-0.11089361
96	0xbd778d84	-0.060437694
97	0x3ddb0c86	0.10695748
98	0xbd8edfa8	-0.06976253
99	0xbdd48881	-0.103775986
100	0x3c9187c7	0.017764939
101	0x3d556daf	0.052106556
102	0xbda0fcda	-0.078607276
103	0x3ce3e98c	0.027821325
104	0x3a14b21a	0.0005672291
105	0x3ce6b6f9	0.02816342
106	0xbdddb6cb	-0.108258806
107	0xbddc267e	-0.10749529
108	0xbd120cbe	-0.035656683
109	0x3baa841c	0.005203737
110	0xbde13ac4	-0.10997537
111	0x3d07abf4	0.03312297
112	0xbd172dde	-0.036908977
113	0xbdc5c133	-0.096559905
114	0x3bca360d	0.006170994
115	0x3e59df50	0.21276593
116	0xbd86d561	-0.065836675
117	0xbca500c1	-0.020141961
118	0x3c32fd31	0.010924623
119	0x3ca3d889	0.020000713
120	0x3dd3b37c	0.10336968
121	0x3d38bced	0.04510205
122	0xbd2e0b73	-0.042491388
123	0x3d999b21	0.075002916
124	0x3cc95610	0.02457717
125	0x3cbbacea	0.0229096
126	0x3a856ab3	0.0010178894
127	0xbbfa0950	-0.0076305047
128	0xb8014e2d	-3.0828804e-05
129	0x3dde2320	0.10846543
130	0xbc887bbd	-0.016660566
131	0x3d8279d2	0.06370892
132	0x3be2ff8a	0.0069274353
133	0xbc902baa	-0.017598946
134	0x3d276538	0.040868014
135	0x3cba5ca3	0.02274925
136	0x3dd4c528	0.10389167
137	0x3dba9218	0.091098964
138	0x3c617c12	0.013762491
139	0xbd4be5bf	-0.04977965
140	0x3b977001	0.004621506
141	0x3c9fbbaa	0.019498665
142	0x3ddc0811	0.10743726
143	0x3d11b8cd	0.03557663
144	0x3d9cb829	0.07652313
145	0x3c947e81	0.018126728
146	0x3e041b84	0.12901121
147	0x3d2c29ba	0.04203198
148	0x3e1cbefe	0.15307233
149	0xbcc62f1c	-0.024192385
150	0x3dead143	0.11465695
151	0x3dd525bd	0.10407589
152	0x3e2604f4	0.16212827
153	0x3db807ea	0.089858845
154	0x3d5da06a	0.05410806
155	0x3d2c9e23	0.042143
156	0x3d8dcd2c	0.06923899
157	0x3ddd81c0	0.108157635
158	0x3dc08a23	0.094013475
159	0x3d23773b	0.03990863
160	0x3d2736c1	0.0408237
161	0x3d8aee97	0.06783789
162	0x3d281cd0	0.041043103
163	0x3d3b7913	0.045769762
164	0x3d9f7e65	0.0778778
165	0x3cf503a0	0.029908955
166	0xbc60d70b	-0.013723145
167	0x3d50f7c4	0.051017538
168	0x3c3ff269	0.01171551
169	0x3b337fe0	0.0027389452
170	0xbb60bfac	-0.0034293933
171	0x3d8623c3	0.0654979
172	0xbc33a39a	-0.010964299
173	0x3dda4863	0.10658338
174	0xbd21752b	-0.03941838
175	0x3d99683e	0.07490586
176	0x3e01fd67	0.12694322
177	0x3dfd1a1d	0.12358496
178	0x3c80c72c	0.015719973
179	0x3c60d388	0.013722308
180	0x3d66eacb	0.05637626
181	0x3df538ca	0.11973722
182	0x3e21bfb6	0.15795788
183	0x3e2c2fb0	0.16815066
184	0x3e1f18b5	0.15536769
185	0x3d92c41c	0.07166311
186	0x3d6dca7b	0.05805443
187	0x3b81832c	0.0039524045
188	0x3dfea476	0.12433712
189	0x3d0eaf41	0.034835104
190	0x3d9cdc82	0.07659246
191	0x3cb8c016	0.022552531
192	0x3d7cfed8	0.061766475
193	0xbb5e738e	-0.0033943388
194	0x3d343b2d	0.044001747
195	0x3d272f99	0.040816877
196	0x3c8f4081	0.017486813
197	0x3c2463a6	0.010033524
198	0x3e24d0d7	0.16095291
199	0x3de8c206	0.11365132
200	0x3db29c80	0.08721256
201	0x3e03cf77	0.1287211
202	0x3d809aa4	0.06279495
203	0x3da3d87d	0.08000276
204	0x3adcc924	0.0016844613
205	0x3da859ca	0.08220251
206	0x3d9df845	0.07713369
207	0x3de2bdc8	0.11071354
208	0x3d17333c	0.036914095
209	0x3d015e96	0.031584345
210	0x3df3b352	0.11899437
211	0xbb9918d8	-0.004672151
212	0x3b7221c6	0.00369464
213	0x3c9086ee	0.017642464
214	0xbd048866	-0.032356642
215	0x3d1c45ad	0.038152386
216	0xbd2a2976	-0.041543446
217	0x3d3a4451	0.045475308
218	0x3da0fe99	0.07861061
219	0x3d89b32a	0.06723626
220	0x3deb4f9b	0.11489793
221	0x3bc92c7d	0.0061393366
222	0xbd326a64	-0.043558493
223	0x3d493c8e	0.049130015
224	0xbccefa1d	-0.025265748
225	0x3d29f369	0.0414919
226	0x3dd19037	0.10232585
227	0x3d487153	0.0489362
228	0x3d386ef7	0.0450277
229	0x3d11ef07	0.035628345
230	0x3d7135f5	0.058889348
231	0xbc764e92	-0.015033381
232	0x3bd38cb2	0.006455981
233	0x3d92a325	0.071600236
234	0x3da334e6	0.07969074
235	0x3de0ce06	0.10976796
236	0x3da7ad53	0.08187356
237	0x3dd3d395	0.103430904
238	0xbd67a7c4	-0.05655648
239	0x3d822dde	0.06356405
240	0xbdeb06e1	-0.114759214
241	0x3bda3b98	0.006659936
242	0xbc18ae43	-0.009318891
243	0x3e019f99	0.12658538
244	0xbc5511d6	-0.013004741
245	0xbb3258ef	-0.0027213653
246	0xbce0b7d1	-0.0274314
247	0xbd9b26df	-0.075757734
248	0xbe050ae2	-0.12992433
249	0x3ca81f65	0.020522783
250	0xbe003e1f	-0.12523697
251	0xbd8785c0	-0.06617308
252	0xbbaa8f91	-0.0052051027
253	0x3da937c0	0.082625866
254	0xbc16a983	-0.009195688
255	0xbc6dbdcb	-0.014510582

layerone.bias f4 [64]
0	0x3edd5645	0.4322988
1	0xbeb19bc8	-0.34689164
2	0xbeb87eb5	-0.3603417
3	0x3e93f82f	0.28900287
4	0xbe2b15d9	-0.16707553
5	0xbe869b58	-0.26290393
6	0xbe4f2cc7	-0.20231925
7	0xbf0423fd	-0.51617414
8	0x3e334bc1	0.17509367
9	0x3e65dea8	0.22448218
10	0x3ea5b9f4	0.32368433
11	0xbebcf343	-0.36904344
12	0xbeb763e2	-0.35818392
13	0x3e93e797	0.28887627
14	0x3ed8937e	0.42300028
15	0xbe811dc6	-0.25218028
16	0x3ed1d468	0.40982366
17	0x3edc1294	0.42982924
18	0xbec88994	-0.39167464
19	0x3e521b50	0.20518231
20	0x3e94d0c3	0.29065523
21	0x3e8ec9b0	0.2788825
22	0x3ebf1ad3	0.37325153
23	0x3ed18717	0.40923378
24	0xbe895ee2	-0.26830202
25	0xbea43463	-0.32071218
26	0xbeb3d1a8	-0.35120893
27	0x3eabab1b	0.3352898
28	0xbedf5457	-0.43619034
29	0xbeeeaf01	-0.46617892
30	0xbe393781	-0.1808758
31	0x3eb6c690	0.35698366
32	0xbebc640a	-0.36795074
33	0xbe738b50	-0.23783612
34	0xbec440fc	-0.3833083
35	0xbedf6716	-0.43633336
36	0xbe90d878	-0.28290153
37	0x3ecc1bff	0.3986511
38	0x3edea0d1	0.43482068
39	0xbebf4dec	-0.37364137
40	0x3eb78872	0.35846287
41	0xbead23a1	-0.33816245
42	0xbeed097e	-0.46296304
43	0xbeaddef5	-0.33959165
44	0x3eb2ed5c	0.34946716
45	0x3e1eff34	0.1552704
46	0xbee689db	-0.4502705
47	0xbec689eb	-0.38777098
48	0xbe9adf42	-0.30248457
49	0x3ec55649	0.38542393
50	0x3e938f22	0.2882014
51	0xbe8dbea6	-0.27684516
52	0x3e6d7fb7	0.2319325
53	0x3e3af4da	0.18257466
54	0x3eb11c36	0.34591836
55	0x3ec2d571	0.38053468
56	0xbeac036b	-0.33596358
57	0xbee02a4a	-0.43782264
58	0xbee4338e	-0.44570583
59	0xbee955dc	-0.45573318
60	0x3eefffe9	0.4687493
61	0x3eca7328	0.39540982
62	0xbecafbb5	-0.39645162
63	0xbec05b19	-0.37569502

layertwo.weight f4 [16, 64]
0	0x3ee77df0	0.4521327
1	0x3deb3ede	0.114866
2	0x3dca0b29	0.0986541
3	0x3cc9ff10	0.024657756
4	0xbe3c7998	-0.1840576
5	0xbde12227	-0.10992842
6	0xbe147c9a	-0.14500657
7	0xbe9c474f	-0.30523154
8	0xbe4dad57	-0.20085655
9	0xbe3079ca	-0.17233959
10	0xbea36abb	-0.31917366
11	0xbe532b28	-0.20621932
12	0xbe95d2a4	-0.2926227
13	0x3ecf7077	0.4051549
14	0xbedc265c	-0.42998016
15	0xbe9cdf57	-0.30639145
16	0x3eb88fbd	0.36047164
17	0xbeccabe0	-0.3997488
18	0xbe64da79	-0.22348966
19	0x3ede45d4	0.4341265
20	0x3e18cf57	0.14922844
21	0x3da41f83	0.08013823
22	0x3eb4ee6b	0.35338148
23	0x3e911af2	0.2834087
24	0xbb2b30d6	-0.0026121638
25	0xbeafe00b	-0.3435062
26	0xbdcca6e9	-0.09992773
27	0x3efa3cc9	0.488745
28	0xbe9edade	-0.31026357
29	0xbe7d9e59	-0.24767436
30	0xbc79b0f1	-0.01523994
31	0x3e32e171	0.17468812
32	0xbd2c3fa4	-0.04205288
33	0xbbf6d449	-0.0075326306
34	0x3d8e4576	0.06946842
35	0x3df3d0de	0.11905073
36	0xbedfd309	-0.43715695
37	0x3e3fd626	0.18734035
38	0x3ed90862	0.42389208
39	0xbdd7c40a	-0.10535438
40	0xbeb12f55	-0.34606424
41	0xbe561441	-0.20906164
42	0xbec5f72a	-0.38665134
43	0xbda4b889	-0.0804301
44	0x3ecac6cf	0.39604804
45	0xbdd452cc	-0.10367355
46	0x3da50e2f	0.08059346
47	0xbeba5572	-0.36393315
48	0xbe346387	-0.17616092
49	0x3e6778a4	0.22604614
50	0xbe9eb48c	-0.3099712
51	0xbd940570	-0.072275996
52	0x3e7e1340	0.24812031
53	0xbeb04469	-0.34427193
54	0x3ea4ac5f	0.3216276
55	0xbec64e32	-0.38731533
56	0xbe5954c8	-0.21223748
57	0xbec427c3	-0.38311586
58	0x3da0cd2d	0.07851634
59	0xbe83599c	-0.25654304
60	0x3e4cefaa	0.200133
61	0x3efcd4e3	0.4938117
62	0x3cc2f37c	0.023797743
63	0xbe9af36d	-0.30263844
64	0xbef07dd2	-0.46970993
65	0x3d3e9421	0.046527985
66	0xbca19274	-0.019723155
67	0xbdbd4afa	-0.09242816
68	0x3cb803ea	0.022462804
69	0xbda3c80e	-0.07997142
70	0x3dd1f65a	0.10252066
71	0x3ec903d2	0.39260727
72	0x3e82ca45	0.25544944
73	0x3e8ba919	0.2727745
74	0x3ea6ab12	0.3255239
75	0x3e751785	0.23934753
76	0x3e4b9002	0.19879153
77	0xbeb6821a	-0.35646135
78	0x3ec40eb2	0.38292462
79	0x3e9ee0bf	0.31030843
80	0xbe830483	-0.2558938
81	0x3eb10d20	0.34580326
82	0x3e99117c	0.29896152
83	0xbed7130d	-0.42006722
84	0xbe8f0175	-0.279308
85	0xbeabc794	-0.33550704
86	0xbf03af76	-0.5143961
87	0xbe2d5637	-0.1692742
88	0xbda788e7	-0.08180409
89	0x3e9dba5a	0.30806237
90	0x3dd26299	0.10272712
91	0xbeeb6c20	-0.4598093
92	0x3eab93a8	0.3351109
93	0x3e645c2e	0.22300789
94	0x3d500e41	0.050794844
95	0xbde1b390	-0.11020577
96	0xbd77ab70	-0.06046623
97	0x3d739de2	0.05947674
98	0xbe09bb88	-0.13450444
99	0xbe05fa5d	-0.13083787
100	0x3e5adef8	0.21374118
101	0xbdc26a06	-0.094928786
102	0xbf036a5d	-0.5133417
103	0x3e2bbee0	0.16772032
104	0x3ebe672a	0.37188083
105	0xbd04796a	-0.032342352
106	0x3e9a1a0c	0.30097997
107	0xbcafdd89	-0.02146794
108	0xbea8cc4e	-0.32968372
109	0x3e99bfb2	0.30029064
110	0xbcf535b6	-0.029932838
111	0x3e867f06	0.26268786
112	0x39c1216e	0.00036836736
113	0xbedb543a	-0.42837697
114	0x3eb8cdd5	0.36094537
115	0x3dc0e7e7	0.09419232
116	0xbea65797	-0.324887
117	0x3e98e5a2	0.29862696
118	0xbec3886f	-0.38190028
119	0x3ec7065f	0.38872048
120	0x3ecbb574	0.39786875
121	0x3e982df7	0.29722568
122	0x3d2e47a8	0.042548805
123	0x3ea2d063	0.3179961
124	0xbeb67239	-0.3563402
125	0xbef08dc1	-0.4698315
126	0x3cf76dec	0.030203782
127	0x3e78891b	0.24271052
128	0xbeaa0568	-0.3320725
129	0xbe02e174	-0.12781316
130	0xbe1782c6	-0.1479598
131	0xbc501292	-0.01269974
132	0xbd592cdb	-0.053021293
133	0x3dda8de2	0.10671593
134	0x3e07a74c	0.13247412
135	0x3eb9cd11	0.36289266
136	0xbd7d67ca	-0.06186656
137	0x3de62920	0.11238313
138	0x3e492439	0.19642724
139	0x3e97d95b	0.29658017
140	0x3df3b686	0.11900048
141	0xbf043a48	-0.5165143
142	0x3ef7f90d	0.48432198
143	0x3e3b156e	0.18269894
144	0xbe04c4d1	-0.12965705
145	0x3ebf9c84	0.374241
146	0x3e51c9ef	0.20487188
147	0xbe9793cc	-0.29604948
148	0xbe9bd5aa	-0.3043645
149	0x3cd70e4d	0.026251936
150	0xbed91fd9	-0.4240711
151	0xbe840c6c	-0.25790727
152	0xbcfd9dab	-0.030958971
153	0x3e3aea3f	0.1825342
154	0x3dc6c8dd	0.097062804
155	0xbe9f9c64	-0.31174004
156	0x3eabe727	0.33574793
157	0x3ebd948c	0.37027395
158	0xbdaeed85	-0.08541397
159	0xbe37c686	-0.17946824
160	0xbe1a2be7	-0.1505581
161	0xbdda03fd	-0.10645292
162	0xbdd487ad	-0.103774406
163	0xbe0e5894	-0.13900977
164	0x3eb0125e	0.34389013
165	0xbe53c741	-0.20681478
166	0xbea78d5c	-0.32725036
167	0x3e453c60	0.19261312
168	0x3e10d4bd	0.14143653
169	0x3dab32e7	0.08359318
170	0x3e5f667f	0.21816443
171	0x3d57c6a0	0.052679658
172	0xbe652852	-0.22378662
173	0xbd91060f	-0.07081234
174	0x3d074294	0.03302248
175	0x3e848375	0.25881544
176	0xbbdb8cea	-0.006700148
177	0xbe98f1fe	-0.29872125
178	0x3e6d2f8f	0.23162673
179	0xbd4ddb26	-0.050257824
180	0xbe132617	-0.14369999
181	0x3ea4c5e7	0.32182238
182	0xbe627adb	-0.22117178
183	0x3e6fce74	0.234186
184	0x3e65d16f	0.22443174
185	0x3ed1a9e5	0.40949932
186	0xbc821574	-0.01587937
187	0x3ec056e9	0.37566307
188	0xbe9f6856	-0.3113429
189	0xbeb271ad	-0.34852353
190	0x3e294020	0.16528368
191	0x3eae5465	0.34048763
192	0x3ebca7ae	0.3684668
193	0xbd92dac0	-0.071706295
194	0x3ddf56c3	0.1090522
195	0xbe6664e0	-0.22499418
196	0x3e9ae83e	0.30255312
197	0x3e0dcb24	0.13847023
198	0x3dbc8b56	0.09206264
199	0xbed18f71	-0.4092975
200	0x3cb1a92b	0.02168711
201	0xbe22238c	-0.15833873
202	0xbe50f36e	-0.20405361
203	0xbe57d002	-0.21075442
204	0x3d901224	0.0703471
205	0x3f004225	0.5010093
206	0xbeaaf053	-0.33386478
207	0xbdb0aff7	-0.08627313
208	0xba9d7e19	-0.001201573
209	0xbebf0337	-0.3730714
210	0x3df44acb	0.11928328
211	0x3e4e77df	0.20162915
212	0x3e859f67	0.26098177
213	0xbe3457b9	-0.17611589
214	0x3f0ea6b4	0.5572312
215	0x3eb31e39	0.34983996
216	0xbe381d47	-0.17979918
217	0xbdcd861d	-0.10035346
218	0xbda4aef5	-0.08041183
219	0xbd0063e7	-0.031345274
220	0xbe3e1b61	-0.18565132
221	0xbdf80651	-0.1211058
222	0x3e990e0e	0.29893535
223	0xbc9ccfae	-0.019141998
224	0x3e1fb182	0.15595058
225	0x3ece6d6a	0.4031785
226	0x3d09209b	0.03347836
227	0xbd53b61f	-0.051687356
228	0xbe35cc68	-0.17753756
229	0x3e14e1d0	0.14539266
230	0x3eedead2	0.46468216
231	0xbd03b234	-0.03215237
232	0x3e1fddb5	0.15611918
233	0x3e11f681	0.1425419
234	0xbe8e9c79	-0.27853754
235	0x3dbcc176	0.09216587
236	0xbecaae0f	-0.3958592
237	0xbe1c0594	-0.15236503
238	0x3d428f28	0.047499806
239	0xbeaa1416	-0.3321845
240	0x3da6b433	0.08139839
241	0x3ecd0684	0.40044034
242	0xbe2058e0	-0.15658903
243	0xbda2c320	-0.079473734
244	0xbe1c7875	-0.15280326
245	0xbef4f659	-0.47844198
246	0x3ddb29e4	0.107013494
247	0xbe8a5215	-0.2701575
248	0xbe086942	-0.13321403
249	0xbebb76e1	-0.36614135
250	0x3e1d7794	0.15377647
251	0xbea8bdc7	-0.3295729
252	0x3ec89c30	0.39181662
253	0x3e965e1c	0.29368675
254	0xbe6a68f9	-0.22891606
255	0xbeabfaf4	-0.335899

layertwo.bias f4 [16]
0	0x3d2e7928	0.042596012
1	0x3bba2ff7	0.0056819874
2	0xbe4278f8	-0.18991458
3	0x3d226998	0.039651483
4	0xbc1ebe72	-0.00968896
5	0xbdf65331	-0.12027586
6	0xbdde9419	-0.10868091
7	0x3cfc8a58	0.030827686
8	0x3e00f06d	0.12591715
9	0xbe5e9676	-0.21737084
10	0x3e766bec	0.24064606
11	0x3d060c10	0.032726347
12	0x3d39f59f	0.04540026
13	0xbe4b4fd1	-0.19854666
14	0x3ca3f141	0.0200125
15	0x3d48e516	0.0490466

layerthree.weight f4 [3, 16]
0	0x3e52cb54	0.20585376
1	0xbe86a8a8	-0.2630055
2	0xbef485c3	-0.47758302
3	0x3ebdd7b1	0.37078622
4	0xbf30f9d6	-0.6913122
5	0xbf12cdce	-0.57345283
6	0xbee0aa16	-0.43879765
7	0x3eaa07b2	0.33208996
8	0x3f008d8a	0.5021597
9	0xbf0d46b0	-0.55185986
10	0x3e19e5c0	0.15029049
11	0x3e7be0cf	0.24597476
12	0x3ee5d61d	0.44889918
13	0xbe98a4b8	-0.2981317
14	0x3edc5853	0.43036136
15	0x3efdf554	0.49601233
16	0xbe921c4f	-0.28537223
17	0x3e8f0948	0.2793677
18	0x3ebe5c17	0.37179634
19	0xbee60e23	-0.4493266
20	0x3ecae350	0.3962655
21	0x3e74e9bc	0.23917288
22	0xbdd6f977	-0.104968004
23	0x3eab0eba	0.33409673
24	0x3af4781d	0.0018651519
25	0xbe8eb4f2	-0.27872425
26	0x3e2fa2ee	0.17151996
27	0xbf02ac3b	-0.5104405
28	0x3e50380a	0.20333877
29	0x3da37c09	0.07982642
30	0xbea37c5f	-0.31930825
31	0xbed8c5e8	-0.4233849
32	0xbec7cd9c	-0.39024055
33	0x3eaf92a7	0.34291574
34	0x3e9ae32d	0.30251446
35	0x3d572d7b	0.052533608
36	0x3e71d393	0.23615865
37	0x3ec47c26	0.38375968
38	0x3ec9181e	0.39276212
39	0xbf0b6ded	-0.5446461
40	0xbec78de0	-0.3897543
41	0x3e30162b	0.17195956
42	0xbf1adc35	-0.6049226
43	0x3e9e11de	0.30873007
44	0xbf00ce00	-0.5031433
45	0x3ee1c497	0.440953
46	0xbe91fb52	-0.28512055
47	0xbdf1a091	-0.11798204

layerthree.bias f4 [3]
0	0xbc90bb5b	-0.017667463
1	0x3e522176	0.20520577
2	0xbe050874	-0.12991506
