state_dicts/model20240104-205607.pt (torch, 24023 bytes, 6 tensors)

layerone.weight f4 [49, 98]
0	0xbb2806da	-0.002563885
1	0x3d8aed0a	0.06783493
2	0x3da78f9d	0.08181689
3	0x3d78f902	0.060784347
4	0x3d78e459	0.060764644
5	0x3d902786	0.070387885
6	0x3c3e1d05	0.0116035985
7	0x3caf2e22	0.021384303
8	0x3d048dbe	0.03236174
9	0x3d47397a	0.0486388
10	0x3bc32be0	0.005956158
11	0xbd9365b9	-0.071971364
12	0x3cc39811	0.023876222
13	0x3bc86ee1	0.0061167334
14	0x3d10d155	0.035355885
15	0x3d184a96	0.037180506
16	0xbd80d6a9	-0.06290943
17	0x3c9637bf	0.018337129
18	0xbcaad4fe	-0.020853516
19	0x399cdb98	0.0002991825
20	0xbd3a7f0a	-0.04553131
21	0xbcb6d60e	-0.022318866
22	0x3c02b5c2	0.007977905
23	0x3c4559ee	0.012045367
24	0xbd33b53a	-0.043874003
25	0x3b9cb07a	0.00478178
26	0xbbb32bb3	-0.005467856
27	0x3cfbf123	0.030754631
28	0xbca3da5b	-0.020001581
29	0x3c1ff262	0.009762378
30	0xbc0b4184	-0.008499507
31	0x3c59e357	0.013298831
32	0x3d923390	0.07138741
33	0xbce59c08	-0.028028503
34	0xbd0bfc6e	-0.034176283
35	0xbd8a2d46	-0.067469165
36	0xbbce08f8	-0.0062876903
37	0xbd130101	-0.03588963
38	0xbb782cdc	-0.0037868535
39	0xbc3ec2e2	-0.011643143
40	0xbd2372c6	-0.03990438
41	0xbb8c7a28	-0.004287023
42	0xbd38f177	-0.045152154
43	0xbd239281	-0.03993464
44	0xbb86a731	-0.0041092862
45	0xbd018d17	-0.031628694
46	0xbccbdab3	-0.024884557
47	0xbcea0cf7	-0.028570635
48	0xbba1e20d	-0.0049402774
49	0x3cc59cae	0.024122562
50	0xbcf6e022	-0.030136172
51	0x3c2b4bda	0.010455096
52	0xbcd4ba0e	-0.025967624
53	0x3c3898f0	0.011266932
54	0xbcbb8848	-0.022892132
55	0xbc4ca396	-0.012490174
56	0x3cbd371c	0.023097567
57	0x3b975c08	0.0046191253
58	0xbd18e6f1	-0.037329618
59	0xbcdc036b	-0.026857099
60	0x3a7e1468	0.0009692372
61	0x3c9bde40	0.019026875
62	0x3bea3f24	0.00714864
63	0xbc95f449	-0.01830496
64	0xbd4f6bd9	-0.05063996
65	0xbcd4f97e	-0.025997873
66	0xbbe82724	-0.007084744
67	0x3c975018	0.018470809
68	0xbd835754	-0.06413141
69	0xbcf296a6	-0.02961285
70	0x3c6f438c	0.014603507
71	0xbd3cda1a	-0.046106435
72	0xbd253ed3	-0.040343117
73	0xbd1ae3e6	-0.037814997
74	0x3bed5332	0.0072425837
75	0x3cd4b80e	0.02596667
76	0xbd90c8b0	-0.07069528
77	0xbc37dd69	-0.011222222
78	0xbbeab874	-0.007163102
79	0xbce4374a	-0.027858395
80	0xbd24a92c	-0.040200397
81	0xbcd5c4ec	-0.026094876
82	0xbc197dd4	-0.009368379
83	0xbc342de3	-0.010997268
84	0xbb1410c1	-0.0022592994
85	0x3d116ce4	0.035504237
86	0x3c8426de	0.016131815
87	0xbd2bbcc1	-0.041928057
88	0x3c8f7ce2	0.017515603
89	0x3cfdf799	0.031001853
90	0xbd13661e	-0.03598606
91	0xbbc99e0d	-0.0061528743
92	0x3dacb06b	0.084320866
93	0x3d5d2475	0.053989846
94	0x3cb31cfa	0.021864403
95	0x3dc9d99a	0.09855957
96	0xbce5308f	-0.027977256
97	0x3e2cfa45	0.16892345
98	0x389df340	7.531652e-05
99	0x3d2dd28f	0.042437132
100	0xbc470f69	-0.01214967
101	0xbddc328a	-0.10751827
102	0xbdc2cb2f	-0.095114104
103	0xbddd0567	-0.10792046
104	0xbdbbcb96	-0.0916969
105	0x3d0fe2e0	0.035128474
106	0xbde5c1b0	-0.112185836
107	0xbd624ce8	-0.055249125
108	0xbd853729	-0.065046616
109	0xbd3a64d4	-0.045506313
110	0xbce888e8	-0.028385594
111	0xbdd78dac	-0.10525069
112	0x3d501fab	0.05081145
113	0x3d9fa456	0.077950165
114	0x3c55b0e4	0.013042662
115	0x3c9e854c	0.01935067
116	0xbd252f7c	-0.040328488
117	0x3d3bbace	0.045832448
118	0x3b94ffea	0.004547109
119	0x3c9504ac	0.018190704
120	0xbdb826d7	-0.08991783
121	0xbd420a3e	-0.04737305
122	0x3d4feb11	0.050761286
123	0xbd993402	-0.07480623
124	0x3d539c23	0.051662575
125	0xbddc715b	-0.10763808
126	0x3b0b74cc	0.0021279333
127	0xbddc91d0	-0.10769999
128	0xbd82b6ed	-0.063825466
129	0x3d42ac59	0.047527645
130	0x3d5cd339	0.053912375
131	0xbde32660	-0.11091304
132	0xbac0d096	-0.0014710601
133	0xbd665a7f	-0.056238648
134	0xbd7b1418	-0.06129846
135	0x3d2f8e6f	0.042860445
136	0xbdacea94	-0.0844318
137	0x3d1f8e80	0.038954258
138	0xbd8d4299	-0.06897468
139	0xbc4037df	-0.011732071
140	0xbdba4937	-0.09095996
141	0x3d70a7e1	0.05875385
142	0x3d8f170d	0.069868185
143	0xbd99740f	-0.074928395
144	0x3d9c0f8f	0.07620155
145	0xbb675462	-0.0035298099
146	0xbc5ac9fd	-0.013353822
147	0xbdaee19b	-0.085391246
148	0x3d3c7add	0.04601561
149	0xbd3652e3	-0.04451264
150	0xbd7327e6	-0.059364222
151	0xbd788ac5	-0.060679216
152	0xbd65f3a1	-0.056140546
153	0x3ba1cd16	0.004937778
154	0xbd880ad7	-0.066426925
155	0xbcf2e140	-0.029648423
156	0xbd0d9816	-0.03456887
157	0xbdcf25aa	-0.10114606
158	0xbda08847	-0.07838493
159	0x3d556d23	0.052106034
160	0xbcc9cd0a	-0.024633903
161	0xbd597eba	-0.05309937
162	0xbcc316c3	-0.023814565
163	0x3d91848c	0.071053594
164	0xbd96074b	-0.0732561
165	0xbd115f89	-0.0354915
166	0xbc327014	-0.010890979
167	0xbc9bf524	-0.01903779
168	0x3d8e151d	0.06937621
169	0x3d5c981d	0.053856004
170	0xbca172be	-0.019708034
171	0xbd556514	-0.05209835
172	0xbdc12d44	-0.09432462
173	0xbd20580c	-0.039146468
174	0x3d258566	0.04041042
175	0xbd597646	-0.05309131
176	0xbde2cfba	-0.11074777
177	0xbde96908	-0.11396986
178	0xbd8b6cf7	-0.06807893
179	0xbccb6fdb	-0.02483361
180	0xbd2a4889	-0.04157308
181	0xbdcc8f4c	-0.09988269
182	0xbdc5df80	-0.0966177
183	0x3ac2755f	0.0014836005
184	0xbd76e405	-0.06027605
185	0x3d9ee421	0.07758356
186	0xbd4c9b2b	-0.049952667
187	0x3c895e35	0.016768554
188	0xbd4346e7	-0.04767504
189	0xbde1d8b7	-0.11027663
190	0xbccdfb84	-0.025144346
191	0x3d2367e1	0.03989399
192	0xbda673c7	-0.081275515
193	0x3d9a90b4	0.07547131
194	0xbd36bd66	-0.04461422
195	0xbcd60369	-0.026124673
196	0xbb571f54	-0.003282507
197	0xbb1f5cfc	-0.0024316898
198	0xbd421c26	-0.047390126
199	0x3d4df848	0.050285608
200	0xbda2702f	-0.079315536
201	0xbd42f6f6	-0.0475988
202	0xbe019767	-0.12655412
203	0x3d58d797	0.052939977
204	0x3cbdac66	0.023153495
205	0xbde39773	-0.11112871
206	0xbb3b722d	-0.002860199
207	0xbbfab6de	-0.007651194
208	0x3d0d50bb	0.03450082
209	0x3d203475	0.039112527
210	0xbc89b220	-0.01680857
211	0x3d833b30	0.064077735
212	0xbc6bb559	-0.014386498
213	0xbd583153	-0.052781414
214	0x3d4830e0	0.048874736
215	0xbcfb069f	-0.030642806
216	0xbd3d6673	-0.04624028
217	0x3ddd4cca	0.10805662
218	0xbcb5ac27	-0.022176815
219	0xbd88bb3c	-0.06676337
220	0xbd5b488f	-0.053535994
221	0x3c819608	0.01581861
222	0xbd2da071	-0.042389337
223	0xbc4ed207	-0.012623317
224	0x3da33594	0.079692036
225	0xbdbc1160	-0.091830015
226	0xbd273c64	-0.040829077
227	0xbcb5de3d	-0.022200698
228	0x3d84514e	0.0646082
229	0xbcb37452	-0.021906052
230	0xbd205ab4	-0.039149
231	0x39973477	0.00028840054
232	0x3dde47c6	0.108535334
233	0xbd3f8320	-0.04675591
234	0xbcd21be5	-0.025648067
235	0x3d0fe62f	0.03513163
236	0x3c990cc6	0.018682849
237	0xbd9a9c14	-0.07549301
238	0x3d070855	0.03296693
239	0x3d819a1e	0.06328224
240	0xb9848304	-0.00025274616
241	0x3d460e9e	0.048353784
242	0xbdbae013	-0.0912477
243	0xbdfe2b28	-0.12410575
244	0x3d187ad8	0.037226528
245	0xbd61f60e	-0.055166297
246	0x3dfb9bed	0.122856
247	0x3cfacb48	0.03061451
248	0xbd44081b	-0.047859292
249	0x3dbef826	0.09324674
250	0x3db71f1e	0.08941482
251	0xbd65db26	-0.0561172
252	0x3d008c7d	0.03138398
253	0x3cab707a	0.020927656
254	0x3cfc072b	0.030765137
255	0x3cd5e2cd	0.026109124

layerone.bias f4 [49]
0	0x3e3295b0	0.17439914
1	0xbd21ec5c	-0.03953205
2	0xbdf71ea1	-0.12066389
3	0xbe2d5272	-0.16925982
4	0x3e591f6a	0.2120339
5	0xbda6b184	-0.08139327
6	0xbe489e89	-0.19591726
7	0x3d0485b4	0.03235407
8	0xbe506e1c	-0.20354503
9	0x3e54f2d2	0.20795754
10	0x3dd62a05	0.10457233
11	0xbe3a052f	-0.1816604
12	0x3d240377	0.040042367
13	0x3d9e5cf8	0.07732576
14	0xbe85f788	-0.26165414
15	0x3ddbd101	0.10733224
16	0xbe79518b	-0.24347512
17	0xbe3b475a	-0.18288937
18	0x3e3b6413	0.18299894
19	0x3e02cad9	0.12772693
20	0x3e8c841d	0.27444544
21	0x3e8823f0	0.26589918
22	0xbd9e782a	-0.07737763
23	0xbe1af399	-0.15131988
24	0xbe0a5e4a	-0.13512531
25	0x3d81c51b	0.06336423
26	0x3d946918	0.072466075
27	0xbe6e11f9	-0.23249044
28	0x3d574aa9	0.052561436
29	0x3e2e507d	0.17022891
30	0x3dcd3389	0.10019595
31	0x3db8b9b0	0.09019792
32	0x3e4bb73d	0.19894119
33	0xbbc6fb84	-0.0060724635
34	0x3de03817	0.10948198
35	0xbe1d5f37	-0.15368353
36	0xbe7fea79	-0.24991788
37	0x3e577469	0.210405
38	0x3d266ee9	0.040633116
39	0x3dbec714	0.09315315
40	0x3e44e8a1	0.19229366
41	0x3e8b5d42	0.27219588
42	0x3df5c133	0.119997405
43	0xbde7abae	-0.11312042
44	0x3e293c40	0.1652689
45	0x3e664320	0.22486544
46	0x3c280e73	0.010257351
47	0x3da04800	0.07826233
48	0xbe4b798d	-0.19870587

layertwo.weight f4 [12, 49]
0	0x3d87623f	0.06610536
1	0x3bb8ac45	0.0056357705
2	0xbe0a9555	-0.13533528
3	0x3d0ba5cd	0.034093667
4	0x3e1df5c8	0.1542579
5	0xbe6a892a	-0.22903886
6	0xbda18fa4	-0.078887254
7	0x3e67141c	0.22566265
8	0xbe1d0f3d	-0.15337844
9	0x3df5465f	0.11976313
10	0x3e4e9b37	0.20176397
11	0xbda1797e	-0.07884501
12	0x3d94981c	0.07255575
13	0x3e235e47	0.15953933
14	0xbe7c7ebf	-0.24657725
15	0x3d8ff5c9	0.07029302
16	0xbde6c00c	-0.11267099
17	0xbe7d17b0	-0.24716067
18	0x3d9d1f87	0.07672029
19	0x3cf9611b	0.030441811
20	0x3e263284	0.16230208
21	0x3d54cad7	0.051951256
22	0xbe192fe3	-0.14959674
23	0xbdcb4474	-0.09925166
24	0xbd48fc8c	-0.049068972
25	0xbca1bf87	-0.019744648
26	0x3d6b7270	0.057482183
27	0xbdd44494	-0.10364643
28	0x3e4d5bc1	0.20054533
29	0x3d9471ed	0.07248292
30	0x3ce4b1ba	0.027916778
31	0x3df020e3	0.11725023
32	0x3e6ebff6	0.23315415
33	0xbdb1bc50	-0.08678496
34	0x3e2d2200	0.16907501
35	0xbe740aff	-0.2383232
36	0xbe6d8630	-0.2319572
37	0x3df2ce3e	0.11855744
38	0xbc4a8bea	-0.01236246
39	0x3cf8515a	0.030312229
40	0x3e8dc1ef	0.27687022
41	0x3e63ef27	0.22259198
42	0x3db3931e	0.08768295
43	0xbe200a1a	-0.15628853
44	0x3e6ced4f	0.23137401
45	0x3e4228f0	0.18960929
46	0xbc90ca9e	-0.01767474
47	0x3ce38fe0	0.027778566
48	0xbe16d1d6	-0.14728484
49	0xbd988ee5	-0.0744913
50	0x3dbd5dae	0.092463836
51	0xbe7efe42	-0.24901679
52	0xbd1080cd	-0.035279084
53	0xbcc022ad	-0.023454035
54	0xbcb252a8	-0.02176793
55	0xbda36f46	-0.07980208
56	0x3dd21b67	0.10259133
57	0xbdca0087	-0.09863382
58	0x3e671a5b	0.22568648
59	0x3e548a5f	0.2075591
60	0xbd30672b	-0.04306714
61	0xbd7be8e7	-0.06150141
62	0x3d22a640	0.03970933
63	0xbc952119	-0.018204259
64	0x3e7c8130	0.24658656
65	0xbe6b9d95	-0.23009332
66	0xbe244ba8	-0.16044486
67	0x3e8a1e67	0.2697632
68	0x3d441980	0.04787588
69	0x3e3b99f9	0.18320455
70	0x3e84270d	0.25811043
71	0xbcddd92d	-0.027081097
72	0xbc9cde74	-0.019149043
73	0xbd80e83f	-0.062942974
74	0xbe0783cf	-0.13233875
75	0x3e55eeef	0.20891927
76	0xbce68393	-0.028138911
77	0x3e20769e	0.15670249
78	0x3bfe6a5f	0.0077641453
79	0x3d4be874	0.04978223
80	0x3e4afe75	0.1982363
81	0x3e7d7990	0.24753404
82	0xbd4ab8b0	-0.049492538
83	0x3d9d66a8	0.07685596
84	0xbe4ac572	-0.19801882
85	0xbc184082	-0.009292724
86	0x3d3b877c	0.045783505
87	0x3e5f0031	0.21777417
88	0xbdc4c13a	-0.096071675
89	0xbbb9a0a1	-0.0056649004
90	0x3e03a521	0.1285596
91	0x3e82972e	0.25505966
92	0x3d190c6d	0.037365366
93	0x3cfa6da2	0.030569855
94	0x3db4f8e3	0.08836534
95	0x3e564712	0.20925549
96	0x3d9f49f5	0.07777778
97	0xbe1d6f52	-0.15374497
98	0xbdb704cb	-0.08936461
99	0xbe443c44	-0.19163615
100	0x3e87cb54	0.26522315
101	0x3dac0a58	0.084004104
102	0xbe5f4542	-0.21803764
103	0x3d127ad3	0.035761666
104	0x3d3222e9	0.043490324
105	0xbe84b3bd	-0.2591838
106	0x3b537f63	0.0032271973
107	0xbd929470	-0.071572185
108	0xbe3562e9	-0.17713512
109	0x3c697e27	0.0142512685
110	0x3be0870c	0.0068520363
111	0xbd899a7b	-0.06718918
112	0x3e490bcd	0.19633408
113	0xbdfd9ad1	-0.123830445
114	0x3e606a7c	0.2191562
115	0x3cfb1051	0.030647429
116	0xbe33df9f	-0.17565773
117	0xbe2f25a4	-0.17104203
118	0xbe3a0ba1	-0.18168499
119	0xbdbbc298	-0.09167975
120	0x3e464659	0.19362773
121	0x3e23cdd9	0.15996493
122	0xbc908393	-0.017640864
123	0xbd80aab1	-0.06282557
124	0xbdf73cd6	-0.120721504
125	0x3e457150	0.19281507
126	0xbe51b867	-0.204805
127	0x3d3a0334	0.04541321
128	0xbde58ec8	-0.11208874
129	0xbe4fc8b6	-0.20291409
130	0xbd3d4c38	-0.046215266
131	0x3beccc57	0.0072265076
132	0xbe783751	-0.24239852
133	0x3e4707c8	0.19436562
134	0x3d7d7d05	0.061886806
135	0xbd404cdc	-0.0469483
136	0xbe018df4	-0.12651807
137	0x3c8c224f	0.017106203
138	0xbe7ea98a	-0.24869362
139	0xbda19c56	-0.07891147
140	0xbd19ed04	-0.03757955
141	0xbcbbb104	-0.022911556
142	0xbe8b04e3	-0.27152166
143	0xbe4d8065	-0.2006851
144	0xbe5c6260	-0.21521902
145	0xbd60a8cc	-0.054848477
146	0x3d87284c	0.06599483
147	0x3df54f04	0.11977962
148	0x3bd2f225	0.0064375573
149	0xbe71a80f	-0.23599266
150	0xbc88d4d2	-0.016703043
151	0x3e6f30ae	0.23358414
152	0xbe3bde98	-0.18346632
153	0xbe41b245	-0.1891566
154	0x3e536683	0.20644574
155	0xbdc134d0	-0.09433901
156	0x3c32c104	0.010910276
157	0x3e018ace	0.12650606
158	0xbe2e1006	-0.169983
159	0xbe044ff7	-0.12921129
160	0x3d6e53cf	0.058185395
161	0xbdbae803	-0.09126284
162	0x3b1636c7	0.0022920833
163	0xbe1f71ab	-0.15570705
164	0xbe08deed	-0.1336629
165	0x3d6a78e9	0.057244215
166	0x3e05fc3e	0.13084504
167	0xbcbe60d3	-0.023239529
168	0x3cfac5f8	0.030611977
169	0xbe27ca15	-0.16385682
170	0xbdad964c	-0.084759325
171	0xbb23ad1e	-0.0024975012
172	0x3b465715	0.0030264307
173	0x3e8936b7	0.26799557
174	0xbdb9d54f	-0.090738885
175	0x3e0296a0	0.12752771
176	0x3d0ed1cd	0.03486805
177	0x3e87c680	0.2651863
178	0x3d5eb9e3	0.054376494
179	0x3e4815f7	0.19539629
180	0xbd486f31	-0.048934165
181	0x3e68cbde	0.22734019
182	0xbe0a9edd	-0.13537164
183	0xbc9e627f	-0.019334076
184	0x3d67f98a	0.056634463
185	0x3d1717f7	0.03688809
186	0xbde92aa9	-0.1138509
187	0x3c914035	0.017730812
188	0x3e8541a5	0.26026645
189	0x3e7ec627	0.24880277
190	0x3d71dd99	0.059049223
191	0x3e529eb0	0.20568347
192	0x3e82995f	0.25507638
193	0x3dba9ad6	0.09111564
194	0x3d40f46e	0.047108106
195	0xbdf80b19	-0.12111492
196	0x3e01bf2f	0.12670587
197	0xba93a662	-0.0011264796
198	0xbe5ae5a8	-0.2137667
199	0xbe450fb5	-0.19244273
200	0x3d2a626d	0.041597772
201	0x3c566008	0.013084419
202	0xbe43143c	-0.19050688
203	0x3e95e5d5	0.2927691
204	0xbb14ef62	-0.002272569
205	0x3b6f2279	0.0036489053
206	0x3e4f105e	0.20221087
207	0xbe65b309	-0.22431578
208	0x3cceb569	0.025232987
209	0x3e1adafc	0.15122598
210	0xbdf8b2d7	-0.12143486
211	0x3e6ab44e	0.22920343
212	0xbe512fb9	-0.20428361
213	0xbb75ba84	-0.0037495205
214	0x3d2888f1	0.041146223
215	0x3e42173e	0.18954179
216	0x3d81155a	0.063029006
217	0x3df26abd	0.11836765
218	0xbdfc5cca	-0.123223856
219	0xbdda5c19	-0.106620975
220	0x3df279f9	0.11839671
221	0x3d83dabf	0.06438207
222	0x3e5fe565	0.21864851
223	0xbe50bd78	-0.20384777
224	0xbcca5743	-0.024699813
225	0xbc8384bd	-0.016054505
226	0x3e6e9985	0.2330075
227	0x3e748dac	0.23882169
228	0xbd0d384c	-0.034477517
229	0xbd7a817d	-0.061158646
230	0x3d35d292	0.04439027
231	0xbde1c8ea	-0.110246494
232	0xbc5276c1	-0.012845696
233	0x3e2987ab	0.1655566
234	0x3d39e143	0.045380842
235	0x3d6d1cdd	0.057888854
236	0x3e0a63b9	0.13514604
237	0x3d80aa3a	0.06282468
238	0x3d978748	0.0739885
239	0xbe48fc40	-0.19627476
240	0x3e0c17fc	0.13681024
241	0x3e83eb23	0.25765333
242	0xbc0359a3	-0.0080169765
243	0x3c7894a1	0.015172155
244	0xbdfccc68	-0.12343675
245	0xbd94d298	-0.0726673
246	0xbe5ef4f6	-0.21773133
247	0x3c980410	0.018556625
248	0x3c5bb3aa	0.0134095345
249	0xbd530ae4	-0.051524058
250	0x3d961577	0.07328313
251	0x3df41e83	0.11919882
252	0xbe0456b9	-0.12923707
253	0x3e51075e	0.20412967
254	0xbd346d1d	-0.04404937
255	0xbe23bc8e	-0.15989897

layertwo.bias f4 [12]
0	0x3de65987	0.11247545
1	0xbd748c0d	-0.059703875
2	0x3c476567	0.012170172
3	0xbda8f9f0	-0.08250797
4	0xbdf61fed	-0.12017808
5	0xbd9c08a0	-0.076188326
6	0xbdf11ccc	-0.11773071
7	0xbdef198a	-0.11674793
8	0xbccd1b71	-0.0250375
9	0x3c00bd74	0.007857669
10	0x3d9029cf	0.07039224
11	0x3e3e4542	0.18581107

layerthree.weight f4 [2, 12]
0	0x3d8ade77	0.06780713
1	0x3d713f31	0.058898155
2	0xbd8268d0	-0.06367648
3	0x3e223e79	0.15844144
4	0x3e1db74e	0.15401956
5	0xbe487da0	-0.19579172
6	0xbe479339	-0.19489755
7	0xbebc03b6	-0.3672158
8	0xbcd796d6	-0.026317041
9	0xbec198ef	-0.37811992
10	0x3d8a5a9f	0.06755566
11	0x3e04bb5c	0.12962097
12	0xbeada2f8	-0.33913398
13	0xbe7318eb	-0.23739974
14	0x3ebc598c	0.3678707
15	0xbe99b2f8	-0.30019355
16	0xbe8cd49b	-0.27505955
17	0x3ddd0f44	0.10793927
18	0x3e8327a9	0.25616196
19	0xbd29394c	-0.04131441
20	0xbe919a88	-0.2843821
21	0x3ec67dd6	0.3876788
22	0x3e8023ca	0.25027305
23	0xbe8b2636	-0.2717759

layerthree.bias f4 [2]
0	0xbd3b64cc	-0.045750424
1	0xbe3765b6	-0.17909893
