state_dicts/model20240104-205645.pt (torch, 39255 bytes, 6 tensors)

layerone.weight f4 [64, 128]
00000000: bf0f d0b7 5380 2ebd e10e 04be 0ced 3abd
00000010: 9eed a23c dabe a03d 6941 e33c ed76 45bd
00000020: 7a22 9f3c 4a71 26bb 1634 bdbc 89af a6bb
00000030: 3396 883d 49ef a43d 24b5 8abd e1b1 2dbd
00000040: 983c d83d 55f6 50bd 1519 78bd 3464 d4bd
00000050: d809 1f3e 4eae 8bbd cbe3 023e e9ca f6bd
00000060: 0600 953d ac1a 9a3d 5af3 3c3d 5750 76bd
00000070: 1c6f 0a3d 7c09 34be 5046 4ebe 08e6 b0bd
00000080: 2b85 b3bb a85d 51bd 6ccc 39bb 174f 9bbd
00000090: eea5 a5bd 72b9 09be c75b a03c c50b b03c
000000a0: 48fd 513d ae37 4d3c 6bcb 383d b376 8dbd
000000b0: 356f aa3a 7508 4dbc 1162 9cbc 733c 4d3d
000000c0: ed16 973d 8230 a3ba df3c b2bc 44a6 a13d
000000d0: 869c d13d cb63 d33d 6d79 76bd c99c 803d
000000e0: 6ce4 ec3d 6447 94bc 6aa6 eebd c4e2 1c3d
000000f0: 9297 543e 22ee c53d 4c74 8f3d 9b6c cf3d
00000100: b3a0 50bd d3f2 9c3d 7668 1fbe 13bc ddbd
00000110: 3ff3 eb3d 38be 8cbc 7b4d 39bd 75d9 a7bd
00000120: 78b1 d23d d3a7 7dbd 358f 9cbd 8143 febd
00000130: f67a 50bd 466d 18be 29a9 2bbd 58ed 033d
00000140: 2e5f b33c e9e0 e5bb 88ee 4d3d 9fa6 903d
00000150: 8ebf b5bd 9514 c43d cb0f 803d 8d3a 13be
00000160: 0f60 aabd 850e 0c3e 09e8 54bd dfa8 993d
00000170: 1d35 f7bd fe3c 2cbd daee 80bc c4c5 bb3b
00000180: 1d9e ef3c 4bb8 efbd 21f8 4dbd db7b a4bc
00000190: fd44 3e3e 686a 963d ced0 ab3d 052a f93d
000001a0: 0589 db3d 0809 163e 68b7 6dbd 5f00 f6bc
000001b0: 9144 773c dd31 643d 0da6 c03d 995a 813b
000001c0: 9844 84bd b38a b43c 422c 2dbc f8b3 f83d
000001d0: 7c3b 143d 1e93 d03c b72f 22bd e6f3 0bbd
000001e0: 8fd1 5e3d ffa0 683d 2ba1 0abe 80b9 0d3e
000001f0: 725d ca3d 39b8 8a3d 1ce3 92bd a0b5 19bb
00000200: 18e9 f835 8c5b bbbd 2710 a8bd 2ff6 bcbd
00000210: 13ac ef3c 24d1 cebd cd76 343d ce88 99bd
00000220: fae0 b1bc 6c89 393d 4144 2a3d ae51 d5bc
00000230: 4309 5d3d 8ddc 24bd e2ef ebbd 4aaa ddbd
00000240: 7649 5a3d 778a 0c3d 137a 943c a0c7 383c
00000250: 7302 0b3d 2481 e8bd 5108 b1bd b939 9bbd
00000260: 049d c9bd 90e6 87bd c652 e5bd 8890 e83c
00000270: d8c1 e63c 47e3 f2bb 760a 8dbd 22e5 a3bd
00000280: c47a 1b3d a49f 103d 26a1 bfbd f66d 9a3c
00000290: a892 d33c e9dd 503d c7bf 3a3d 00c3 cabd
000002a0: f7f4 c4bd da96 86bd b50f b1bd c833 73bc
000002b0: f055 dfbd 568a 05bd 6bdc ac3c bcec 40bc
000002c0: d38e 453d df12 c43b 02e8 b7bd 6d95 c6bb
000002d0: 7e2b acbd c440 28bd 9055 05bc d29a a0bd
000002e0: 101c b23c a3dc a63c ec15 79bd 9304 e13c
000002f0: aa5d 0a3d 63e2 5e3d 0345 c63c 5634 e03c
00000300: 5e35 263d 0b73 91bc aceb 95bb ac9a 6e3c
00000310: 25a5 9abc 82fa c7bd 4283 13ba 97b6 413d
00000320: 3b3f fabc 032c 90bd b22f 58bd e7b5 453d
00000330: 347f 2b3c 7a71 39bd a896 f23b 8ca6 1c3b
00000340: b84c 8dbd 3451 7abd 2d97 49bd 7f2d 253d
00000350: a9e5 0cbd 1945 c83a 4c8e 3b3d 51f8 80bc
00000360: 28af d1bd c80a e13c 836b c7bd 86aa a73c
00000370: a90a 7ebd 4977 59bc 23cb 043d ab40 d0bd
00000380: 1121 dd3c 2227 6fbd 9041 c63b 9085 9f3b
00000390: d65b 00bc d8dc fb3c a100 e9bd be80 3b3d
000003a0: 9100 97bd 1dc4 8bbd d4cb 973c 8436 18bd
000003b0: 456e 173d 6562 8d3c 7e83 8a3b 00ac e7bc
000003c0: c7bf 0cbc 15fe a33c 4022 ca3c 3f27 e3bd
000003d0: c59f a9ba 0d7b eabd d07f 993b d761 8abd
000003e0: cb44 6d3c d1be e3bd b438 2fbd ee99 6bbd
000003f0: 40f0 83bd 2f63 e0bd b354 89bd ea9e 7dbd
-2.4802865e-05 -0.04260285 -0.12896301 -0.04563622 0.019888695 0.07848902 0.02774115 -0.04820912
0.01942562 -0.0025397115 -0.023096126 -0.0050868434 0.06669273 0.080534525 -0.06772831 -0.042405967
0.10558432 -0.05101617 -0.060570795 -0.10370675 0.15531099 -0.06820355 0.12782209 -0.12050421
0.07275395 0.075246185 0.046130516 -0.06013521 0.03379737 -0.17581743 -0.2014401 -0.08637625
-0.0054785213 -0.05111471 -0.0028350605 -0.075834446 -0.08088289 -0.13449648 0.019575013 0.021489987
0.05126694 0.012525482 0.04511587 -0.06907406 0.0013003113 -0.012514223 -0.01908973 0.050106477
0.073774196 -0.001245037 -0.021757541 0.07893041 0.102349326 0.103217684 -0.060174394 0.062799044
0.115670055 -0.018100448 -0.11652835 0.038302198 0.20760944 0.09664561 0.07004604 0.10128137
-0.050934505 0.076635025 -0.15567192 -0.10826888 0.11521005 -0.017180547 -0.045239907 -0.081957735
0.10287756 -0.061927628 -0.07644502 -0.12415219 -0.050898515 -0.14885435 -0.04190937 0.03220877
0.021895971 -0.007015337 0.05027631 0.070630305 -0.08874427 0.09574238 0.06253012 -0.14377804
-0.08319103 0.13677414 -0.0519791 0.07502913 -0.120706774 -0.042050354 -0.015738893 0.0057303626
0.029250199 -0.11705073 -0.050285462 -0.02007859 0.18581004 0.07344514 0.08389436 0.12166218
0.10719494 0.14651883 -0.058036238 -0.030029474 0.015092031 0.055711616 0.09406672 0.0039475677
-0.06458396 0.022038793 -0.010569634 0.12143701 0.03618954 0.025460776 -0.039596286 -0.034168147
0.05439907 0.056794163 -0.13538043 0.13840294 0.098811045 0.06773419 -0.07172224 -0.0023454204
1.8545279e-06 -0.091483206 -0.08206206 -0.09226643 0.029256856 -0.10098484 0.04405861 -0.074967965
-0.021713722 0.04529707 0.041569 -0.026039924 0.05396391 -0.040249396 -0.115203634 -0.10823496
0.053292714 0.034311738 0.018124616 0.011278063 0.033937883 -0.113527566 -0.08644164 -0.07579369
-0.098444015 -0.06635773 -0.111974284 0.02838923 0.028168604 -0.0074123475 -0.06886761 -0.08002688
0.037958875 0.035308495 -0.093569085 0.018851262 0.025826767 0.05099288 0.04559305 -0.099004745
-0.09617036 -0.065717414 -0.08645574 -0.014843889 -0.10905063 -0.03260263 0.021101197 -0.011775192
0.04823191 0.005983695 -0.08979799 -0.0060602934 -0.08406733 -0.04107739 -0.0081380755 -0.0784203
0.021741897 0.02036888 -0.060811922 0.027468001 0.03378073 0.054415118 0.02420283 0.027368706
0.04057824 -0.017755052 -0.0045752134 0.014563244 -0.018877575 -0.097645774 -0.0005627164 0.047293272
-0.030547729 -0.070396446 -0.05277986 0.04826918 0.010467339 -0.045274235 0.0074032135 0.002390298
-0.068993986 -0.061112598 -0.049216438 0.04032659 -0.03439871 0.0015279382 0.04579 -0.015743406
-0.102384865 0.027470961 -0.09737303 0.020467054 -0.062021885 -0.013273069 0.03242029 -0.101685844
0.026993306 -0.05838693 0.006050296 0.004868217 -0.007834395 0.030744955 -0.11377073 0.045777075
-0.07373155 -0.06824515 0.01852981 -0.037161365 0.036970396 0.017258832 0.004227101 -0.028280258
-0.008590645 0.020018617 0.024674535 -0.1109147 -0.0012941292 -0.11449251 0.004684426 -0.06756943
0.014481734 -0.1112038 -0.042778686 -0.057519846 -0.064423084 -0.10956418 -0.06705608 -0.06191913

layerone.bias f4 [64]
00000000: 6471 ee3e afea 92bd 5b35 993e 4ff4 853e
00000010: c041 bfbe 5517 7c3e 1b95 d63e 8893 c03e
00000020: 1312 9a3e afa8 7e3e 578f b43c b95b 043d
00000030: 869b c23e 6f84 8d3e 04f5 b0be c35e 69be
00000040: ccc6 c8be be12 ed3d b83e c83e 4974 cb3e
00000050: c8fc 8c3e 6045 3cbd c718 af3e a84b 863e
00000060: c013 28bb d3b4 f33d 1a97 933e 21e8 d43e
00000070: d932 c63e 6b40 db3e 3d94 ab3e 8d47 8cbe
00000080: 55c5 d73e d4d9 613e c6ca b63c 3e0b ac3e
00000090: 8635 ca3e e990 813e 560b c73c aafc 013d
000000a0: 2b7c b83e fc9c b2be a999 183d 18c7 14bd
000000b0: 8878 7ebd 5dfe 73be 5d83 b43e 4428 0dbe
000000c0: 5a7f 813d 6be1 ae3e 60aa b03e 776b cc3e
000000d0: a542 cdbe 5e94 993e 146d 863e e28b 1d3e
000000e0: ef1d 8fbe 0e7f 97bc 82d3 973e 3421 cfbe
000000f0: c6d2 cb3e 62ea be3e 3d24 173d 0bd6 c13d
0.46570885 -0.071736686 0.2992352 0.26162955 -0.3735485 0.24618275 0.41910633 0.37612557
0.30091915 0.24869035 0.022041006 0.032314036 0.3800928 0.276401 -0.34561932 -0.22790055
-0.3921417 0.115758404 0.3911035 0.39737156 0.27536607 -0.0459646 0.3419859 0.26229596
-0.0025646538 0.11899724 0.2882622 0.4158335 0.3871067 0.42822585 0.33511534 -0.2739834
0.4214274 0.22055751 0.022313487 0.33602327 0.3949396 0.2530587 0.024297398 0.0317351
0.36032233 -0.34885395 0.037255917 -0.036322683 -0.062126666 -0.238275 0.35256472 -0.13784891
0.063231185 0.34156355 0.34504986 0.3992574 -0.40089908 0.29996008 0.26255095 0.15385392
-0.27952525 -0.018493202 0.29653555 -0.4045502 0.39809245 0.37288195 0.036899794 0.094646536

layertwo.weight f4 [16, 64]
00000000: 7cc8 94be 3ce5 25bd e569 83be 1812 1abe
00000010: 8dcd 103e e6c3 73be dd42 99be 10a4 aabe
00000020: 30bc 80be c442 08be 650d a0bc c218 853d
00000030: f621 87be 175d b1be 00fb c13d 528c 163e
00000040: 27ec 103e 30a2 82b9 2a71 85be c956 0abd
00000050: 4237 6cbe 4c6a 91bb 28d5 a0be 03a9 c2be
00000060: 5d6e abbd 0cbf 1c3e 1bd3 5abe 51fb 9bbe
00000070: 9eab 59be dbaa 98be 4fe3 f1bd 219c 863e
00000080: 94af 85be 6c52 6abe 49c0 91bb b381 9bbe
00000090: 9132 4dbe 3f7d f9bd 44bb 663c 49cd 12bc
000000a0: aa10 83be f3a8 da3d b392 833d 8b47 223e
000000b0: bd8f 803d 4e5e 143e 07fe 1ebe aad5 e73d
000000c0: fe27 f83d 71d8 f4bb c16b 4abe b0a2 27be
000000d0: 3623 333e 0b99 8ebd 2ff5 51be d674 a43d
000000e0: cc4c 303e fe63 213d 7303 9bbe 1bea 213e
000000f0: e545 07bf 3b54 ccbd 9570 ff3d e429 0e3e
00000100: 61ab 9a3e e7f6 213e c7ab a43e aba1 e93b
00000110: 023b 90be 7cd5 473e 192f 7c3e a50b 023f
00000120: 89a8 ac3e e241 a23d cd53 fbbd 025e aa3d
00000130: b70e ac3e ccc9 963e 4105 58be d95d 33be
00000140: 21c5 85be 79b0 febc 0e92 833e c999 5b3e
00000150: 86ff 383e 56a1 a73d 7dcf e23e a675 c13e
00000160: 3f98 be3d bf1d 2f3d a912 953e 4b68 d53e
00000170: e27e 053e 817b 393e 43a5 ab3e 18c5 91be
00000180: 8295 463e 56a1 c03e 010c 01be 72d3 b33e
00000190: 04f4 a53e a204 1b3e 5b4a 3bbe ae35 d1bd
000001a0: 434d b53e 7d4b 49bc 13bf 54be 8fef 19be
000001b0: 35c8 293d 9dd3 96be 625d 5b3e 272b 08be
000001c0: fa58 ddbd dd2e 1a3e 5b38 333e 74ea 2d3d
000001d0: 727d 68be 3813 f2bb c20d d63d ac6f f4bc
000001e0: 43e9 2dbe ba40 d43d 83c9 e73e 9ba1 97be
000001f0: 1a60 d13e 1e52 62bd 8628 1dbe 74fc 65be
00000200: 8baf 023f b9bf 163e dc46 ca3e 38b1 d5bd
00000210: cf41 51be 5012 1e3e 8fb9 4d3e 7dfd cd3e
00000220: ecf4 b43e bacb 5c3d ad9c dbbd 0094 c33d
00000230: 6100 d63e d8a0 523e 3b48 2fbd b0c9 08be
00000240: a66f 94be c78f 34be f019 993e 7c2b 1c3e
00000250: 4fa1 883e 124f c63d fa8e ab3e 8b8d b63e
00000260: 6caf cf3c 40c2 c139 deaf de3e 9d14 933e
00000270: 3582 a83d d8a9 933e 2133 3f3e 042a 92be
00000280: dc87 2f3e 2621 083f 6ad0 6bbe 4b40 293e
00000290: b574 613e d7b9 5f3e 0b4a 49bd 2ac6 90bd
000002a0: 5a44 c73e dd59 1cbd 4e0c 63be 78c2 88be
000002b0: e0b3 c7ba 6614 90be 37eb 983e d18e d5bd
000002c0: 0a91 5fbe a910 6c3e bbea d73e 4805 f73d
000002d0: 1a43 97be bce1 873d e515 253e 14ae 5abd
000002e0: 6aa2 46bd d4e6 003e 014f 1a3f 4f60 cabe
000002f0: 8b07 f43e b090 8b39 4a59 09be 569f 33be
00000300: 453b ae3e 630c 45bd fdce 9c3e 57f9 df3d
00000310: 4deb 6abe 3e56 303e 1cb7 ae3d 6f49 853e
00000320: 156d 813e 97f3 273d c2ca 2dbd e49a 033d
00000330: 73f7 233e 42e3 aa3e 7bcc 28be 5acb adbd
00000340: cfd4 85be 96b4 85bd 46ff 423e 1db4 503e
00000350: b8a6 863e da71 1ebd 0952 903e 77c9 943e
00000360: 8e07 86bc 6a89 dcbd 834a 783e 5845 af3e
00000370: 313d c73d 8e23 393e b138 6b3e a535 84be
00000380: 0a50 6a3e 8ff0 a03e 476a 10bd 1487 173e
00000390: 86e7 cc3d 38a8 29bc 8842 f7b8 067c 4dbd
000003a0: 1532 ac3e 7223 09be e514 36be 433d 51be
000003b0: c48c c7bc bcc7 87be 4836 673e 5f2e 70be
000003c0: 8732 00bd 76bb 193e 9e3e 9a3e b087 9c3d
000003d0: 15b1 49be dfae e33d a9cc df3d 1554 d1bd
000003e0: 4c49 06be 007b 4a3d dc61 063f 627b 69be
000003f0: 2d8d 993e d483 8b3b 0570 f1bc 106b 50bd
-0.29059207 -0.040501818 -0.2566673 -0.15045965 0.14140911 -0.23805198 -0.29933825 -0.33328295
-0.25143576 -0.13306719 -0.019537637 0.06498863 -0.26393098 -0.34641334 0.094717026 0.14701965
0.14152585 -0.0002491637 -0.260629 -0.03377417 -0.23067954 -0.0044377204 -0.31412625 -0.3801957
-0.083706595 0.15307254 -0.21369593 -0.30465177 -0.21256873 -0.29817852 -0.11810934 0.26290992
-0.26110518 -0.22883004 -0.004447971 -0.3037239 -0.20038821 -0.12182092 0.014082734 -0.008960077
-0.2559865 0.10676756 0.06424465 0.15847604 0.06277416 0.144891 -0.15526591 0.1132005
0.12117003 -0.007472091 -0.19767667 -0.16370654 0.174939 -0.069627844 -0.20503686 0.08030097
0.17216796 0.039402 -0.3027607 0.1581196 -0.52841026 -0.09977003 0.12472645 0.13883168
0.30208877 0.15816842 0.32162306 0.007129868 -0.2817002 0.19515032 0.24627341 0.5079902
0.33722332 0.079227224 -0.12271843 0.08318712 0.33604977 0.29450834 -0.21095754 -0.17516269
-0.2612696 -0.031090008 0.25697368 0.21445383 0.18066224 0.08185069 0.44298926 0.3778507
0.093063824 0.042752977 0.291158 0.41681132 0.13036683 0.18113519 0.33524522 -0.28470683
0.1939297 0.3762309 -0.12602235 0.35122257 0.32412732 0.15138486 -0.18290083 -0.10215317
0.3541051 -0.012286064 -0.20776014 -0.1503279 0.041450698 -0.29458323 0.21422341 -0.13297711
-0.108079866 0.1505694 0.17501967 0.04245992 -0.22704104 -0.007387545 0.10451843 -0.029838406
-0.16983514 0.10363908 0.4527093 -0.29615483 0.40893632 -0.055254094 -0.1534749 -0.22459584
0.5104911 0.14721574 0.39507186 -0.104341924 -0.2043526 0.15436673 0.20090316 0.4023246
0.3534311 0.053905226 -0.10723243 0.09549713 0.41797164 0.2056917 -0.042793494 -0.13358188
-0.2899143 -0.17632972 0.299026 0.15250963 0.2668557 0.0968305 0.3350752 0.35654864
0.025352202 0.00036956556 0.4349355 0.28726664 0.0822796 0.28840518 0.18671848 -0.2854768
0.1714167 0.5317558 -0.23028722 0.16528432 0.22017176 0.21848236 -0.04914288 -0.07069047
0.38919336 -0.038171638 -0.22172663 -0.26710868 -0.0015236102 -0.28140563 0.29866955 -0.10427631
-0.21832672 0.2305323 0.42171273 0.12061554 -0.29543382 0.06634852 0.16121633 -0.05338867
-0.048494734 0.12588054 0.602768 -0.39526603 0.47662005 0.00026619947 -0.13412967 -0.1754125
0.34029594 -0.048107516 0.3062667 0.1093623 -0.22941323 0.17220399 0.08531019 0.26032588
0.25278535 0.04100379 -0.042429693 0.032130137 0.16012363 0.3337651 -0.16484253 -0.08486052
-0.26138923 -0.06528585 0.19042692 0.20381208 0.2629907 -0.038682796 0.28187588 0.29059955
-0.016361024 -0.10768397 0.24247174 0.34232593 0.09728468 0.1807997 0.22970845 -0.25822178
0.22882095 0.31433532 -0.035257604 0.14797622 0.10005097 -0.010355048 -0.0001179027 -0.050167106
0.3363196 -0.13392428 -0.17781408 -0.20433526 -0.024359114 -0.26519573 0.225793 -0.23455189
-0.031298187 0.15012917 0.30125898 0.07643068 -0.19696458 0.111173384 0.10927708 -0.102211155
-0.13113898 0.04943371 0.5249307 -0.22800973 0.2999052 0.0042576585 -0.02947236 -0.050883353

layertwo.bias f4 [16]
00000000: 389a 413e 37ff cfbd 8e80 5cbe a959 1bbd
00000010: 8c0b 40be ca90 a9bc 2861 bb3d 768d 31be
00000020: 95f5 8fbe 7515 823d 4a6f 033e e39e 413c
00000030: 9d30 343d d48a 703d 2626 1f3e a460 9f3d
0.18906486 -0.101561 -0.21533415 -0.037927303 -0.18754405 -0.020698924 0.091493905 -0.1733912
-0.28117052 0.06351749 0.12835422 0.011817667 0.043991674 0.058726147 0.15541896 0.077821046

layerthree.weight f4 [2, 16]
00000000: ac2f b4be 64a6 023f 19aa 8f3e 9ca5 bd3e
00000010: c238 073e 0e21 b8be 215c d2be 0f0b 243e
00000020: 2bd8 033f 8c8d debe a59e bcbe e916 a2be
00000030: 44ad 5fbe 552e 23be 79a9 55be 4af9 8fbe
00000040: 8eb0 d53e 0ae8 dbbd b7a7 67be 7320 aebe
00000050: c59f d0be 916a 583e 1d70 873e 385d dfbe
00000060: 6426 3bbd b6ee 823e bf94 153e ace8 d13e
00000070: e39d 4f3e 6e33 e13e 2512 4e3e 7101 a33e
-0.3519262 0.5103514 0.28059462 0.37040412 0.13205245 -0.3596272 -0.41085914 0.16019844
0.5150172 -0.43467367 -0.36839786 -0.31658104 -0.2184344 -0.15935643 -0.2086543 -0.2811988
0.41736263 -0.10737617 -0.22622572 -0.34009132 -0.40746894 0.21134402 0.26452723 -0.43625808
-0.04569091 0.25572747 0.14607523 0.40997827 0.20275073 0.4398455 0.20124109 0.31837037

layerthree.bias f4 [2]
00000000: bde4 bc3d a7f7 073d
0.09223316 0.033195164
