state_dicts/model20240104-203916.pt (torch, 39255 bytes, 6 tensors)

layerone.weight f4 [64, 128]
000000 4f 5a 73 3b 7c 4c 9f bc 0c 20 88 3c 08 c2 23 bd
       0.0037132686 -0.01944565 0.016616844 -0.039979964
000010 0b 67 0d be db 62 9f 3d 04 70 b3 3c 83 3c f3 3d
       -0.13808839 0.07782527 0.021904 0.11876776
000020 08 3d cb 3d 76 13 87 bd 4c f0 9a 3b c1 8f 17 be
       0.0992375 -0.06595509 0.0047283527 -0.14800932
000030 97 0c ab bd 6f 56 12 bd c1 8b a7 bd 73 19 d7 bb
       -0.08352011 -0.03572696 -0.08180953 -0.006564313
000040 9c 86 48 3d e1 c9 cd bb 0e 9a 81 bd 17 44 6b bd
       0.0489565 -0.0062801694 -0.06328212 -0.057437982
000050 ab 3a 8b 3e de 65 e0 bd 2c da a4 3d 98 0f f2 bc
       0.27193198 -0.109569296 0.080494255 -0.029548451
000060 ec 5d 1d 3e 05 86 9d 3d e7 1f 83 bd 45 22 71 3c
       0.1536786 0.07691578 -0.06402569 0.014717643
000070 a1 d9 4d be 25 e1 49 bd 3d c3 9e bd bc 5e cf 3d
       -0.2010255 -0.04928698 -0.077520825 0.10125491
000080 df c5 d8 bd 60 c9 ac bd fe c0 20 bc 9d d2 b2 3d
       -0.10584616 -0.08436847 -0.009811638 0.087315775
000090 2a 03 97 3d 2d 8f 3f be f3 b1 ac bd a5 35 a3 3c
       0.0737365 -0.18706961 -0.084323786 0.01992304
0000a0 fe b6 48 3d 27 56 89 3c 7b 89 04 3d cf 6f 8c bb
       0.04900264 0.016764713 0.032357674 -0.0042857896
0000b0 11 6c 8e bd e6 ab aa bc c3 17 01 be 04 0c c6 3d
       -0.06954206 -0.02083392 -0.1260672 0.096702605
0000c0 d0 93 44 3e dc 40 25 be e3 13 04 be f8 a7 e4 3d
       0.19197011 -0.16138023 -0.12898211 0.1116485
0000d0 4d 68 4b 3e b4 7d 24 bd 82 93 5b 3c 27 31 a1 3d
       0.19864006 -0.040158942 0.013401868 0.07870703
0000e0 09 07 c0 bd dc 80 c8 3d b7 e1 17 bd c5 32 50 bd
       -0.09376342 0.09790203 -0.037080493 -0.050829668
0000f0 73 bc bd 3d 3b 1d 42 3e c3 7d fc 3c 3e 0b 7e 3d
       0.092644595 0.18956463 0.030821687 0.06202244
000100 dc 38 8f bc e5 19 58 3d 22 69 f6 bc 87 c8 3a bd
       -0.017483167 0.05275907 -0.030079428 -0.045601394
000110 f1 de bc bc 30 cd 1a 3d 29 d4 85 3d c2 ea 20 be
       -0.023055525 0.03779334 0.06534607 -0.15714553
000120 72 ed bb 3d c7 75 a0 bd 55 4b cf b9 fa f6 80 3c
       0.091761485 -0.07834964 -0.00039538243 0.015742768
000130 59 2a 2b 3e b7 81 e0 bd ea 28 81 bd 9f 5f 8e 3e
       0.16715373 -0.10962241 -0.06306632 0.27807328
000140 e5 70 a0 3d 9f df 4e be b0 82 d2 3c 16 ff 48 bd
       0.07834033 -0.20202492 0.025697082 -0.049071394
000150 b5 54 aa 3c fc 64 2c be a5 81 92 3b 66 ca 28 bd
       0.020792345 -0.16835397 0.0044710212 -0.041208647
000160 ed 2f 4a bd f8 0e 97 3d 4c 14 17 be c5 71 9d 3d
       -0.04936211 0.07375902 -0.14753836 0.076877154
000170 d4 f6 99 3d 46 e2 25 3d 9e 18 86 bd a1 63 77 3d
       0.07517782 0.040498994 -0.06547664 0.060397748
000180 7e 6f 4a 3a 4c 32 82 3c 4f a3 bb bc 3a 97 89 bd
       0.0007722302 0.015893124 -0.02290502 -0.06718297
000190 32 62 e8 3c f2 89 aa 3d 45 d2 94 3c 86 82 d3 3d
       0.028367136 0.08327092 0.01816667 0.1032763
0001a0 0d 25 3b 3e 90 aa e3 3c fd 69 3c be 3d 9d 35 3d
       0.18275853 0.027791291 -0.18399806 0.044339407
0001b0 24 fe 0c be 97 00 07 3d 02 c9 08 bd 24 cb b1 bd
       -0.13768822 0.032959547 -0.03339482 -0.08681324
0001c0 d1 44 8a bd 47 dc 3c 3d d5 15 b2 bc 3c d1 cf 3d
       -0.06751407 0.04610851 -0.021738926 0.1014733
0001d0 79 ab ca 3d bf ec ce bd ce e6 fb 3b 8a 5d a5 3d
       0.09895987 -0.101037495 0.007687426 0.08074482
0001e0 21 f5 02 3e 6e d8 40 3e 70 17 37 bb 3b 9e 61 bc
       0.12788822 0.18832561 -0.0027937554 -0.013770635
0001f0 20 20 bc 3b b2 bb 2a 3e c1 3e 06 3d 4a 49 d0 bc
       0.0057411343 0.16673163 0.03277469 -0.025425572
000200 0a 25 02 3d 09 09 51 3d e1 07 14 bd 93 d7 00 3c
       0.031773604 0.051034007 -0.036140326 0.007863897
000210 5b 16 b8 3d 4c ef 5b bd 76 b0 10 be b6 f7 d3 bd
       0.08988639 -0.05369501 -0.14129815 -0.103499815
000220 d6 64 1b 3d 2a e8 b2 bc e5 d6 0f 3c c4 4d c6 bd
       0.03793796 -0.02183922 0.008779262 -0.09682801
000230 ac dc 6f bc be d4 3f bd 62 d5 db bc 09 09 ff 3c
       -0.014640015 -0.046833746 -0.026835147 0.031132238
000240 40 aa b1 3c 5d 0e 31 bc 57 40 e8 bd a6 e5 e2 bd
       0.021687627 -0.010806647 -0.11340397 -0.11078958
000250 1e 26 3a be 2c 22 4f 3d 28 17 80 bc bf 51 6d bd
       -0.18178603 0.0505697 -0.015636042 -0.057939287
000260 80 4e f5 bd 44 38 ed bc 40 b8 03 3e c4 d6 7c bd
       -0.11977863 -0.028957494 0.12863255 -0.061728254
000270 9e c6 7f 3d 9c 39 93 3c f4 fd d1 3c c9 40 0a be
       0.062445275 0.017971806 0.02563379 -0.13501276
000280 da bc 90 bd 2f 1f 04 3d 14 86 9c 3d 5c ff c2 3d
       -0.070672706 0.0322563 0.07642761 0.09521362
000290 6f 1c 3c bd 5c cb 19 3e 9d a0 79 3d c2 5c 81 3d
       -0.045925554 0.15018982 0.06094419 0.0631652
0002a0 28 1b f1 bd ee 8c 4c bc 0d ae 05 3e 74 9d 6e 3d
       -0.11772758 -0.012484772 0.13054676 0.058255628
0002b0 ca aa 31 bd 66 60 4a 3e 68 57 b4 3d cd 38 12 3d
       -0.043375768 0.19763336 0.08805734 0.0356987
0002c0 9e b6 18 be 6d c5 cd 3d ef c4 df 3d 75 e3 e5 3b
       -0.14913413 0.100474216 0.10926234 0.0070156404
0002d0 73 4f 13 be e8 98 24 be 61 e2 21 3d 64 b0 b1 bd
       -0.14385776 -0.16073954 0.039522532 -0.08676222
0002e0 c8 c8 fa 3d 8e d0 f1 bd 8a 27 9d bc ae 90 bc bd
       0.12245327 -0.11807357 -0.019183893 -0.09207283
0002f0 f0 f2 16 bc d9 ea f9 bd 00 1b 7f bc 0c 2e a1 bd
       -0.009213194 -0.12202997 -0.015570402 -0.07870111
000300 e6 d9 cc bd b0 91 4a bc 79 51 34 3e 84 33 0c 3e
       -0.10002498 -0.012363836 0.17609204 0.13691527
000310 47 79 f2 bb 31 9d 84 bc e7 b0 64 bd 35 56 89 3d
       -0.0073997113 -0.016188236 -0.05583277 0.06705896
000320 f9 25 12 3d 7b 47 13 3e 10 b3 82 3d c9 90 22 bd
       0.035680745 0.14382736 0.0638181 -0.03968886
000330 e5 d1 85 3d a8 0f 21 3e 30 29 88 3d f3 98 36 be
       0.06534175 0.15728629 0.06648481 -0.17831783
000340 54 84 9d bd 0f 6c 6a 3d 8d b3 13 3d 32 5d d6 bd
       -0.07691255 0.05723196 0.036059905 -0.10466994
000350 ec 84 8d 3d 8e 29 a6 3d a8 e0 e4 3d d1 42 9f 3d
       0.069101185 0.08113395 0.11175662 0.07776416
000360 9a f4 14 3d 9a 2d b7 3b a8 95 24 3d fe dc 74 be
       0.036366083 0.005590153 0.040181786 -0.23912427
000370 02 fa 3d bd 02 41 92 3d f4 b3 aa bb bb 1c 03 bd
       -0.046381004 0.071413055 -0.0052094404 -0.03200982
000380 a7 96 6f be 74 6c aa 3d 41 30 e0 bb 84 c9 24 3e
       -0.23397313 0.08321467 -0.00684169 0.16092497
000390 50 9d 14 be 5f 59 6e bc da 93 61 be 10 9b b9 bd
       -0.14513135 -0.014547675 -0.22029057 -0.09062779
0003a0 85 c2 2b bd 9c 13 26 be 5d ab 15 3e c3 a9 9d 3d
       -0.041933555 -0.16218418 0.14616151 0.07698395
0003b0 8d f7 36 3e 5f 98 0e be 21 81 c8 3d 3a 75 06 bd
       0.1786787 -0.13925312 0.097902544 -0.03282664
0003c0 e9 00 20 3d f1 28 5a bd 97 62 5a 3d b8 a0 de bc
       0.039063368 -0.0532617 0.05331668 -0.027176246
0003d0 24 61 dd bc 9b 70 ca 3d 29 58 32 3d bd e4 bd 3d
       -0.02702386 0.09884759 0.043541107 0.09272144
0003e0 1e 9d 2a bd cd 46 1c bd 0d 07 49 bd 5b ec a0 bc
       -0.041653745 -0.03815346 -0.04907899 -0.019643953
0003f0 10 2c 2c bd 1b 9f e8 bd a7 c8 0d bd b4 d4 55 bc
       -0.04203421 -0.11358472 -0.034615185 -0.013051201

layerone.bias f4 [64]
000000 6e e4 f2 3e 93 f4 b8 be 40 43 d8 be 84 55 8d bc
       0.47439903 -0.36124095 -0.42238808 -0.017252691
000010 20 e5 d2 3e fb 6b c5 3e 36 f1 9d 3d b3 06 7f 3c
       0.41190434 0.38558945 0.07712023 0.015565562
000020 6d e1 cb 3d 96 d9 f4 be f2 6f a7 3e 6f 35 03 bf
       0.09955106 -0.47822255 0.32702595 -0.5125341
000030 3e 9b f4 3e bf ba d4 3e 69 92 a0 3d 88 50 67 3b
       0.4777469 0.41548726 0.078404255 0.0035295803
000040 68 d1 d1 3e 5d 4b af 3e fd dd e6 3e c1 ca 98 3e
       0.40980077 0.34237185 0.4509124 0.2984219
000050 ab c7 01 bf 0f 41 ae 3e 6c 8e b3 be 7a 38 a0 be
       -0.50695294 0.3403401 -0.35069597 -0.31293088
000060 3e 94 d0 3e f9 d9 a6 3e 2f c8 87 be e4 d5 ad be
       0.407381 0.32588175 -0.26519915 -0.33952248
000070 73 c9 3d be db c3 00 bf dc 70 e5 3d 6a 91 ac 3e
       -0.18533878 -0.5029885 0.11203167 0.33704692
000080 a4 a1 e8 3e cf a4 0b bc ab f7 fc be e2 3e 8b be
       0.45435822 -0.00852318 -0.49407706 -0.27196413
000090 c0 13 87 3c 12 40 d0 be 5e 81 2b 3e dd 60 e8 3e
       0.01648891 -0.40673882 0.16748568 0.453864
0000a0 74 52 99 be 41 1b cf 3e 9f a4 f1 be 5b db cd 3d
       -0.2994572 0.4045048 -0.47195908 0.10051604
0000b0 bb d7 eb be 36 21 fc bd 33 7c c1 3e b7 1b 98 3a
       -0.46063027 -0.12311022 0.3779007 0.0011604939
0000c0 88 80 c1 3e 64 09 9f be 33 df b4 be 83 73 b6 be
       0.37793374 -0.31061852 -0.35326537 -0.35635003
0000d0 38 d6 45 be 43 d1 b5 be 2c 18 f9 3e 2b 8b e2 3c
       -0.19319999 -0.35511217 0.48651254 0.027654251
0000e0 52 89 ce be f6 e4 bc be 82 35 c9 3e 4a bf ef 3e
       -0.40339142 -0.36893433 0.39298636 0.4682563
0000f0 8b 92 ac 3e 81 f0 de bd 12 34 c5 be 74 e7 c8 3b
       0.33705553 -0.10885716 -0.3851629 0.006131107

layertwo.weight f4 [16, 64]
000000 65 0a ec 3d 7b 82 04 be a5 e1 05 be 2f 4e 06 bd
       0.1152542 -0.129404 -0.13074358 -0.032789405
000010 31 de 42 3e 48 d6 22 3e 80 5b e9 3b 39 ae 7a 3c
       0.19030072 0.15902054 0.0071215034 0.015300327
000020 38 af dd bc 71 b8 08 be bf bd 37 3e b3 c7 77 be
       -0.02706109 -0.13351609 0.17943476 -0.24197273
000030 b7 3b c4 3e dd af 7d 3e 0b 8a 44 bd b6 8c 74 3d
       0.3832681 0.24774118 -0.04798321 0.059704505
000040 33 aa 8e 3e 35 d8 18 3e a7 e4 ea 3e c6 f1 df 3d
       0.27864227 0.14926226 0.45877573 0.109347865
000050 44 19 01 be 15 99 55 3d a8 0f 8a be 9e e4 0f be
       -0.12607294 0.052147944 -0.2696507 -0.14052054
000060 9e f2 c1 3e 86 e3 94 3e ed 6c 85 be 23 19 93 be
       0.37880415 0.29079837 -0.26059666 -0.28730115
000070 d1 be 8a 3c c1 76 90 be c7 a1 5f 3e 14 11 ae 3e
       0.016936691 -0.28215602 0.21839057 0.33997405
000080 b9 9c 8f 3e 75 eb 8e 3d 07 2a b4 be 7b 94 6b be
       0.28049257 0.069785036 -0.35188314 -0.2300586
000090 3b 0a a0 bb 76 e8 51 be 90 b9 e4 3d 4e 85 a0 3e
       -0.004884032 -0.20498833 0.11168206 0.31351703
0000a0 12 0a 89 be e0 cf f8 3d 55 d0 19 be c7 7d ab bd
       -0.26765496 0.12149024 -0.15020879 -0.083735995
0000b0 db 5f 4d be bd c0 a8 bc e6 4c 95 3e 23 cc 1a 3d
       -0.20056097 -0.020599717 0.2916023 0.037792336
0000c0 fa 2a b0 3c a7 9d 3f be af f1 68 be ad 2c 6c be
       0.021504868 -0.18712483 -0.22748445 -0.23063917
0000d0 42 48 38 be 17 9e 64 be 02 3d a6 3e 45 de 3b 3e
       -0.17996314 -0.22325931 0.3246842 0.18346508
0000e0 8e b9 6c be f2 36 56 be 6a 8e aa 3e a0 d5 f6 3e
       -0.23117658 -0.20919397 0.33311778 0.48209858
0000f0 3c d6 a1 3e 34 17 29 3e 31 22 a1 be 85 fe a2 bd
       0.3160876 0.16512758 -0.31471398 -0.07958702
000100 d8 ec 13 3e 38 4c 68 be 69 05 ed bd 73 31 73 bd
       0.14445817 -0.22685325 -0.115732975 -0.05937333
000110 ff 95 2e 3e 49 66 81 3e c8 28 42 3e d4 bb 87 3d
       0.17049406 0.2527335 0.1896087 0.06627622
000120 c3 97 e2 3d 21 e7 c6 be 3e c5 10 3e 34 da a9 be
       0.110641025 -0.38848212 0.14137742 -0.33174288
000130 73 88 24 3f 8f 3d 23 3f bf 6b fc 3c b1 36 c4 3b
       0.64270705 0.63765806 0.030813096 0.005987965
000140 1a 6e 81 3e 39 a0 c4 3d d8 df 22 3f 13 c1 16 3e
       0.25279313 0.096008725 0.6362281 0.1472209
000150 a4 46 80 bd 6f ec 62 3e b4 07 95 be b3 66 4e be
       -0.06263474 0.22160505 -0.2910744 -0.20156364
000160 6f 83 d3 3e ef 10 a2 3e 77 7b a0 be a5 e1 87 be
       0.41311213 0.31653544 -0.31344196 -0.2653934
000170 ca b5 79 bc 64 7c 3e be 75 c3 a4 3e 9c 96 b2 3e
       -0.015241096 -0.18602139 0.32180372 0.3488053
000180 74 ff d5 3e 9e 61 8d bd 78 4e 16 bf e9 2f 53 be
       0.41796458 -0.069033846 -0.58713484 -0.20623745
000190 2b 66 8d bd 23 db 82 bd 90 fe 3a 3e b7 ad cf 3e
       -0.069042526 -0.06389453 0.1826117 0.4056222
0001a0 d2 33 78 be cd 76 96 3e f4 73 de be 85 ec c6 bd
       -0.24238518 0.29387513 -0.4344784 -0.09713081
0001b0 42 9c d9 be 65 c1 c0 3d 7b 6d 08 3f ab 43 ef 3d
       -0.42502028 0.09411887 0.53292054 0.116828285
0001c0 b7 4b c6 bc 22 a1 db bd 26 17 c6 be 91 d3 d1 be
       -0.024206026 -0.10724093 -0.38689536 -0.40981725
0001d0 fe f8 60 bd 94 d8 33 be fc 0e 00 3f 33 5f 1f 3e
       -0.054924957 -0.17563087 0.50022864 0.1556366
0001e0 80 8f 6c bd 4f 77 7a be 97 39 c3 3e 3a 39 13 3f
       -0.05775404 -0.24459575 0.38129875 0.57509196
0001f0 78 7f 90 3e fa fa 90 3e f6 38 71 be 50 d2 02 3b
       0.2822225 0.2831648 -0.23556885 0.0019961782
000200 c8 01 1d 3e 4e 3b 47 be 0b d0 5c be 34 2b c3 bd
       0.1533271 -0.19456217 -0.21563737 -0.09529725
000210 1c e3 20 3e 38 81 93 3e 9c ad ed bc 20 d4 64 38
       0.15711635 0.28809524 -0.029013447 5.4556993e-05
000220 cf 6d d0 3d 56 b8 a2 be 6b 1e 11 3e 18 c8 75 be
       0.10177194 -0.31781262 0.1417176 -0.24002111
000230 32 58 04 3f 01 e2 ac 3e 1f 56 bf 3a ab 14 c7 bd
       0.51697075 0.33766177 0.001459781 -0.09720739
000240 0a 1b 9c 3e 2a d8 4e 3e 56 6c 0e 3f 96 14 a6 3e
       0.3048938 0.20199648 0.5563406 0.3243758
000250 42 7b 2b be cd 38 31 3d 93 fe 9e be 83 71 86 be
       -0.16746238 0.04326706 -0.310536 -0.26258478
000260 cd c1 f6 3e ba 7c 45 3e 8d 54 ac be ad ed 3b be
       0.48194733 0.1928586 -0.33658257 -0.18352385
000270 88 2e 53 bc 4f 08 48 be 91 f8 b3 3e 3f dc c2 3e
       -0.012889512 -0.1953442 0.3515058 0.3805866
000280 49 75 8d 3e 7e d0 d6 bc cc 16 90 be 45 db 43 be
       0.27628544 -0.026222464 -0.28142393 -0.19126613
000290 6a 69 d1 3c d0 75 3a be f5 f5 28 3e 1f 83 a0 3e
       0.02556296 -0.18209004 0.16500075 0.31350037
0002a0 6a 53 fd bd 14 bb e8 3d d7 ff 92 be 53 22 5c bd
       -0.123694256 0.11363807 -0.28710815 -0.05374367
0002b0 3a 1d c5 be b2 0d 7b bd 5a 8d fb 3e f2 a5 4e bd
       -0.3849886 -0.061292358 0.4913128 -0.050451227
0002c0 ce 5d 06 3e f5 67 6d bd 68 e3 b3 be bc 63 3e be
       0.13121721 -0.05796047 -0.35134435 -0.18592733
0002d0 ab 28 ad bb fb 3c 7d be 9d 4f 09 3f 84 5c a1 3d
       -0.005284389 -0.24730293 0.53637105 0.07878974
0002e0 b0 da 1a be ce 88 0c be a4 9e b7 3e c5 99 c3 3e
       -0.15122485 -0.13724062 0.3586322 0.38203254
0002f0 4a 0e bb 3e e6 d7 c3 3d e9 45 80 be 9e fa d6 3d
       0.3653434 0.09562664 -0.25053337 0.1049702
000300 e6 c9 22 be e9 6f 20 3e 0c 28 71 3e 24 57 d2 bd
       -0.1589733 0.1566769 0.23550433 -0.10270527
000310 05 d2 9b be f4 31 ad be 34 3e 8c bd 5d 79 49 bc
       -0.3043367 -0.33827174 -0.06847802 -0.012297002
000320 5e 55 38 bd c2 9a 9c 3e 4d 5f 4b be 2d 11 47 3e
       -0.045003287 0.3058682 -0.19860573 0.19440146
000330 41 a6 02 bf 95 d5 86 be 71 fa a0 bd 40 6f 16 3c
       -0.51034933 -0.26334825 -0.07860268 0.0091817975
000340 0f 18 5a be 87 84 01 be 48 b0 04 bf 46 1b 9a be
       -0.2129824 -0.12648211 -0.51831484 -0.30098933
000350 de c5 19 3d f7 9a 7b be ab 6d 3b 3e 40 e6 b2 3e
       0.037542216 -0.24570833 0.18303554 0.34941292
000360 53 01 98 be f5 66 93 be 59 67 79 3e bc 36 6e 3e
       -0.2968851 -0.28789487 0.2435583 0.23263067
000370 58 de c3 bc 72 c6 7a 3e 8b 30 c8 be e9 20 c3 be
       -0.023909733 0.24489763 -0.39099535 -0.38111046
000380 19 d8 2d be 84 8b a8 bd 03 f3 9c 3e 5e ed 0c 3c
       -0.16976966 -0.082297355 0.30654153 0.008601515
000390 bd cb 33 bb 10 86 29 3e b7 87 34 bd 7e 27 c3 be
       -0.002743467 0.16555047 -0.04407474 -0.38116068
0003a0 59 7e dc 3d d8 ae 7f be b8 06 e2 3e 28 37 e4 3c
       0.107662864 -0.24969041 0.4414575 0.027858332
0003b0 05 92 c6 3e f5 93 37 be 7a aa d9 be 94 a2 8f bd
       0.3878328 -0.17927535 -0.42512876 -0.07013431
0003c0 c3 4f 3b be 60 ae 5d bc 1f f3 8f 3e 73 ab b0 3e
       -0.18292145 -0.013530344 0.28115174 0.34505805
0003d0 02 31 8d bd 5f 1f 3b 3e bb 83 c9 be 2e 32 46 bd
       -0.06894113 0.18273686 -0.39358315 -0.0483877
0003e0 ab 53 51 3e db 75 34 3e 82 75 a1 be 6f cd b8 be
       0.20442073 0.17623083 -0.31534964 -0.36094233
0003f0 a3 50 ca be bc 25 53 be fc f1 57 3e c7 40 90 bd
       -0.39514646 -0.20619863 0.21088403 -0.07043605

layertwo.bias f4 [16]
000000 c3 28 9e bd 9b ee 8a 3c 46 aa c5 bd c5 fa 41 3d
       -0.077226184 0.01695948 -0.09651618 0.047358293
000010 20 82 1e 3b d9 4f 62 3d 9b 67 70 bc 1f 73 64 bd
       0.0024186447 0.05525193 -0.014673139 -0.05577385
000020 f3 3e 16 bd 6a 36 9a bd 60 03 15 3d 9e dc 88 3d
       -0.036681127 -0.0752991 0.03638017 0.066827044
000030 b4 8e ac bc e4 2f 87 3d f2 3b af bd 13 5f fc bd
       -0.02106414 0.06600931 -0.085563555 -0.123228215

layerthree.weight f4 [2, 16]
000000 6b 06 8a 3e 42 86 88 3e e4 cd 86 3e 28 64 1f bf
       0.26958022 0.2666493 0.26328957 -0.622622
000010 07 4d ff be 39 80 70 3d 59 50 0a 3e 2e 8d 13 3e
       -0.49863455 0.058716033 0.13507213 0.14409325
000020 63 7a 98 3e 4c 1e d3 be 39 cc 82 3e b9 0e e4 3e
       0.29780874 -0.41234052 0.25546435 0.44542482
000030 f1 7c af 3e cc 4c c4 3d ad 47 07 bf 0b 2c a8 3e
       0.3427501 0.0958496 -0.52843744 0.32846102
000040 4f bf bb be 98 01 af be cf 07 8c be 8a 4f c9 3e
       -0.36669394 -0.34180903 -0.27349707 0.39318496
000050 da ba 08 3f bd e5 f2 be 37 01 e1 be 0a 68 d7 be
       0.5341011 -0.474409 -0.4394624 -0.42071563
000060 46 9f ae be c1 f9 1a 3f 3b 40 b9 be 32 0a 85 bc
       -0.3410589 0.60537344 -0.36181816 -0.016240213
000070 f6 4c 5e be 6a 1e ce be eb cb 09 3f 96 a6 99 be
       -0.21709046 -0.4025758 0.5382678 -0.30009907

layerthree.bias f4 [2]
000000 e6 38 02 bf b1 5d 0e 3e
       -0.5086807 0.13902928
