state_dicts/model20240104-204154.pt (torch, 39255 bytes, 6 tensors)

layerone.weight f4 [64, 128]
00000000: d7dc c53c db58 a8bd 04b3 36bd 18f4 b839
00000010: d29f 9b3b 6d91 1f3d faf5 57bc fa3d 7abd
00000020: 20c1 463d 8a7b 9abd b038 893d 4ea4 07bd
00000030: 363f 413d fdc6 003d b049 d93c 66ef 8cbd
00000040: 2176 433d 6a07 313c 585d 303d 5094 25b9
00000050: 930a 20bd 7963 61bd 3be5 8cbd 2591 ea3c
00000060: 73ab 9b3d ce37 9fbd 7c7a 9cbc 3a31 693b
00000070: 97bc 16bd 246e f63c 928d b9bc b1fe 8d3d
00000080: d569 973d 82fe 803d ea09 a2bd 44ea bfbd
00000090: f34a 573d bf8c 913d 104b e43c 00a8 27bd
000000a0: 185e 69bd 1bc9 a8bd eb14 073d c130 2a3d
000000b0: 8b17 963d f624 573d 1e8f 013d 8619 d23c
000000c0: 9698 68bd 1855 56bc 0d2f 5abd 1a83 99bc
000000d0: e79e 043d 5d47 043d d71c 623c 7ba5 31bd
000000e0: 4e50 efbb 7178 e73b 72b2 dbbc 4d87 8e3d
000000f0: e82b 04bd 4097 993d 5327 b2bd 6898 863d
00000100: f02f 433d 0d86 b0bd 79cb 1c3d 1fe2 2ebd
00000110: 9583 00bc 4a1c bfbc 4303 0bbd 6aa3 a23d
00000120: a9ff 983c 0bad d9bc 660a f6bc 647b 20bd
00000130: b88d bfbc 5af0 97bd f586 fd3c 3f59 553d
00000140: b243 dc3c 2273 93bd 4435 90bc 5cc6 bdbd
00000150: 345c 2abd 1bd0 823d cc82 c93c 50c9 c0bd
00000160: 74c7 733c 9390 d3bc 2bda a5bd d246 28bd
00000170: 74c8 323c 09fb 12bd a3b6 1b3d 5313 86bd
00000180: edb6 42bb b019 873c 9d9e 823d 63a5 593d
00000190: 1885 a33c 889f 73bd 031d 223d dbbe 79bd
000001a0: 09c4 6b3c e2b0 943d 9439 e63b 88cc 46bc
000001b0: 956e 6f3d f0d5 c6bb c371 873c 5d85 bdbc
000001c0: bcad 9d3d 45be b2bc 5b52 883d b99a 1a3d
000001d0: 093f c8bc 4b81 dfbc 36dc 74bd 1555 94bd
000001e0: c95f 723d 0cad 6a3c 21e9 943d 745f 6e3c
000001f0: 9eae c3bd a5c8 93bc 9ac9 1dbd f090 413d
00000200: bee6 0ebd 1cb9 723c 75d3 863c 80f6 3f37
00000210: 64b8 be3c 9041 b63d 9b0d 683c 94f3 5c3d
00000220: f087 9dbd a23d 633c d237 703d 0e91 093b
00000230: 0223 6a3c bc0c 13bb 44f0 aa3d 7101 8f3d
00000240: b0b4 8abd 1e2e febc f906 ccbc ad5d 5cbd
00000250: 4ca3 54bd d6cd 59bb 4b82 503d 38b5 69bd
00000260: 1997 75bd ed45 3dbd cc46 023b c549 bb3c
00000270: 8735 773d e72f e63c b260 35bd 8ca6 dd3b
00000280: bc7a 61bd 2d92 b43d 709a ac3d eceb 4c3d
00000290: 5cfb 4a3d 268e 5fbd dc5a ab3c fdd2 643d
000002a0: a67a 193b 4393 6cbb 7047 a83d 0780 b73c
000002b0: cee7 a03d 1b94 033d 8ee4 55bd e8e2 e03c
000002c0: a2fc 9c3d 0ee4 6dbd 52e9 ccbc bbc2 483d
000002d0: ebef 9dbd fb3c b53d d500 afbb ada9 ec3c
000002e0: 7022 c23d ea71 26bd c42f 0e3d 6a19 8c3d
000002f0: 1381 87bd 2a7f 98bd 2047 38ba 4d24 17bd
00000300: 4ab3 c03a 501a aabc c7a9 00bd 80db 593c
00000310: 4ba1 9b3d d7c1 c13d b3b0 ed3c 76c7 19bd
00000320: 9a60 9d3b 07d7 2f3c 099e 1fbc 1486 963d
00000330: 43e7 f93c 5e32 8dbd a3a4 633d b658 88bc
00000340: 6e05 84bd abe5 303d 4938 50bd dec1 333d
00000350: d26f 133d 6c9b dcbb 600d 8e3d 9fb7 2cbd
00000360: 44e2 e13c 8b10 863d 6aa6 38bc 25e7 4bbd
00000370: e789 ae3c d37a 40bb 1c15 d8bc c89b 88bc
00000380: 1bbb 71bd 1adf 543d 8890 3dbd 5167 ad3d
00000390: 5e3d 89bd 18d3 27bd a97b 8e3d 1297 04bc
000003a0: a992 6fbc 170b a03d 6dbb 4cbd c465 4cbc
000003b0: 32cd 18bc 32c2 2dbd 9c3e 92bd 1f36 60bd
000003c0: 2ca9 87bd 6672 923c cecb 99ba 6c4e 37bc
000003d0: 5e92 86bd 66b4 29bd 9fa9 a23d ec7d 5f3c
000003e0: 06f7 0a3d 1ca7 5bbb 2026 573d 63c4 41bc
000003f0: 4628 bd3c 5fd0 87bd e1ae 243d 4d96 943d
0.024153156 -0.08220073 -0.044604316 0.0003527708 0.0047492767 0.03895705 -0.013181204 -0.06109426
0.048524022 -0.075430945 0.067002654 -0.033115678 0.047179423 0.03143977 0.026524395 -0.06881599
0.04772008 0.01080499 0.04305777 -0.00015790877 -0.039072584 -0.055026505 -0.0687966 0.028633663
0.07601061 -0.07774316 -0.019101374 0.003558232 -0.036800947 0.030081816 -0.022650514 0.06933344
0.07393233 0.062985435 -0.07912047 -0.093708545 0.05256171 0.07106923 0.027867824 -0.0409317
-0.0569745 -0.08241483 0.032978933 0.0415504 0.07328709 0.052525483 0.031630628 0.025646936
-0.056786142 -0.013081811 -0.053267527 -0.018739272 0.032378104 0.03229462 0.013800821 -0.043370705
-0.0073032742 0.0070639183 -0.026818488 0.069594 -0.032268435 0.07499552 -0.08698907 0.06572038
0.04765314 -0.08619318 0.038279984 -0.042696115 -0.007843872 -0.023328919 -0.033938657 0.07941325
0.018676596 -0.026571771 -0.030034255 -0.039180174 -0.023383006 -0.0741889 0.030948142 0.052087065
0.026887748 -0.07199694 -0.017603524 -0.0926635 -0.041591838 0.06387349 0.024598502 -0.09413397
0.014879096 -0.025825774 -0.08098253 -0.041083165 0.01091205 -0.035883937 0.038015973 -0.065466546
-0.0029711083 0.016491741 0.06377909 0.05313624 0.019960925 -0.059478313 0.03957845 -0.06097303
0.01439 0.072603 0.007025907 -0.012133725 0.05845507 -0.006067984 0.016533738 -0.023134882
0.07699153 -0.021819243 0.06656333 0.03774521 -0.02444412 -0.027283331 -0.059780322 -0.072427906
0.05917338 0.014323484 0.07271028 0.014549125 -0.0955479 -0.01804001 -0.03852234 0.047257364
-0.03488802 0.014814641 0.016458252 1.144188e-05 0.023281284 0.08899224 0.0141634 0.05394323
-0.07691944 0.013869675 0.058646984 0.0020991 0.014290573 -0.002243801 0.08346608 0.06982697
-0.06772745 -0.03102785 -0.024905669 -0.053800274 -0.051913545 -0.003323426 0.050905507 -0.05705759
-0.05995855 -0.046209265 0.0019878624 0.022862324 0.060353782 0.028099013 -0.04428167 0.0067642387
-0.05504869 0.08816943 0.08427894 0.05002968 0.04955612 -0.054578923 0.020917349 0.055865277
0.0023419051 -0.0036098517 0.082167506 0.022399915 0.07856713 0.032123666 -0.05221992 0.027451947
0.076653734 -0.058078818 -0.0250136 0.049013834 -0.07711776 0.08849522 -0.0053406754 0.028889501
0.09479225 -0.04063598 0.03471352 0.06840785 -0.06616416 -0.074461296 -0.00070296414 -0.036899853
0.001470187 -0.0207645 -0.031411912 0.013296962 0.075991236 0.094608 0.02901492 -0.037543736
0.0048027756 0.010732419 -0.009742268 0.07349792 0.030505782 -0.068943724 0.05557693 -0.016643863
-0.06446348 0.04318778 -0.050834928 0.043886058 0.035995312 -0.006732395 0.06936145 -0.042167302
0.027573712 0.06546124 -0.011270145 -0.049780983 0.021305991 -0.0029370084 -0.026377253 -0.016675845
-0.05901633 0.05197058 -0.046280414 0.08466972 -0.06701158 -0.0409728 0.0695718 -0.008092659
-0.014622369 0.07814615 -0.04998343 -0.012475435 -0.009326266 -0.042421527 -0.07140848 -0.054739114
-0.06624064 0.017876815 -0.0011733712 -0.011188131 -0.06570886 -0.041431807 0.07942509 0.013640862
0.033926986 -0.0033516353 0.052526593 -0.011826607 0.023090493 -0.066315405 0.04020584 0.0725523

layerone.bias f4 [64]
00000000: 175e 23bb 7b4c 473d b7f1 6b3d 4d50 203c
00000010: 6498 1e3c 03a0 0bbd 4304 923d 7656 4abd
00000020: 6a20 ac3d 6d4d 3ebd b718 9dbd 56dd 9dbd
00000030: 6f71 2abd 0237 5d3d 15b2 34bd 5ee8 4abd
00000040: af48 21bd 323e 1abd 71a0 76bc af7b 1d3d
00000050: 7185 bebd 1986 ae3d 9d41 a5bc 1859 cd3c
00000060: 490b 963d de58 ab3d e99a 85bd 5bb5 55bd
00000070: 1682 693d 2673 5abd f96d ac3d 4db9 993d
00000080: 32bc e03c ed2d 90bd ff14 79bd 9e66 a03d
00000090: a45b 863d d719 973d 7ce1 76bd 30e2 6a3d
000000a0: 82b8 a0bc 9c24 bbbd 24fb 98bd 90a6 473d
000000b0: b29d f1bc 41f3 43bd 5f5f c3bc 7b52 a63c
000000c0: 2e7e a73a 0c76 b5ba c8a5 9c3d b57c 7c3c
000000d0: c461 f83a d248 993d 511c 18bd cf07 9abd
000000e0: 4728 5ebd a4db b5bc a995 bdbc 15e5 823d
000000f0: 2f92 b03d 9fe1 9ebc bf1d 0bbc 407e 5a38
-0.0024927908 0.04865692 0.057603564 0.00978477 0.009679887 -0.034088146 0.07129719 -0.04939886
0.0840462 -0.046460558 -0.076707296 -0.07708232 -0.041612085 0.054007538 -0.044115145 -0.04953801
-0.039375957 -0.03765697 -0.015052901 0.038448032 -0.09302796 0.08521671 -0.020172888 0.025066897
0.07326371 0.083665594 -0.065236874 -0.052174907 0.057008825 -0.05333247 0.08419413 0.075060464
0.027433489 -0.0704001 -0.06081104 0.07832073 0.06560448 0.073779754 -0.060273632 0.057344615
-0.01961923 -0.09137842 -0.07469776 0.04874283 -0.02949414 -0.047839407 -0.023849187 0.020303002
0.0012778693 -0.0013844385 0.07648808 0.015410592 0.0018950035 0.074845925 -0.03713638 -0.075210206
-0.05423763 -0.02219946 -0.023142653 0.0639135 0.08621632 -0.019394694 -0.008490979 5.209283e-05

layertwo.weight f4 [16, 64]
00000000: f63a f2bc 5c80 a8bd 68b3 143d 6593 e8bc
00000010: a3aa 363d 7204 d43d 84dc b63d 7dbf e73d
00000020: f2ef d83d 5cfe 58bd 3ffa 213d 5a46 143d
00000030: df70 a5bd 1cd6 063e acca 12bc 7c6f 1fbc
00000040: 5ce7 023e 17c0 fb3d d7cc 1a3c 2636 a53d
00000050: 7bca 97bd 17c9 96bd 28eb febc e1ec 353b
00000060: a603 463d 9555 41bb a377 003e ba03 f63c
00000070: bbda c4bd 4843 16bd 76cb 213d 08ad e83d
00000080: 5bc6 a5bd 147e e03d aa8f d9bd 4dc2 eabd
00000090: e300 fe3c ed9e b93d 5ac0 c03d 064e 9a3a
000000a0: fe71 f2bd abd1 8c3d 32cc 3e3d df4b fb3d
000000b0: 885b 7c3b eb30 763d 7f59 0cbd 563a 72bd
000000c0: 7b40 cbbd 7c3c 073e 995c 96bd 03bf 80bd
000000d0: 06da d83d d295 acbd 68a7 e5bd 7e83 6a3d
000000e0: b65b 45bd a714 cb3d b279 d43d fb8c 9d3d
000000f0: d4c4 4cbc 3791 8bbd cb1f 2e3d 38a8 cb3d
00000100: 51f1 b3bd 678e 82bd db95 0a3d b1a6 71bc
00000110: 3f76 813d bb51 f03d f214 79bd 1af1 983c
00000120: 6b55 573d 2c4f 3e3d 91f2 80bd 3c93 d6bd
00000130: 261c b1bc 61af 073e eb3e 8fbd 5823 3abd
00000140: 5e95 b53d c2db cdbd 1428 aabd 2197 d63d
00000150: e73a 033e 79eb dcbd 5b39 1a3d 6760 bfbd
00000160: 2854 f73d e5bd 873d 5e97 02bc 6a35 8cbd
00000170: ea93 f1bd 190c af3d 8443 f7bd 5f13 2fbd
00000180: cb24 41bd 3631 ea3d 4706 81bd 0d8d 87bd
00000190: e50a c5bd 0ad7 d2bc bdd5 c83d a277 1cbd
000001a0: 27c9 9fbd 6520 c1bd d9e2 f7bc 16dd 053e
000001b0: 972c f4bc 1739 fd3d 316b ea3b 629a 7c3d
000001c0: 3340 4cbd 8410 cdbd 1ab4 f63a 17bd 97bd
000001d0: 215e 73bb c404 143c 2eeb 883d 0bcf f4bd
000001e0: b547 933d 4403 843d 7160 ae3d e979 aebd
000001f0: 9944 afbd 3712 bcbd a407 723d c09c 603d
00000200: 5f58 bbbd 8c1b ce3d e58a cbbc dfb8 c83d
00000210: 2295 033d 3c3e 8ebd 52a2 963d b46e cd3d
00000220: bcf8 43bd ff01 cfbd a1b4 c33d ebb7 48bb
00000230: a1f8 f3bd 6c19 e23c aaaf c93c 43f7 96bd
00000240: d62f f03c f643 0c3c f812 b3bd 2427 09bd
00000250: 37fa e0bd 09e8 09bd 34b4 1e3d aac4 ffbd
00000260: fa90 4b3d d88c 36bc e5ea 693d f43e e6bd
00000270: 9ba3 0c3d eb4c f1bc 22a0 e9bd fa00 d8bc
00000280: 3c35 cb3d cdf9 b13d d8e6 983c b57e 0d3d
00000290: 5f27 383d 77d1 e9bc d68f 7dbd bb02 bfbd
000002a0: aed7 ab3b ddbe 78bd b689 b03c 3cd1 d03d
000002b0: 3889 a239 bae9 1bbd dca1 e43d ab13 cc3d
000002c0: 70ac 9c3d 126b d3bd c7bf 763c 296f d0bd
000002d0: 6fa7 1b3c 742d ecbd 7470 013e a006 a43d
000002e0: 8a07 c33d 2d6b 07be 4dcb 01be 21c2 93bc
000002f0: 80ec 9abd 547b cebd 80d2 943d 4758 353d
00000300: 0ba3 693d 8e91 edbc 7e83 243d f3a9 8dbd
00000310: 55a6 7bbc 9d4e c8bd c2ea e93d 40d8 8dbd
00000320: 0ce0 483d d331 aebd 9d1c 6cbc 185c a03d
00000330: c564 e73c c2cf 383d 68bf 00be a358 81bd
00000340: 3efe 3ebd 4cf0 8ebd 6033 f6bc 04ae 23bd
00000350: 0f96 ad3c 349d e0bd 29df ca3d 824d aebd
00000360: 9328 ed3d 5ed0 8b3c 4ba1 f6bc e22a 07bc
00000370: b27a e53d 26f6 d13d 601d efbd ccd8 5d3d
00000380: bb6f b7bd cf00 aa3c a430 c83d 58fc cfbd
00000390: 94f9 c2bc b0be 7f3d ad0f 70bc 0e98 e1bd
000003a0: 552b 03be 722f af3c 0cb8 c83d 1190 353d
000003b0: 909a b5bd a9c3 063e 3464 adbd 84c0 3cbd
000003c0: 8ac1 d5bc cda5 4dbc 16f0 e53c abcd 00bd
000003d0: f5b2 cd3d 0350 153d 2edb c33d 0c45 39bd
000003e0: 1196 64bb ca8e aabd 2f71 f63c 83e6 90bd
000003f0: b252 013b 861e 8c3c 8717 993d c965 94bd
-0.02956913 -0.082276076 0.036303908 -0.028390596 0.044596326 0.103524104 0.08928779 0.1131582
0.10592641 -0.05297695 0.039545294 0.036199905 -0.08078169 0.13167614 -0.008959454 -0.00973117
0.12783569 0.122924976 0.009448252 0.080669686 -0.07411667 -0.073625736 -0.03111799 0.00277596
0.048343323 -0.0029500474 0.12545638 0.030031074 -0.09612032 -0.03668526 0.039500676 0.11361128
-0.08094474 0.109615475 -0.10623105 -0.11462841 0.031006282 0.09063516 0.09411688 0.001177252
-0.118381485 0.068759285 0.046581455 0.12270331 0.0038506705 0.060105246 -0.034265038 -0.059137665
-0.09924408 0.13206667 -0.0734188 -0.062864326 0.1058846 -0.084270135 -0.11213571 0.057254307
-0.048183165 0.099160485 0.10374774 0.076929055 -0.012498099 -0.06814807 0.04251079 0.099441946
-0.08786262 -0.06374817 0.03383432 -0.014749215 0.06321382 0.11734339 -0.06081099 0.018669654
0.052571695 0.046462223 -0.06296266 -0.104773015 -0.021619868 0.13250495 -0.069944225 -0.045443863
0.0886638 -0.10051681 -0.083084255 0.10478044 0.12815438 -0.107871 0.037652355 -0.09344559
0.120765984 0.066280164 -0.007970659 -0.068461254 -0.117957905 0.08547229 -0.120734245 -0.042743083
-0.04715423 0.114351675 -0.063000254 -0.066187 -0.096212186 -0.025737304 0.09806392 -0.03820003
-0.07802039 -0.09430007 -0.030259537 0.13072619 -0.029806418 0.12364405 0.0071538915 0.06167067
-0.049865913 -0.10012916 0.0018821985 -0.07409113 -0.0037134963 0.009034339 0.06685482 -0.11953553
0.071914114 0.06445935 0.085144885 -0.08519346 -0.08558006 -0.09183162 0.059089318 0.05483699
-0.09147715 0.10063848 -0.024846504 0.09800886 0.032124646 -0.06945464 0.07355179 0.100308806
-0.047844633 -0.101078026 0.095559366 -0.0030627202 -0.119126566 0.027600013 0.024619896 -0.0737138
0.029319685 0.008561125 -0.087438524 -0.033484593 -0.10985225 -0.03366855 0.038746074 -0.124886826
0.049698807 -0.011141978 0.05710878 -0.11242476 0.034335714 -0.029455623 -0.11407496 -0.026367653
0.09922263 0.08690224 0.018664762 0.034544665 0.044959422 -0.028542263 -0.06190475 -0.09326693
0.005244217 -0.060728896 0.02155004 0.10196158 0.00031001284 -0.038064696 0.11163685 0.09964689
0.07650077 -0.103231564 0.015060372 -0.10177452 0.0095003685 -0.11532107 0.12640554 0.08009076
0.09522922 -0.13224478 -0.1267521 -0.018036904 -0.0756464 -0.10082117 0.07266712 0.04427364
0.057040256 -0.02900007 0.040164463 -0.06917181 -0.015359481 -0.09780619 0.114217296 -0.06926012
0.049041793 -0.08505597 -0.014411119 0.078300655 0.028246293 0.04512001 -0.12573016 -0.06315734
-0.046629183 -0.06979427 -0.030053794 -0.039960876 0.021189718 -0.10967484 0.09905846 -0.08510877
0.115800045 0.01706713 -0.030106207 -0.00824997 0.11205043 0.10252027 -0.11675525 0.05416183
-0.08956858 0.020752339 0.097749025 -0.101555526 -0.023800649 0.062437713 -0.014652175 -0.1101533
-0.12809499 0.021384928 0.09800729 0.044326846 -0.08867371 0.13160576 -0.08466378 -0.046082035
-0.026093263 -0.012551737 0.028068583 -0.03144614 0.10043899 0.03645326 0.095632896 -0.045231864
-0.0034879486 -0.08328016 0.030083267 -0.070752166 0.0019733128 0.017104398 0.074751906 -0.072459765

layertwo.bias f4 [16]
00000000: bafd 7dbd e852 31bd 4c9d ba3d 695c 173d
00000010: e1e2 d93d 8bf8 80bd 4680 43bd f526 bc3d
00000020: 1f1e 7a3d 9ddc 003e dea9 8fbc 78b4 0d3d
00000030: 4774 bb3d 9c8a 53bc 5685 a1bd 3f25 bebc
-0.06200955 -0.043291956 0.09112033 0.036953364 0.10638977 -0.06297406 -0.047729753 0.09187118
0.061063882 0.12584157 -0.017537054 0.034595937 0.091530375 -0.012911465 -0.0788676 -0.02321112

layerthree.weight f4 [2, 16]
00000000: a047 b539 2b43 1fbd 20f1 013c 6c9c b4bd
00000010: d00e 8ebb 52d6 d33d ee2e 953c 12ad d9bb
00000020: 5e6f 4c3e 4028 3e3e fdda 6f3d 8c43 7fbe
00000030: d855 83be 2d1c 3d3e 29a2 54be 640e 503e
00000040: 1b23 dd3c 2918 133e 440d 2ebe dfb6 f43b
00000050: 3b49 67bd a592 49be 03a7 3a3e 4410 e53d
00000060: 544f ff3d b263 513e 045b 153e 144b 6fbd
00000070: fd04 6ebc 5816 6d3e 181b 23be dc31 4dbe
0.00034576375 -0.038882416 0.007931024 -0.088188976 -0.004335262 0.10343613 0.018210854 -0.006642946
0.19964358 0.18570042 0.058558453 -0.24928111 -0.2565143 0.1846778 -0.20764984 0.2031799
0.026994279 0.14364685 -0.16997248 0.007468089 -0.056466322 -0.19684847 0.18227772 0.11184743
0.124663025 0.20448187 0.14585501 -0.05842121 -0.0145275565 0.23153055 -0.15928304 -0.20038551

layerthree.bias f4 [2]
00000000: 539b 8a3d 291c 68be
0.06767907 -0.22666992
