state_dicts/model4149.pt (torch, 39255 bytes, 6 tensors)

layerone.weight f4 [64, 128]
0.0371019 0.07534414 -0.07771826 0.06471444 0.03417991 0.04821759 0.05116571 -0.011593089
-0.0736619 -0.055683658 0.07654104 0.022251658 -0.03700649 0.046998944 0.05010967 -0.051915538
-0.020864606 0.028550446 0.07207251 -0.04687773 -0.045008972 -0.08809664 0.049012188 0.05170742
0.032979447 -0.06283787 0.015171275 0.058053754 -0.007951524 -0.05415497 -0.053657662 -0.06989846
-0.0046223085 -6.332528e-05 -0.028477188 -0.042187378 0.06184003 -0.019246 -0.053562738 -0.03710511
-0.07477745 0.039622013 0.07972466 -0.06563035 -0.011616863 -0.062413506 -0.04271915 -0.014434129
-0.032152314 -0.059523858 -0.0846721 0.005561809 -0.0183496 -0.08746723 0.074139126 -0.06477979
-0.059187856 0.0599176 -0.04366314 -0.081115775 -0.016271802 -0.10201513 -0.04686401 0.011357203
-0.084180295 -0.0017420448 0.06733328 -0.09412422 -0.06674106 0.00204728 -0.04906902 0.0651218
-0.03301488 0.0039489036 0.0012207339 -0.03957674 0.0054208757 -0.025562301 -0.036490098 -0.0058634477
0.03455694 -0.07181651 0.07079722 -0.072556905 -0.048531115 0.03304968 0.005376109 -0.031738523
-0.039565437 -0.033018395 0.0529053 -0.08816718 -0.0255217 -0.0013382961 0.04345827 -0.08881993
-0.045413703 0.029393673 -0.0705288 0.059752103 -0.059965864 0.053654406 -0.006945532 -0.0077001867
-0.054554604 -0.059006914 -0.036460407 -0.02379352 0.0021350672 -0.024227893 0.029089492 -0.0013669955
-0.07128619 -0.062047966 -2.8389622e-05 -0.08122754 0.023055978 0.021378359 -0.08151703 0.023097154
0.04376506 -0.005520288 0.0326726 -0.056023944 -0.06231268 -0.028617753 -0.10105739 0.0011367125
-0.080797374 -0.035568036 -0.024636745 -0.058909193 -0.06986738 0.014409861 -0.06385511 0.03450238
0.030185873 0.019841949 -0.045275073 0.05721016 -0.06998594 0.062255528 0.050558142 -0.0782705
-0.078050174 0.0015110534 -0.01807446 0.048664507 -0.08902148 0.059151355 0.054640535 0.042670168
-0.101554565 0.015457053 0.005843213 0.03074873 -0.035411704 -0.073026195 -0.007962423 -0.0059146853
0.057715684 0.034549374 -0.101087175 -0.08602986 -0.023948558 -0.058832347 -0.07155181 -0.04140415
0.007820337 -0.043708175 -0.05928509 -0.041707303 0.045351453 -0.0111154765 0.040634237 0.032064386
-0.0011575632 -0.09298323 -0.07027674 -0.0053614182 -0.017713953 0.05911551 -0.08397889 -0.007699744
-0.031489283 -0.043285396 -0.0687292 -0.041194882 0.045665335 -0.021244824 -0.03185346 -0.05930884
0.038845383 0.014955943 0.042905938 -0.080071926 -0.024510114 0.030145518 0.025471307 -0.09953274
-0.05826793 0.047318153 0.015287939 -0.04488926 -0.086770944 -0.048354052 -0.09767143 -0.0550459
0.014218663 0.046740726 -0.0019110969 -0.048490316 0.01739322 0.052770074 0.04556719 -0.03859242
-0.072343595 -0.0048374645 -0.032566458 0.063594684 -0.048651934 -0.09275753 0.003839962 -0.04069398
0.0067343377 -0.048090674 -0.10005906 0.06373796 -0.069477655 0.045310516 -0.004188775 -0.02793835
-0.005368522 0.07100423 -0.06872805 0.015659293 0.045601685 -0.07646073 0.04034681 0.030444656
0.048924375 -0.037564974 0.007595684 0.041630704 -0.046239406 0.03396219 0.033095784 -0.06568746
-0.083410926 0.039947655 -0.0024581703 0.059943162 0.050501965 -0.019392712 -0.081079766 0.013928368
00000000: 29f8 173d 074e 9a3d c02a 9fbd 0189 843d
00000010: 3c00 0c3d cf7f 453d 2393 513d f1f0 3dbc
00000020: 0ddc 96bd 8c14 64bd 8cc1 9c3d 1c49 b63c
00000030: 1e94 17bd f781 403d cc3f 4d3d 63a5 54bd
00000040: 40ec aabc a0e2 e93c c19a 933d dd02 40bd
00000050: 545b 38bd 036c b4bd 01c1 483d 29cb 533d
00000060: 7515 073d 24b1 80bd f090 783c c6c9 6d3d
00000070: 1c47 02bc 9ad1 5dbd 23c8 5bbd ec26 8fbd
00000080: bc76 97bb 80cd 84b8 fe48 e9bc accc 2cbd
00000090: f94b 7d3d caa9 9dbc 9a64 5bbd 87fb 17bd
000000a0: eb24 99bd b14a 223d af46 a33d 3469 86bd
000000b0: a854 3ebc 4ea5 7fbd 47fa 2ebd 207d 6cbc
000000c0: 25b2 03bd 4acf 73bd 9168 adbd d63f b63b
000000d0: e651 96bc 0522 b3bd 41d6 973d 44ab 84bd
000000e0: f76e 72bd 286c 753d 1fd8 32bd 0720 a6bd
000000f0: 714c 85bc 4fed d0bd 7af4 3fbd 9013 3a3c
00000100: b866 acbd 5355 e4ba 08e6 893d 33c4 c0bd
00000110: 89af 88bd a92b 063b 99fc 48bd 945e 853d
00000120: 9c3a 07bd ce65 813b 0801 a03a 381b 22bd
00000130: 9aa1 b13b 0868 d1bc a476 15bd 2a22 c0bb
00000140: 948b 0d3d 8914 93bd 22fe 903d b798 94bd
00000150: 90c8 46bd 1a5f 073d 122a b03b 4100 02bd
00000160: 5e0f 22bd 4c3e 07bd 3ab3 583d ff90 b4bd
00000170: e212 d1bc c469 afba 4d01 323d 39e7 b5bd
00000180: b803 3abd 00cb f03c 6771 90bd 9fbe 743d
00000190: c49e 75bd b9c4 5b3d 5897 e3bb d951 fcbb
000001a0: a674 5fbd 3cb1 71bd 8257 15bd a1ea c2bc
000001b0: 7cec 0b3b 9379 c6bc 164d ee3c c22c b3ba
000001c0: 7efe 91bd 0226 7ebd 4026 eeb7 a05a a6bd
000001d0: e4df bc3c ab21 af3c 67f2 a6bd 3e36 bd3c
000001e0: fe42 333d 88e3 b4bb b4d3 053d 5d79 65bd
000001f0: 953b 7fbd c76f eabc 2df7 cebd befd 943a
00000200: 1879 a5bd caaf 11bd 00d3 c9bc c44a 71bd
00000210: a116 8fbd 5617 6c3c 78c6 82bd 5e52 0d3d
00000220: 5d48 f73c 958b a23c 5b72 39bd 3355 6a3d
00000230: ca54 8fbd a7ff 7e3d 0e16 4f3d 494c a0bd
00000240: c5d8 9fbd 8a0e c63a e410 94bc 6f54 473d
00000250: e550 b6bd b148 723d c1ce 5f3d eac6 2e3d
00000260: d7fb cfbd 943f 7d3c 6c78 bf3b c3e4 fb3c
00000270: dd0b 11bd c28e 95bd d374 02bc facf c1bb
00000280: 4867 6c3d a583 0d3d cb06 cfbd 6c30 b0bd
00000290: c42f c4bc 30fa 70bd c189 92bd 6697 29bd
000002a0: df20 003c 5807 33bd ecd4 72bd 47d5 2abd
000002b0: 72c2 393d b01d 36bc 1670 263d f255 033d
000002c0: 60b9 97ba fe6d bebd 40ed 8fbd d6ae afbb
000002d0: da1c 91bc 1b23 723d 20fd abbd 224e fcbb
000002e0: e8fa 00bd 074c 31bd e5c1 8cbd f7bb 28bd
000002f0: 930b 3b3d a009 aebc c678 02bd d4ed 72bd
00000300: 561c 1f3d c609 753c 23be 2f3d c0fc a3bd
00000310: 6fc9 c8bc bcf3 f63c 34a9 d03c d2d7 cbbd
00000320: 5aaa 6ebd aed0 413d 447a 7a3c cddd 37bd
00000330: f7b4 b1bd e60e 46bd f507 c8bd cf77 61bd
00000340: 65f5 683c 3473 3f3d c57d faba c89d 46bd
00000350: 3a7c 8e3c 6f25 583d a9a4 3a3d 1613 1ebd
00000360: e128 94bd 9883 9ebb 6864 05bd ee3d 823d
00000370: 4047 47bd a9f7 bdbd dfa7 7b3b bbae 26bd
00000380: b8ab dc3b bafa 44bd c4eb ccbd 0c89 823d
00000390: 4d4a 8ebd 8597 393d fe41 89bb f7de e4bc
000003a0: 6dea afbb aa6a 913d 4bc1 8cbd eb47 803c
000003b0: d5c8 3a3d 7197 9cbd b242 253d 1267 f93c
000003c0: ed64 483d bbdd 19bd 37e5 f83b f584 2a3d
000003d0: 8865 3dbd f01b 0b3d 728f 073d 2687 86bd
000003e0: 59d3 aabd 27a0 233d 4119 21bb f686 753d
000003f0: 26db 4e3d 77dd 9ebc 260d a6bd cf33 643c

layerone.bias f4 [64]
-0.12142812 -0.08575654 -0.070029564 -0.017716225 -0.0018181056 -0.010380845 0.11179003 0.057834197
-0.009365584 0.070565276 -0.07607383 -0.05838795 -0.0061768508 0.001924694 -0.09600701 0.07965752
-0.0601277 -0.056041896 0.0031505264 -0.07111342 0.08278707 0.002973278 0.0066194185 0.106671244
0.112775065 0.1196602 -0.025726963 0.060111318 -0.0930721 0.086792216 0.046073735 -0.011166789
-0.011690873 -0.08101852 0.08175744 -0.093059525 0.10371825 -0.08579932 0.042999737 0.020278385
-0.029245026 -0.0012668348 0.11639478 0.07691018 -0.072562 -0.12678994 0.06716385 -0.02709826
-0.082936734 -0.00592822 0.03461062 0.11178248 -0.06471934 -0.0095945615 0.0027091198 0.05849655
-0.07494339 -0.11958496 0.013872018 0.060472757 0.12335533 0.083861545 -0.06341537 0.0028308895
00000000: 4eaf f8bd 20a1 afbd a96b 8fbd 9e21 91bc
00000010: 804d eeba 6b14 2abc 2cf2 e43d 8de3 6c3d
00000020: 1b72 19bc 8784 903d 99cc 9bbd 3428 6fbd
00000030: 2e67 cabb 0446 fc3a 539f c4bd 7b23 a33d
00000040: 7748 76bd 308c 65bd 1079 4e3b eaa3 91bd
00000050: 448c a93d 54db 423b b5e7 d83b 7476 da3d
00000060: 9df6 e63d 6810 f53d 5ac1 d2bc 4937 763d
00000070: 969c bebd 1ec0 b13d d0b7 3c3d e8f4 36bc
00000080: 138b 3fbc 0aed a5bd 7270 a73d fe95 bebd
00000090: 3c6a d43d 8eb7 afbd 7e20 303d db1e a63c
000000a0: 4493 efbc ec0b a6ba 6360 ee3d 1683 9d3d
000000b0: 639b 94bd 39d5 01be 338d 893d 2cfd ddbc
000000c0: bcda a9bd 8441 c2bb dec3 0d3d 36ee e43d
000000d0: 938b 84bd 8232 1dbc 7d8b 313b 149a 6f3d
000000e0: ec7b 99bd f6e8 f4bd 7647 633c 48b2 773d
000000f0: b8a1 fc3d 9abf ab3d ebdf 81bd 7286 393b

layertwo.weight f4 [16, 64]
-0.027958766 -0.0155119505 0.033471882 0.09716198 0.13382117 0.17696427 0.011257466 -0.09960907
-0.00962294 -0.008212646 -0.12866186 0.04158683 -0.09133365 -0.16122782 -0.056747388 0.1560292
0.029677868 0.14595473 0.019658834 -0.022214726 -0.04966946 0.03227592 4.4311746e-05 -0.12668563
0.100306906 0.15746601 -0.069848254 0.120905384 -0.18018697 0.03480159 0.15781586 -0.085239105
0.09713631 0.0071030622 0.10629606 -0.17178956 0.14309353 -0.020299872 -0.013274936 -0.05122248
0.16948411 -0.076779045 0.05447935 -0.019212194 -0.055557154 -0.013665844 0.056245152 -0.009646062
-0.05128362 0.02972331 0.03265024 0.16740122 -0.005184478 0.07989845 -0.08963762 0.12907173
0.051368237 0.13463888 -0.060793377 0.087522104 0.068050824 -0.04010909 -0.17998713 0.03958662
-0.13857596 0.107965074 0.07838411 0.018436966 0.05694729 0.06652424 -0.035211958 -0.036438078
-0.11734832 -0.12966436 -0.09046214 0.07731251 -0.025189899 -0.045174137 -0.10868603 0.010065621
0.006114029 -0.12091937 -0.11560576 -0.10067999 0.05768956 -0.054927293 -0.009149254 -0.007801069
0.0063954974 0.107393466 -0.08529227 0.026133789 -0.056122616 0.1086418 0.08754968 0.09507073
-0.037702806 -0.0960309 0.0055250237 0.049943887 -0.08897777 0.10281475 0.080536634 -0.11660114
0.07803877 -0.10306825 -0.044644155 0.11392199 -0.10659825 0.093058825 -0.034195404 0.096635304
-0.05131251 0.04269921 0.0942846 0.028550597 -0.07363813 0.08095119 -0.09505888 0.10288791
-0.067889735 -0.11259271 -0.084594294 -0.066303 0.0946134 -0.08900519 -0.054441974 -0.038375195
0.04966923 0.13904803 -0.16215292 -0.07353361 0.16974549 -0.053765338 0.08830624 -0.049635723
-0.0031926949 0.102603205 -0.11278522 -0.063035786 0.008634023 -0.13464093 -0.14242685 -0.048080098
-0.11738911 -0.0090265535 0.14054278 0.0045375163 -0.082306884 -0.11743842 0.115409195 -0.0012229683
0.023688342 0.096789114 0.007938506 0.060100235 -0.026292728 0.084670134 -0.05319419 0.0468443
0.055667087 -0.12638886 -0.09386006 0.02011222 0.18071969 -0.14615822 0.09886898 0.10244024
0.17309928 -0.0435007 0.004620433 0.08505057 -0.04313589 0.1328597 -0.05263535 -0.13882247
-0.04483203 0.034015007 -0.06441416 -0.0059340354 0.010830948 0.15649605 0.061574582 0.05787256
-0.02357045 0.08850959 0.05066071 -0.095684916 0.0689054 -0.013463957 -0.037486035 -0.034539577
0.03106819 0.088235 -0.15055607 0.11162915 0.062901236 0.023462454 -0.04080606 0.032642648
0.1604314 0.13130713 -0.09909865 0.12808421 0.029399745 -0.11444871 -0.12191524 0.15602194
0.024859505 0.040207867 0.14947316 -0.16265169 0.042776003 -0.14435112 -0.09701583 0.038898766
0.09962304 -0.027254649 -0.11137387 0.11155344 -0.05292224 -0.06489481 -0.04457595 -0.06732052
-0.12514193 -0.14455809 0.059835166 -0.006194845 -0.011906865 -0.050668668 0.087352075 0.1343761
0.075692415 -0.026646309 0.13003823 0.1446766 -0.052768685 -0.04384 0.1101201 -0.16225223
0.04419702 0.07672979 -0.04341212 0.1534658 0.100816235 0.101321444 -0.0867043 0.037534643
0.059745327 0.0011462541 -0.047655337 0.09984827 0.06413628 -0.05941751 0.052065007 -0.0060223197
00000000: c809 e5bc d625 7ebc d019 093d dcfc c63d
00000010: 6b08 093e 1f36 353e 3c71 383c d7ff cbbd
00000020: 89a9 1dbc 558e 06bc efbf 03be f456 2a3d
00000030: 230d bbbd e818 25be f36f 68bd 1ec6 1f3e
00000040: 001f f33c 2875 153e 900b a13c a8fb b5bc
00000050: 3472 4bbd c133 043d 60db 3938 e1b9 01be
00000060: b56d cd3d c53e 213e 9a0c 8fbd 3e9d f73d
00000070: ef82 38be 1d8c 0e3d 7b9a 213e d791 aebd
00000080: 67ef c63d cec0 e83b c0b1 d93d 9ae9 2fbe
00000090: 1c87 123e eb4b a6bc 1e7f 59bc aace 51bd
000000a0: 3e8d 2d3e 553e 9dbd bd25 5f3d e462 9dbc
000000b0: e68f 63bd b4e6 5fbc 5161 663d 840a 1ebc
000000c0: c60e 52bd 4d7e f33c 42bc 053d 3a6b 2b3e
000000d0: 8ee2 a9bb cca1 a33d ee93 b7bd 612b 043e
000000e0: 8067 523d c6de 093e 7a02 79bd ca3e b33d
000000f0: 3b5e 8b3d 6e49 24bd 8c4e 38be 9425 223d
00000100: dbe6 0dbe cb1c dd3d d987 a03d 1f09 973c
00000110: 9041 693d dc3d 883d 6a3a 10bd 1840 15bd
00000120: 5154 f0bd bcc6 04be 3744 b9bd 0556 9e3d
00000130: 0c5b cebc 8408 39bd c896 debd 46ea 243c
00000140: 3158 c83b 93a4 f7bd b6c2 ecbd 5031 cebd
00000150: e34b 6c3d 71fb 60bd c1e6 15bc 1ca0 ffbb
00000160: 5291 d13b 1bf1 db3d b7ad aebd 8716 d63c
00000170: d4e0 65bd 987f de3d 3f4d b33d 71b4 c23d
00000180: 426e 1abd d9ab c4bd 420b b53b f691 4c3d
00000190: fa39 b6bd 8a90 d23d 64f0 a43d 94cc eebd
000001a0: cad2 9f3d 7215 d3bd cadc 36bd ef4f e93d
000001b0: 2f50 dabd a095 be3d 7b10 0cbd bbe8 c53d
000001c0: 112d 52bd 5ee5 2e3d 4918 c13d f1e2 e93c
000001d0: 97cf 96bd bdc9 a53d 3bae c2bd e6b6 d23d
000001e0: c609 8bbd 0297 e6bd c63f adbd dec9 87bd
000001f0: acc4 c13d 5a48 b6bd 8cfe 5ebd 4f2f 1dbd
00000200: f671 4b3d 9b62 0e3e 6a0b 26be ca98 96bd
00000210: c3d1 2d3e 0b39 5cbd e7d9 b43d d44e 4bbd
00000220: 883c 51bb a121 d23d f0fb e6bd e818 81bd
00000230: b875 0d3c 50df 09be 58d8 11be a3ef 44bd
00000240: b469 f0bd 1ce4 13bc 72ea 0f3e 72af 943b
00000250: 8390 a8bd 8e83 f0bd a85b ec3d 024c a0ba
00000260: 0e0e c23c 5f39 c63d 8210 023c aa2b 763d
00000270: d963 d7bc 8967 ad3d 27e2 59bd cfdf 3f3d
00000280: 2c03 643d 156c 01be b439 c0bd 62c2 a43c
00000290: 950e 393e 80aa 15be d27b ca3d 30cc d13d
000002a0: f040 313e ca2d 32bd 0067 973b fe2e ae3d
000002b0: 42af 30bd 600c 083e 2a98 57bd 7a27 0ebe
000002c0: caa1 37bd 5253 0b3d 92eb 83bd 4c72 c2bb
000002d0: 4a74 313c 8040 203e a135 7c3d c70b 6d3d
000002e0: d116 c1bc 8444 b53d 9b81 4f3d 74f6 c3bd
000002f0: 461e 8d3d ee97 5cbc f58a 19bd 5f79 0dbd
00000300: b782 fe3c 8db4 b43d 5f2b 1abe d39d e43d
00000310: 5dd2 803d 5534 c03c 4124 27bd 4cb4 053d
00000320: 2148 243e 6075 063e 3cf4 cabd 8228 033e
00000330: bcd7 f03c 1664 eabd b3ae f9bd 37c4 1f3e
00000340: 29a6 cb3c 01b1 243d 7e0f 193e 2a8e 26be
00000350: e435 2f3d c8d0 13be 3cb0 c6bd 5054 1f3d
00000360: 2a07 cc3d 2445 dfbc fc17 e4bd 2176 e43d
00000370: fec4 58bd 92e7 84bd 4595 36bd 57df 89bd
00000380: 3525 00be 0907 14be b815 753d 20fe cabb
00000390: 0315 43bc f389 4fbd a5e5 b23d e399 093e
000003a0: a004 9b3d 5c49 dabc be28 053e 1a26 143e
000003b0: fa23 58bd 9291 33bd a686 e13d 7325 26be
000003c0: ef07 353d 8224 9d3d e8d0 31bd 2426 1d3e
000003d0: be78 ce3d 9e81 cf3d 0692 b1bd edbd 193d
000003e0: 84b7 743d e83d 963a 3e32 43bd 407d cc3d
000003f0: e259 833d c65f 73bd 1e42 553d e156 c5bb

layertwo.bias f4 [16]
0.014028812 -0.13405055 -0.00910984 -0.050271075 -0.07542505 -0.012705995 0.044848643 0.03603152
0.014869731 0.087999545 -0.01127363 -0.05510804 0.110928394 0.10603198 -0.03560802 0.03264536
00000000: 1ad9 653c 8c44 09be 7041 15bc 0be9 4dbd
00000010: 7378 9abd ce2c 50bc 36b3 373d ca95 133d
00000020: 2ca0 733c 1b39 b43d 08b5 38bc f8b8 61bd
00000030: 6d2e e33d 4b27 d93d b7d9 11bd 24b7 053d

layerthree.weight f4 [2, 16]
0.18048851 -0.12766981 0.17916988 0.22430046 0.10012538 -0.29277188 -0.025372094 0.17082523
-0.10827142 -0.083788045 0.19495352 -0.27900025 -0.032385007 -0.11147178 0.084157154 -0.23475891
-0.18570702 -0.15769693 0.033314813 -0.17232786 -0.15211402 0.11766537 -0.25781888 -0.06636431
0.14159462 0.18447159 -0.15637197 -0.088191874 -0.19190185 0.17213216 -0.02930661 -0.10321076
00000000: fbd1 383e e0bb 02be 4f78 373e 05af 653e
00000010: 890e cd3d 32e6 95be 23d9 cfbc cfec 2e3e
00000020: 68bd ddbd 1199 abbd e5a1 473e 1fd9 8ebe
00000030: 24a6 04bd 514b e4bd 965a ac3d a464 70be
00000040: fb29 3ebe 4e7b 21be 1d75 083d b776 30be
00000050: c7c3 1bbe 8bfa f03d d600 84be 03ea 87bd
00000060: 2efe 103e 1fe6 3c3e f91f 20be f19d b4bd
00000070: eb81 44be 6a43 303e 6a14 f0bc 2a60 d3bd

layerthree.bias f4 [2]
-0.088083535 0.11131325
00000000: 2465 b4bd 34f8 e33d
