state_dicts/model20240104-212529.pt (torch, 132567 bytes, 6 tensors)

layerone.weight f4 [120, 240]
00000000: e129 dbb6 f8b4 633c 850d 033e c67e 78bc
00000010: 67d6 ad3d a7e8 b33d 28e2 62bc b9b7 b23c
00000020: 8f1e 29bd 3257 fb3b e940 7b3b c453 ae3c
00000030: 8064 f73c 6cce 813d bdce c63c ea5f 123c
00000040: 91d7 c03d 8120 093d 903a fa3a 90ed 08bd
00000050: c0a1 b43c 3c1f cabb 3c1a ce3b bd5f 2ebb
00000060: 2bf2 f9bc 2926 eb3c 8050 9d3c 0905 ef3d
00000070: 3eb4 0e3e a09c 493a 1521 4cbd aa49 683d
00000080: 9dd8 1b3d a259 eb3c e239 2abc aedb 1b3d
00000090: 46a9 033c 83bf 973c c413 a23c 2ae5 80bc
000000a0: f4d6 8b3d fefa 943c 165a 3a3d fca2 323b
000000b0: 5f7c d73c 6d23 2c3c f4f6 3f3d 0220 cf3d
000000c0: 41f0 8e3d d66c 833d 62de bdbc b58f 25bc
000000d0: fd3e 943d 1b35 7b3c dfb7 0a3e a666 b43d
000000e0: eaa3 333d 2f17 bb3d 3534 ae3c f965 9f3d
000000f0: d564 0b3d 3684 933d a82f b83b 1e13 1d3d
00000100: 21ec f73c 1790 d63d 64f1 ac3d d6a2 c03d
00000110: bb78 5f3d e893 193d a71b 583d f86b 653d
00000120: 63af c6bc bb58 de3c 7609 ba3d 3240 b2ba
00000130: c47e 24bc e25c fb3b 72b2 0b3d 7794 383c
00000140: 0597 b6bd e97b f63b eb69 a63a f024 50bd
00000150: 14f2 373c 2669 293d 0bb8 82bc 28c8 b03c
00000160: db75 893d aefc 9b3c 582d 15bd d797 893c
00000170: a53c fb3b 53de a13d d859 5abb 933f 893d
00000180: e07e c4bc 2777 4d3d 55cd 403d 1694 8ebc
00000190: 3fbc 613d 2fc4 333d 1fd1 6c3c 9589 34bc
000001a0: 7f1e 463d e8ee e23c 6083 0e3c f03e 6f3d
000001b0: 0971 e33d c428 a33d 62ed 213e 1d8b d83d
000001c0: 1f48 993d 9e4e fd3c 57cb 3a3d 97a4 6f3d
000001d0: 1b50 b13c 9735 e83d 8c9f 373d 050d 4a3d
000001e0: 56e2 063d 0d3c ec3c fb53 2e3c b745 763d
000001f0: fb17 8f3d 82f4 753d 7d87 8d3d ee9b 9d3c
00000200: 8c8c ad3d 866c 923d a7e5 843d 92ff 8b3c
00000210: 2a81 e23d a7c6 0e3d 152e ad3d a68e 753d
00000220: fb1d 5e3d 905e 00bb 802f 933c 5076 ca3c
00000230: 2e6f 543d 6177 2c3d 0947 b23b 4651 f2bc
00000240: 2d95 373c 6036 b3bc d387 033d adf4 e6bc
00000250: ef47 ea3c f56b 443d 3afc a63d ec1a 393d
00000260: ada2 f53b 8d42 033d ad0e ca3d aa84 dd3d
00000270: d3a8 643c 0124 7a3d c57a 003d 5c40 1b3c
00000280: 8f1b 313c 14b3 523c 0170 b2bc 224b 8c3d
00000290: fead e83c ea51 bc3b 755a 003d fb91 98bc
000002a0: 1c18 6f3d 340a 893d b714 f93d 6a7a b73d
000002b0: 4d63 c43d 02c6 993d e0d1 0abc fede ebbb
000002c0: 98d7 b73b 0e93 9b3d ab87 6e3c 2788 053d
000002d0: 0f2c f23d 0b38 9ebc 8bf6 d43d 6cc4 e2bb
000002e0: 42d2 5c3d b1d0 1b3e 5626 4d3d 97d5 c43d
000002f0: 1063 5c3c b83c c93c 88ba 9e3d 5952 2d3d
00000300: 5693 cabb c0fd 973d 6982 983d 6264 a53d
00000310: e204 fa3c aafe 6a3b 2624 4bbd f47d 1e3d
00000320: 5acc 90bc d9c5 393d f52f 283d e45f a7b9
00000330: 1e83 9d3c 0675 07bd e1cc bb3b a09d ffbc
00000340: 5818 edba a08f 923d e7a7 61bb d6a4 313d
00000350: 9c5a 803b 43af 6dbc b1b1 4b3b 6aaa b43d
00000360: a9eb 363d e488 cd3d 3d21 53bc 2a97 423d
00000370: a8c9 97bc 9fb5 31bc c4d5 843c 49c5 27bc
00000380: ac38 d03c eff5 5e3c 5dd6 5e3d 97ac 3a3a
00000390: 8d6d c8bb 5db6 383d 11cb 99bb 6812 cd3d
000003a0: 25f8 793c ef2d db3d 0534 583c 2b5d b7bd
000003b0: f0f5 a83a a1ca 2fbd e5fa ddbc ff00 0dbd
000003c0: 75b1 c5b7 2258 cc3c 3289 c1bc 4455 16bc
000003d0: 9289 523d d6ae c83d ee97 423c ef81 c6bb
000003e0: f4ec 983d 216b 4a3d ace1 71bd 0f58 7cbb
000003f0: 56f7 89bd ea17 0bbd ceba 4c3d c07d 423d
-6.531584e-06 0.013898127 0.12798126 -0.015166944 0.084881596 0.08784609 -0.013847865 0.021816121
-0.04128891 0.0076703066 0.003833825 0.021280177 0.03019929 0.063382 0.024268502 0.0089340005
0.09416116 0.033478264 0.0019090939 -0.033429682 0.022049785 -0.006168274 0.0062897485 -0.0026607357
-0.030510982 0.02870472 0.019203424 0.11670882 0.13935944 0.00076908804 -0.049836237 0.056710877
0.038048375 0.028729264 -0.010389777 0.0380513 0.008035963 0.018523937 0.019784816 -0.015734274
0.068281084 0.018186089 0.04549607 0.002725779 0.026304422 0.010506493 0.046866372 0.10113527
0.069794185 0.06417243 -0.02317733 -0.010105063 0.072385766 0.015332486 0.13546704 0.08808641
0.043857493 0.09135281 0.021265129 0.077831216 0.034031708 0.072029516 0.0056209154 0.03834831
0.030263962 0.10476702 0.08444479 0.094060585 0.054558497 0.03749457 0.052760746 0.05601117
-0.024253553 0.02714192 0.09083836 -0.0013599454 -0.010039989 0.0076709846 0.034105726 0.0112658655
-0.089155234 0.0075220955 0.0012696361 -0.050816476 0.0112271495 0.041360043 -0.0159569 0.021579817
0.06711932 0.019041386 -0.036420196 0.016796036 0.0076671415 0.07903733 -0.0033317711 0.06701579
-0.02398628 0.05016246 0.04707082 -0.017404597 0.055111166 0.043888267 0.014454155 -0.01101913
0.048368927 0.02770181 0.008698314 0.05840963 0.11105544 0.0796676 0.1581321 0.10573409
0.07484459 0.030921277 0.045604076 0.058506574 0.021644643 0.113383465 0.04482989 0.049328823
0.032930695 0.028837228 0.01064014 0.06012508 0.06986996 0.060047634 0.06910608 0.019239392
0.08474073 0.071496055 0.06489115 0.017089639 0.11059792 0.03485742 0.08456055 0.059950493
0.05422781 -0.0019587614 0.017966986 0.024714619 0.05186384 0.042106036 0.005440597 -0.02957977
0.011205 -0.021876514 0.032111954 -0.028192842 0.028598754 0.04795452 0.08153577 0.04519169
0.007496199 0.03204589 0.098660804 0.10816319 0.013956266 0.061069492 0.031367082 0.009475794
0.010809793 0.012860078 -0.021781923 0.06850268 0.028403278 0.0057470696 0.031336267 -0.018624296
0.058372602 0.06691399 0.12162154 0.089588955 0.095892526 0.0750847 -0.00847289 -0.0071982136
0.0056104176 0.07596408 0.014558713 0.032600548 0.1182481 -0.019313833 0.10398587 -0.006920388
0.053911455 0.15216328 0.050085388 0.096110515 0.013451353 0.024565086 0.07750422 0.04231486
-0.0061821146 0.07421446 0.07446749 0.08075787 0.030519906 0.0035857358 -0.04959502 0.038694337
-0.017675567 0.045354698 0.04106136 -0.00031924166 0.01922756 -0.033070587 0.0057312106 -0.031203091
-0.001808892 0.071563005 -0.0034432353 0.04337009 0.0039170515 -0.014507118 0.0031081254 0.088215664
0.044658337 0.100358754 -0.012886343 0.047507443 -0.018528774 -0.0108465245 0.016215213 -0.010239908
0.025417648 0.01360844 0.05440365 0.0007121055 -0.006116575 0.04509579 -0.004693397 0.10013276
0.015256916 0.107021205 0.013195996 -0.08953317 0.0012890678 -0.04291785 -0.027097175 -0.034424778
-2.3566865e-05 0.024944369 -0.02362499 -0.009175602 0.05140073 0.09798972 0.011877043 -0.0060579698
0.0746707 0.049418572 -0.059053108 -0.0038504635 -0.06736629 -0.033958353 0.04998284 0.047483206

layerone.bias f4 [120]
00000000: 0172 43be 1430 793e d655 9ebe 9ee6 9cbd
00000010: d07e 6b3e 57f5 ebbd ddfa 173d 3db4 423d
00000020: b725 8fbe f53e 6c3d 2b45 b13e 5681 343d
00000030: 5448 2b3e f857 8dbe bbb5 1b3d 265d 3e3e
00000040: 20d8 e73e 8518 78be e916 793e c757 35be
00000050: 4ad9 423e fba0 2e3d a057 bebe 1f1b a9bd
00000060: 1ea9 003e 0eb5 5d3c 55a8 8dbe d39d 82bd
00000070: 33a5 c1be a2dc b33d bfdb 923e e3df 14be
00000080: 34d3 283d da56 fb3d b4a4 8dbe fa4a d0bd
00000090: c424 bdbe 7cd0 96be 7393 4d3e 96e4 b13e
000000a0: b525 91be e8f7 703e 24cc 623e 0575 403d
000000b0: 513b 963c 0fd2 92bd 4d24 a53e c535 0abe
000000c0: d888 68be ac2b 0dbe a579 c7be 5713 c23e
000000d0: cc5d 923e d83c 413e 9da0 b3be 87af b53d
000000e0: 074f a43e 27e1 bfbe 4773 a9bd 2850 ebbc
000000f0: 103c c4bd 2dd9 0d3e e624 543e 0fe8 773e
00000100: a227 febd da8f 50be 90be 01be 0c41 253e
00000110: a5c1 90bd ab73 59be 8c02 883e 2caa a03d
00000120: 4c68 a6be 3146 7fbe c454 a63c 9c6c cdbe
00000130: 55be a83e e850 2ebe cef7 ac3e 2320 b2be
00000140: c22a bfbc 970b a3be 99cf 0dbd 5937 ea3e
00000150: 2eb3 bfbd fbcc 2d3d ac71 45be 106f 62be
00000160: c22d 233e e029 2abe 7b26 513e 838c 283e
00000170: 8960 65be f7b3 8a3e b687 bbbe ec75 7cbe
00000180: 5db1 ad3e aec6 403b 48bd 96be 9447 9dbe
00000190: b313 85be 9c82 aabe f699 443e d265 443e
000001a0: 5eae c23e 372f d5bd 9b96 e13d 903b 553d
000001b0: c7fb 3fbe bdc7 7ebe 8c92 50be 6193 aabe
000001c0: e4a3 8a3e 78e9 193e 1961 19be 3c17 923e
000001d0: 00c9 c73a 54bc d03d dc9c 7abc 7a7f 2dbe
-0.19086458 0.24334747 -0.30924863 -0.07661174 0.22997594 -0.11521404 0.037104476 0.04753517
-0.27958462 0.057677228 0.34623083 0.044068657 0.1672681 -0.27606177 0.03801511 0.18590221
0.45282078 -0.24228103 0.24325146 -0.17709266 0.19028202 0.04263399 -0.37176228 -0.08257126
0.12564513 0.013531936 -0.2766749 -0.06377759 -0.3782135 0.08782317 0.28683278 -0.14538531
0.041217044 0.12272425 -0.2766472 -0.10170551 -0.36942112 -0.29455936 0.20075779 0.3474471
-0.2834908 0.23532069 0.22148186 0.0469866 0.018338831 -0.07168972 0.32254258 -0.13497074
-0.22708452 -0.13786191 -0.38959995 0.3790538 0.28587186 0.18870866 -0.35083476 0.0887137
0.32091543 -0.37476465 -0.082739405 -0.028724745 -0.095817685 0.13852377 0.207172 0.24209617
-0.12409903 -0.20367375 -0.1267035 0.16138095 -0.07068185 -0.2123553 0.26564443 0.07844958
-0.32501447 -0.2492912 0.020304091 -0.40121925 0.32957712 -0.17023051 0.3378281 -0.34790143
-0.023335818 -0.3184478 -0.03462181 0.45745352 -0.09360348 0.042431813 -0.19281644 -0.2211268
0.15935424 -0.16617537 0.20424835 0.16459851 -0.22400106 0.27090427 -0.36626977 -0.24654359
0.3392438 0.0029415297 -0.29441285 -0.30718672 -0.25991592 -0.33302772 0.19199356 0.19179466
0.38023657 -0.10409396 0.11015054 0.052058756 -0.18748389 -0.24880882 -0.20368403 -0.33315566
0.27078164 0.15030468 -0.14978446 0.2853335 0.0015242398 0.10192171 -0.015296187 -0.1694316

layertwo.weight f4 [30, 120]
00000000: 9146 98bc 787f 2abe 94a6 df3d 33c2 9abd
00000010: cb02 a93d b1e6 a73b 8dce 17bd cce2 51bd
00000020: 32ae a1bc 53b4 b8bc 0c22 34be bac6 36bc
00000030: 8026 bab8 cb25 8e3e 66c3 ee3d cd54 843d
00000040: ee11 ac3e f213 6c3e a6e4 3ebe 71ce 353d
00000050: a80b 72bc 185f a7bd f3f3 0b3e a302 6bbc
00000060: 3d0c 9fbd 1fde 3abd 5a12 6b3e ed52 7a3d
00000070: 88a0 b43e 20f1 a6bc 9f9b 9abe df49 763d
00000080: a172 653d efd1 70bc f0ba 87bd 678a 8d3c
00000090: 6a17 043e 0fb8 c03d b9b7 b53d 455a 853e
000000a0: 7979 fb3c 2aa4 78be 31e1 4bbe 4eaa 84bc
000000b0: 7be7 873d 30ba 243d 631e 6bbe 326d 42bd
000000c0: 95ff 323e 43eb 4fbc 28d9 c9bd 5bde d9be
000000d0: 7721 fd3d 45c4 c5bd 1859 893e a611 1bbc
000000e0: 72fc 363e fa1c 8d3e a537 1fbd acb2 773d
000000f0: b48d aa3d 11e0 93bd 8b06 32bd 8000 34be
00000100: 05ed 4a3e 0203 43bc ccc5 51bc 5ff2 8cbe
00000110: b794 06bd b03f b2bd 01fa e63d 7eed c9bd
00000120: 39da 633e b434 d4bc cd64 323d 3f0e c73e
00000130: 92f9 533e 4b43 9fbd 53d8 973e cbbd 2e3e
00000140: f1bd 053d d5bb 51bd 9ef8 a2be 1fb4 f23e
00000150: 534b a3bc 9f04 6c3c 0617 de3d 2212 ad3e
00000160: 9086 d7be f970 db3d 22d5 ccbe 9d87 b2be
00000170: 4780 1dbc bfdd 43be 950f 003e c055 063c
00000180: abbb 64be d6e8 ccbd 5f74 cb3d 45b0 623e
00000190: 31a2 d83d a147 af3e 844f b6be f8e3 633d
000001a0: 41ad f03e d25b b6bd 5006 e4bc be60 083e
000001b0: fdaf 003d e9dc 563e bfba fe3d 02cf e93e
000001c0: 1078 e9be ab8c 0fbd 10ca b2bd 415a 95be
000001d0: c106 7cbd 0da6 2ebe 7807 febd 8bc5 5abc
000001e0: a68b a7bd bebd 74be 6267 e93c d9a3 8a3c
000001f0: 002d de3d ea44 84bc 3d9b 823e 6bb5 21be
00000200: a37b d73d fed7 3a3e ac88 adbe 56b2 2ebc
00000210: 1cec f93d 8d5f a43e 6e74 25bc 9458 ad3d
00000220: ff29 d73d 46f2 ab3d 4203 68be d073 87bd
00000230: e8b2 0e3e 1999 2b3e 0aac 363e ecf3 79bd
00000240: 9f08 26be 3074 fb3d 656d 983c 60dc b3bb
00000250: 3ea8 b43e 4045 123e 6dbe b6be 77f3 bfbd
00000260: 7a58 81bd e61a 973e c373 643d f499 2ebd
00000270: 790c 023e 05f6 2b3c 1b8a 083e 79b6 af3d
00000280: aff0 ccbc 23e9 25be 3c7c 1bbe efc6 be3e
00000290: 27e8 0c3e b697 6dbe bb05 7abe 5765 073d
000002a0: c5af 48bd f26a 90bb 2008 43bd 7b7b a9be
000002b0: cbcf c43d 17b9 35be 0aec 9a3d d3ba bd3c
000002c0: 5844 0c3e 6650 933d 4853 52bd 4d97 42be
000002d0: 40a8 96bd 1b73 f23c bd54 c7bd f4fa 62be
000002e0: 3ec0 98bd 14da a7bd 82b5 ff3c 9ae5 6ebc
000002f0: 4f8b 46bd 2186 483b e462 113e fd65 5bbd
00000300: 11b8 263e ea8e 08be 4027 583e 29b3 6b3e
00000310: 80b0 913d 0a4d 3f3d 83ec f7ba 94ef 8c3e
00000320: 6444 ac3e e9dd 8cbd 0cb4 1d3e e0e8 d93e
00000330: 672c 6ebd 52f2 5c3c 7300 553d 2bf4 973d
00000340: c402 babe ead7 87bc 9c17 97be 7d2c 56be
00000350: 9e6e ea3c 8272 07be 58c7 1d3e 7c48 26bd
00000360: 3846 b7be dbf0 313d 1985 9d3e e89a 703d
00000370: a1f7 093d e35c bd3e 567b 67be 3052 593d
00000380: b985 c33e cec5 bebd c960 a93d 1b6f e2bc
00000390: e96c 90bd e7d9 0b3e 32f6 973d dda2 be3e
000003a0: 06fa 11bf 4f2a 6f3e 9fbd 5fbd 7ace a1be
000003b0: ac91 733e 7057 c1be faab 063d dd2c 8fbc
000003c0: 8bc1 893c 3164 f73b fe41 1bbb 0021 5fbc
000003d0: 72a9 2bbd 927e a6bc 59a7 b23e 2dcc dbbd
000003e0: 5abd 1b3e 5179 3a3e 951c cf3d 8373 cd3d
000003f0: 075c 7cbd 4858 93be d673 e3bc 7bcb 1c3d
-0.018588336 -0.16650188 0.10920444 -0.07556572 0.08252486 0.005123936 -0.037062217 -0.05124168
-0.019736383 -0.022546923 -0.17591113 -0.011155779 -8.876342e-05 0.2776321 0.11658363 0.06461487
0.3360743 0.23054484 -0.1864191 0.04438633 -0.014773287 -0.081724346 0.13667278 -0.01434389
-0.07766006 -0.045621987 0.2295622 0.06111424 0.35278726 -0.02037865 -0.30196854 0.060129043
0.05601752 -0.01469849 -0.066274524 0.01727791 0.12899557 0.094101064 0.08872933 0.26045433
0.030697571 -0.24281374 -0.19910122 -0.016194489 0.06635948 0.040216625 -0.2296081 -0.047467418
0.1748031 -0.012690368 -0.098558724 -0.42552456 0.123598985 -0.09656576 0.26825786 -0.009464657
0.17869738 0.2756117 -0.038871426 0.06047313 0.08327809 -0.07220472 -0.04346327 -0.17578316
0.19816978 -0.011902573 -0.012803506 -0.27528664 -0.03285667 -0.08703554 0.11278153 -0.09859751
0.22251214 -0.025904037 0.043553162 0.38878056 0.20700672 -0.07776507 0.2965723 0.17064588
0.032651845 -0.05120452 -0.31830305 0.47403046 -0.019933378 0.014405399 0.10844235 0.33802897
-0.4209485 0.10714907 -0.40006357 -0.3486909 -0.009613103 -0.19127558 0.12505944 0.008199155
-0.22337215 -0.100053474 0.099343054 0.22137554 0.105778106 0.34234336 -0.3560754 0.05563733
0.47007182 -0.08904232 -0.027835041 0.13318154 0.031417836 0.20982708 0.12437963 0.45665747
-0.45599413 -0.03504626 -0.087299466 -0.2917042 -0.06152988 -0.17055531 -0.12403768 -0.013352762
-0.08180933 -0.23900506 0.02849168 0.016923832 0.10848427 -0.016146142 0.25509062 -0.15791862
0.10521629 0.18246457 -0.33893335 -0.010662636 0.122032374 0.3210415 -0.01009856 0.084641606
0.10506057 0.08395819 -0.22657493 -0.06613886 0.13935435 0.16757621 0.17839065 -0.061023638
-0.16214226 0.122780204 0.01860685 -0.005488917 0.3528461 0.1428423 -0.35692158 -0.09372609
-0.06315704 0.2951271 0.05577446 -0.04262729 0.1270007 0.010495667 0.13333933 0.08579726
-0.02501711 -0.16202216 -0.1518411 0.3726115 0.13760434 -0.23202404 -0.24416249 0.03305563
-0.048995752 -0.00440728 -0.04761517 -0.3310202 0.09609946 -0.17746387 0.07564552 0.023160374
0.13697946 0.07193069 -0.051348954 -0.19003029 -0.0735631 0.029595902 -0.097329594 -0.22166044
-0.07458542 -0.08195892 0.03121448 -0.0145811085 -0.0484727 0.0030597525 0.1419788 -0.05356406
0.16281153 -0.13335767 0.21108723 0.23017563 0.07113743 0.04670433 -0.001891509 0.27526534
0.33645928 -0.068782635 0.15400714 0.42560482 -0.058147814 0.013485508 0.05200238 0.07419618
-0.36330235 -0.016582448 -0.295102 -0.20915408 0.0286172 -0.13227275 0.15408075 -0.04059647
-0.3579576 0.04344259 0.30765608 0.05874148 0.033683423 0.3698493 -0.22605643 0.053056896
0.3818796 -0.09315072 0.082704134 -0.02764087 -0.07052023 0.13657342 0.07420005 0.3723363
-0.5702213 0.23355983 -0.054624196 -0.31602842 0.23786038 -0.37762022 0.032878853 -0.017477447
0.016815921 0.0075497855 -0.0023690457 -0.013618708 -0.041909643 -0.020324025 0.348933 -0.10732303
0.1520895 0.18210341 0.101128735 0.10031798 -0.0616112 -0.2877829 -0.027765196 0.03827999

layertwo.bias f4 [30]
00000000: 37a4 9b3d b2ec c0bd d503 82bd 5693 4d3d
00000010: ff7b 86bd 3fe1 7c3d 49a6 0e3d 123b 5c3d
00000020: 3261 943d ab55 673d 1801 63bd 0401 58bd
00000030: 1412 17be 6572 e23c 5d12 ba3d d688 703d
00000040: 737e e13d 5349 6bbb e6b2 a83d b433 813b
00000050: bf2b b13d 248b 38bc 97ea 02be a75b 6ebd
00000060: 25ff b23d e9f6 9ebd 41bb f83c 86fc 9f3c
00000070: 6b02 183d c681 963c
0.07599681 -0.09420146 -0.06348387 0.05018934 -0.06566619 0.06173825 0.03482655 0.05376727
0.07245101 0.056478184 -0.055420965 -0.052735344 -0.1475299 0.027642438 0.09085534 0.058724247
0.110104464 -0.003590186 0.08237247 0.003942931 0.08650922 -0.011263642 -0.12784801 -0.058192875
0.08740071 -0.07761938 0.030362727 0.019529592 0.03711168 0.018372428

layerthree.weight f4 [3, 30]
00000000: e9c2 7ebe ff60 dabe a88e 673e adb6 bdbe
00000010: 1c9d 8bbe 836d aebe 854a e03e 8f89 e0be
00000020: d283 993e 92ce b0be d23b 003e 79a8 c33e
00000030: 8ebe d5be 3773 f93e 7c9c ccbe 5f6b 01bf
00000040: a093 b43e 5562 72be b43e 4ebe 5bc3 8d3e
00000050: f89f f93e d59f 873e c407 d1be 5a3d 8abe
00000060: 6c3d d1be 688f c5be ee96 c73e f6b1 edbd
00000070: b0a6 72be 6eb7 a9be 4f4d a53e fa95 a33e
00000080: 4b43 0d3e 19e7 42be 9b87 be3e c841 77be
00000090: 087f 02be 05ce a23e 1186 6abe 2fbc a3be
000000a0: fdf3 983e 25bf 63be 807e 9a3e d3fa d3bd
000000b0: 810f cc3d bda2 333e 9399 f3be fd34 50be
000000c0: c8fe b4be d130 2c3e aac8 c5be 50de 813e
000000d0: 3377 e63e 9f0d 4dbe 564a 62be 1a7e 80be
000000e0: 9849 b9be 40e8 a7be b590 b43e 009f 00be
000000f0: f03c 803e f4f3 d2bd 04f7 dfbe 48a7 783e
00000100: 6b7b 933e 2bbd c03e a034 90be da19 123e
00000110: f0fa babe f75d 783e e323 edbe 2c2a 41be
00000120: 65ce 45be 37c1 8fbd 8706 063e c539 263c
00000130: ead4 ab3e 53f1 a83e 27f9 a43e b042 d5be
00000140: 9a3b 213e c43e 9bbe 9c11 94be 785b b93e
00000150: 9476 613e 3f3b aa3e f8a3 13be 5290 b13e
00000160: 1ae7 8d3e 47b8 963e
-0.2487904 -0.42652127 0.22613013 -0.37053433 -0.27268302 -0.34067926 0.43806854 -0.4385495
0.29983383 -0.345326 0.1252282 0.38214472 -0.41746944 0.48720714 -0.39963138 -0.5055446
0.3526888 -0.23670323 -0.20141107 0.27688107 0.4875486 0.2648913 -0.40826237 -0.26999933
-0.40867174 -0.38585973 0.38982338 -0.11606209 -0.23696399 -0.33147758 0.32285544 0.3195036
0.13795201 -0.1903347 0.37212834 -0.24146187 -0.12743771 0.31797805 -0.22902705 -0.3197951
0.29873648 -0.22240885 0.30174637 -0.10350575 0.09963895 0.17542548 -0.47578105 -0.20332713
-0.35350633 0.16815497 -0.38629657 0.25364923 0.45012817 -0.20024727 -0.2209867 -0.25096208
-0.3618896 -0.3279438 0.35266653 -0.12560654 0.25046492 -0.103004366 -0.43743145 0.24282563
0.28805098 0.37644324 -0.2816515 0.14267674 -0.36519575 0.24254595 -0.46316442 -0.18863744
-0.19317015 -0.07019275 0.13088427 0.010145609 0.33560878 0.32996616 0.32221338 -0.4165244
0.15745392 -0.30321324 -0.28919685 0.36202598 0.2201789 0.33248326 -0.14418018 0.3468042
0.2771538 0.29437467

layerthree.bias f4 [3]
00000000: 872c a53e 6ce0 613d 875e 1dbe
0.32260534 0.055145666 -0.1536809
