state_dicts/model1280.pt (torch, 39255 bytes, 6 tensors)

layerone.weight f4 [64, 128]
000000 7f a6 08 3d e2 f1 91 3d ad 76 a9 bd 41 59 71 3d
       0.033361908 0.071262136 -0.08274589 0.05892301
000010 4f 34 00 3d cb 4e 49 3d a2 d7 3d 3d a5 5d e9 bc
       0.031299885 0.04914741 0.04634822 -0.028487036
000020 d7 f5 9e bd 38 4e 4a bd c8 68 97 3d b5 ea 82 3c
       -0.07761734 -0.049391 0.07393032 0.015981058
000030 c5 bf 2c bd 67 3b 55 3d 43 71 49 3d 14 e9 69 bd
       -0.042175073 0.052058604 0.04918028 -0.057107046
000040 78 b4 be bc b2 34 ea 3c 64 ed 8b 3d 89 a2 59 bd
       -0.023279414 0.02858958 0.06832388 -0.05313352
000050 b3 1d 4d bd d8 b3 b8 bd 0e a5 4b 3d 6d 1d 47 3d
       -0.05007715 -0.090186775 0.049717955 0.048612047
000060 d1 43 f0 3c 39 28 88 bd f0 cb 5e 3c 15 5d 6f 3d
       0.029329212 -0.06648297 0.013598427 0.05843838
000070 cd a4 11 bc 9a 57 67 bd ac ba 6a bd 5a f0 8c bd
       -0.008889389 -0.056480028 -0.05730693 -0.06881781
000080 c2 e9 35 bb 9e db 53 bb a1 ab 08 bd 59 c0 26 bd
       -0.0027757739 -0.0032326947 -0.033366803 -0.04071078
000090 9c 15 84 3d 42 84 9e bc 66 13 6b bd da 19 23 bd
       0.06449434 -0.019350175 -0.057391547 -0.039819576
0000a0 13 fc a1 bd 61 e5 09 3d 2a b6 97 3d 9b 4c 8f bd
       -0.079094075 0.03366602 0.07407792 -0.06997033
0000b0 c8 e6 54 bc 1a f4 88 bd 64 9b 3f bd b7 5a 6d bc
       -0.012994476 -0.06687184 -0.04677905 -0.01448696
0000c0 30 c1 f5 bc e2 df 80 bd 44 29 b8 bd 64 49 98 3b
       -0.029999346 -0.06292702 -0.08992246 0.0046474207
0000d0 5f 52 6f bc 9f ad b1 bd a2 40 8f 3d 68 c3 85 bd
       -0.014607041 -0.08675694 0.069947496 -0.065314114
0000e0 76 a8 5f bd 51 4d 83 3d f1 70 2f bd 63 e6 a5 bd
       -0.054604016 0.06411231 -0.04283232 -0.081005834
0000f0 88 c2 80 bc 3f 7a cc bd 4e 36 3d bd 6e c4 2b 3c
       -0.01571776 -0.09984254 -0.046194367 0.010483844
000100 28 96 ac bd d8 ba ff b9 2c f5 8c 3d 4e b7 c2 bd
       -0.084270775 -0.000487766 0.068827 -0.09507619
000110 52 4d 8d bd e0 6d b8 3a ce 5b 37 bd 04 3e 8f 3d
       -0.06899513 0.0014070831 -0.044765286 0.069942504
000120 69 68 0a bd 9a 33 51 3a c0 09 73 b8 9b f3 1a bd
       -0.03379098 0.00079804065 -5.7944795e-05 -0.037829977
000130 d0 b2 f9 3b 06 73 d6 bc 05 e1 0f bd 9c 41 75 ba
       0.007620193 -0.026177894 -0.035126705 -0.0009355785
000140 45 6e 1a 3d c5 37 95 bd 93 06 93 3d 22 51 8a bd
       0.037702817 -0.07286028 0.07178988 -0.06753756
000150 4c 21 34 bd 2d 1a 0c 3d 91 07 bf 3b f5 79 f0 bc
       -0.043977067 0.03420465 0.0058297594 -0.029355029
000160 d1 83 0f bd 6f 8a f0 bc 78 c8 60 3d 91 aa af bd
       -0.03503782 -0.029362885 0.054878682 -0.08577455
000170 b4 da c1 bc 8a a8 6e bb 94 d6 28 3d d6 d6 b2 bd
       -0.023663856 -0.0036416375 0.041220263 -0.08732383
000180 30 f3 28 bd f7 61 fe 3c da 8b 8f bd 2e 34 7e 3d
       -0.041247547 0.031052573 -0.070090964 0.06206148
000190 f7 0b 68 bd 48 19 5c 3d 5c aa 20 bc fa 84 2a bc
       -0.056652036 0.053735048 -0.009806242 -0.010407681
0001a0 60 18 66 bd 01 b6 6d bd f9 86 0a bd 65 a5 ae bc
       -0.05617559 -0.0580349 -0.033820126 -0.0213191
0001b0 62 ec 78 3b 8b c2 ad bc 5e 2b 07 3d ee 13 53 3b
       0.0037982692 -0.02121093 0.033000343 0.0032207924
0001c0 63 1c 8e bd 23 53 80 bd 00 83 44 37 ee c3 a3 bd
       -0.06939008 -0.06265857 1.1713011e-05 -0.07996355
0001d0 22 37 e8 3c 6c bb da 3c e2 f0 a3 bd 37 5a b3 3c
       0.028346602 0.026700698 -0.08004929 0.021893604
0001e0 f3 1c 36 3d 22 85 62 bb 6d 3a 13 3d 25 09 51 bd
       0.044461202 -0.0034564217 0.03594439 -0.05103411
0001f0 2f dd 6c bd 10 9b bd bc b2 a3 c1 bd 6a a4 10 3c
       -0.057828125 -0.023145229 -0.094550505 0.008828262
000200 1a 5c c8 bd 60 05 57 bd 0d 7c 28 bd 0e aa 97 bd
       -0.09783192 -0.05249536 -0.04113393 -0.07405482
000210 35 9b ac bd e0 e4 01 38 f9 e9 9b bd 4f 33 b3 3c
       -0.08428041 3.0969153e-05 -0.07612986 0.021875052
000220 8a 74 94 3c 2f a3 fb 3b 39 73 6d bd 49 c2 3b 3d
       0.018121976 0.007679365 -0.057971213 0.04583958
000230 fe 91 9d bd fb 7f 54 3d 53 52 1e 3d 47 3e b3 bd
       -0.076938614 0.051879864 0.03865273 -0.08752113
000240 21 fd b1 bd 87 59 17 bc 76 7d d7 bc 8e f6 2f 3d
       -0.08690859 -0.009237654 -0.026304942 0.042959742
000250 b1 ec c9 bd 2f 60 48 3d b4 b7 3b 3d e4 50 10 3d
       -0.098595984 0.048919853 0.04582949 0.035233393
000260 b4 01 e1 bd 24 b0 f2 3b 78 72 32 bb d2 4f ba 3c
       -0.10986653 0.0074062515 -0.0027228873 0.02274314
000270 b2 cf 34 bd 3a 42 a7 bd 86 14 63 bc 63 59 44 bc
       -0.044143386 -0.081669286 -0.013859874 -0.011984202
000280 c3 d2 47 3d 50 d4 d1 3c 03 b8 de bd 82 10 c1 bd
       0.048784982 0.025613934 -0.10874941 -0.09426977
000290 c1 81 03 bd fc 3e 84 bd ac 11 a0 bd a6 13 43 bd
       -0.032106165 -0.06457326 -0.07815871 -0.04762616
0002a0 d2 1e 08 3b 5b 97 51 bd c3 6f 86 bd 7e cc 41 bd
       0.0020770323 -0.051169734 -0.065642856 -0.04731416
0002b0 3c d4 1e 3d 30 51 99 bc 69 3c 11 3d 27 d6 cc 3c
       0.03877662 -0.018715471 0.035458002 0.02500446
0002c0 d8 82 12 bc ee d0 c9 bd 3f 87 92 bd 69 46 39 bc
       -0.008942328 -0.09854303 -0.071547024 -0.011308291
0002d0 1a 73 c7 bc a2 72 5e 3d 60 82 b2 bd 9f 7e 5a bc
       -0.024346877 0.05430854 -0.08716273 -0.013335853
0002e0 ab d2 1c bd 32 da 4c bd 44 ec 99 bd 20 68 48 bd
       -0.038286846 -0.050012775 -0.07515767 -0.048927426
0002f0 e7 49 1d 3d 9b c9 d3 bc e8 7b 14 bd 0f 13 87 bd
       0.038400557 -0.025852969 -0.03625098 -0.06595432
000300 62 ba 04 3d 64 a9 2d 3c 82 38 19 3d ac e9 ad bd
       0.03240431 0.010599468 0.037407406 -0.08491835
000310 36 18 f0 bc 6b 06 c8 3c 19 a0 9e 3c dc de d8 bd
       -0.02930842 0.024417123 0.01936345 -0.10589382
000320 9f fd 84 bd 7d 23 2c 3d c2 6c 3e 3c 0f 80 4a bd
       -0.06493687 0.04202603 0.01162261 -0.049438532
000330 f7 da bc bd b0 d5 56 bd 10 4a d3 bd 19 ba 78 bd
       -0.09221452 -0.052449882 -0.10316861 -0.06072435
000340 8f b3 2a 3c 86 60 37 3d da 25 b0 bb d3 67 5c bd
       0.010418787 0.044769786 -0.005375606 -0.053809952
000350 dd c0 41 3c 18 84 40 3d 3f e6 22 3d 7e ad 34 bd
       0.011825767 0.047000974 0.03977036 -0.044110768
000360 f8 f7 a0 bd 02 61 40 bc 91 6d 23 bd 34 4e 6a 3d
       -0.07859796 -0.011741878 -0.039899413 0.057203487
000370 26 ce 57 bd 70 bf c7 bd 04 01 c1 ba 49 43 37 bd
       -0.052686833 -0.09753311 -0.0014725034 -0.044741903
000380 0d 41 8e 3b 31 51 59 bd 18 26 d7 bd d9 e4 70 3d
       0.0043412508 -0.053055946 -0.10505313 0.058811996
000390 0a 83 9a bd 7d ef 1e 3d 35 27 21 bc d2 e3 01 bd
       -0.07544525 0.038802613 -0.009836008 -0.031711407
0003a0 49 0c 1b bc 3c 61 89 3d 57 7c 95 bd b6 f3 42 3c
       -0.009463378 0.06707999 -0.072991066 0.0118989255
0003b0 e4 b5 32 3d 96 95 a3 bd ba 44 13 3d 7a 22 d4 3c
       0.043630496 -0.07987516 0.035954215 0.025895346
0003c0 8b a0 30 3d 41 5c 35 bd f1 6d a0 3a a0 ff 18 3d
       0.043121856 -0.044277433 0.0012239796 0.037353158
0003d0 5c 7f 50 bd 76 74 ea 3c af 1c e5 3c 40 20 8e bd
       -0.05090271 0.028619986 0.027967779 -0.06939745
0003e0 94 2c b2 bd 82 2b 0d 3d 78 42 02 bc 16 41 65 3d
       -0.08699909 0.03446532 -0.007950418 0.055970274
0003f0 ae fa 3b 3d 8e 84 ce bc 0b d8 b0 bd 86 bd 27 3c
       0.045893364 -0.025209691 -0.08634957 0.010238057

layerone.bias f4 [64]
000000 9d 19 d4 bd 80 b5 be bd b7 4a 50 bd 0d 4e 04 bd
       -0.10356448 -0.09311962 -0.050852504 -0.032300998
000010 d6 e6 90 bc 98 24 f5 bc 56 46 d6 3d 78 87 9e 3d
       -0.017688196 -0.029924676 0.10462634 0.07740682
000020 3b 35 ef bc 18 f6 85 3d f7 68 66 bd de ca 9d bd
       -0.029200187 0.06541079 -0.056252446 -0.077047095
000030 47 7c 5c 3c 6e 35 b2 3c e9 82 a1 bd fe ca 74 3d
       0.013457364 0.021753993 -0.07886297 0.0597639
000040 30 df 6d bd 10 fa 94 bd ab 77 26 bc 8a e6 68 bd
       -0.058074176 -0.07274258 -0.010160367 -0.056860484
000050 1e e2 82 3d 50 5e bc 3c 94 fc 8d 3b f9 26 bc 3d
       0.06390785 0.02299419 0.004333088 0.09187121
000060 49 2e c2 3d cd 27 cc 3d 2b 3c d1 bb fc c6 28 3d
       0.094814844 0.09968529 -0.0063853464 0.04120539
000070 cb 64 9c bd fa 0a 8c 3d f3 d5 0a 3d d7 92 0f 3c
       -0.07636412 0.06838031 0.033895444 0.008763037
000080 10 7a c5 3b 62 1e 86 bd 87 a9 91 3d 5e 9a 9b bd
       0.006026514 -0.06548764 0.07112413 -0.075978026
000090 5b 12 ae 3d 8a 77 96 bd 77 6c 1e 3d 04 2f 28 3b
       0.08499595 -0.07347019 0.03867766 0.002566279
0000a0 cc c3 40 bd 03 68 26 bc 83 7a c5 3d 43 63 77 3d
       -0.047061726 -0.010156634 0.09642508 0.060397398
0000b0 f8 18 59 bd d0 a3 e4 bd a0 55 6c 3d 98 86 09 bc
       -0.053002328 -0.11164057 0.057698846 -0.008393906
0000c0 b8 6c c4 bd d0 d7 b7 bc 17 53 8b 3c 56 4d be 3d
       -0.09591049 -0.022441775 0.017007394 0.092920944
0000d0 51 3d aa bd 0c 00 ed bc 96 72 3e 3b 87 9a 36 3d
       -0.083124764 -0.028930686 0.0029059998 0.044580963
0000e0 79 1a b4 bd 74 3d d2 bd 35 7d f4 3c e8 b3 67 3d
       -0.08794112 -0.102656275 0.02984486 0.056568056
0000f0 98 d0 d3 3d 84 c8 94 3d 28 33 33 bd c0 37 6d bc
       0.103425205 0.07264808 -0.04374996 -0.014478624

layertwo.weight f4 [16, 64]
000000 d9 f9 24 bc 6a 1b fb bc ce 09 53 3d 74 a1 a3 3d
       -0.010069334 -0.03065272 0.051523022 0.07989779
000010 ac 16 eb 3d cf e9 20 3e b6 18 08 bc be 67 c5 bd
       0.11478934 0.15714191 -0.008306673 -0.09638928
000020 8e 5c ee bc 02 3e 29 bc e9 14 02 be da b8 e5 3c
       -0.029096868 -0.010329725 -0.12703289 0.028042246
000030 ab 7c 97 bd ef f0 10 be c6 61 17 bd 36 50 0b 3e
       -0.073968254 -0.14154409 -0.03695848 0.13604817
000040 1f 7b 48 3d 8f f0 03 3e f4 64 2a 3b 9e 80 1e bb
       0.048945542 0.12884735 0.0026000114 -0.0024185549
000050 c6 fe 8a bd fb c3 4b 3d 48 d9 07 bb 3c e4 03 be
       -0.067868754 0.04974745 -0.0020728875 -0.12880033
000060 6a 43 a5 3d 1f 16 0d 3e 72 c8 4e bd 22 6c cf 3d
       0.08069499 0.1377797 -0.05048413 0.101280466
000070 2d 5e 24 be 6e f8 8d 3c 6f 15 12 3e 12 1f 8e bd
       -0.1605155 0.017330375 0.14265989 -0.0693952
000080 57 f7 a7 3d 01 4f d1 3c dc 5b d5 3d d6 71 1c be
       0.08201473 0.025550367 0.104179114 -0.152778
000090 05 4d fc 3d e0 78 24 bb c8 34 78 bc ab 12 8b bd
       0.12319378 -0.0025096461 -0.015149303 -0.0679067
0000a0 50 58 1a 3e 07 36 c0 bd 1b 0c 10 3d 50 48 16 bd
       0.15072751 -0.09385305 0.035167795 -0.036690056
0000b0 ca 45 15 bd 0d e1 09 bd 94 b5 5d 3d af 1e 27 3c
       -0.03644351 -0.03366189 0.054128245 0.010200187
0000c0 2d 30 8c bd 73 b9 57 3c 65 66 50 3c 37 d2 18 3e
       -0.06845126 0.013166773 0.012719725 0.1492394
0000d0 92 a6 a5 bc 4f 1d 7a 3d 4b c7 bd bd dc 39 e5 3d
       -0.020221028 0.061063107 -0.09266528 0.111926764
0000e0 13 0c 0a 3d 1e fb ea 3d b3 b9 86 bd cb e8 ae 3d
       0.03370292 0.11473678 -0.06578388 0.085404955
0000f0 c6 44 48 3d 46 f3 2c bd 4f 88 24 be f3 ae a4 3c
       0.048893712 -0.04222419 -0.16067623 0.020102954
000100 3b 72 f7 bd 27 aa d3 3d f0 ef c4 3d 12 38 c0 3b
       -0.120823346 0.10335188 0.09616077 0.005866059
000110 6d 30 17 3d ee 6b 3e 3d 99 73 61 bd 62 04 b3 bc
       0.036911417 0.04648965 -0.055041883 -0.021852676
000120 62 ac 0c be ee 0b 07 be 54 88 a0 bd 63 ce 82 3d
       -0.13737634 -0.13188145 -0.078385025 0.063870214
000130 0e 77 05 bc 17 bc d4 bc 7d e4 b6 bd 93 fd 19 bc
       -0.008146061 -0.025968594 -0.089302994 -0.009398836
000140 59 6b c9 3c 5e f3 0c be d4 65 0a be 71 45 a6 bd
       0.02458732 -0.13764712 -0.13515407 -0.08118714
000150 7d c8 22 3d 75 47 1a bd 37 3a 3a bc c8 1b 24 bc
       0.03974198 -0.037665803 -0.011366419 -0.010016389
000160 b6 0e 5d bc cb 1c b3 3d 5f 81 88 bd c6 de c7 3b
       -0.013492277 0.08745726 -0.066653006 0.0060995547
000170 65 4e 17 bd 46 cc b8 3d cc b6 8e 3d 63 ea e3 3d
       -0.036939997 0.09023337 0.069684595 0.1112869
000180 d7 06 57 bd 75 a6 9f bd c9 cb 58 3b 25 18 8c 3d
       -0.052496757 -0.07795421 0.003308045 0.06840543
000190 d2 ef de bd 86 d8 f6 3d b2 d5 a0 3d e4 47 08 be
       -0.10885586 0.12053017 0.07853259 -0.13308674
0001a0 a6 07 6e 3d c4 93 e4 bd 88 5f 84 bd 53 ae c7 3d
       0.058112763 -0.111609966 -0.06463534 0.097500466
0001b0 9a e3 b4 bd 82 b8 95 3d 1e 25 15 bd 7f 13 ee 3d
       -0.08832474 0.07310583 -0.03641235 0.11624812
0001c0 a2 82 80 bd 12 16 db 3c 23 33 98 3d 44 d4 13 3c
       -0.06274916 0.026743922 0.074316286 0.009022776
0001d0 a7 47 b8 bd ba e4 79 3d e3 1c c3 bd 63 a2 ad 3d
       -0.089980416 0.061009146 -0.09526994 0.084782384
0001e0 2d 19 a6 bd 09 5a 07 be 7a aa b6 bd 48 54 8c bd
       -0.08110271 -0.1321794 -0.089192346 -0.06852013
0001f0 b2 d2 98 3d fa d1 ba bd a7 1c 0e bd 97 38 6f bd
       0.07462062 -0.09122081 -0.034695294 -0.058403578
000200 df e6 89 3d 00 ed 02 3e 90 7c 13 be f5 c5 b7 bd
       0.06733488 0.12785721 -0.14402986 -0.08973304
000210 9d 8f 19 3e ad 0b 97 bd d5 6d 8c 3d 53 c9 45 bd
       0.1499619 -0.07375274 0.06856886 -0.0482877
000220 fd e1 bc bc e9 0d bc 3d be 86 ed bd 3f e4 a1 bd
       -0.023056978 0.09182341 -0.11597966 -0.079048626
000230 e0 0a d3 3c 14 33 eb bd fd f6 fa bd 68 3e 8b bd
       0.025762022 -0.11484352 -0.122541405 -0.067990124
000240 53 e8 c8 bd 90 97 d4 bc a3 0a f9 3d b4 52 c8 3c
       -0.09809937 -0.025951177 0.12160232 0.024453498
000250 8a 68 cd bd f6 24 cd bd e3 47 d6 3d fc 9e 44 bc
       -0.10029705 -0.10016815 0.1046293 -0.012000795
000260 0a 20 73 3b c0 59 9d 3d 88 1e e0 3c 5a 4a 24 3d
       0.0037097954 0.07683134 0.027358308 0.04010997
000270 89 3e d5 bb d9 d6 87 3d 43 0f 91 bd 2e ee 7d 3d
       -0.006507699 0.06632776 -0.07082989 0.061994724
000280 48 71 23 3d de 15 dd bd 5d 4d d6 bd 84 64 20 3d
       0.039902955 -0.107951865 -0.104639746 0.03915836
000290 33 8a 24 3e 14 ad 03 be 11 14 b5 3d de 31 ae 3d
       0.16068344 -0.12858993 0.08841718 0.08505605
0002a0 6f 20 1d 3e 01 91 6e bd f4 27 78 bc 49 df 8a 3d
       0.15344404 -0.058243755 -0.015146244 0.067808695
0002b0 f7 05 c5 bc 0d 0d e7 3d b9 df 81 bd 2e 79 f3 bd
       -0.024050696 0.11281786 -0.063415 -0.118883476
0002c0 93 b9 78 bd 3f 48 91 3c cc c4 ac bd d1 2a cb bc
       -0.060723852 0.017734645 -0.084359735 -0.02480069
0002d0 cc df ab bb 20 50 0c 3e a8 8b 77 3d b6 88 21 3d
       -0.0052451845 0.1370244 0.06043592 0.03943702
0002e0 ae 1c 25 bd 6d 58 8c 3d 8b 12 35 3d 33 0a da bd
       -0.040310554 0.068528034 0.044207137 -0.106464766
0002f0 b0 a4 49 3d 1f 97 c6 bc 9e 60 94 bc 36 9b 5e bd
       0.049229324 -0.024241982 -0.018112477 -0.05434724
000300 be 0c 45 3d 7a 16 95 3d 2e 1b 08 be c7 1d c1 3d
       0.048107855 0.07279678 -0.13291618 0.09429508
000310 c8 1b 33 3d dc 3e 6c 3b 3a 87 77 bd 56 0f 3b 3d
       0.043727666 0.003604821 -0.060431696 0.045668922
000320 8d 41 10 3e cc 7f 04 3e d6 fa c7 bd 9a df ea 3d
       0.14087506 0.12939376 -0.0976464 0.1146843
000330 1b c5 3d 3d 50 47 c2 bd b8 57 d1 bd 7f 53 0b 3e
       0.046330553 -0.09486258 -0.10221809 0.1360607
000340 9e 68 34 3d cc 0f bd 3c 06 51 07 3e 41 64 12 be
       0.044045083 0.023078822 0.13214502 -0.14296056
000350 03 3e c9 3c ac 70 02 be 72 9b ca bd 56 80 17 3d
       0.024565702 -0.12738293 -0.0989293 0.036987625
000360 5d 83 a3 3d ac 6f 40 bd 65 c1 bc bd 10 33 bc 3d
       0.0798404 -0.0469815 -0.092165746 0.09189427
000370 76 7f 08 bd 60 ac a9 bd ea b6 75 bd 20 cc 53 bd
       -0.03332468 -0.08284831 -0.059988894 -0.05170834
000380 71 81 10 be e0 a3 01 be 8a 3f 6d 3d 6c 91 52 3c
       -0.14111878 -0.1266017 0.057921924 0.012852054
000390 f7 79 02 bd e1 7b 0a bd 0c 6e af 3d 98 20 f1 3d
       -0.031854596 -0.033809546 0.08565912 0.11773795
0003a0 57 56 68 3d b7 bd 33 bd f1 94 e2 3d 1e 3a 02 3e
       0.056722965 -0.043882098 0.110635646 0.12717482
0003b0 2c 3e 0a bd 3d c3 82 bd 94 9b dd 3d 45 ee 11 be
       -0.033750698 -0.06384895 0.1082069 -0.14251049
0003c0 d2 c2 dc 3c ee 7e 76 3d 8a ca 81 bd 58 6b 0a 3e
       0.026948366 0.060179643 -0.063374594 0.13517511
0003d0 83 2f af 3d 48 ba a8 3d 9c 50 b8 bd 1e b2 a6 3c
       0.08553984 0.08238655 -0.0899975 0.020348605
0003e0 d2 09 2c 3d df dd 99 bc b6 ab 55 bd 10 92 c8 3d
       0.042001553 -0.018782554 -0.05216571 0.09793484
0003f0 97 d1 37 3d 2c 34 7b bd 54 fc 91 3d 13 92 d1 bc
       0.044877615 -0.06132905 0.07128206 -0.025582349

layertwo.bias f4 [16]
000000 be 28 43 3c c6 89 0b be e3 ef a2 bc 84 bf 55 bd
       0.011911569 -0.13626775 -0.019889778 -0.052184597
000010 17 d5 7e bd 91 39 7c bc 48 e3 14 3d 95 1c 18 3d
       -0.062214937 -0.015394584 0.036349565 0.037136633
000020 0a df 8d 3c f6 55 b9 3d e2 b0 2a bc 37 ca 6b bd
       0.017318267 0.09049599 -0.010418149 -0.057565894
000030 cc eb dd 3d 05 8a d9 3d dd 02 2a bd 15 63 8f 3c
       0.1083599 0.10622028 -0.041506637 0.0175033

layerthree.weight f4 [2, 16]
000000 d6 42 25 3e 71 15 09 be 69 86 24 3e b4 cf 53 3e
       0.16138777 -0.13387085 0.16066898 0.20684701
000010 4a 84 a7 3d da fe 8b be 2c a8 33 bd e7 af 1d 3e
       0.08179529 -0.27342874 -0.043861553 0.15399133
000020 58 1d b6 bd 3a e6 86 bd 61 14 36 3e 15 e5 84 be
       -0.088923156 -0.06586881 0.17781211 -0.25956026
000030 b9 e5 4c bd f4 81 bd bd f0 75 8a 3d f4 e1 5d be
       -0.050023768 -0.09253302 0.06760776 -0.21668226
000040 d6 9a 2a be bd 21 1b be b5 3c 54 3d 66 97 1e be
       -0.16660628 -0.15149589 0.051815707 -0.15487441
000050 a7 fe 08 be 2c 5d c9 3d c7 12 75 be 64 e0 4a bd
       -0.13378392 0.09832224 -0.23932944 -0.0495304
000060 4c 5c fa 3d b4 8c 2a 3e 75 92 0e be 1b 6e dc bd
       0.122246355 0.16655236 -0.13923056 -0.107631885
000070 06 72 32 be bc de 1c 3e a2 03 51 bc 89 65 f8 bd
       -0.17426309 0.15319341 -0.012757214 -0.12128741

layerthree.bias f4 [2]
000000 59 8e b5 bd 69 21 e5 3d
       -0.08865041 0.11188013
