models/model.pt (torch, 685206 bytes, 69 tensors)

conv_kernel_16d f8 [3, 16]
00000000: 1d73 da9e e805 b83f 5049 bb5e 6b01 d2bf
00000010: c57c 0a3b 4f65 cabf e0bd b16e 1d2e e33f
00000020: e01d da55 346a b3bf 723c 7225 aba1 c1bf
00000030: f40c 1d71 c61c b5bf 5cf8 2cd7 1e1a e53f
00000040: 37c8 9a4c af77 d5bf c24c fcbc d94c c5bf
00000050: fa6a 825a 5ae6 bbbf 50d6 57a4 b8e4 c13f
00000060: c5d4 b15c 083e c53f ed6a 1091 36ed c0bf
00000070: da53 3157 9a0a e7bf 04aa 41b3 5444 d1bf
00000080: fe10 af46 6b74 ea3f fb20 87c1 c726 c83f
00000090: fbfa b110 c129 91bf 8af2 0ec3 3282 d43f
000000a0: 6e70 8fae 477c c3bf 4998 ea40 9de4 d03f
000000b0: 30ae a867 c22f e6bf 88d5 d162 db94 e53f
000000c0: ba7a c7c8 2392 a3bf 89fa 87a7 2c18 ddbf
000000d0: b168 a4a2 519c d8bf 1da6 a04f 2e18 e03f
000000e0: 5f8c 780b e8c5 ea3f e35d d1df 37e4 e33f
000000f0: ce38 1307 fa68 ed3f afb3 b35c 01ea e63f
00000100: 26cf 3446 9044 ecbf 24cf e022 cdf8 c8bf
00000110: 672f 40c9 a66c ad3f e656 2b2e 3a04 d33f
00000120: 500a 85b7 a28e c4bf 23b3 f7f5 d6d6 c2bf
00000130: dbc1 160d 809b d2bf 97ff b44e 20f1 d7bf
00000140: dda0 9e61 3757 cfbf 895d ba61 64f8 d93f
00000150: 9c10 19d4 f6ff d13f b4f8 e3da 9ac8 cb3f
00000160: 4229 8851 0443 d2bf fc16 2672 dc28 b63f
00000170: c356 9109 85cd 723f 4725 75ab 17f4 943f
0.0938401592088209 -0.28133663416987975 -0.2062167204175919 0.5993792688367954 -0.07583930107113401 -0.1377462323039001 -0.08247032414969963 0.6594385340356541
-0.3354299781887024 -0.16640779235658526 -0.10898365697577708 0.13979251885000332 0.16595558668237778 -0.13223917086801099 -0.7200442984563964 -0.2697955847312701
0.8267113094848637 0.18868348073579697 -0.016760841983791668 0.3204466729037355 -0.15223022483303644 0.26395350780001486 -0.6933300041759534 0.6744210176536152
-0.038224333056623164 -0.4546004901930379 -0.3845409477522806 0.5029517703271186 0.8366584991494043 0.621608674186913 0.9190645349679245 0.7160651026330153
-0.883369576570179 -0.19509281352076713 0.05746957022355908 0.2971330119010943 -0.16060289345667167 -0.14718138704429248 -0.29074097898685886 -0.3740921753524104
-0.2448491312654885 0.40578565162419317 0.2812478133457803 0.2170594757844292 -0.2853403850755464 0.08656099116168642 0.0045905300877017744 0.020462388839665804

conv_bias_16d f8 [3]
00000000: 01fe 8921 2174 c7bf cc70 71f7 ab30 b43f
00000010: e76b 3fa1 670f e83f
-0.183231488586884 0.07886767188159921 0.751880469262116

conv_kernel_8d f8 [3, 8]
00000000: e867 b45b 2b11 d7bf a14f 2a84 ae42 cf3f
00000010: 5ddd c2b0 f7d1 933f 56c6 d9b3 dc51 c03f
00000020: 3ec9 c43d 1cee c63f 55d3 e2a3 048a ddbf
00000030: 2295 fc0d 3fea aa3f d63d 7e4b 0f9b b93f
00000040: f346 91c3 2ae7 eb3f 4246 ea08 415c ea3f
00000050: 8d5c 9e60 e940 bc3f 9d92 255d 61d0 e6bf
00000060: 40e6 e802 d49f f1bf 361e cfe5 f60f ecbf
00000070: fc12 3f13 18bb e7bf 85d7 3aef 690c e0bf
00000080: d0d9 c17a cd1c d4bf 8f68 a6cf 6778 e6bf
00000090: 09eb 39ff efe9 a9bf b883 68e5 b09a f1bf
000000a0: b226 faaa abaf e1bf 5abe 3301 91ed e23f
000000b0: 1042 544a 9d2a 673f ec89 db76 abc9 f13f
-0.36042293506181844 0.2442224641168851 0.01935565010418593 0.12749823362132656 0.17914155021714778 -0.4615489578675825 0.052568407494883354 0.10002227395147342
0.871968633620979 0.8237614797710153 0.11036547287800343 -0.712937051703722 -1.1015205491697913 -0.876948784681139 -0.7415886283784796 -0.501515357251933
-0.31425797451029513 -0.7021979385056215 -0.05061292639307708 -1.1002663575420524 -0.5526941623113173 0.5914998076895686 0.002827937324248582 1.11173578671207

conv_bias_8d f8 [3]
00000000: 4367 8ea9 e302 f2bf b069 e74a 59b3 b73f
00000010: 9456 b813 9802 f5bf
-1.1257053969661264 0.0925803954955089 -1.3131333132090832

widechannel_conv_kernel f8 [3, 3]
00000000: 3361 ffec 6fba f5bf 1216 981c 3f58 e23f
00000010: 50c7 c01a 2c60 98bf 6386 e223 0c28 02c0
00000020: a113 15d8 4788 be3f 4967 4574 aa47 f2bf
00000030: 7e7a 3d16 51a2 e4bf b8f5 6582 a08b e03f
00000040: 2eaf 55ac 91c0 dfbf
-1.358016896983895 0.5732722815016038 -0.023804368145824484 -2.2695544055466583 0.1192669775528672 -1.142496542152417 -0.6448140558603226 0.5170443102685374
-0.4961284811931702

widechannel_conv_bias f8 [3]
00000000: 3363 c29f 7de6 07c0 1796 f672 1f31 d03f
00000010: 6012 5fcb d6b8 c33f
-2.9875442963788372 0.25299822070005135 0.15407833986513975

midchannel_conv_kernel f8 [3, 3]
00000000: 7cad 6bd9 c07d e1bf 6b35 64f2 98c4 f3bf
00000010: 95b1 dc4b 4ec2 e33f 109c d375 b397 fc3f
00000020: 344b f634 b6be cbbf 3bf7 c742 541b dabf
00000030: 60e5 aebb 0920 d0bf fec1 9d20 e015 c93f
00000040: 3694 0ee5 b52b e5bf
-0.5466007467743306 -1.235497423974574 0.6174689752274839 1.7870363810159269 -0.21675756059684093 -0.4079180385741556 -0.2519554455608013 0.1959800872096053
-0.6615857576149498

midchannel_conv_bias f8 [3]
00000000: ab20 9292 663c d7bf 2699 d7f0 5ba0 e5bf
00000010: 03af c733 3098 e8bf
-0.3630615645747734 -0.6758250907849159 -0.7685776721313861

narrowchannel_conv_kernel f8 [3, 3]
00000000: 0183 a724 aa08 c63f 5f5c 36a1 163c dcbf
00000010: 3b4a c37a 4471 ebbf fe78 17db c9ed dd3f
00000020: b03a be5f 3d71 e3bf c60b e673 74e9 ed3f
00000030: a60e a557 9cc5 ee3f 9403 c6cd f06c e33f
00000040: d545 4b57 2255 ca3f
0.17213942327273205 -0.4411675047244383 -0.8575765989028875 0.46763845821068617 -0.6075732107145395 0.9347479118008486 0.961622401410257 0.6070484179509656
0.20572308790592211

narrowchannel_conv_bias f8 [3]
00000000: 7b47 30f7 3578 ee3f e34a fc5f 6610 d2bf
00000010: 9514 2220 e668 df3f
0.9521741702940142 -0.2822509705885478 0.4907775224494995

conv_kernels_64d.0 f8 [3, 64]
00000000: 7b37 d2f4 6ae2 93bf 5c9e b889 21e6 c4bf
00000010: 3d74 6b98 8075 c63f 87be 1af3 7ed9 9b3f
00000020: 17b0 1ec0 56b2 b1bf d25d 6e21 9746 b3bf
00000030: 7f14 aac7 bfd6 c23f 5f34 b86d 1204 c43f
00000040: d68a c596 a8ba c2bf 7092 357e 2602 9cbf
00000050: 407c bb56 1c40 d2bf 72b8 3192 f7c8 d03f
00000060: 18c3 ae71 89d8 97bf a0a8 4109 47ed 843f
00000070: a15f e57e 2c80 c83f 19d0 2d79 899a a6bf
00000080: fd96 a190 61fb bd3f 0e7b 28ff 5059 a6bf
00000090: 1c52 bff4 90ba 44bf 2907 6991 2f98 b63f
000000a0: fd08 7908 ae00 933f a136 6019 da40 cc3f
000000b0: 2aa7 b980 1df9 d93f d909 c88a 62c8 b53f
000000c0: f975 7390 02c0 d33f 3869 76be 653b d23f
000000d0: 1e99 fc63 d986 9c3f 7751 16ea 047b c6bf
000000e0: 27b8 33f4 f413 c63f c3b5 a33e 7452 b63f
000000f0: 8158 ff52 8800 613f 1f74 1053 92d8 c93f
00000100: 9af4 a0c3 4e2c ae3f d48f 2b07 0b2b c2bf
00000110: 0a36 1926 2439 bd3f 8246 f1f7 0d71 c93f
00000120: 7a18 8473 a77a cc3f f7e3 3a7d a752 b3bf
00000130: 8e49 2160 f3c0 b0bf 5b9a ed85 d457 c63f
00000140: 029b 9839 b785 c73f bec8 b96e 43a7 a5bf
00000150: 50f3 0343 851a c9bf 2b33 9aa5 5c9b b13f
00000160: f01a b740 1387 bdbf f226 f714 3526 a43f
00000170: 471d 5073 2aac ce3f cda5 80dd d628 cf3f
00000180: 59dd 28d2 1d68 dd3f daab c993 8756 d83f
00000190: edca e7dc aa62 d63f 729a aa4c ce67 a5bf
000001a0: 45cd e1de 9efb d53f cbf1 c71f dae8 a73f
000001b0: 1bc4 4e44 8517 9bbf 2ea4 623e 9bdc c43f
000001c0: 650f 58f1 8f6b c4bf 8ac0 099d 7e3f b13f
000001d0: 3fba 5803 0dc1 b03f 8515 172b e6dc c13f
000001e0: 785f 9b31 dded c93f 323d 1986 12d7 a9bf
000001f0: d588 cd34 319f b43f 3e37 73c6 fb3d cb3f
00000200: 747a a2db 3f9a 27bf f6d1 0b1a 03e8 a4bf
00000210: 4c7a d99d 0bd0 dbbf 0b36 85af 1a0e b5bf
00000220: a63a 6a5c f3f3 c73f 65c6 9095 a6f4 ae3f
00000230: 7902 996f 51cc c2bf 6749 4ab0 55ca 753f
00000240: b197 d1b9 0f1e c0bf bec7 22e4 da73 cabf
00000250: b8a2 966d 5441 c7bf ca4a 821f b3ae d0bf
00000260: 6862 bb89 48e6 b0bf 1e3b 40cd 9fb1 debf
00000270: 1eaf 170e 7f62 a0bf dafb 6dfc 4ef5 b6bf
00000280: 100c 1840 5efd 993f 829b 7c03 a60a a03f
00000290: c13f 162b fce7 afbf 58d8 ff41 0808 9c3f
000002a0: 1dcc 5a10 a256 c43f d42f 296f 58ed d73f
000002b0: c35e f7aa b15e b63f 19c4 5a85 bcf5 a23f
000002c0: 733a 63b4 0299 c53f 351c 0102 6c18 b83f
000002d0: 3815 22f7 efa2 c3bf 927d db4d e32f c0bf
000002e0: 23a7 0ce9 2842 d33f b4f1 286c a4e8 a2bf
000002f0: d970 878b 0897 cfbf c896 90d3 4b6f c43f
00000300: 3c14 5a06 5a0d d03f af72 a735 634d d8bf
00000310: 9506 051f 6442 c3bf 5361 2d2b b114 c0bf
00000320: 8d2d 1352 c532 c73f 4655 63fa 9877 d8bf
00000330: c827 8c19 c778 993f b45e 220a 8203 cd3f
00000340: 8ae9 b52c b37e d4bf 1117 3046 2f2a 9b3f
00000350: 8461 c0a7 81fa c5bf ea22 05d5 ed86 9d3f
00000360: 3b0d 242c 04cd a03f a767 612e 110c d03f
00000370: 693d 36dc a838 c5bf 4862 0126 7375 adbf
00000380: fdef 1150 b74a c3bf cad2 93ef 1ba0 c73f
00000390: 4686 d138 f62a 853f c2f0 2f68 cf64 c13f
000003a0: 7378 fe46 262f cdbf 971e 46b3 71d5 92bf
000003b0: 2ae1 0603 80b9 cd3f aa8a 5d67 fc68 babf
000003c0: 9bbf dcae 1ab3 c43f fd47 d545 5c2b c1bf
000003d0: d21e 9b34 c750 b9bf 4b16 7453 ba06 c93f
000003e0: 2f16 9381 744f a2bf e5eb 8874 928d 91bf
000003f0: 0cde 0818 ee76 c3bf e10b 4ba1 278a c0bf
00000400: 8120 4cb1 a595 c2bf 57b3 7c1e 647a e0bf
00000410: fe34 71be 5c60 b2bf 047d 7f99 31a7 ad3f
00000420: 944f 9c68 c2a1 b43f a689 0821 e53b c23f
00000430: 31a7 09ad cb59 de3f 117d 9106 6269 d6bf
00000440: 8ecc dae6 593c d03f ba35 d1b7 f0ec 9abf
00000450: ce3b 1384 2490 d8bf a3f9 4e4b 4f0b d13f
00000460: ed1f 90bd 2e9d 913f 6e84 e65a 4867 c53f
00000470: b0b7 4723 05b8 cfbf 9ea2 54ce 28d1 c5bf
00000480: aedd ebd0 cfda c23f b9ad bfc4 0845 c6bf
00000490: 998a cc45 b69c 9cbf f22d 8a35 6e27 cebf
000004a0: 67e1 27d3 4668 c3bf eafc a755 d641 b23f
000004b0: 18f9 4b5f 50c3 bc3f a83d b86d 1ade af3f
000004c0: cae3 ecef a893 d73f 9abb 18c6 53a4 c5bf
000004d0: 003e f0c8 d0e3 d33f 27fe ea4d f8ae c0bf
000004e0: 06be 17ba 2f7a aebf 72c9 f511 2d87 9b3f
000004f0: ebf7 6c36 7d1e c6bf 272d 4f19 a224 e03f
00000500: 4550 c3c9 7741 b4bf 9ee0 be73 da4d cd3f
00000510: 8044 94d6 99fa c3bf 63bc 322a e66f 70bf
00000520: b56a 7b2c ce3c d3bf 1c0c 94a1 b430 c53f
00000530: 106d bbf6 64b6 33bf 7f3c 03ed a157 b53f
00000540: 3b4d a79f 8968 cf3f b0ed 3620 a202 693f
00000550: 0f89 a5c0 3ce9 a4bf 50ab 592c 0ed4 d33f
00000560: 173f bbf3 20ed 81bf 4e40 04ef a7ad b1bf
00000570: a601 6692 4b3d bb3f 018e 9d40 c10b 913f
00000580: c22b 3426 ed89 9c3f a895 de21 7609 37bf
00000590: 38c1 3655 2b90 783f e72f 260e 4f21 b33f
000005a0: 175f b2bd 106d df3f 60fb b066 323c c7bf
000005b0: 4d95 17bc 7f17 c2bf 41ef d1e4 c964 c43f
000005c0: afd4 4550 6ea2 c43f 4864 8fed b39b a43f
000005d0: c420 3767 4b2b c73f 6e00 2367 d48f ccbf
000005e0: b567 4d99 ea16 afbf 857b cb4f 950b d03f
000005f0: b4e9 ab97 6ec0 d03f f2a9 ef2a ce99 d23f
-0.01941840285558481 -0.1632730410067208 0.17546088640566096 0.02719686850349359 -0.0691274851839697 -0.07529587331952506 0.1471786236690242 0.1563742671718584
-0.14632136690041503 -0.02735195298500276 -0.285163006496024 0.26226605679301607 -0.023286960185660538 0.010218195886597947 0.1914115542992905 -0.04414777378306684
0.11711702137980846 -0.043650180003387815 -0.0006325919907746477 0.08825967121177015 0.018557280795229215 0.2207291244416654 0.4058297879297351 0.08508888138025074
0.308594361367653 0.2848753318773052 0.027858158805565407 -0.17562924795187104 0.17248403476645643 0.08719564942631224 0.0020754492361261816 0.20192174011109018
0.05893179071470307 -0.14193857050042757 0.11415315561426823 0.19876265150610456 0.22249310627393354 -0.07547995383619353 -0.06544419381069685 0.17455536403140823
0.18376818001089396 -0.042291743532488976 -0.1961218430732523 0.06877688448930701 -0.11534233407938266 0.03935399895597226 0.23962908392443635 0.2434338170581171
0.4594797661151993 0.3802813475837731 0.34977218220517053 -0.041807600840276474 0.3434827019293219 0.04669839513732973 -0.026456911367578422 0.1629823736778077
-0.15953254017233146 0.06737510045945974 0.06544572192863372 0.1395538053895217 0.2025715343686405 -0.05046899687715224 0.0805540803826575 0.21282908620781343
-0.00018007306591001952 -0.04083261197039072 -0.4345730821131937 -0.0822464636341566 0.18713228237580387 0.06046028686286035 -0.14686029385667945 0.0053199145519492235
-0.12591740201167803 -0.20666061534353547 -0.18168120718953218 -0.26066282345815905 -0.06601384508702213 -0.4795913223651257 -0.0320014671995905 -0.08968061125595686
0.025380585348113327 0.03133124153673973 -0.06231678033793698 0.02737439062908495 0.15889383123939718 0.37386141639285353 0.08738241600019152 0.03703107002127854
0.16873201187123107 0.09412264870580674 -0.153409953756787 -0.12646142293577306 0.30091307409985485 -0.036931169703595584 -0.24679667294447574 0.15964649038612877
0.25081492061901023 -0.3797233604398497 -0.1504635955298467 -0.1256314717127319 0.18123690135540152 -0.3822996564097888 0.024874792990011746 0.22666955466114802
-0.3202331482531454 0.02652810922520305 -0.1717073506449759 0.028835025908196345 0.03281415022686437 0.2507365181860401 -0.1657916140797895 -0.057536695851642394
-0.15071765336676882 0.18457364271275473 0.010335849389039652 0.13588898265141408 -0.2280013891840472 -0.01839234978390766 0.23222351215168519 -0.10316445849961534
0.16171582735250642 -0.13413575563259875 -0.09888882669758495 0.19551781725765446 -0.035762444321829505 -0.01714161716720843 -0.15206695722166363 -0.12921615005151835
-0.14519187123392288 -0.5149403186274907 -0.0717828717181028 0.05791621207003497 0.08059325269669976 0.14245285141903458 0.47423068903173077 -0.35018206254422163
0.2536835436287185 -0.026294480532944788 -0.383797768573399 0.266315291923002 0.01720116645813612 0.16721443594454705 -0.24780334685004624 -0.1704455382798828
0.1473026056407724 -0.17398175818321507 -0.027941558847610713 -0.2355783235001208 -0.15161977110234234 0.07131709662643329 0.11235525442677774 0.062241388219372695
0.36838744573793447 -0.16907736942945634 0.31077975867171403 -0.1303396587809271 -0.05952595850601132 0.026882843228528804 -0.17280545384886578 0.5044718260118416
-0.07912396121838679 0.2289383950389991 -0.1560852334737639 -0.004012965279954181 -0.300586265029476 0.16554887666288287 -0.0003007885450025541 0.0833684161800523
0.24537773414213312 0.0030530134697223862 -0.04084195949214308 0.3098178322895153 -0.008753068388073921 -0.06905603013388026 0.10640404056721894 0.016646403855146378
0.027869897324346977 -0.00035151609506053417 0.005996865529070576 0.07472700210035975 0.49103182339739376 -0.1815245629713571 -0.14134213146386757 0.159325825432342
0.16120699805802505 0.04025041842368943 0.18100874461948113 -0.22313933406804004 -0.06072171326987023 0.25070698540178454 0.26174511729882544 0.29063753312098506

conv_kernels_64d.1 f8 [3, 64]
00000000: 789b 8851 8f90 c23f 9adc 96f8 d7d5 87bf
00000010: 1e86 5b7c 3213 d13f 87d2 3cc7 b317 c4bf
00000020: 96b4 59a6 6515 d7bf fb79 1946 e96c d5bf
00000030: 3430 d011 fc5b bbbf 83b8 4ce3 1abf c13f
00000040: 01a2 03b0 8182 c53f 4993 951e f36a b9bf
00000050: c991 a6a4 73eb 9b3f 2470 daf2 0cd4 dc3f
00000060: a34e 5992 2f24 88bf 0101 50c3 adc0 e03f
00000070: e147 b1c8 5646 d1bf 7665 4654 1d03 da3f
00000080: e356 254b 75e1 c93f 7a17 71f6 1933 d83f
00000090: 2e01 1283 8a06 a73f 738b 2e6c 25a8 a73f
000000a0: 41ca d1df 3afb d33f cd84 dc7c 6fe9 aabf
000000b0: bf3b c9c5 7333 c2bf 1463 510c 93fc adbf
000000c0: c13b f2e2 e851 a13f 2595 f45e 2424 c6bf
000000d0: 2d31 5de1 dd93 c83f 4721 6efc 6aec d1bf
000000e0: a990 1318 8d20 c23f 0d61 7373 971c bebf
000000f0: 9adc c108 2f20 c73f dd80 e593 50c9 be3f
00000100: 01c1 ea45 489f d5bf 4ad9 65be 6e13 c1bf
00000110: 1d1b 2d87 7db4 b7bf d2a5 6b2e 35ff c1bf
00000120: 5577 145f b740 d1bf cfda bbd4 4e68 c1bf
00000130: 357c 4d5f deae debf 21bb 5ce2 8b42 d0bf
00000140: 57fc d00c 27c3 c8bf b19c de4a 635d c5bf
00000150: aafb 15ca 05b1 b13f 4c74 d5f6 f0c1 86bf
00000160: 27f9 ad03 2671 ca3f 50a2 448e 2631 c53f
00000170: 4a8a b404 98c0 b8bf 3a79 c1e1 d728 cebf
00000180: 438f eed2 1cdc 993f eb98 b1a4 605f 753f
00000190: 4025 0333 10a0 95bf 413b 84bf 81d4 aebf
000001a0: c888 a99e 5d53 d7bf 7203 56cb 53e1 9cbf
000001b0: 439c e366 d233 8dbf b232 12b8 edbf c9bf
000001c0: 07a6 0272 2ab3 a7bf 52e6 8441 4279 ad3f
000001d0: 6ba8 4656 9776 993f b36e 997a 23ed 5a3f
000001e0: e03c 9763 e1b2 aabf 431b 32b1 ed58 bbbf
000001f0: fc82 6f1d f2a4 d13f 9f61 644c b480 c5bf
00000200: 51aa 74ad ff8f ccbf 07cc cfbf 137f a13f
00000210: 019c 8a8d 09c8 b8bf ce9d 60cb cc8d a7bf
00000220: f045 4660 a8e6 c33f c9b6 e716 408a b6bf
00000230: c6e2 ab2a c2c5 cdbf 79b8 3f81 91f0 c23f
00000240: 1f12 d646 3976 bcbf 3cd6 a6f8 5489 babf
00000250: 9ef7 790a 2554 d8bf 256f 6083 50b7 bfbf
00000260: dd1f 5379 847f c5bf 9647 f783 87e4 e0bf
00000270: 7b7c fc88 504d c53f f9d2 01c6 0dce d13f
00000280: e93b 4dc5 332f c4bf a13f e595 cb85 d4bf
00000290: 9ef9 46af ba16 cbbf 7fec 932e b823 cdbf
000002a0: 558a 846f c753 d0bf d5e9 b16a cea9 e2bf
000002b0: 5ec6 d7fb e7c8 b5bf f31e e8f1 aa27 d1bf
000002c0: 8e44 32a4 86e4 ccbf ead8 dfb5 30ae d6bf
000002d0: 74e3 268e c532 bebf 824b 9b49 a853 bfbf
000002e0: 5024 1499 d091 cabf fd43 dde5 1019 c0bf
000002f0: f1e0 2f43 d475 c0bf 99c9 978c 4598 cabf
00000300: 5965 6417 b650 d1bf 5810 b12e 2028 b0bf
00000310: 6e33 aed8 eb9e d7bf 7470 c2e3 00c3 8c3f
00000320: 224f becb feb4 cfbf fee2 d7db aefc 8dbf
00000330: 45cd 34e0 08a0 c9bf a013 cf14 1f09 d3bf
00000340: dac9 dca2 07c4 dcbf ad12 d96c 219b d4bf
00000350: 64af 0bb7 5ccc bdbf 1bed f44b 9e4c 9a3f
00000360: 2f88 e6b6 24ac 893f c155 447f 977b d0bf
00000370: 0973 cb18 eb00 ae3f d618 da92 66c2 cbbf
00000380: 9804 2a42 c2d9 dbbf 1913 2574 afe5 d5bf
00000390: 6b77 2bdc e412 b43f 0833 4ac7 78b5 a7bf
000003a0: 99b0 4219 ffd4 d1bf 209d bf46 b432 b1bf
000003b0: c674 a135 399d d1bf 8861 ce4e 7927 bb3f
000003c0: e400 e7c2 3ccd cabf 55de c2aa b8d7 ba3f
000003d0: 46b8 aeb9 8c23 bbbf 13af 4ddd 02f2 d4bf
000003e0: 71f6 9988 d5d6 cc3f 4eda db91 6c43 c5bf
000003f0: 1a86 31c9 03c6 ccbf 8d04 4174 1aca c23f
00000400: 866b 20f4 3642 9b3f d7d9 912d d000 d6bf
00000410: 76ae ad05 7d56 c63f d7c0 a89d 0f7c a6bf
00000420: dba5 dde6 63c5 bdbf af71 6572 7411 ccbf
00000430: 4b7e 3221 dd38 b1bf 86c9 d0f0 7d50 c8bf
00000440: 6209 7eb6 fb10 99bf 8544 ad02 5bd1 d0bf
00000450: a0b2 ee7d d1da cebf 7e44 06d9 c098 abbf
00000460: 8f8e 1720 8816 d03f 2817 1e6c 10bf c23f
00000470: f6f4 acd7 1ec4 d83f 4d73 440a 87e6 bd3f
00000480: db31 1520 0b6f c33f 6749 4cac 0ebb bb3f
00000490: 4fb2 e86e 6c3d e0bf fb69 7e8f 9717 a1bf
000004a0: 9520 b7fd 752f c3bf a331 0f40 12b9 a6bf
000004b0: cf18 2aad b5f5 db3f 151d 213e 5b02 b83f
000004c0: 531a 34ea e41e c4bf 6ad8 01c5 a441 a43f
000004d0: f585 fea2 d7dc e3bf 1194 6187 e3ac b13f
000004e0: 76e9 b7fd 442e be3f 6978 4bf5 1871 b43f
000004f0: 4c9c da4c f1b4 ce3f 4aaf aadb 99f4 c3bf
00000500: 1f1d e6d8 3983 c03f 0c76 ab99 fc6f d93f
00000510: 8ae8 47fb c1f3 aebf ba8f 1514 5c0b a83f
00000520: d8e9 3e9e 4c91 bb3f 3eb7 6d29 efc0 b63f
00000530: 3f86 3d9f 38cb c13f d9a2 a05c a47d e03f
00000540: cfce 1c8f 025a adbf 6813 b3cc 3b9d aa3f
00000550: bacf 02c0 f7dd cd3f 6834 35f1 55a7 c1bf
00000560: 0f12 cd29 f64c cb3f 1ed4 6417 5eaf dc3f
00000570: deb2 5977 e093 c13f d885 68a7 07ae e03f
00000580: d709 265d cfd5 bf3f 539f 276e 3737 dbbf
00000590: afa5 0215 7e6c b13f c608 104b a310 bd3f
000005a0: d04c 6372 ed7e c5bf f9b8 1a91 cf45 dc3f
000005b0: 0896 fd66 b684 d2bf 8033 7d08 9660 b23f
000005c0: dee0 5117 0573 b7bf 011c ad4f 71d0 aebf
000005d0: 15a6 4257 cf37 d5bf 87df 3380 c03e b4bf
000005e0: 3f84 8732 8513 b6bf 87a1 f500 3b9d da3f
000005f0: 3347 66ed c7c0 ce3f 26cc a86b 30cc c63f
0.14503661614545726 -0.011638343118518347 0.2667967047146663 -0.15697333553693602 -0.36068097348363304 -0.3347724136891938 -0.10687232432263799 0.13864456270806977
0.1680452451175967 -0.0992881726902627 0.02726536457488907 0.45044254032268527 -0.011787768987381602 0.5235203566262784 -0.26991815184476137 0.4064400980947406
0.20219293755751896 0.3781189829500061 0.04497177934627171 0.04620472856119919 0.3122088609444838 -0.05256222151934651 -0.14219519765398833 -0.05856761479726039
0.03382804651584293 -0.17297796856397799 0.1920125341806708 -0.28005480433832414 0.14161838222128623 -0.11762377327557179 0.1806696694145316 0.12025931940798125
-0.33784682109673275 -0.13340553566713204 -0.0925978140850074 -0.1406008221304505 -0.26957496915007556 -0.13599572551148362 -0.4794231348695946 -0.2540616713112503
-0.1934555828647457 -0.1669124713491548 0.06910740073906987 -0.01111210110928531 0.2065780179945673 0.1655624575298753 -0.09668874850152878 -0.23562143824796938
0.025253725408801896 0.005217912209536583 -0.021118405450385014 -0.06021504843567139 -0.36446323866233543 -0.028203305516857076 -0.014258998646665804 -0.20116969573827742
-0.04628880159118514 0.05756575631899054 0.024866451874608602 0.0016434523080510021 -0.05214599934299158 -0.10682569099490728 0.2756924903351743 -0.16799024324496956
-0.2231444928123261 0.03417264667941571 -0.09680232720948824 -0.046003722978919734 0.1554766149607043 -0.08804703292090744 -0.23259760936323043 0.14796656428319802
-0.1111789510669685 -0.10365801878546049 -0.3801357843693668 -0.1238909073585402 -0.167954024544314 -0.5278966500720681 0.16642195404799395 0.2782015260375342
-0.15769049772140356 -0.3206662143538726 -0.21163114126643462 -0.2276525714331434 -0.255113467124976 -0.5832283100019661 -0.08509683512218078 -0.26804612754538865
-0.2257240583171875 -0.3543817306630347 -0.11796221466546603 -0.12237026021038669 -0.20757491564316632 -0.12576495384067235 -0.12859586029640682 -0.20777196278465906
-0.2705512264670538 -0.06311226978238105 -0.36907478485300416 0.014043814612073137 -0.24771103809745748 -0.01464211090477496 -0.20019637057849074 -0.29743172676199414
-0.4494647112325346 -0.3219684184044052 -0.11639956921470468 0.025682900796920465 0.012535368758850833 -0.2575434439507625 0.05860075643224689 -0.2168701378870483
-0.435165943730746 -0.34214388220088804 0.07841329932440792 -0.04630639488923377 -0.27862527338835147 -0.06717993476160133 -0.2752211593377293 0.10607107328394794
-0.20938834683148067 0.10485414666151745 -0.10601119550003188 -0.3272711907545595 0.22530621690741584 -0.16612012025844297 -0.22479293178462073 0.1467927043577543
0.02661977639227644 -0.3437996335045716 0.17451441552417507 -0.04391526031065645 -0.11629318605778087 -0.21928268037562534 -0.06727392254333002 -0.1899564195496845
-0.02447884847016136 -0.26277804623993745 -0.2410528054146157 -0.053899790279623425 0.2513752282522796 0.14645581511666106 0.38697024404594005 0.11679882050198138
0.15182627741377427 0.10832301813596744 -0.5074979940596424 -0.03338311792977674 -0.1498858918041647 -0.04438073188757421 0.43687192831602045 0.09378595606641611
-0.1571928161212833 0.03956332116006041 -0.6207082923394284 0.06904432349399793 0.11789351648613952 0.07985073078768469 0.23989692928918982 -0.1559021303740969
0.12900469866529193 0.39746012694180943 -0.06045347397226049 0.04696166749161486 0.10768584121152658 0.08888144265594364 0.13901431823164676 0.5153371628885807
-0.05732734677294859 0.051980847108587025 0.23333641887222517 -0.13791918065763586 0.2132861808878634 0.448203585477417 0.13732534244208855 0.521243884057351
0.12435623191962662 -0.4252451492052291 0.06806171429584283 0.11353512365897975 -0.16793602071138602 0.4417609135661134 -0.2893501287238398 0.07178628642323126
-0.09159881419498414 -0.06018404100046127 -0.3315313675071548 -0.07908251886317262 -0.08623535617472643 0.41584658712101724 0.24025820819638852 0.17810635811619696

conv_kernels_64d.2 f8 [3, 64]
00000000: c581 9f48 12e2 cd3f 5ec4 4b0f 5d34 da3f
00000010: c29c 98db 6db5 e13f fad3 4031 dad5 e23f
00000020: fd72 0310 d735 a83f 0f74 4f53 e38d c63f
00000030: b7b1 9d9b 9290 c4bf b648 6f87 e88d d13f
00000040: 3a27 c854 4ef1 5a3f f20c 0548 574b c83f
00000050: e962 2a26 8fb6 a0bf d255 9725 4bfa af3f
00000060: 7ab3 3fcd c3d1 c73f 7b52 4fed 2e6a a33f
00000070: 0519 bf45 ed56 c6bf 4672 acbd b3fd adbf
00000080: 2513 ca9e a62e b0bf 5a59 3501 0929 d2bf
00000090: ec16 a69a 6f1e b4bf 4ceb b89b 7c05 a4bf
000000a0: 13a3 106c d6a7 d53f bd3f 086d db77 cfbf
000000b0: e4d3 c6e4 4737 b2bf 01c4 df33 3dad b3bf
000000c0: 4d51 372c 57e4 c3bf c339 5cc3 3c5b d1bf
000000d0: 5714 34a4 8800 c2bf 344d bfcd f1f6 be3f
000000e0: 1575 5950 e07d d03f 0466 155a 075b c73f
000000f0: 786e e4b1 9969 b23f e400 e166 441b 8bbf
00000100: 31db 570b ff6d c13f af1f 88e0 13a1 8f3f
00000110: 0abb bd23 4b85 d03f 3758 7ef1 afc3 aebf
00000120: 96d0 269f e8b2 b23f 76eb 8959 ff52 90bf
00000130: 76dd 39b8 6d1b c4bf a4ee d17d 6b73 a83f
00000140: bab0 4512 1e07 d13f 9989 2410 8234 a23f
00000150: 10ac a705 8b56 a03f 50e9 aad3 ab3b d0bf
00000160: 849b 5f76 6852 ca3f 20c2 5fc8 557a d03f
00000170: 69df 64c5 3cdc a7bf 0cb4 850a c41d b23f
00000180: 1b96 b614 b2a4 a63f 7297 5396 35f5 91bf
00000190: 4ec8 cfe4 ed97 cabf 0f52 7dbf 3786 bcbf
000001a0: 9cbc aab3 d1e3 8b3f e2a4 806f f821 b9bf
000001b0: a93f 13ca 122c ccbf 2400 ecc5 60ad 903f
000001c0: 6ce5 7d8a f326 cebf 2200 c886 4c32 cebf
000001d0: bf17 70f0 512c 83bf b350 04e2 a574 c8bf
000001e0: a4e1 d810 7173 c03f d658 3575 7714 b93f
000001f0: 893b 6096 0179 b93f 371c aae5 bcb9 c63f
00000200: 7466 be18 ef24 b3bf a64b 1018 cec1 c3bf
00000210: 19ec 74d3 8fb9 cbbf 554e f80a 3d4d e3bf
00000220: 82ac 7661 d1db cebf b1ca 037e dce9 d3bf
00000230: e9f0 538f b491 d6bf aaac 209c ecd4 b6bf
00000240: 3c9e 9b14 734b d0bf 4d65 d28e ce55 d2bf
00000250: 92b5 0674 2e0f 7cbf 1448 1d69 9a5f bbbf
00000260: ae0e af34 fe81 bf3f acb0 abe3 73b0 c73f
00000270: 2410 7247 c7a4 84bf 73e5 06af 5bb2 e9bf
00000280: 4927 b52c fc33 dcbf 25f3 9bce 0231 d4bf
00000290: f3f7 5666 f4e9 a33f 340d 29b0 9250 c7bf
000002a0: 4822 fc58 5360 dabf 7db9 1893 af59 d6bf
000002b0: 4229 5e57 ef25 d9bf 4156 5010 2871 c8bf
000002c0: ba22 a5ae efbf d5bf e33b cd7c 36e3 c9bf
000002d0: f9fb 7ca7 0384 d3bf 0798 fd77 344c c7bf
000002e0: 36e7 658d a9e9 acbf d21a 4d3e ea9a a7bf
000002f0: b76c 8f62 38c4 b3bf aaa5 5a0e 606d c3bf
00000300: 3ee8 a513 6500 e0bf 0f6d c180 9d01 dbbf
00000310: 8a7e accc c721 c4bf ede1 f40b 7387 c1bf
00000320: c735 07bd e899 bcbf 63fd e4b4 664f d13f
00000330: 3eec b5fb e592 b6bf ab58 783b b7fe e0bf
00000340: 8b5e 83dd 6291 ccbf 7e55 7852 607e c8bf
00000350: 1050 092d fe52 c03f f8cf 5e88 2e2d d6bf
00000360: 7d2c 8677 a813 d3bf 61bf 312a 542b b0bf
00000370: 2625 b980 a837 a1bf 369c 7312 0488 abbf
00000380: c5fc 68bf 2834 d3bf 5fca 62ce 13f7 cabf
00000390: 0a1c f169 324f d9bf d387 3d48 7acc d2bf
000003a0: c9f1 b0e4 af84 a73f 404a 5a0c 9616 d5bf
000003b0: 15c0 fc86 2296 c9bf eb06 f5d5 add3 d0bf
000003c0: 7855 5e89 6f0c d0bf 20de 0e73 6b9d d5bf
000003d0: 4325 8e5a c88a d6bf 277f 4775 5061 bcbf
000003e0: 6dc3 5bab 4880 cbbf 7807 a60d 1d6a c6bf
000003f0: 6f9a 166b c826 bebf d308 791e 470a d8bf
00000400: 12d0 f1fe 906b d83f ab8a 65fd e6d6 bd3f
00000410: 701e 6744 cbc7 dd3f 867e 5e74 f43e 85bf
00000420: f830 9fc4 457b a43f e466 cb13 cc9d db3f
00000430: bd28 9196 7fc6 e53f 921e e77f fd02 b73f
00000440: d06f 5fa6 7d30 d5bf d513 ad9c d0a3 bbbf
00000450: 15ce 7594 f2a1 b53f 4245 271b 0b66 ba3f
00000460: 7843 b633 a6f2 823f c6d2 66e5 97c8 c3bf
00000470: b4cc 851d 3dbb c6bf e3f1 5ecf 0f46 d0bf
00000480: d7e3 9bc0 6284 b2bf e50b 1211 64ea debf
00000490: a4f7 cd62 7548 ab3f 126a cf94 c3da c33f
000004a0: 8178 6304 149c b9bf 618d ee60 95ad 84bf
000004b0: 1598 a8b1 33b5 d13f 8ae0 87ee acfc c73f
000004c0: d4ee bdec 6634 b43f 458c 17cb 14cd be3f
000004d0: 086e d895 91cf d43f 6a96 1419 97c4 da3f
000004e0: 3799 51bd f385 cbbf 1a30 4d49 98df bdbf
000004f0: b3db f944 757c b3bf 450f 04db df08 d53f
00000500: 9c85 f569 bed0 b3bf 1db9 2843 7af0 9fbf
00000510: e946 4183 788e c5bf 88c2 d92e 2b23 cbbf
00000520: a510 5e74 6eff cebf bb09 4cc8 9ccc c33f
00000530: de24 c399 1ca0 cb3f 474c dda7 5726 a9bf
00000540: 3836 89da 2a2f a83f 7d75 29ed c372 d6bf
00000550: 064d 27fa 25c6 d1bf 484a b9c4 dd40 a53f
00000560: 0b3a 2f11 09b0 d8bf f8d3 d782 e4a7 c1bf
00000570: 0a6d 8c64 8761 be3f 4a6d 4c6b ac47 d4bf
00000580: fbae e22a e787 da3f 7a49 4a11 62eb cdbf
00000590: 5ecc 5b2d b5a9 ad3f 0186 d1c4 76e4 d43f
000005a0: 4cae f247 e30f dabf 4ded a3dd f20b c7bf
000005b0: a143 2f63 f859 bebf 7bce 488c 75f9 dc3f
000005c0: 1862 16f0 381e d6bf 0b24 09d2 df77 953f
000005d0: 4eba 64bb 86fb b0bf 8225 e3e2 b872 dfbf
000005e0: 1ed8 dee6 933c e5bf fac1 62dc b83d 72bf
000005f0: 6848 9a1b 9d2b bfbf 72e0 f0dd 2ca1 c33f
0.23346165224121598 0.409446015298334 0.5533971108424327 0.5886050188042866 0.047285767273683256 0.17620507781876468 -0.16066200827061802 0.27428639627499807
0.0016444458916588648 0.18979922310436553 -0.03264281597984626 0.06245646318317778 0.1860890152160229 0.03791948935364516 -0.1745277967986071 -0.05857621851302901
-0.06321183563893536 -0.2837545882988671 -0.07858941579442175 -0.03910436058909869 0.3383689933130409 -0.24584524940337174 -0.07115601859443604 -0.07686216846902029
-0.15540589961040965 -0.27119368627691304 -0.140641288926562 0.12095557473303559 0.25768287512421867 0.18246547602284136 0.07192383378099432 -0.013235601796737169
0.13616931966654414 0.015443949975647657 0.2581355904612087 -0.060086725453559024 0.07304242978608708 -0.015941610183726827 -0.15708705420886887 0.04775558386697057
0.26605941566846136 0.03555685469679588 0.03191027111082445 -0.2536420409266116 0.20563989429430418 0.2574667412546052 -0.04660215291590825 0.07076668984309736
0.044225277927847105 -0.01753696184177706 -0.2077615134472261 -0.11142300057446895 0.013618124289989368 -0.09817459795216935 -0.22009501330330508 0.016286384658997247
-0.2355637003163723 -0.23591000157466718 -0.009361877584534882 -0.19105981384257617 0.12852299997917982 0.0979685460236824 0.09950265809332683 0.17754327024542402
-0.07478231767745475 -0.1543519608972847 -0.21660039734874273 -0.6031785215622657 -0.24108330973590247 -0.3111487608540911 -0.35264314648499223 -0.08918646632871466
-0.25460507404793353 -0.28648723552176564 -0.006850415666503367 -0.10692753855008191 0.12307728563524264 0.18507240883571308 -0.010079914920659468 -0.8030222338194747
-0.4406729160879093 -0.3154913919132006 0.03889430760635539 -0.18214639283733336 -0.4121292466157098 -0.3492239891519587 -0.3929403641892756 -0.19095326229641965
-0.33983985953504325 -0.20224648565132872 -0.3049325118662974 -0.18201309069553437 -0.056470201979165344 -0.04610378275406436 -0.07721283346420448 -0.15177536679156606
-0.5000481971503701 -0.4219735867861382 -0.1572808980354135 -0.13694608768288621 -0.11172346701569956 0.2704712645099418 -0.08817899127272796 -0.53109323134665
-0.22318683448860485 -0.19135669733865862 0.1275327415374936 -0.34650767629068424 -0.2980748336055468 -0.06316114454398082 -0.033627763474735325 -0.053772094013588775
-0.3000585431327177 -0.21066520287930054 -0.39545879693872676 -0.29373032622072265 0.045934197107701254 -0.3295035477287094 -0.19989425269295738 -0.2629198636460461
-0.2507590142716576 -0.33773313747539824 -0.35222061961447454 -0.1108598982168557 -0.2148524128638444 -0.17511332670624902 -0.11777927984676649 -0.3756273076616143
0.3815653314297843 0.1165603989261778 0.46531945877038705 -0.010373983193687108 0.040002994777383394 0.4315061753564875 0.6804807606470359 0.0898893773329468
-0.331084644769132 -0.10796836686229423 0.08450237392917644 0.10311955845761125 0.009251879170536034 -0.15455912305119152 -0.17758907262359502 -0.2542762303453669
-0.0723325462567027 -0.4830560843185466 0.053287189780334004 0.1551136471378674 -0.10003781420843617 -0.01009670927107348 0.27668468808622154 0.18739854475984813
0.07892459182579198 0.12031679113674539 0.3251689875921504 0.4182489151884058 -0.21502539390639594 -0.11669303693378233 -0.0761178296469172 0.3286666525675524
-0.07740392767802579 -0.03119078669458829 -0.1684103623288629 -0.21201076305034783 -0.24217014963153818 0.15468177585723972 0.21582372196124927 -0.049120654336228635
0.04723485868144589 -0.35075472030970173 -0.27771901539854615 0.04151051546491097 -0.3857443492715055 -0.13793617619344878 0.11867567257688819 -0.31687460401891043
0.4145448607257404 -0.23374582142112016 0.05793539217656794 0.3264443323188005 -0.40721971536797663 -0.18005214521677218 -0.11856033727168704 0.45272577953003407
-0.3455946297267771 0.02096509665924277 -0.06633798670802912 -0.49137708813631076 -0.6636447438420452 -0.004453394043750775 -0.12175924228566404 0.15335617863616197

conv_kernels_64d.3 f8 [3, 64]
00000000: 1ce6 9f9b 342b b13f 8d4b 391c 1257 d4bf
00000010: ef02 4add e1e5 b7bf 8545 d651 c54d d2bf
00000020: 43e2 ab87 5a1b c13f ad5a afd4 c782 b3bf
00000030: 332f a80d 6bce d1bf 0929 6e49 e4fc b93f
00000040: bb32 8e90 752e c9bf 0a0c 3b5c 68ce cf3f
00000050: df87 ea99 1e5d afbf c73f 631c d1b2 933f
00000060: 1e60 f9b0 eeef db3f a3d4 03de 52dd ab3f
00000070: 6cb2 53ea b1c7 babf d4cb 734b 1b1e abbf
00000080: d821 6f38 5aad cdbf 7299 8195 09be 893f
00000090: e8d1 ddef ae64 c03f 6bc9 60c7 2873 d3bf
000000a0: ee4b fbf5 6feb b5bf 8f48 1067 0ab2 743f
000000b0: 65c1 353f 3688 b43f 2fcf c98f 9a03 b8bf
000000c0: 37cb d27f 87ce c5bf e4ac db61 d5e9 b6bf
000000d0: 04d4 d0ae c8fe da3f 733c 1696 8737 af3f
000000e0: 6840 95ba 4554 8fbf e263 ad16 1dbc bc3f
000000f0: d9fb 0419 10c7 c03f fc5e 016f df2d bb3f
00000100: 2fc9 a0ea e5b0 bf3f 83f6 514f 39db df3f
00000110: dfa0 c8b2 e529 e43f bf38 41cb 9f86 d93f
00000120: 7ec0 d35f 2c78 b83f 944a a154 1dab a73f
00000130: 457e f427 3bfe c2bf 02df 4521 df16 e13f
00000140: 1721 ca6c d5f8 ce3f a036 3e0b 27b4 bcbf
00000150: 515c f040 81a7 d33f fc8f b456 0126 94bf
00000160: 37a5 b2df 041c c23f d351 591d 6b43 b93f
00000170: 68c7 44e6 510c a8bf 6e2c 825f eaf3 983f
00000180: 8683 6e22 c2d7 bcbf 4628 a39e d57e bfbf
00000190: 2baa 1cc1 2a6a 863f 43af abde d692 c2bf
000001a0: dae5 5cc4 7e6a a9bf cc15 f457 3775 d6bf
000001b0: 8214 70a5 60cb b53f e518 d31b 7474 aabf
000001c0: 0dce d1fd 0814 b63f 571f f324 68e0 b33f
000001d0: 182a 02a0 0cdb a73f b3a4 4e2c 3644 95bf
000001e0: ec2f 2004 4a10 acbf 7889 a90b eff8 c9bf
000001f0: 8faf 483e 377f a13f 2b55 8cd2 bc76 c23f
00000200: 757e 48da e62a b8bf 7c65 5793 0688 843f
00000210: 2f51 fe5e 3387 d13f 6bce c0b6 5b64 ae3f
00000220: 7fc7 843f 7003 bc3f e133 c4ab 90f5 af3f
00000230: 1de1 ee7d 76f1 ccbf d379 33db 554d d03f
00000240: 7c4d 1894 cdc7 db3f e054 7428 55eb 98bf
00000250: b2f8 8160 5cf9 d13f 2271 4786 b113 b6bf
00000260: fc2a 46b5 21a9 dc3f 9217 7931 ac81 d63f
00000270: d6b7 37f1 c673 b83f 1d52 80bb 63f6 a33f
00000280: 3e8e 79b6 756b c33f 9aa6 06b3 ec97 cd3f
00000290: 9c18 8882 53c6 dd3f 8a67 6e1c bdfb ce3f
000002a0: 42da b6db 266d a03f 67ca 3a78 aabf b4bf
000002b0: 99de 5335 6ef9 78bf dc93 3514 b8a6 d23f
000002c0: f9d4 4c59 3855 c33f be2a e955 bcae b23f
000002d0: 7b72 ffa7 2eac d6bf 0f47 76bc 2555 bfbf
000002e0: 21bd 86f6 fe5b cc3f e4bf 8ded 1bc6 c9bf
000002f0: ec9b c195 7a77 be3f 5985 5b87 de88 cd3f
00000300: 3621 8851 c3d5 b33f 57df 8e8c d078 d83f
00000310: 4ee7 a3ed 9a13 c63f 4415 ac0c 5e54 bc3f
00000320: 4643 8477 ad8a d33f 0a42 b4a3 b094 d53f
00000330: 233f 86a1 11e2 b53f 8f3d c004 91dc bd3f
00000340: d2cd c113 fafd 98bf 36ea 6c4c de6e c2bf
00000350: 3103 7ed9 51b2 d83f 98c6 09dc 5231 cf3f
00000360: 4a78 3292 cc50 bf3f cbe5 a544 7cd5 d73f
00000370: 8eca b8f9 1ecb 8ebf 30d8 e987 74f3 da3f
00000380: 666c 47a9 0f93 d03f fea5 648e 0322 d03f
00000390: 5980 4c42 c5ac e83f 678a 2da6 c169 e23f
000003a0: 880b 4871 a707 d03f bc02 9fbb 8f69 d03f
000003b0: df0c 0f1e 34e3 df3f 81f6 0614 6f8e c63f
000003c0: d7f6 d5aa 04a7 d33f f621 6815 8013 c63f
000003d0: 6415 ee5b a5c9 d43f 3a39 34ef 7498 c03f
000003e0: 1e9a 201f 27ff bf3f d80d 6df3 fad2 e43f
000003f0: a4ef e6bb 7110 bf3f da0f 6734 be49 c23f
00000400: 5185 beaa 959c d53f 92ea f363 1cb3 c9bf
00000410: abd8 62ae 1316 c8bf 95c1 b61c dfd3 b43f
00000420: 6f35 0ef6 88fc e23f 6a2e bffd 959e d83f
00000430: ac85 fef7 8f75 b63f 2fab 1fd5 a816 c8bf
00000440: f7fe 2539 096e c0bf 0e31 d90e ab27 adbf
00000450: 03e1 a8b1 5033 c1bf bbb7 5af9 9060 cdbf
00000460: 7bdd 74b4 cd30 d1bf 49cd 914d eb98 cc3f
00000470: 220e 32ab e47e a53f 68ed c489 8b35 a33f
00000480: 9390 e0e5 57f1 cc3f 9a84 3784 600c 8dbf
00000490: 0b68 b382 82dd d7bf d44c c882 28f2 c53f
000004a0: f4d0 f2c2 50fe 9c3f f633 aeaa a57b ee3f
000004b0: 5cd4 ce31 821b d63f 87af aa5e 4150 d1bf
000004c0: 7260 a008 928b babf 175b b9fa f5b5 d33f
000004d0: e5dd 245b e40f c1bf 1c42 8203 10e0 cebf
000004e0: 7450 3286 9983 c9bf 0f57 5935 11a5 b3bf
000004f0: 659f 05c8 9f15 d6bf 7585 16b1 ce5b c3bf
00000500: e7f8 a931 0d0b c03f 8d31 5f9b 4f69 cc3f
00000510: badc f77c 1e56 d9bf 57af d0a1 d7a6 ae3f
00000520: 07c5 fa10 42e4 d5bf 7fc8 851a 3132 cfbf
00000530: ff2c 87fd d483 d6bf f03c 529d 6901 d2bf
00000540: 3665 18d4 6a50 c6bf d7e4 4de5 583f cd3f
00000550: e003 7c2b adda c63f 6956 4ff3 4548 b43f
00000560: 79aa c2f4 b698 b8bf c62e 907e 9e5a dfbf
00000570: 1c44 8ec6 e4e0 9abf 05b9 7421 888c e0bf
00000580: 632c 189d d31e debf 60c7 2c0f 25a1 e5bf
00000590: 62cc 0b54 8ccd dcbf c607 b953 97b1 ddbf
000005a0: d205 9654 400e 3e3f a333 b949 d31c aebf
000005b0: 6f6e 507e e5f6 d0bf 7890 7116 1075 debf
000005c0: 4374 9148 5262 dcbf 32e5 cf41 4cc3 c5bf
000005d0: 0ed7 1fdf 0ef3 bcbf ac7a 1bab ec21 e7bf
000005e0: fd91 016b 941e d8bf a7e3 9cb5 c01b b0bf
000005f0: b10d eb83 c689 e1bf 0a0e 7f0c f91a e7bf
0.06706551360539276 -0.31781437641364435 -0.09335147526327224 -0.28599675170797695 0.13364726662236323 -0.07621430342201548 -0.2782237656945085 0.10151507179958598
-0.19673032339450977 0.24848656180810763 -0.061257320679274356 0.01923681960835191 0.43651931078557193 0.05442294082778545 -0.1046096036040553 -0.05296407028244912
-0.23185279613086496 0.01256949889666423 0.12807261192541763 -0.3039037653972147 -0.08562373881731819 0.005052605280996172 0.08020342868053872 -0.09380498896080945
-0.17036527387025455 -0.08950551642526566 0.4218007762131608 0.060970532485151184 -0.015297455555497844 0.11224538615842009 0.13107491704610544 0.1061687131890458
0.12379300096725808 0.4977553629504216 0.6301144115323288 0.39884180878733483 0.09558369960336852 0.04622737558442683 -0.14838351679735431 0.5340419435369486
0.24196880161276432 -0.11212390923011606 0.3070986875695257 -0.019676228444168928 0.1414800731920793 0.09868497339750286 -0.04696899352928946 0.02436796386659206
-0.11266721096627749 -0.12302909014684457 0.010944684999761275 -0.14510618088331215 -0.04964061877258148 -0.35090430821614116 0.0851345447445784 -0.051669720074231575
0.08624321171537748 0.07764292623607837 0.04659308865764816 -0.020768019155785477 -0.05481177616465502 -0.20290935582586278 0.03417370448400369 0.14424858360931955
-0.09440462903193654 0.010025073405744982 0.2738769939108065 0.059359422739729016 0.10942746687649495 0.06242038819082275 -0.2261188616664719 0.2547201767573856
0.4340700098266195 -0.02433522281088052 0.28084477829532795 -0.08623799827859505 0.4478229780440157 0.351664589227192 0.09551661862471347 0.03898917831262259
0.15171691331771514 0.23119887105467712 0.46522987124661497 0.24205745590444067 0.032082762070264184 -0.08104958949369633 -0.0060972504627369245 0.29142572377742026
0.15103821144445087 0.0729787549727616 -0.3542591705898201 -0.12239299632190302 0.221557493566686 -0.20135830973913393 0.11901060253295243 0.2307394181180296
0.0774805139591351 0.3823739407193804 0.1724733028748297 0.11066234406833525 0.30533920928524017 0.3372003172562762 0.0854807872149164 0.11664682737340669
-0.02440634484851307 -0.14400843364440313 0.3858837722728366 0.24369273895313337 0.12232664651171024 0.3724051161185257 -0.01503586005774096 0.4211093261031946
0.25897590190078856 0.25207604318219967 0.7710901541613665 0.5754097219144797 0.25046716749800924 0.25644295999886046 0.4982424062292931 0.17622173765078133
0.3070689838713014 0.17247010274174074 0.324807491088299 0.12965261154062963 0.12498707303948506 0.6507544283307949 0.12134466969922514 0.14287545736999513
0.33768216776123433 -0.200778530888631 -0.18817373290011594 0.08135790301344621 0.5933270269176044 0.38467931537591105 0.08773135952517092 -0.18819151312285373
-0.12835803308916358 -0.056943269312428865 -0.13437851595677594 -0.22950946975237038 -0.2686037313719322 0.22341672217917566 0.0419837435702244 0.03751789147141943
0.2261152145812316 -0.014183763537348338 -0.37289488567114465 0.17145258317814316 0.028313886545860492 0.9525936444857723 0.3454289900212808 -0.2705233978729144
-0.10369217596633165 0.3079810093380941 -0.13329748583213 -0.24121284648255503 -0.1993286042458099 -0.07673747589555212 -0.3450698331202971 -0.15123923918603635
0.12533726620672 0.22196383558765512 -0.3958812923805898 0.059866655829266584 -0.3420567670646765 -0.24371923251198166 -0.3517963863238975 -0.2813362156238801
-0.17432914119926018 0.22849570461747845 0.17854847548735986 0.07922780218299298 -0.09608024097057379 -0.4899059520691761 -0.026248526209716613 -0.5171547559200752
-0.4706315073132769 -0.6759209915528395 -0.4500456639063427 -0.4639643018346046 0.0004586131149935921 -0.05881366991943728 -0.2650693639313663 -0.4758949488807569
-0.4435010632203708 -0.17002251828652387 -0.11308377215740625 -0.7228911725940939 -0.3768664402944351 -0.06292347368152083 -0.5480682922865779 -0.72204258385358

conv_kernels_64d.4 f8 [3, 64]
00000000: 1b40 e9b1 4260 ccbf e6fd ed42 ef34 a2bf
00000010: 3982 3ccd 5b42 c43f d20d fc87 b5ea bb3f
00000020: edf7 c538 fdb5 bcbf 1db5 e774 b0bf c8bf
00000030: 23eb f937 fc1f c4bf bb2a ea45 2335 c3bf
00000040: 1d46 464d 654c b6bf a432 752a e6f8 cd3f
00000050: 9ae9 4f93 78a7 cd3f b994 9d8f 7e00 d2bf
00000060: 65eb 8367 0d6b babf 1ef4 4108 f6ac d33f
00000070: 71f3 1191 cd25 e13f b817 b3cc 08ef a5bf
00000080: 72b5 9e9b 3876 b6bf d5a6 46ff 9745 8bbf
00000090: 8e62 6160 91cb a93f 4b00 a71a 5228 743f
000000a0: c671 1d39 116c d1bf 7631 10b2 d05f bcbf
000000b0: 3eef 6943 cd29 c4bf 54da ab01 b53a d03f
000000c0: a343 fcc2 cb6c c13f 24ca b770 ddf4 a9bf
000000d0: 4999 d267 c709 cc3f 9c2e 7852 5092 9d3f
000000e0: 6a32 3019 8842 c0bf 33b7 901e 7a85 9ebf
000000f0: ed80 f7b3 849b db3f 4cc4 53a6 0636 c3bf
00000100: 26b7 9ab3 f5b8 b03f 0c3a fc39 05e8 c13f
00000110: 6315 5af3 d1a3 96bf b150 37b4 08f5 703f
00000120: f272 f530 c4e6 96bf 5f16 e9be 8f25 cfbf
00000130: d73b 5980 fe53 74bf 58c7 ed63 1deb cabf
00000140: 7c53 3d3d cf31 95bf 6c46 88b8 cbd7 c2bf
00000150: 3bd2 47df 63d4 d7bf 4094 6034 9de4 ddbf
00000160: 81ee 4747 2fae b7bf 69e7 435e 072f aebf
00000170: 8c60 e58f 452c aa3f 2b5e c036 da3b c7bf
00000180: 5fd1 65c8 a720 cdbf 640e f43e 37df bebf
00000190: 271b 680f 543b babf 508b c418 53d1 cbbf
000001a0: e2c6 f014 3162 c2bf e787 63b9 e5cc c7bf
000001b0: 0b8e 856c 90d3 b5bf 3443 70c5 e5cd b6bf
000001c0: 8be8 4b3d 40fa cdbf c842 c159 4e4d 32bf
000001d0: b100 fba0 6777 a23f af57 12a3 5cf5 d8bf
000001e0: 998e 5c9d 1fa1 a43f cb9f bac9 0dd2 c0bf
000001f0: 1e78 da62 daf3 d1bf 907d ea80 f95f d5bf
00000200: 05c7 0cf1 8e39 d3bf e155 5d8e ac8e ddbf
00000210: 483f 7cc9 a74e e0bf ae42 ee38 902e bfbf
00000220: e9eb 3fa5 9383 d0bf 91e3 b921 dd20 babf
00000230: cf66 c634 2653 d7bf a246 ced0 19a7 b7bf
00000240: a7dd 328c a2c9 cabf 9be9 3cbd f656 bdbf
00000250: a908 209c e336 d1bf a5bf 42ad f879 d0bf
00000260: af0c 926f 5f39 babf 4e61 6ca2 ea2a a13f
00000270: 17c7 a2cc 12ae c7bf 2aad b150 a126 cdbf
00000280: edfb d06f b029 cabf df0d d580 82f6 bebf
00000290: c763 0f89 344f b9bf bfda 6fb0 1880 cbbf
000002a0: 3ecb 4e46 44ce ca3f 7e44 bda0 f359 ca3f
000002b0: 6b83 1bb5 84bb e2bf 0f3c d68e 6c2b cebf
000002c0: b3fd c1ae 7d84 c33f 89cf 0ab3 255d bebf
000002d0: 67f9 af44 cc03 a4bf cdc9 ae8e 684a b33f
000002e0: d866 d136 47cc ac3f 8f4c 9faf d2c8 c0bf
000002f0: 3bd6 efb9 b339 a83f 1dd1 0e36 067f 97bf
00000300: 533e b85e 0008 c83f b77b 89a7 81d9 c53f
00000310: 3571 778a b4fd d5bf fb9c e46b 9c16 d5bf
00000320: a053 723f b941 c4bf a899 c64b 2fc7 c7bf
00000330: 6e91 fdd0 78dd e2bf ea65 e532 bd02 973f
00000340: e44e 4c44 6b60 e2bf b177 2eec 3627 a5bf
00000350: 10b4 04ae 669e c2bf 4ecd c347 eca2 ae3f
00000360: 78b2 f2fe 10e3 dbbf 8e29 e83c 3ce5 953f
00000370: a984 6139 7246 c1bf f548 2f22 2b81 c2bf
00000380: 4e3e 4c57 f8a9 d2bf 5eed e126 4969 cfbf
00000390: e950 36b7 3baf bfbf e3e0 0c1a 6a2b d6bf
000003a0: b5af 57b9 2440 a73f 963c 5c81 8448 c03f
000003b0: b090 e76f 7abc d3bf c9f1 64a6 ec68 c4bf
000003c0: 52a3 fbb1 573c d7bf ca1d c40b 561c c1bf
000003d0: c3c9 1a5e 3ebb cabf cfdf b14c bc6a cfbf
000003e0: 2a80 4d07 6fa6 b23f 6a05 715f fb2c d1bf
000003f0: ba0d 9b32 c935 973f c630 54cf fb27 b9bf
00000400: 365e 041a 2471 dabf 863e 0a0c b5bb d2bf
00000410: ccbf b09d 4592 c3bf f704 e92b a024 d7bf
00000420: 259b 384b 91d9 cfbf 6691 34c5 238c e7bf
00000430: ad2f 62b8 e111 b03f d059 a464 48be d9bf
00000440: 9f6c 0fdd 1918 d4bf f2a0 cbab 1f35 cebf
00000450: 5869 2728 c35c c2bf 5e73 5867 771a c0bf
00000460: 4342 f1a2 15a7 bc3f b053 7bf5 8102 babf
00000470: 0eb8 4c46 aaba d5bf 5d30 1a4a 780c debf
00000480: 7580 30a3 4ce4 bbbf dd9d e45c 802c b4bf
00000490: 29cf 7748 daf4 d1bf 0150 252d 2b89 cdbf
000004a0: 21c0 c4b6 9849 d9bf fd25 c085 e59c d2bf
000004b0: 30c1 0617 f02e d9bf d804 6cce 8495 cdbf
000004c0: 81d6 7759 e6de d4bf c9b6 1a8d bf9d ddbf
000004d0: 58ec 6f42 5145 89bf 78c7 c5fe 38f3 d6bf
000004e0: c41c f8f7 2e39 d4bf d98b 0e4b 7d47 b33f
000004f0: 4f1e 99b4 2265 cdbf 811b 27d7 8b13 ca3f
00000500: 74f1 c4c7 eb5c e5bf 60cb d644 3bb5 c8bf
00000510: d956 0101 57c7 e7bf b234 171d 3291 d0bf
00000520: f1d6 d506 d4d6 dbbf 972f 72b8 a184 d3bf
00000530: 81bb 63f4 2855 c0bf 08ed 7366 849b cf3f
00000540: fccb 2fc1 573f d5bf e135 8b8e c7fe b5bf
00000550: 58f3 df25 280f cbbf 2216 f12a 47ca babf
00000560: 21f9 f4bc abff dcbf ad41 8f65 627e d6bf
00000570: a6b5 f6bb ca0f a9bf 466c d00b a51c c7bf
00000580: a993 07f3 a2de d5bf 26e1 2280 b475 e1bf
00000590: 081c f041 6d4d b33f 3f21 554f c7b1 a53f
000005a0: 6ea2 39b7 c39a e5bf a827 65c4 96fa e4bf
000005b0: 2248 2cd9 a4aa ce3f 2d0b 59a8 15a8 d0bf
000005c0: f184 206c c1c6 bd3f d6d0 3bde aee0 dabf
000005d0: 9e2c f7dc b91d 9abf e112 17bb 2f7b d3bf
000005e0: ecd2 ba72 b23e bdbf c5f8 63b7 3a31 e0bf
000005f0: 8857 eb22 0004 d9bf d747 3dd6 1af4 c5bf
-0.22168763815943823 -0.035560109062313036 0.15827510377222767 0.109050126742708 -0.11215193401400798 -0.1933498926950187 -0.1572261117288117 -0.15005913652233524
-0.0871032060297456 0.23415829728255233 0.23167330925919033 -0.2812801744933711 -0.10319598939160597 0.3074317055359773 0.5358646233940886 -0.04283931254171541
-0.08774141120257697 -0.013316333272843131 0.05038122464674642 0.004921265334303436 -0.2722209031833497 -0.11083702418563299 -0.15752568999948297 0.25358319438183696
0.13613268872043446 -0.050696296700966564 0.21904842919793513 0.02887845519403119 -0.1270303843488308 -0.029806049457128125 0.4313670880783452 -0.1500862419266319
0.06532226214286804 0.1398932011729389 -0.022109299161930617 0.004139932632330965 -0.02236467884846411 -0.24333378621865884 -0.004962915559715029 -0.21030013446175633
-0.02069782077099401 -0.1472105647122136 -0.37233826451054924 -0.46707849612204555 -0.0925015973115766 -0.058952551133144855 0.05111901647131942 -0.18151405023012165
-0.22755906376881804 -0.12059350287386789 -0.1024677789319922 -0.2173255797325404 -0.14362157366263434 -0.18594047119319088 -0.0852594628282121 -0.08907924719120502
-0.2341995524691963 -0.00027926600319453905 0.03606723632901899 -0.3899756996628367 0.040291774710820856 -0.13141033506440034 -0.2805086102833928 -0.33398282613230723
-0.3003880838397069 -0.4618331327704635 -0.5096014914761122 -0.12180425062093533 -0.2580308069006479 -0.1020639617289716 -0.36445002702531054 -0.09239350650593761
-0.20927841039313685 -0.11460821266238101 -0.2689751648578161 -0.25744454307550263 -0.1024379393948489 0.03353055222231892 -0.18499979965195543 -0.2277413982404622
-0.20439725360662866 -0.12094894070928984 -0.0988648256892609 -0.2148466931827979 0.20941976006505486 0.20587010716056747 -0.5853904282813408 -0.23570019697623976
0.15248080285162544 -0.11860881444118666 -0.03909147585362654 0.07535413249460206 0.05624601883091679 -0.13112863135629424 0.04731523174988835 -0.02294549660628419
0.1877441847322979 0.17070027046699263 -0.3436099388325318 -0.3295050672190453 -0.15825572584131198 -0.18576613616933213 -0.589535148796626 0.022471386176539022
-0.5742698987910129 -0.04131480820727463 -0.14545901772490355 0.059836753616674274 -0.43573403260487664 0.02138227578874701 -0.13496234704783674 -0.14456690949607034
-0.29162415051630297 -0.24540056608735034 -0.1237675974173872 -0.3463998083493733 0.04541125071031563 0.12721306148930428 -0.3083788006608854 -0.1594520390007246
-0.36305801755093114 -0.13367724966540911 -0.20883922190621548 -0.24544481034149476 0.072852076800246 -0.2683704788251676 0.022666114534116245 -0.09826635181179019
-0.41315557995537533 -0.2927067391947066 -0.15290136527755605 -0.3616104534922466 -0.2488271348276722 -0.7358569003741138 0.06277285338927525 -0.4022389395553576
-0.3139710100928798 -0.23599620712707964 -0.143455881697103 -0.12580769106070994 0.11192450740896569 -0.10160076373297389 -0.33951813569262945 -0.46951110111763744
-0.10895232185475996 -0.0788040377416261 -0.2805696208663329 -0.23074855522520468 -0.3951169762467562 -0.29082620679454846 -0.3934898590914768 -0.23112545088955616
-0.32610472428437026 -0.4627531888935264 -0.01233924373626942 -0.3585951316846301 -0.31599020210019213 0.07530959207956246 -0.22964891260402218 0.20372150426393534
-0.6675928975815126 -0.19303074704438483 -0.7430834788926531 -0.2588620456779821 -0.43498707454214897 -0.30497019779499496 -0.12759887631497338 0.246933507943915
-0.33199113717927253 -0.08591887693474788 -0.21140004968028836 -0.10464901731855794 -0.45310491040062756 -0.35146388929299627 -0.04894860786894677 -0.18056166722166916
-0.3417136548362643 -0.5456182959233373 0.07540018901646317 0.04237196772970941 -0.675142152654258 -0.6555894695131785 0.23958263973378374 -0.2602590698262926
0.1163140191061023 -0.4199635668039837 -0.025504020797410314 -0.304393704133231 -0.11423793126125376 -0.5060094434591283 -0.39086917314613645 -0.1715119882670126
