models/tf_str14_dp015_bnF_f3_res0.pt (torch, 686166 bytes, 69 tensors)

conv_kernel_16d f8 [3, 16]
000000 f6 38 a1 e7 7b fb c1 3f b3 be 96 82 66 78 e2 bf
       0.14048718271300914 -0.5771973181308198
000010 40 26 f9 40 7c 9c e2 3f 33 c1 5c 60 b3 99 d6 3f
       0.5816022175797073 0.3531311455763159
000020 51 6b 87 5e 46 46 c3 bf 7c 9c 6a 1b ee b4 dc bf
       -0.15058211913750566 -0.4485430972803852
000030 30 9e 34 9b 86 f8 e4 3f 1d 2d 19 c5 06 87 de bf
       0.6553376227720431 -0.4769913601673624
000040 c9 69 a7 28 a4 7d b6 bf 6a 19 26 de 4f 38 e0 bf
       -0.08785463326004285 -0.5068740214199299
000050 80 6d 5a 78 37 96 9f 3f 5f 05 61 0b 85 dd d6 bf
       0.030846468659189608 -0.3572704897997791
000060 ad 97 d5 8d 0e d1 a2 3f 90 98 72 39 a0 01 c1 bf
       0.03675122720123567 -0.13286211781559532
000070 79 e5 95 13 90 85 e1 3f 74 07 ca 0e b4 0b c9 bf
       0.5475540525941788 -0.19566965791824098
000080 60 f6 c8 52 57 06 dd 3f cc 09 31 cb 64 93 5a bf
       0.4535120304534299 -0.0016220554650919648
000090 4c d3 87 67 01 2a 9c 3f fd 3a 49 96 28 cc d6 bf
       0.027503988212589633 -0.356210848582961
0000a0 aa 58 5e 98 0c 15 ca bf 7d 86 b1 dc b4 f8 af bf
       -0.20376737060423028 -0.06244435495387977
0000b0 cb 35 d7 1a fd ff 85 3f 87 ca fe 2e 63 a2 dd bf
       0.01074216592942436 -0.4630363425195942
0000c0 4a 71 6a bd 98 a6 cc 3f ce 3f 66 c8 9c d6 d3 3f
       0.22383412598436286 0.3099739033723353
0000d0 af 73 84 d5 6a 74 d5 bf ef 3c df 9b f7 6a dd bf
       -0.3352305493479503 -0.45965376111867234
0000e0 82 d8 f3 26 51 c7 d2 3f 34 cd e0 9e 9e 1e d5 3f
       0.2934153442760207 0.3299938727897882
0000f0 fd 85 d8 b5 c6 1f c0 bf 92 d0 42 01 92 46 c8 bf
       -0.1259697330397528 -0.18965363561222098
000100 8b 2b c1 58 ea 34 a5 bf 34 00 40 1a 3c ec ba bf
       -0.04141933759145563 -0.10516715660924164
000110 06 7f c2 c8 3c 8b b8 bf 01 98 bc 8e ae f8 b2 bf
       -0.095874594701396 -0.07410708412916735
000120 b8 99 77 40 4b 13 a8 bf 61 e7 44 98 8a d2 a6 3f
       -0.04702220117524142 0.04457505329851475
000130 0e 5c 35 aa fb 40 b4 bf ad 21 5d 09 cb ea c3 3f
       -0.07911656289557831 0.1556028171273857
000140 35 0e f6 48 f1 86 ad 3f aa 83 30 af 4c 22 d1 3f
       0.05767015472067919 0.2677184782824563
000150 c0 be 48 62 dc 05 c6 bf f0 6b aa ea 13 d0 b7 bf
       -0.17205385970145493 -0.09301876525061892
000160 d8 2e 3a bd 71 c3 90 bf 6c fe 75 74 27 cc ce bf
       -0.01637056081248897 -0.24060528933113134
000170 79 e3 bb 84 cf 32 c0 3f 50 1a d4 8d 8f 0e b9 bf
       0.12655061703824425 -0.097878429533105

conv_bias_16d f8 [3]
000000 ff 60 c7 99 49 27 cd 3f b7 69 a6 cb 72 3c e9 3f
       0.22776145943385726 0.788628957513814
000010 02 b0 34 a7 cf e3 d1 bf
       -0.2795294888371701

conv_kernel_8d f8 [3, 8]
000000 27 69 e3 c4 2d b7 d5 3f 22 81 89 12 ac 58 eb 3f
       0.3393053457963497 0.8545742380193
000010 76 9d 70 6a bb a3 d3 3f 6e 33 51 e7 8e ee af bf
       0.3068684138729262 -0.06236692975708179
000020 2d d7 c9 0d ec c1 b3 3f f6 3f 00 09 ce be c8 bf
       0.07717776619560075 -0.19332290114880352
000030 60 8a 5c f8 2d 5e eb bf 47 e3 5c a0 81 91 c3 bf
       -0.8552465296564371 -0.15287800150124495
000040 e7 7f 7e 77 f4 ec bd 3f 5e 9a 60 7d a9 51 da 3f
       0.11689689557397252 0.41123425716287965
000050 32 76 0c 5a 17 4c eb bf cf 2b 2e 78 4d e2 de 3f
       -0.8530384787333729 0.48256241546976936
000060 04 a9 39 57 c2 0f e9 bf 87 c9 89 85 89 99 eb 3f
       -0.7831737235658527 0.8624923332375126
000070 12 2d de ef b2 4e bb 3f 4e 35 49 0e 6d 8f b3 3f
       0.1066696010222368 0.07640725706842952
000080 8c c5 16 2a 9c 55 9f 3f 34 ac 34 40 06 04 d6 3f
       0.0306000137986238 0.34399563093274144
000090 0f 3a bc f9 27 18 cf 3f 9d e4 d7 9d 43 82 bd 3f
       0.24292468732933556 0.11526892284008956
0000a0 73 25 c8 64 14 74 ca 3f 97 c6 8c 43 c9 2c ad 3f
       0.20666747017848372 0.056982316490018885
0000b0 cd ee 3d c0 0c e5 d5 3f 1c 79 70 1e 11 a2 e2 3f
       0.3421050908434438 0.5822835535543933

conv_bias_8d f8 [3]
000000 ef 10 c0 b2 e0 64 00 c0 c7 18 89 24 e8 66 ee bf
       -2.049256702886957 -0.9500618661484389
000010 1b 34 31 d2 e8 b8 ec bf
       -0.8975719552341873

widechannel_conv_kernel f8 [3, 3]
000000 f8 40 41 7a f9 e8 e4 bf 8b fd da b5 8c 18 da 3f
       -0.6534392726698846 0.40774839171714267
000010 18 c9 3c a5 01 a3 c0 bf b7 95 83 1c d7 46 f6 bf
       -0.12997456138834518 -1.392294989950967
000020 58 5a bd 93 b2 f3 f5 3e d9 90 18 47 23 27 f8 3f
       2.0935004825995508e-05 1.509555127829165
000030 6d 41 ed 05 46 1a d4 bf 0e d8 7c b6 32 c3 c1 bf
       -0.3141036088827807 -0.13876947317629668
000040 37 60 10 6e 21 50 d2 3f
       0.2861407828181685

widechannel_conv_bias f8 [3]
000000 93 9e 66 4e 18 96 d6 bf 6c 9e 42 64 7e 00 d9 bf
       -0.35291106849988657 -0.39065513411558217
000010 7f 6d 33 2e 30 8a ff bf
       -1.971237354728913

midchannel_conv_kernel f8 [3, 3]
000000 18 c5 f9 01 ba 39 ce bf 22 90 d8 8b 6d 20 ee 3f
       -0.23613667580097153 0.9414584857336232
000010 42 49 6f 9f 77 f6 b8 bf 42 ee 4f 23 e8 28 b2 bf
       -0.09751079218338979 -0.07093668806185696
000020 2b 3d 88 42 bf 55 b5 3f cc 1e 75 8d 1a cf da 3f
       0.08333964704819567 0.41889060796937083
000030 47 9d 3b 6a f9 16 bf bf 4d 88 47 0a b1 0f b1 3f
       -0.12144430965019125 0.06664568425142754
000040 13 04 9d 0d 67 c1 d3 bf
       -0.3086793549483115

midchannel_conv_bias f8 [3]
000000 71 55 49 49 c7 03 00 40 dc 06 df 80 61 ae c9 bf
       2.0018449521546064 -0.20063418190516458
000010 ad 1b 4a da 7c 1b f4 bf
       -1.2567108656819344

narrowchannel_conv_kernel f8 [3, 3]
000000 b8 3e 69 52 1d 54 e3 3f 9b 09 13 20 79 25 f7 3f
       0.6040178880302483 1.446648717203607
000010 a9 bd 99 21 78 2a ea 3f 42 9a 63 cd 5c 6d d6 3f
       0.8176842361698863 0.3504249578240072
000020 cd d2 e3 00 31 18 f3 bf fa 51 02 95 80 a7 d1 bf
       -1.1934061083567713 -0.27584852744737953
000030 30 da a5 3d 47 7e f0 bf a4 25 fe 84 97 db e4 bf
       -1.0308296592826416 -0.6518056485667114
000040 3d 18 ab 7e 81 b9 f8 bf
       -1.5452895114881493

narrowchannel_conv_bias f8 [3]
000000 ec 83 aa 70 e8 f0 f3 bf db 3d 27 d3 94 d2 e8 bf
       -1.2463154221552442 -0.7757057308280609
000010 6a 05 04 68 39 26 89 bf
       -0.012279938208396419

conv_kernels_64d.0 f8 [3, 64]
000000 4c f9 d1 3b d7 9a d7 bf b0 ad 21 07 88 d9 d8 bf
       -0.36882572976891903 -0.3882770604747874
000010 16 17 9b 0b f9 3a df bf 95 63 2e 23 fa 63 b1 bf
       -0.4879744160974594 -0.06793177946964442
000020 d3 c8 b2 08 50 7a b7 bf d0 4c 11 39 1d ed df bf
       -0.09171009266245571 -0.4988472993183679
000030 da 9a 2e 79 7c 5b d9 bf 28 97 f4 79 82 c8 95 3f
       -0.3962088759821377 0.0212726962028206
000040 d8 be d3 42 68 bd e4 bf 96 12 c0 24 97 ca e8 bf
       -0.6481210046021841 -0.7747302739886262
000050 7b ef a8 0d eb 23 dc bf 36 bb 0a fa 46 08 b3 3f
       -0.439692271556616 0.07434505085505524
000060 70 69 28 d5 df 83 d8 bf 88 fb fa 33 cb 38 d3 bf
       -0.38304897133061555 -0.3003414161320781
000070 a5 08 1d 53 b6 6a e4 bf 55 92 8e 9a d4 ae ae bf
       -0.6380263922985888 -0.059927600733577314
000080 d2 29 a0 bf 81 12 b2 3f f0 bf d0 aa 88 52 ce bf
       0.07059489181862169 -0.23689373341176134
000090 ea 7b 91 9a 20 46 c3 bf 74 00 6e 89 81 c3 cf bf
       -0.1505776171424878 -0.24815386972841547
0000a0 9d 36 12 19 ff 3b c6 bf 4a 7a d7 ab c5 9a c1 3f
       -0.1737059471528725 0.13753577128132327
0000b0 1d 20 ca 06 f2 79 a6 bf 71 ac 25 c6 3f 6d d3 3f
       -0.04389911969070701 0.30354303694065893
0000c0 f0 59 b3 f9 20 3e c7 bf 0f 96 e8 07 22 a3 ce 3f
       -0.1815835208169143 0.2393534220329205
0000d0 82 9d e5 d6 7c 10 cb 3f 26 91 cc 32 2d bd c5 bf
       0.21144066327108751 -0.16983571033882433
0000e0 4b bd bc 07 32 74 d8 bf a0 a9 aa e4 6a d2 d5 bf
       -0.38209200625984313 -0.3409678681442987
0000f0 0e 11 2b 65 a7 0a e6 bf 06 4f c6 34 51 c4 d1 bf
       -0.6888005233709309 -0.2776072516801239
000100 5f cc d3 6d 0d 03 e0 bf e3 23 3e 9a 8e cf c4 bf
       -0.5003726143899135 -0.1625841382158618
000110 f4 80 2c 3d 69 c9 cb 3f 67 06 19 03 e0 98 d4 bf
       0.21708407866481816 -0.3218307523967269
000120 47 60 f1 81 40 19 e1 bf ec 4e e3 e0 50 2e ea bf
       -0.5343325174280914 -0.8181538002340552
000130 31 f9 ab ba 0d 18 d7 bf 21 c3 3f c9 75 a0 d0 bf
       -0.3608431170431628 -0.259793707401558
000140 cf 45 88 a4 33 a2 96 bf b5 b4 ba 96 26 ab bb 3f
       -0.02210312549329335 0.10808030300059353
000150 7f 34 1f 82 6d ad e2 bf 02 53 1d 2a d3 a0 d5 bf
       -0.5836703816836603 -0.33794097054241956
000160 3f d2 69 ef bb d7 c4 bf 24 11 17 57 ee 2e 30 3f
       -0.16283368291955644 0.00024693793156084693
000170 59 7f 6a 17 2a 21 c9 bf 59 c1 c9 b2 b5 ba d1 bf
       -0.19632459777221348 -0.27702085933471704
000180 7e 3b 2a 23 7a 29 cb bf 15 8c b2 ce 64 d9 d7 bf
       -0.21220328061141552 -0.37264366326616144
000190 6b d6 c1 16 d0 6e d4 bf e9 36 60 f0 3a 58 c8 3f
       -0.31926347944622674 0.19019257294751604
0001a0 3c fd b2 53 2d b8 b1 3f aa 75 3b f9 06 2b d3 bf
       0.06921656888424804 -0.29950117434585855
0001b0 a7 d9 96 ee fe 7b ab 3f a1 3d 7d c1 bc 31 d1 bf
       0.05368038809267555 -0.26866072555000114
0001c0 a0 ba b4 da fd 0f cd bf 25 bd b9 02 d5 af 95 3f
       -0.22705052546503612 0.02117855862746611
0001d0 31 09 2d 7f 1c 33 98 3f 61 6d 09 4f f6 48 d8 bf
       0.023632474195673218 -0.37945325582923856
0001e0 1d cf c4 f6 ba 10 a6 bf ed 6c ee c9 3f 11 c0 bf
       -0.04309639227213167 -0.1255264030449789
0001f0 61 c1 04 0c bd 9f 9e 3f e7 45 12 f1 1a 43 b6 3f
       0.029906228884273193 0.08696144471675603
000200 e8 06 6f ab c9 31 c8 3f 2f 57 3b c9 25 32 d0 bf
       0.18901940222536173 -0.25306076671164396
000210 5b ff 1e d9 54 da c4 bf 7e e8 76 32 7b 21 da bf
       -0.1629129467164557 -0.40829353264019363
000220 da 15 4d 37 27 10 a0 bf b1 c4 e4 42 4e ef b8 bf
       -0.03137323904097018 -0.09740151532311604
000230 b3 56 95 5b 3c c1 b7 bf de 53 f1 74 0c 8d c5 bf
       -0.09279229389116032 -0.1683669634827813
000240 65 aa 65 0a 1a 21 ac 3f d8 14 e6 dd 28 61 c6 bf
       0.05494004609029871 -0.1748400767793672
000250 e8 fd 11 b9 c9 f7 c1 bf 46 fd de 42 03 c2 ab bf
       -0.1403743890441398 -0.05421457473084472
000260 87 50 21 a7 c1 08 ac bf 72 22 02 ba 16 45 c1 bf
       -0.05475430646097928 -0.13492092211187728
000270 dc 5f 04 e0 f7 b1 84 3f 98 fd 55 15 96 dd 64 bf
       0.010105072521170592 -0.002547066813974385
000280 4a c9 6f 7a aa fe b5 bf d3 5d 2f 4a c8 24 d0 bf
       -0.08591714371849438 -0.25224501843100916
000290 17 2a c3 c4 2f 3d d2 bf fe 3b a0 84 b8 45 d9 bf
       -0.2849845334536964 -0.3948804183173137
0002a0 92 83 10 58 59 8c cc bf 92 a4 41 06 b2 f6 bb bf
       -0.223033111572502 -0.10923302319283071
0002b0 43 ff d5 d5 b7 c2 bb bf e6 27 5c 3b c7 f2 bc 3f
       -0.10843991251567524 0.11307950209825854
0002c0 ab a2 c9 e5 7a 5d d6 bf ab c7 ee 35 a4 82 b1 bf
       -0.34945557060431537 -0.06839968029706138
0002d0 b9 94 fa 14 74 b1 bc bf f9 73 9e 65 13 52 e1 bf
       -0.11208272468737136 -0.5412690148110634
0002e0 73 d1 a4 20 d6 a7 b1 bf 9f fd 97 ee 41 7b cc 3f
       -0.06896723076790127 0.22251152181705167
0002f0 b0 c7 99 bc ed 50 d2 bf b9 2e 3c ef 84 a5 be bf
       -0.2861894933513396 -0.11971312370968236
000300 71 a8 37 7d a6 11 a7 bf 49 73 03 67 bc 22 d2 bf
       -0.04505653646977315 -0.2833701139441485
000310 13 53 89 6a 82 22 d2 bf 21 4e b7 08 49 d8 d5 bf
       -0.28335628894755976 -0.3413260064237154
000320 cf 2e 6e ee 09 e2 a4 3f 91 e4 60 c0 25 c2 b1 3f
       0.04078703914191594 0.0693687052415888
000330 dc 2c 8c dd ae 11 ad 3f ab 00 b5 b8 43 11 cd bf
       0.05677553610265715 -0.2270893718614436
000340 51 61 56 cf 1f 3c c6 3f 71 d9 1b 2b 8c 6f 7d 3f
       0.1737098467244871 0.007186458142078287
000350 92 15 ac 0c 7a dc ce bf 15 23 5d 40 d9 a7 b8 bf
       -0.2411034166217801 -0.0963111669672226
000360 6c ad b3 0f 85 dd 58 3f 52 b8 fa 13 27 3f af 3f
       0.0015176581790069211 0.06102869147194724
000370 fe ec d9 50 39 b6 c2 bf 11 4d 22 94 89 03 c0 bf
       -0.146186031797562 -0.1251079533873072
000380 82 e9 8c b0 3d e3 bf 3f 9b 1b 81 e4 6c 73 be bf
       0.12456117210687093 -0.11894875124663289
000390 23 fa dc 5c c3 d2 c5 3f 76 15 2f 8f 72 2a a9 bf
       0.17049448046050583 -0.049151973703866966
0003a0 ec 07 d7 c9 bf cb 9f bf b1 71 49 ed 51 70 b0 3f
       -0.03105067891534212 0.06421386759888638
0003b0 99 54 2f fe 8b 5f bc bf c4 11 52 ff 43 4d a9 bf
       -0.11083292918859157 -0.04941761485773413
0003c0 c9 5b 53 38 04 b9 aa bf 63 26 3e ba fb 63 d3 3f
       -0.052192813754735896 0.30297749698420356
0003d0 f9 a0 29 ce 66 7e d2 bf 30 40 05 33 bb 1b d7 bf
       -0.2889649403864634 -0.36106758100959535
0003e0 58 a6 f3 0a 74 e2 a0 bf e4 57 0f 79 00 65 d1 3f
       -0.03297770150841178 0.2717896635271002
0003f0 5b 49 ae 42 22 6a d5 3f e3 d1 d0 a5 e8 39 83 bf
       0.33460289489553013 -0.009387795982640895
000400 71 8e 2d fc 26 dd b4 bf 81 bd 59 2e de c7 b8 bf
       -0.08149951607406948 -0.09679974204640553
000410 45 2c 0a dc 18 d9 d5 3f 6a b1 04 d4 71 c0 b9 3f
       0.34137555588012375 0.10059272218922435
000420 8b f1 a9 ba 1c 3e d4 3f bb e2 4d 3d d6 79 c0 bf
       0.3162910292519647 -0.1287181662881006
000430 4d 42 1f 11 6b 3c 69 bf cc 59 8e 2c e6 3b ce bf
       -0.0030805674696028685 -0.23620297599400286
000440 b8 3e e9 74 ef 2e d6 bf 25 50 5e d4 9d ed a0 3f
       -0.3466147081098643 0.03306287019145796
000450 93 2d 77 d8 a4 e7 ce bf 74 c0 50 75 99 4d c9 3f
       -0.24144421166998295 0.1976806471661835
000460 ac 96 70 65 1c 19 b2 3f c9 ec 6c 50 06 5d b4 bf
       0.07069566227490992 -0.0795444437361993
000470 40 11 d0 6b e7 c8 d1 bf 1a 88 3d 32 7f ea b2 3f
       -0.2778872063502327 0.07389063812800636
000480 e9 ad e2 4c bf a3 a3 bf 66 84 e4 54 38 6c a7 bf
       -0.038358667502816086 -0.04574752842223333
000490 cc af 3c 4b aa f8 be 3f ad 5f c7 32 dd 11 b1 3f
       0.12098182999460433 0.0666788338634194
0004a0 ad 60 0f 35 b5 9d cd 3f be 3b 21 e2 e9 83 2b bf
       0.23137536135505368 -0.00020992498417845938
0004b0 9a e8 43 c6 ef 53 c5 bf 9b 65 54 13 28 d8 bc bf
       -0.16662404232903755 -0.11267328712383178
0004c0 88 19 d6 17 4d 23 bd 3f 3f 47 35 e6 5b 3c 83 3f
       0.11381990272466258 0.009392469370741117
0004d0 b0 54 cb 69 a7 f8 c7 bf 84 c2 3f 5c 30 a5 c8 3f
       -0.18727581659064674 0.19254116539334032
0004e0 02 b4 3a d3 6b c4 b6 bf 42 3f 33 77 4a ea a5 3f
       -0.08893464953389699 0.04280312256889697
0004f0 27 a0 e0 bd 74 10 c8 bf 9c 43 54 2d 2f 6b e1 bf
       -0.18800219794616277 -0.5443340192160693
000500 b3 66 1b 46 e0 eb e8 bf ba ff c4 8b bf 0d e1 bf
       -0.7787934655454677 -0.5329282503007484
000510 39 00 bb 06 d5 83 ad bf 3e 12 23 ec ae a6 c3 bf
       -0.05764642436179241 -0.1535242703449899
000520 43 14 62 be db d3 a7 3f f1 93 36 cd 19 22 a6 3f
       0.046538226118209035 0.04322891836208232
000530 27 d6 f2 bf 68 b0 d3 3f 70 c2 e3 3e cd 8d c4 bf
       0.3076421617982725 -0.16057744570527488
000540 d9 e0 3d 9f 5b b0 cf bf 6b 8a 89 66 a2 72 c2 bf
       -0.2475695159480498 -0.1441233635587936
000550 2d 6c 01 52 e6 16 b2 bf b3 75 4f 86 d3 34 ad 3f
       -0.07066192152107993 0.057043657441436045
000560 95 a4 23 32 22 a2 da bf c0 cd 97 e2 8d 0d dc bf
       -0.4161458482399863 -0.43832728508206387
000570 59 2c 7b 07 4b db b8 bf 16 7b e6 eb 17 8f d5 3f
       -0.09709614689488556 0.33685873067035865
000580 8f 32 bb 53 77 9d c8 bf 5e fa 39 79 fd 3f d8 bf
       -0.19230548466147865 -0.37890564764521695
000590 7c f9 ff 87 cc 2f d0 3f 79 90 f4 7e 4e 1c ce 3f
       0.2529174163936643 0.23523884963026712
0005a0 1d bf a1 1d c8 18 cb 3f 62 86 5a dc 8d a0 d2 3f
       0.21169377753130272 0.2910494472399475
0005b0 ab af 25 dc 7e b1 c1 3f ff 68 ef 10 61 90 cc bf
       0.1382292342126424 -0.22315610243715153
0005c0 d0 b2 06 2d db 3c c5 bf 21 15 33 30 96 d1 c2 3f
       -0.16591968248885403 0.147021077666218
0005d0 ef 42 fe 60 8d d1 d6 3f c8 fd 9b fb 15 c0 c6 bf
       0.3565400550078683 -0.17773699555981026
0005e0 bb 17 df a6 06 99 cf 3f 72 66 c2 c0 03 a0 e1 3f
       0.24685748241443925 0.5507830395537907
0005f0 cc 9b 30 fe 9c f3 d3 bf 39 02 c0 28 1e 23 cb 3f
       -0.3117439729998608 0.21200921048877477

conv_kernels_64d.1 f8 [3, 64]
000000 d2 d3 30 27 c0 43 d2 3f 7b 85 06 53 bc 21 97 3f
       0.28538516833515104 0.02258962876078872
000010 ef dc 30 67 38 54 d1 3f 28 ff 13 35 24 06 e0 3f
       0.2707654006694175 0.5007496868783834
000020 4c c8 df d0 d2 b0 c1 3f c8 ec da 07 52 31 d1 3f
       0.13820872496541126 0.2686352802954386
000030 c9 e6 77 b2 1c a0 d0 3f fa 85 57 14 2c e7 c6 3f
       0.25977246693183226 0.17892981522804502
000040 b1 ac 9b 5b 48 2b e2 3f f0 bb 19 04 93 30 d3 3f
       0.5677835263462808 0.29983973885003845
000050 e5 c7 2d 0d 26 7c d4 3f d3 34 0b 0d 6a c7 d8 3f
       0.32007743155474905 0.3871712806110967
000060 a2 f7 76 44 b8 0c a7 bf 3a 1d c7 64 36 bd cb 3f
       -0.04501891933203629 0.21671180649557603
000070 65 6b d9 9c ac 12 a4 3f 57 00 be d7 ad 9d d4 3f
       0.039204973360674335 0.3221239668710089
000080 d5 07 f9 b0 60 77 cf 3f b8 53 0d eb 7c ce dd 3f
       0.24583061829804245 0.46572802500059707
000090 19 67 c3 ac d9 3b 94 bf f9 00 9c 65 0c 18 d9 3f
       -0.019759560746798053 0.39209279940406777
0000a0 6c 11 94 84 af 05 c2 3f 89 1a ae b5 b1 b7 e1 3f
       0.14079851125292053 0.5536736057700448
0000b0 7f e0 17 15 3e 1f c0 bf 74 3b 2f 4a 72 1a d0 3f
       -0.12595344572014608 0.251614162870218
0000c0 85 a3 cc 74 35 72 e0 3f e3 b3 3e c6 87 54 b8 bf
       0.5139415055501649 -0.09503983106578988
0000d0 01 f9 91 6f d1 1d c0 3f 0f 38 50 d5 87 c8 e6 3f
       0.12590997646106675 0.7119788328434441
0000e0 e4 16 84 a0 cf 31 98 bf 14 0d 0f 05 d0 3c e2 3f
       -0.023627514049642154 0.5699234103016431
0000f0 bb 90 02 ba 71 9e c2 bf a7 5f 61 2c 6c d5 df 3f
       -0.14546033461113503 0.4974012788202295
000100 af 89 6d 39 f0 4e d7 3f dd 53 41 26 af c9 d4 bf
       0.3641930161303674 -0.324809825285511
000110 9e 18 b8 98 69 fe b6 3f af e6 80 81 c4 45 d3 3f
       0.08981952646726873 0.30113327643230553
000120 98 98 ac 56 09 08 d2 3f 45 e8 df 16 8c 99 cc 3f
       0.2817405077388542 0.22343588940549544
000130 49 70 7a 17 2f 35 b1 3f a2 56 7d 95 fe 7e d9 bf
       0.06721777270507902 -0.3983761272296339
000140 c6 0a 8f 74 39 c6 c7 bf 79 75 3f 86 b1 0c d4 3f
       -0.18573682967515576 0.313274746991588
000150 74 f5 74 5d db 2f b2 bf d8 19 52 be c9 3d bf 3f
       -0.07104273826276658 0.12203656097890503
000160 be 80 c9 ab 5a 26 c8 bf 3e 32 3e cd 28 0c d4 3f
       -0.18867047679942134 0.31324214976556053
000170 d2 83 fd 9d 90 45 b4 bf 9c 94 cd 53 78 b7 be 3f
       -0.07918647629914169 0.11998703046772835
000180 94 fe 68 06 1a d4 84 3f 1f 4f 4d c0 c0 92 bd 3f
       0.01017017681181124 0.11552052206871764
000190 31 1b 01 b8 40 07 dd 3f 03 8f b2 7f 4e 0b 46 3f
       0.4535676762501906 0.0006727345747958583
0001a0 dd 7e 80 8a 71 84 d0 bf 2d a8 ce 3a 60 cd d9 bf
       -0.2580837109144179 -0.40316014998336663
0001b0 5c 1e b9 87 1e bc ce bf 2c b1 35 77 51 d7 a8 bf
       -0.24011594416718907 -0.04851774769017178
0001c0 d1 04 9b f9 dd 99 c3 3f 90 a4 10 ce f9 0b c5 3f
       0.15313315093775384 0.16442797242897145
0001d0 0e 2d 17 3a eb 61 c3 bf 5f 65 dc 34 f1 90 ba 3f
       -0.151425746311681 0.10377414265203332
0001e0 85 74 46 e9 fb a3 bf 3f a4 b5 f3 12 c9 7e a7 bf
       0.12359594769664468 -0.045889171184039484
0001f0 ca 8f d0 c9 de ee 83 bf 0a d5 11 81 d2 f4 c3 3f
       -0.009732952627082531 0.15590888311604828
000200 79 df 22 0b 42 ff b3 3f 9c 66 58 05 2f e7 3a bf
       0.07811367771034651 -0.00041050813646990327
000210 33 ca 44 10 19 d5 b5 3f 18 17 b9 6d 76 c7 d1 3f
       0.08528286597428618 0.2777992316735989
000220 a8 4e df 2d ae 43 a0 bf 49 1f 9f 1f 4a f2 94 bf
       -0.03176636037792707 -0.020455511264827284
000230 89 c3 45 56 28 70 ce bf 7c 52 06 47 33 79 9f bf
       -0.23779777729535237 -0.03073577996254294
000240 18 c3 a9 70 c1 b0 b4 bf dd be 3d 89 a1 02 c7 bf
       -0.08082207680287146 -0.17976779175977856
000250 9c bc 7f 85 0f 82 c8 3f 71 b3 6a e6 89 c8 c7 3f
       0.19146913546089628 0.18580745459385242
000260 25 eb fc d6 19 4a cb 3f d9 82 8b 9d 4f da c5 3f
       0.21319888112506039 0.17072482292771587
000270 14 3b 34 82 df e6 9b bf 6d 0e c9 0d 8b 26 c7 bf
       -0.0272478984089118 -0.18086374447931367
000280 fa e6 1b 2b 98 97 c2 bf fc 13 81 23 ee 1b c3 3f
       -0.14525129418307597 0.14928986295322477
000290 0f 52 ed d7 a5 b1 a8 3f e4 a4 6f 16 cf e3 9a 3f
       0.0482303453524403 0.026259647125617472
0002a0 c9 d0 98 65 16 b6 c4 bf bc e9 e9 2e 8d fb 86 bf
       -0.16180686913288003 -0.011221983904069137
0002b0 1e fe 92 2b 58 7f d8 3f 2b 3e e6 8d 35 d0 c6 bf
       0.3827724862603378 -0.178229040419397
0002c0 cf 01 f8 58 cf d7 b8 3f d7 b3 8a 50 96 09 c0 bf
       0.09704299852456376 -0.12529257710175898
0002d0 5f d4 0e aa 8e 6b d8 bf a9 8f e6 11 ac 56 ad bf
       -0.3815647755357698 -0.05730188101304574
0002e0 12 60 29 6c 69 ea c0 bf 4b 89 74 20 c2 a6 c0 bf
       -0.13215368062333305 -0.13008905968406234
0002f0 0e d1 f1 95 2c 89 6b 3f 35 04 02 94 04 50 c7 bf
       0.0033613081755509205 -0.1821294520086966
000300 9b 51 46 2a c2 24 a8 bf c4 52 ad 09 e6 d1 c1 bf
       -0.047155444775089005 -0.13921809647094652
000310 be 52 f4 ee a3 e1 b3 3f 28 dd 43 3e bd 85 b0 bf
       0.07766174873206474 -0.0645406987203968
000320 8a 5c 3b 8a d7 5e ad 3f cf 00 61 c5 3b f1 c1 bf
       0.05736421167755974 -0.1401743615879298
000330 29 9f e3 a3 f8 74 ac bf ee 2b 08 ec 79 27 b9 3f
       -0.05557991982078498 0.09825860989091925
000340 64 02 13 f8 d5 40 47 bf 5f 7e 34 aa b0 c6 8a bf
       -0.0007096333285048881 -0.013074283785100947
000350 76 ae d9 ce 8c 00 ad bf 53 36 04 dd 08 7e c6 bf
       -0.056644821405680654 -0.17572127143687286
000360 c0 e9 63 77 3e a7 a1 3f 0a 52 7c 5a 91 0a c0 bf
       0.034479095529565296 -0.12532250326388833
000370 b0 ff fd 1a 31 d7 b1 3f 08 05 33 2e d3 3e b1 3f
       0.06968981656063877 0.06736488225853432
000380 50 1d 82 be 10 b4 93 bf 29 7f 93 67 89 57 7f bf
       -0.019241582515431788 -0.007651840912529719
000390 f7 5a bc 3f e8 09 a6 3f 71 df f9 f3 79 da 70 bf
       0.04304433610939456 -0.004114605311421702
0003a0 7b bd 2b 81 7f cb c6 bf da cf fa 54 f5 a7 9a 3f
       -0.1780852680890169 0.026031335174323413
0003b0 11 d5 e5 54 d4 ad af 3f 24 31 ba 47 40 c5 b3 3f
       0.0618730882296551 0.07722856284289442
0003c0 75 69 cb b5 78 52 af 3f e9 97 2d 45 6d 26 b1 3f
       0.061176082793923316 0.06699259699743688
0003d0 16 94 34 e5 3d 7f b0 3f 86 7b d1 a7 65 74 c3 bf
       0.06444155546030603 -0.15198965734722608
0003e0 4c 34 6a 36 52 ff a0 bf 32 be 46 cc 33 72 ba bf
       -0.03319794573062804 -0.10330508935180019
0003f0 f4 34 3b 92 e5 89 a3 3f 78 0e 89 18 94 3c b3 bf
       0.038161443806169176 -0.07514310454376438
000400 78 bf d9 f1 b4 e8 c8 3f 80 53 dc d6 14 17 a3 bf
       0.19460164841757055 -0.03728547213373812
000410 13 57 1b 8d 6b 2e 94 bf 20 12 ea 3d 36 13 e1 bf
       -0.019708328711963107 -0.5335952004684863
000420 7c d9 5e e6 d2 c7 c6 3f 97 0e e3 7a 1d c9 e1 bf
       0.17797313927230707 -0.5558001899848531
000430 5f 17 56 11 08 ed d3 bf a3 3f 97 2e 54 4c c6 3f
       -0.3113422555255649 0.17420437121336105
000440 25 85 90 33 88 f5 b9 bf c4 dd de b1 ec a1 bd bf
       -0.10140277155780504 -0.11575202314894911
000450 d4 17 3a 41 14 bd 7e 3f bd 4f 56 01 ee a2 c5 bf
       0.0075045386507834495 -0.16903472008982404
000460 c5 60 59 ed 2c 54 d1 bf 02 12 04 29 6b d3 ca bf
       -0.27076266459108594 -0.20957698347787362
000470 5b 94 6a 11 48 0d c1 3f fa 8e 45 01 96 7b d7 bf
       0.13321781969458155 -0.36691808818999017
000480 b9 b6 e6 e0 b0 ad b7 3f 55 b3 6b 2d 05 2d cf 3f
       0.09249406328919009 0.24356140821273678
000490 86 64 23 6e e1 c7 a0 bf a6 97 20 5e f8 0b c2 3f
       -0.032774967856036105 0.1409903010946298
0004a0 16 57 3f 12 09 f2 d6 bf a9 a6 50 ee 56 38 e3 3f
       -0.3585226705739485 0.6006273893919644
0004b0 11 e5 d4 68 55 57 d8 bf b4 10 a8 17 0c 7a a5 bf
       -0.38033042180502813 -0.04194677151466078
0004c0 f9 18 aa 78 2b 71 c0 3f f8 1d 56 9d 15 09 d0 3f
       0.1284536685163358 0.2505544697273474
0004d0 26 7f ed c6 b3 ec ab bf 50 f9 97 62 bd f5 89 bf
       -0.0545402698833171 -0.012675742694224695
0004e0 ce c6 4c 8b 3c 61 c4 3f 95 62 07 16 b5 88 bf 3f
       0.15921742250207277 0.1231797388821952
0004f0 98 73 3e a1 77 5c c9 3f 81 c2 b9 96 cc 58 b4 3f
       0.19813437817802249 0.07947996787857826
000500 bc a5 10 db 50 d2 d0 bf c5 b1 6f 72 8f 5d b7 3f
       -0.26283666031903485 0.09127136749129423
000510 b7 d1 21 aa c3 89 c0 3f d9 e2 9a 0a 15 d4 c0 bf
       0.129204233238523 -0.13147223489592966
000520 41 10 f3 5c 0b 39 bf bf 24 73 d7 47 e2 0c c6 bf
       -0.1219641782691392 -0.17226818569079072
000530 05 99 28 93 82 7e e2 bf 7c 5c f0 50 9b 9e ba bf
       -0.5779431223097907 -0.10398264623687398
000540 c8 25 12 9b ac 83 d9 bf 63 56 9b 2a 89 f5 af bf
       -0.39866175788537506 -0.062420164538406174
000550 cc 72 5a 59 d9 8e b5 bf ea 96 eb f2 82 74 be 3f
       -0.08421095305898091 0.11896532469435397
000560 d0 83 8f 95 c9 9b bb bf 7a 0c a9 6f af 12 c8 3f
       -0.10784587766057929 0.18807023002782214
000570 25 08 12 f9 1c 49 c2 bf 8e f8 c1 9a b8 ff 94 3f
       -0.14285623704569264 0.020506748624477704
000580 4f ac fe 24 31 70 d2 3f 7f eb ea f5 4d 1e c6 3f
       0.28809765446448393 0.17279982097337762
000590 76 09 40 70 21 ab ba bf 15 5c 71 48 4c b1 b7 bf
       -0.10417374601823845 -0.09254910248397182
0005a0 fe e2 c2 a0 38 64 93 bf 41 ab a1 d8 f0 83 c8 bf
       -0.018937001049127204 -0.19152651384077937
0005b0 d5 5d f8 0f a5 8a db bf 69 c2 1f 52 22 90 b3 3f
       -0.43033720550144255 0.07641806130392016
0005c0 29 57 d0 86 1a cc 99 3f ee 69 11 61 23 dd d4 3f
       0.02519265601957624 0.3259972045831593
0005d0 d7 c2 32 18 d7 7d b6 bf 28 b6 83 7a 51 a1 d3 3f
       -0.0878576692655416 0.30672108616167515
0005e0 02 72 4f aa e4 c0 af bf df d4 e9 be d7 78 7f 3f
       -0.062018533506236664 0.007683604008538596
0005f0 00 00 5a d1 81 86 c4 3f 60 c0 48 7c 08 6e da 3f
       0.16035483095402014 0.41296589028480035

conv_kernels_64d.2 f8 [3, 64]
000000 30 0a 6c dd 6b 3d b3 3f 0e 97 51 62 c3 ea c6 3f
       0.07515596538363734 0.17903940487593
000010 e3 d1 a2 dc c5 ac 96 bf d5 4e 62 5c 7d 43 cb 3f
       -0.02214345130114904 0.21299712191522838
000020 f7 65 7d 62 48 d5 b6 3f 2b a7 45 24 a3 1b be bf
       0.0891919365361885 -0.1176092113070381
000030 33 f4 59 c7 bb e0 be 3f 55 4c 43 5c 5c da ba bf
       0.12061666123368368 -0.10489442112457088
000040 1b 48 3a f6 24 1b d3 bf a3 9b ef b3 34 52 cc bf
       -0.29853176160497846 -0.2212587240785214
000050 9b 05 7d 5a a2 ae d4 3f 19 79 92 d8 66 10 bc 3f
       0.3231588252711732 0.10962527072340257
000060 a9 25 4a 53 91 00 92 bf 5a c8 a3 7a ff 6e b4 3f
       -0.017580290516468065 0.07981869453559068
000070 d8 77 a5 a0 86 39 96 bf a5 03 8f f2 40 a5 c4 3f
       -0.021703818850589446 0.16129314273532916
000080 8b b5 45 ec 71 3c bf bf 9f d0 6b ce 76 b0 b8 3f
       -0.12201606768004163 0.09644262828425319
000090 16 79 e5 e3 49 f7 bb bf b0 85 40 4b b8 a3 bb 3f
       -0.10924207509876668 0.10796691739280706
0000a0 a4 ac df d1 d3 9e c2 3f f7 b5 73 4a f0 19 c8 bf
       0.14547202823391558 -0.18829158435202917
0000b0 37 c1 12 cd 0a d4 d5 3f 9a 3d 68 1b e3 ee e1 bf
       0.3410670283001482 -0.5604110274597816
0000c0 78 b1 92 ce 1a 03 c7 3f a5 af 90 c8 89 e6 bc bf
       0.17978224836896195 -0.11289273401842921
0000d0 39 20 18 a2 62 dd d1 bf 9b 97 97 8d 72 08 d2 bf
       -0.27913728551402844 -0.28176559283598984
0000e0 7f 67 04 b6 5c 02 d0 bf b1 c1 b5 79 64 6c be 3f
       -0.2501441743385086 0.11884143802104209
0000f0 ce 22 32 27 5e 99 c1 3f 31 d6 3c 6a a9 ec cb 3f
       0.13749291337832975 0.21815984427819182
000100 a5 5e 56 38 d2 44 b9 bf 9a 28 71 a9 c2 01 85 3f
       -0.09870637774872167 0.010257263942680606
000110 a9 61 e6 45 82 7b c0 3f 3f 8e 0f 92 26 96 ce 3f
       0.1287691918667069 0.23895723468659644
000120 df ef 45 cc ac ba c5 3f 2c e3 c1 29 88 6c d2 bf
       0.16975936865117 -0.2878742606913416
000130 21 5e b9 10 4f 85 e1 bf b1 55 32 99 07 14 c1 bf
       -0.5475230528490479 -0.13342375736526216
000140 ce 31 10 0c db 05 cc 3f 75 e8 78 5b 47 b0 da 3f
       0.21892870034242978 0.41700920040933137
000150 47 56 e9 1f 49 3b af bf ba b4 23 b0 eb 29 e1 3f
       -0.06099918856186242 0.5363672676300191
000160 c4 66 9d d3 6e cb d0 3f 0c 02 c1 b6 97 25 d8 3f
       0.2624165598441375 0.3772944721895619
000170 e8 bb f9 ed 6b f5 c8 bf ad 40 20 4c cf 51 da 3f
       -0.19498967285059554 0.4112432711999741
000180 62 4e aa 1c 98 56 dd 3f 14 d9 0c fd 37 4b c1 3f
       0.4584102897581258 0.1351079927059763
000190 3a 6e 88 02 cf 3b c6 bf 62 74 15 1e ef 9b ca bf
       -0.17370021461180035 -0.20788372963844198
0001a0 b1 43 67 69 a3 d3 c7 3f fc 3a dd 15 52 6d d1 bf
       0.18614618918084383 -0.27229740271734193
0001b0 5f 7c 3d ab b2 35 c7 bf bc f2 38 86 b0 45 b9 3f
       -0.18132623063408723 0.09871962811389329
0001c0 d2 1c d0 f7 89 23 c2 3f fb 6f ad bc b6 72 a8 3f
       0.141709562303936 0.04775019696418777
0001d0 ea 55 7c e9 80 d8 af 3f 64 26 9e 8f f5 3b ba 3f
       0.062198666097326896 0.10247740513127607
0001e0 fa 37 5e 00 b7 c7 c3 3f 16 3a 6a dd 4d 9d c7 3f
       0.15453231351824553 0.1844880419852905
0001f0 9d dd 1f d0 38 ce 56 3f 4c 1f 50 5d 0a b2 c3 bf
       0.0013919405760115307 -0.15387086445138676
000200 b6 bd c0 c7 8a 44 c1 bf f8 32 f5 1e 4f ed cb bf
       -0.13490423921164812 -0.2181795979653527
000210 db 9d 1f da 46 24 b4 bf e8 dc dc cc cd 98 c8 3f
       -0.07867853951721974 0.19216320517600782
000220 ad 28 9b 72 05 87 a6 bf d8 66 e1 a4 4b 45 c2 3f
       -0.04399888061523547 0.1427397303657958
000230 0b df b6 30 df 76 c9 bf f3 ec db 4b 34 d9 d3 bf
       -0.1989401805747025 -0.310132097321641
000240 24 d5 c7 d0 82 e1 c6 3f 39 95 3f 2a 16 aa dd bf
       0.1787570495068077 -0.4635062611181016
000250 7e 7e c1 bc 7d 69 cd bf 9b b4 22 fc fa da a4 3f
       -0.2297818347606046 0.040733187940852754
000260 ee d0 7d 1a c3 a7 cb bf 52 56 c8 a1 a7 ca ba bf
       -0.21605719369438908 -0.10465476703424173
000270 c3 f2 c6 9d c6 88 d1 bf 35 96 85 85 87 ef cd 3f
       -0.273973135070076 0.23387235660190844
000280 6b df b7 a4 b3 23 c7 3f f0 8f 63 33 12 b9 af bf
       0.18077703040011825 -0.061958855412541314
000290 29 f1 e4 0b 1d a6 d2 bf ea cf c7 78 29 1e b7 bf
       -0.2913887611537285 -0.09030398558371613
0002a0 57 40 77 8e e1 76 c1 bf c9 72 9d 24 61 6d cf bf
       -0.13644046264971862 -0.2455254963669147
0002b0 b7 93 8a 70 e3 e9 a5 bf ea 20 c5 36 e9 10 d7 bf
       -0.04280005215449683 -0.36040716503749926
0002c0 c2 28 84 bb f2 4a d1 3f 4f 41 f1 3b 05 1c bc 3f
       0.27019947349675644 0.1098025580734021
0002d0 44 4c 84 8f 6d e0 c1 3f 33 19 d6 5c 92 af 96 3f
       0.13966149814277362 0.02215412799480383
0002e0 80 63 23 ca 5e fa 95 3f 0f 38 ad 96 cb 03 b9 bf
       0.02146289929155243 -0.0977141611922152
0002f0 ad 51 33 95 d0 46 c8 bf d8 ba 72 b4 5d 2e c6 bf
       -0.18966109547785717 -0.17328997908540233
000300 38 4d ba 4c 55 be a6 bf 82 16 2a 8b 84 68 cd 3f
       -0.04442087709062509 0.22975212855469712
000310 5b f3 c4 50 06 45 c8 bf 7e 07 fe d7 7a c7 cb bf
       -0.18960646575751636 -0.2170251421594535
000320 53 a4 a1 6a ac 96 95 bf 85 49 74 2d 34 27 c8 bf
       -0.02108258629633426 -0.18869640559621473
000330 f0 e8 66 f2 9e 8a b9 bf ea 62 8f 9e 69 75 b5 bf
       -0.0997714368631113 -0.08382282372566477
000340 b6 f1 23 46 c0 23 b7 3f 71 7b b3 18 6a eb 87 bf
       0.09038926803982048 -0.011679486159150905
000350 92 49 d3 e1 f7 a2 b9 3f 1d c0 92 94 89 c6 cf 3f
       0.1001429487544441 0.24824638132622648
000360 ee e4 fc 4f e5 a8 c4 3f b8 6e 2e 12 1b 2a c3 3f
       0.1614042892995608 0.14972246539843126
000370 d7 bf a5 aa 15 87 cc 3f c5 60 a3 12 f2 7b b3 3f
       0.22287245590587076 0.07611000971826616
000380 41 a7 28 65 d3 1f cc 3f c9 ff 17 ec 45 6c ce bf
       0.21972124518770822 -0.23767923381819703
000390 95 5e a9 a4 d2 12 c1 bf 92 ca d7 1d fc 6d c1 3f
       -0.13338692703358804 0.1361689706532912
0003a0 8c 98 59 d5 31 32 be bf b4 1b ad fb d4 20 bb bf
       -0.11795340975513308 -0.10596972603262494
0003b0 1c 64 da 65 9b e8 bc 3f de de 52 85 34 32 a3 bf
       0.1129243014969607 -0.03749240996824964
0003c0 58 b0 19 8a 0c d5 ba bf 08 e2 67 97 3f 78 9b 3f
       -0.1048133694800425 0.026825898758007255
0003d0 01 30 08 b9 45 11 d0 bf a7 50 d5 c0 21 85 c0 bf
       -0.2510542208626703 -0.12906286159216515
0003e0 3f 2e cf 7d d1 96 b5 bf 48 44 be 81 de 31 bc bf
       -0.08433255502239322 -0.11013594310340225
0003f0 d9 aa cd 32 44 36 c1 3f 62 6a cd 83 b1 74 d3 bf
       0.1344685791076106 -0.3039974009640557
000400 1c 95 47 f1 0a 60 d1 3f ed 51 9b c3 cf 04 bd 3f
       0.27148698389494696 0.11335466886095676
000410 72 29 72 e4 f7 10 cd 3f 07 31 c8 6d 63 32 c8 bf
       0.22708033232295183 -0.18903773174714208
000420 b4 ba 21 d4 cf c2 c3 3f 16 4a 73 ed 27 4f 98 3f
       0.15438268526073318 0.023739456050700346
000430 17 7d fc 0a 4f c2 9d bf 68 dc 0b 88 3d 11 cb bf
       -0.02906154160075144 -0.21146363394629764
000440 f3 f1 0b 64 8f 63 94 3f d1 83 0f 1c d6 18 93 3f
       0.01991104171882969 0.01864943071621267
000450 21 a1 ce e5 33 22 c1 bf 0e 98 2c 97 0c 97 ce bf
       -0.1338562843423086 -0.23898465520431994
000460 be 1f 83 a1 36 f0 c5 bf 75 67 a9 83 40 42 b0 3f
       -0.17139323126161615 0.0635109254302771
000470 70 a1 6e 8c d2 b9 e0 3f b5 cb 8d 27 94 9b b5 3f
       0.5226834051909872 0.08440519300147183
000480 4b bd f1 10 40 a5 c3 3f 08 3a e7 db 6a 1a d4 bf
       0.1534805376754583 -0.3141123912327264
000490 2a 46 c6 92 8d c1 cf bf 14 e2 d4 50 66 0c ce bf
       -0.24809426943515805 -0.2347534079251693
0004a0 77 9c 22 f1 ad d6 9f bf 43 16 d6 a3 cd d0 cb 3f
       -0.03109237465164624 0.21730967044656965
0004b0 3a 8e f8 81 50 9b b9 bf 1f 92 dd 15 5a 8a a6 bf
       -0.10002616093748254 -0.04402429119980788
0004c0 97 38 24 81 e0 b4 a4 3f 76 44 60 51 0a 91 c1 bf
       0.04044248176988779 -0.1372387788146942
0004d0 ee a4 25 96 7e 40 ab bf 4b 76 bb 7a 4b 76 c9 3f
       -0.05322642882203775 0.1989225720671349
0004e0 25 ff c3 0d a1 fc c9 bf 08 05 6e 46 3c 88 5c bf
       -0.20302212879323026 -0.0017414654373342792
0004f0 ac c0 ee ef 25 35 d0 3f a7 e8 7d 5b 14 b3 87 bf
       0.2532439082233491 -0.01157203582964812
000500 f4 de 63 7f d4 9a b6 3f 7a 9d e5 d9 1c 09 d1 bf
       0.08830001936064119 -0.26618119505879856
000510 07 8d 8f 41 f0 6d bc bf 01 a7 5f 54 2e 5c b9 bf
       -0.1110525283871092 -0.09906282005217905
000520 79 81 90 c6 f2 72 d2 3f 63 e8 7c 88 d2 22 c2 3f
       0.2882658900362212 0.14168769516419663
000530 f8 05 bb 08 eb 15 ce 3f 55 bb 14 7e b7 e2 ce bf
       0.23504388738915316 -0.24129384666727086
000540 96 59 91 c4 ed e9 74 3f 27 6f 9c fe ab f4 d4 bf
       0.005105904369960964 -0.3274335848270646
000550 eb 8c 93 7e 08 ce 93 bf 35 9b 60 4c 68 f2 c8 3f
       -0.019340641713722666 0.1948976872383469
000560 43 af 69 cf e0 40 c1 bf e0 5f 44 cb da 1e c7 3f
       -0.13479242446498504 0.1806291096224859
000570 6d a5 6d fa 60 f0 a8 3f 47 e0 84 b2 d9 fd bc 3f
       0.04870894486414099 0.11324844940543342
000580 0b f2 28 db 49 f2 92 bf 73 4f 1f b4 ab 21 ba 3f
       -0.018502382279836065 0.10207627437131155
000590 78 b7 c4 8c 13 46 d5 bf e1 c6 a7 10 d6 18 74 3f
       -0.33240212199131447 0.0049064981380852754
0005a0 8f 1b b8 20 16 81 c4 bf 09 9d b4 2e 35 52 c3 3f
       -0.16018940541854618 0.1509462812475493
0005b0 e7 7c 3f e4 4c 2c dc bf 90 a9 6e b6 db d4 c5 3f
       -0.44020387925952636 0.17055841834855956
0005c0 ef 79 83 28 18 7f b6 bf 7c 21 67 23 90 8c c1 3f
       -0.08787680615521486 0.1371021435609342
0005d0 10 af cc 63 25 da d7 bf 64 20 f4 ac de 19 a1 3f
       -0.3726895784954971 0.033400496113302564
0005e0 37 d2 69 34 49 41 82 3f 5b 9a 17 b3 71 1a e0 3f
       0.008913585578946044 0.5032280443090927
0005f0 d3 d9 4b 55 2a 30 c9 3f 96 8d 24 47 df 4e ae 3f
       0.1967823902593425 0.05919549697344022

conv_kernels_64d.3 f8 [3, 64]
000000 ea 4a a7 4b e0 ab d6 bf f2 64 4f f6 ae ee c3 bf
       -0.3542404879382689 -0.15572154070722594
000010 04 3f 36 56 b4 21 d3 bf 2e e1 cb 82 37 85 ba 3f
       -0.29893215579157606 0.10359522765418624
000020 3c 50 d2 3f 49 88 dc bf ce 89 c4 4e e2 19 d0 3f
       -0.44581824524471236 0.25157983486328994
000030 93 bb 8c e2 45 17 bc bf ed 18 83 05 f9 55 b5 bf
       -0.10973011761664812 -0.08334308991024715
000040 ef a6 c6 64 6a ef cf bf 96 a1 e8 41 bf f1 d2 3f
       -0.24949388428404215 0.2960050719871331
000050 f6 ce a3 27 33 0b cf 3f 3b 97 95 fc 5a 17 b5 bf
       0.2425292914918981 -0.08238762537584148
000060 70 ab 8a 79 a9 24 be 3f ad 2f 0a 0a b1 7c af 3f
       0.11774691788984426 0.061498196101723
000070 38 82 fe 82 b9 47 d1 3f 82 c2 da da de af cd 3f
       0.2700027255287156 0.23192964254623766
000080 63 84 55 84 00 de cc bf 48 25 02 a2 f3 f7 be 3f
       -0.2255249639665947 0.12097094254763363
000090 59 d7 43 98 6c d9 c1 bf 50 be 31 5e bd c5 cc 3f
       -0.13944775996031458 0.22478453730899384
0000a0 3d 8f 5a 50 e4 7e d1 3f 2b 0d 2a 78 99 e7 d1 3f
       0.27336986395879476 0.27976071104804373
0000b0 19 d1 e6 15 8e 78 a0 bf f7 33 0a 28 bc 0e c3 3f
       -0.032169761823214134 0.14888717608519617
0000c0 0a 2a f1 b9 b5 67 aa 3f a7 27 9a cd 4c db 62 bf
       0.05157249350357425 -0.0023018360196304824
0000d0 e6 71 b2 2c 77 e4 d9 3f 0d 05 59 cb f5 62 ab 3f
       0.4045694290632852 0.0534893809058393
0000e0 4b 9e 1b c4 ea 55 ec 3f f7 b3 ee c7 ca e9 c5 bf
       0.8854879217369186 -0.17119726908040864
0000f0 ca d0 4d 3d 72 cc c5 bf 63 cd 95 2d 3e 01 c1 bf
       -0.17030170434339303 -0.13285042978132386
000100 91 ec 76 49 8f a6 e3 bf f2 55 e7 df 04 85 d1 bf
       -0.6140819964270056 -0.273743837982095
000110 16 44 90 03 3a 50 c1 bf 14 e7 73 6d 23 2e c0 3f
       -0.13526082204819606 0.12640803188679028
000120 ea bf e0 e9 a3 f2 93 3f 71 06 7c 92 bd 2b c1 bf
       0.019480286741042997 -0.1341473546272485
000130 4f 97 bd 20 c2 15 e2 3f d4 3e c9 21 ab dd b2 bf
       0.5651560439552926 -0.07369489264351198
000140 d1 e2 1e 45 ac 6b c2 3f c1 93 70 ee b6 12 a3 3f
       0.14391091704398787 0.03725215588227782
000150 8e 5e 4e 40 ec bf c4 3f db eb 46 84 30 55 b8 bf
       0.1621070207590844 -0.09504988889140924
000160 4c bc a9 4e 41 9d d7 bf a5 ea 5c ef 3d bc c0 bf
       -0.3689730899995467 -0.13074468791622454
000170 90 9e 23 d4 58 9e b9 3f 8c 04 7c 41 f5 6a 90 3f
       0.10007243327310733 0.016033012506345076
000180 8c ea 59 dd fb 98 c9 bf be 2e ac af 0d 47 e8 3f
       -0.19998119648137835 0.758673518286251
000190 d2 77 7c 0d b5 30 bc 3f ad 94 1d 59 b2 aa e7 3f
       0.11011821345570574 0.7395869961298068
0001a0 81 d3 82 5c 00 f4 d1 3f 9d fc 0d 2c eb d3 ca 3f
       0.28051766428261976 0.20959224368195786
0001b0 4a 97 78 ad 71 dd a8 3f 3d e0 28 e2 74 32 d1 3f
       0.04856448404852516 0.2687046249952834
0001c0 a0 e1 db 32 44 d6 85 bf cf 6b 63 90 45 30 cc 3f
       -0.010662586977091604 0.22022313642705035
0001d0 78 1d 61 70 a3 fa b9 bf e8 8e cd d3 61 73 c5 3f
       -0.10148068898808116 0.16758368341390129
0001e0 d9 cf 08 a1 f4 16 9d 3f 1b ad 4c 91 23 c5 b0 bf
       0.02840788109661205 -0.06550810143805956
0001f0 03 a7 94 6e 8c d6 b8 bf 1a 36 0f c7 9f c4 82 3f
       -0.09702375125621292 0.00916409326773775
000200 7e 37 6a 4d a3 12 dc 3f 98 99 91 28 3a 27 d6 3f
       0.43863756713914615 0.3461442371539305
000210 64 52 eb 7b 5e bf c6 bf a7 3e 1d 39 ab 8a b8 3f
       -0.17771512079947904 0.09586591858282621
000220 37 0b c5 14 6d 11 de 3f 68 c6 7c d1 61 ec a7 3f
       0.46981360462466476 0.04672532732218998
000230 71 2a f9 a0 7d b8 cc 3f fc 82 8a ab f1 4a bc 3f
       0.22438021049522974 0.11051855505003155
000240 13 8d 3d de 12 dc b8 3f 03 f5 3b f6 38 e6 8f bf
       0.09710805822173922 -0.015575833334418926
000250 c1 69 8f 31 31 44 b1 3f 7f 7d 4d 4d bc 15 b0 bf
       0.06744677982297899 -0.06283165824196678
000260 78 b7 f3 c0 46 11 c3 3f 22 6e 5d c0 0a 77 a6 3f
       0.14896473332867877 0.04387696836667156
000270 6b fb f4 48 6d bc 84 3f a6 85 c5 63 8c cd b0 3f
       0.010125020779580848 0.06563641963796005
000280 3f d6 a0 06 4f dc c1 bf 69 ad 10 dd b2 d2 8b bf
       -0.13953578780790285 -0.013585469600079407
000290 c0 ec a8 e1 3b 20 8c 3f 6b f1 29 2c a3 80 a5 bf
       0.013733356308071598 -0.04199705041989684
0002a0 30 ae 69 4f 13 2e de 3f 44 b8 b9 db 69 1e a6 bf
       0.47156222109944945 -0.04320078665919927
0002b0 5e b4 a0 2a 7f 57 b2 bf 72 16 39 08 24 1a c0 bf
       -0.07164759436337095 -0.125797752394806
0002c0 b5 39 df 70 de ff bf bf d4 04 8c b1 ed 1a c2 bf
       -0.12499799972213206 -0.1414467923096142
0002d0 25 a9 32 2c f5 89 b7 3f a6 4b 92 71 58 87 d7 3f
       0.09194881753015645 0.3676358327003818
0002e0 32 e9 ee 94 19 42 c7 bf e4 d8 c3 67 95 a0 c2 3f
       -0.18170470974093572 0.1455256230034997
0002f0 92 8a 92 2c 4d 51 c6 3f 9a 2c 21 e0 28 f6 c7 3f
       0.1743561236990741 0.18719969695880395
000300 3f c1 8d 44 8c cb c5 3f 44 8c a3 ef 32 e7 c9 3f
       0.17027428958273025 0.20236813260189213
000310 71 57 04 72 32 5e bc 3f cf 1b 1c 69 ab 4c c2 bf
       0.11081233295075578 -0.14296476967157765
000320 34 b6 3c a8 bb 71 ca bf bf fe b9 ec 70 be d3 bf
       -0.20659585680680126 -0.3084986030371332
000330 e1 c0 82 ff db 2e c2 bf f4 71 c8 b1 90 a8 e1 bf
       -0.142055034409629 -0.5518268081974029
000340 45 fd 09 72 96 09 83 bf 12 c2 09 1b 08 ed bf bf
       -0.009295630793757179 -0.12471056614027301
000350 d6 64 1a 1a 0c 6e c4 3f a7 28 07 fb c9 e2 cb 3f
       0.1596083762604283 0.2178585506174546
000360 fb 37 e9 2b f1 21 d6 bf e1 4f 61 ee e1 6a b9 3f
       -0.3458216599291288 0.09928714818789743
000370 e1 11 d6 64 48 12 ce bf e5 53 29 1d fe 8b c5 3f
       -0.23493294643061716 0.1683347360982729
000380 3b 74 61 a2 1c 0f b5 3f 71 34 e4 79 d0 a2 8c bf
       0.0822618385731894 -0.013982418746787158
000390 4f 12 cf 0c 44 02 dd bf 2d 2b 19 2b d9 fd c1 bf
       -0.4532632947050716 -0.1405593357506744
0003a0 89 36 15 41 31 b6 cd bf c8 10 da 79 43 3a ca bf
       -0.23212257078050794 -0.2049030632953246
0003b0 dc 5d af 51 82 bd 93 3f 14 19 6f cc 08 45 af 3f
       0.019277607188852616 0.06107356544048251
0003c0 5d 72 25 57 8a 43 d4 bf c1 0f a9 9b 46 f7 d3 bf
       -0.3166223383939604 -0.31196751786432847
0003d0 55 65 fc 36 71 94 8f 3f 20 18 94 c4 8e 66 d5 bf
       0.01541984986356463 -0.33438462445372075
0003e0 21 ac 84 0d 9b 30 d1 bf 40 8c 68 9f 71 df 9d bf
       -0.2685916549696135 -0.029172683100238794
0003f0 f5 24 61 69 7a 55 9d bf 24 79 1e 1f cb 33 c3 3f
       -0.02864638584313624 0.15001811046108415
000400 7d f5 b9 27 7f 87 d2 bf e2 09 39 b6 d8 82 da bf
       -0.289520062251391 -0.41423623843379975
000410 b3 d9 bc a3 c0 a4 e3 bf f6 07 35 15 78 94 da bf
       -0.6138613889696017 -0.41531183310519226
000420 44 40 82 65 ad b4 57 3f d4 b4 34 26 b7 fe a8 bf
       0.0014468854260805278 -0.048818324483684755
000430 c3 f7 99 36 fe a9 cd bf f8 f5 5c 6e b5 fc d5 bf
       -0.23175027528844624 -0.34354911592149007
000440 bf bf b0 ce 4b 11 bd 3f c6 ff d9 3f 2b 81 a4 bf
       0.11354516788628553 -0.040047980827693716
000450 e9 08 3a b6 db 70 c4 bf fe e8 94 31 26 f1 b4 bf
       -0.1596941604403306 -0.08180464468469847
000460 97 e8 8e 37 ca 2c d7 bf 09 0d b8 6a ad 7f 42 bf
       -0.3621087591706184 -0.0005645367395462907
000470 98 6f 23 d5 08 1e c9 3f 24 b4 c1 d8 2a db c6 bf
       0.19622908026837815 -0.17856345733471912
000480 fa c2 31 df 70 ef c5 3f 9d 91 2b 4b d4 ce a0 bf
       0.17136965654528763 -0.032827982116745626
000490 7b 4c 3a 23 4c 4f bb 3f 52 9b 6b 2d 46 b0 a3 bf
       0.10667873249103536 -0.03845423988769049
0004a0 9d 65 53 81 e5 f3 8c bf 15 06 60 38 15 ca af 3f
       -0.014137070664605395 0.06208864510700721
0004b0 ea 9d 73 bc bc 89 d6 bf c6 9a 4b 29 06 a1 ca bf
       -0.3521568146083768 -0.20803906456349902
0004c0 36 a7 26 92 96 63 b8 3f f7 f7 9e 19 42 9e a9 bf
       0.09526959484233263 -0.05003553927188869
0004d0 29 80 a7 cf aa 59 b3 bf 65 5c b5 35 f0 84 81 3f
       -0.07558696336445848 0.008554340971995875
0004e0 28 8f be 77 bd bd ab 3f 13 ff 8b 99 6d 72 d3 bf
       0.054181977145417115 -0.30385913843927986
0004f0 e7 da 11 8b 13 fb 58 bf 0b df 02 fb 38 11 d2 3f
       -0.0015247050144162001 0.2823011828690915
000500 7e cb 4f 93 0d 12 d7 3f a4 a2 c8 29 a8 67 c8 3f
       0.3604768694487389 0.19066335716458582
000510 09 18 ff 3b 14 54 d0 3f c6 07 65 27 e0 fe c8 3f
       0.2551317773726401 0.19527818606917274
000520 e8 df c9 c1 1c 0e ae 3f 9b 75 62 c2 e0 0d 9b bf
       0.05870141854842342 -0.02642012773923384
000530 2d 8a b0 fd 21 ad b0 3f e8 e5 43 40 36 f9 80 bf
       0.0651417965278049 -0.008287834011286813
000540 4d 03 62 12 fd 8e 89 bf b5 a9 eb 43 fc 6e cc 3f
       -0.012479760287762121 0.2221370059626914
000550 e1 58 0f 8f bf f2 c0 3f 92 f4 27 c7 a2 0f cc 3f
       0.13240808949803465 0.21922716831605676
000560 db 2f ad 6c 5e 38 bb 3f 9d 63 65 e0 42 7d 8e 3f
       0.106328870327331 0.01488735434820559
000570 4c bd 71 f2 b1 ee 90 3f 75 75 9f 9d 00 d2 d0 3f
       0.016535549566865357 0.262817529610252
000580 bc 4d e8 49 e8 2c b5 3f cb 7a 27 9c 34 64 7e bf
       0.08271648220425382 -0.0074197821690790795
000590 72 4a 01 c6 99 a3 c8 3f e8 c0 83 bb d6 da da 3f
       0.1924926964589591 0.4196068602750658
0005a0 05 d6 57 20 17 05 a2 3f 1d f6 a6 52 c4 93 b4 bf
       0.03519508619130466 -0.08037974374652675
0005b0 35 69 23 aa e1 89 d6 3f 22 c1 1c c2 da c8 cc 3f
       0.3521656190402099 0.2248795936407158
0005c0 43 6f e6 b6 fd 9a ae 3f 26 fd 2b ec 80 4d b2 bf
       0.05977623803775469 -0.07149511114038329
0005d0 9c 88 f6 12 d2 a2 b2 3f 71 67 5a 21 19 68 c5 3f
       0.07279694521870045 0.1672393238885053
0005e0 94 0c 91 ea 61 a2 ad bf 31 1a e3 67 49 44 8c bf
       -0.05787950504648012 -0.013802121622927906
0005f0 2a 63 ca 1e d4 46 cd 3f d3 70 a5 8c e6 58 be 3f
       0.22872401717611385 0.11854401525255591
